jet_by_jet_compression/split_data_training/models/AE_3D_50_bn_drop_pp0_subtrain_7.pth (torch_old, 117006 bytes, 104 tensors)

en1.weight f4 [50, 4]
0.6323304 0.096357524 2.5659416 0.21830556 0.37675443 -0.00041020595 1.7828292 -0.0034364637
0.47978616 -0.104596384 3.2761128 -0.2504778 -0.39558396 -0.057099067 -3.4599466 -0.12929021
0.58784527 -0.0062641054 2.7706642 -0.111851715 -0.09150497 0.015164036 -0.6935826 -0.16033174
-0.5378946 0.017027283 -3.502353 0.024524255 -0.07072805 0.05189678 -0.50323105 -0.8194948
0.18247683 0.0041223336 0.75328684 -0.36086428 -0.2099691 0.11981538 -1.8129239 0.101012275
-0.07546848 0.020805104 -0.7760424 -0.3378153 -0.24510108 -0.13563651 -1.6917545 -0.0056042518
-0.2631961 0.004822078 -3.369794 0.0004091224 -0.3982981 -0.082192674 -2.4492803 -0.038583037
-0.23261236 0.029241614 -1.6676741 0.069619305 -0.28927946 0.00065424084 -1.5931767 0.051545788
-0.5506709 -0.016229521 -3.0891514 0.083494365 -0.055165682 0.1313339 0.11161811 0.22655068
-0.32092065 -0.047157757 -1.7180065 0.05152937 -0.44709733 -0.041171744 0.36239332 0.254171
0.032474738 0.5220552 -0.0050435946 -0.08489809 -0.42533484 -0.093642816 -2.8009715 0.15146323
-0.62678105 0.016539041 -2.619425 0.4062808 -0.57633907 0.0092516355 -0.65854895 -0.2805045
-0.5673421 0.043480914 -2.9482937 0.021716414 -0.03468279 0.5598729 -0.0017377747 0.08506339
0.5202488 -0.002236164 4.129262 -0.10510774 0.12788819 -0.5869917 -0.0039222003 -0.21644945
-0.8494788 1.2097261 1.6737882 -0.41832736 -0.52551144 0.102952324 -3.2797198 0.059037905
0.86780316 -0.030020606 -0.14234884 0.4428132 0.60157067 0.04259308 3.4605925 -0.109048516
-0.5959847 -0.0903415 -3.3186586 0.2504117 -1.1728495 -0.0113931205 0.46241 0.40756783
-0.39538518 0.2132187 -2.415991 -0.020856656 -0.13499999 -0.004649487 -0.7063102 0.41530967
-1.2232151 0.013850775 0.057963535 -0.48214275 0.17016898 0.0072897347 0.5951952 -0.18899079
0.72050595 -0.0072937594 -0.16368465 0.5898288 -0.034816995 0.06666114 -0.8935394 -0.679794
0.36714542 -0.16793653 5.7058477 -0.13477586 -0.44515252 -0.103908986 -2.9442062 -0.14960839
-0.52620274 0.13862278 -2.6446137 0.22424386 0.9425338 0.018409219 -0.037078783 0.13567904
-0.64601326 -0.046339855 0.82092434 -0.1859376 -0.52263784 -0.035796005 -2.2236238 0.21005946
0.4024608 0.019446362 2.5639617 0.19219112 -0.061585907 -0.052464608 1.6330687 -0.24656428
0.2638966 -0.14639875 4.853118 -0.18849517 -0.64345175 0.0014109676 0.10821464 -0.2271446
00000000: 68e0 213f 1857 c53d 6338 2440 7e8b 5f3e
00000010: f5e5 c03e e910 d7b9 bf33 e43f 4b36 61bb
00000020: 88a6 f53e a136 d6bd d5ab 5140 a03e 80be
00000030: fb89 cabe b6e0 69bd c46f 5dc0 a764 04be
00000040: 077d 163f 2043 cdbb 9052 3140 8312 e5bd
00000050: f566 bbbd 9472 783c a18e 31bf 012e 24be
00000060: 76b3 09bf cd7c 8b3c 8d26 60c0 17e7 c83c
00000070: ded9 90bd b891 543d c0d3 00bf 69ca 51bf
00000080: 35db 3a3e a414 873b 68d7 403f 34c3 b8be
00000090: 2402 57be c461 f53d e40d e8bf 86df ce3d
000000a0: 388f 9abd 776f aa3c b7aa 46bf 21f6 acbe
000000b0: c7fb 7abe 4ce4 0abe 698b d8bf dfa3 b7bb
000000c0: a4c1 86be 8602 9e3b b4aa 57c0 7b7f d639
000000d0: bbed cbbe a254 a8bd 02c1 1cc0 3f09 1ebd
000000e0: ef31 6ebe 1c8c ef3c 5876 d5bf 9194 8e3d
000000f0: 701c 94be 5c81 2b3a 37ed cbbf ad21 533d
00000100: c5f8 0cbf c6f3 84bc a8b4 45c0 18ff aa3d
00000110: 69f5 61bd 657c 063e 0998 e43d e7fc 673e
00000120: b64f a4be 7e28 41bd a3e7 dbbf 7610 533d
00000130: f1e9 e4be b4a3 28bd 9e8b b93e b422 823e
00000140: 3b04 053d 69a5 053f bd44 a5bb 0ddf adbd
00000150: 7dc5 d9be cec7 bfbd 1e43 33c0 2d19 1b3e
00000160: b974 20bf e27c 873c a9a4 27c0 0904 d03e
00000170: f58a 13bf 2c94 173c aa96 28bf 499e 8fbe
00000180: 553d 11bf 0b19 323d d8b0 3cc0 9fe6 b13c
00000190: 8b0f 0ebd d553 0f3f 0bc6 e3ba b735 ae3d
000001a0: 062f 053f 9b8c 12bb ea22 8440 ba42 d7bd
000001b0: 1ff5 023e 1745 16bf cd85 80bb eda4 5dbe
000001c0: 7177 59bf 4ed8 9a3f b13e d63f 012f d6be
000001d0: eb87 06bf abd8 d23d eee6 51c0 bbd1 713d
000001e0: 5928 5e3f c6ed f5bc e5c3 11be 69b8 e23e
000001f0: 8900 1a3f 1576 2e3d 597a 5d40 d454 dfbd
00000200: 7492 18bf f704 b9bd e764 54c0 f635 803e
00000210: ef1f 96bf 36aa 3abc 01c1 ec3e bbac d03e
00000220: ed6f cabe 0156 5a3e 999f 1ac0 94db aabc
00000230: 703d 0abe b95a 98bb bfd0 34bf 78a3 d43e
00000240: 5092 9cbf 5cee 623c 2c6b 6d3d 6adb f6be
00000250: c740 2e3e bade ee3b b65e 183f cd86 41be
00000260: 1473 383f 7d00 efbb f39c 27be 05ff 163f
00000270: 449c 0ebd a385 883d 00bf 64bf fb06 2ebf
00000280: 7cfa bb3e 8ef7 2bbe 4e96 b640 af02 0abe
00000290: 08eb e3be 3cce d4bd e06d 3cc0 f132 19be
000002a0: 39b5 06bf 21f3 0d3e 5a41 29c0 2fa0 653e
000002b0: e549 713f eece 963c ecdf 17bd 72ef 0a3e
000002c0: 2061 25bf dcce 3dbd 1928 523f 6d66 3ebe
000002d0: 98cb 05bf d59e 12bd da4f 0ec0 d419 573e
000002e0: 580f ce3e fa4d 9f3c f317 2440 c0cd 443e
000002f0: 8141 7cbd 21e5 56bd 6508 d13f 597b 7cbe
00000300: 751d 873e 8ee9 15be be4c 9b40 e104 41be
00000310: 41b9 24bf 37f0 b83a a39f dd3d 9898 68be

en1.bias f4 [50]
-0.7308934 -0.53391874 -0.4877608 0.15256807 -0.8446824 1.3612968 0.51043975 -0.93132496
0.32320398 1.0388948 0.62451094 1.1666405 0.36948013 0.80683327 0.7935508 0.99479574
0.41510916 6.912506 1.166674 -1.1217638 1.7594619 0.9446495 0.28040323 0.51846975
1.1028357 -2.0916784 -0.6728199 2.8848279 1.9384822 0.9375788 1.0617046 -1.1298159
0.42066392 0.48887292 0.058551647 0.9715125 -0.29857224 1.4905223 -1.0226065 0.056186788
-0.051246896 0.7943074 0.6720434 -2.4435794 2.0700557 1.1284103 0.048713565 -0.2448441
-0.7854083 0.6272327
00000000: d41b 3bbf e6ae 08bf c9bb f9be ce3a 1c3e
00000010: 1b3d 58bf f93e ae3f 2eac 023f 506b 6ebf
00000020: fe7a a53e 81fa 843f f3df 1f3f 7a54 953f
00000030: 802c bd3e a08c 4e3f 2526 4b3f efaa 7e3f
00000040: 3089 d43e 4033 dd40 9355 953f f595 8fbf
00000050: 0c36 e13f 8dd4 713f 0391 8f3e 6fba 043f
00000060: b829 8d3f 0fde 05c0 ed3d 2cbf 05a1 3840
00000070: 2f20 f83f 2a05 703f f0e5 873f cf9d 90bf
00000080: 4361 d73e 8d4d fa3e dad3 6f3d 0bb5 783f
00000090: 76de 98be 6fc9 be3f c5e4 82bf 1e24 663d
000000a0: 44e8 51bd bb57 4b3f 090b 2c3f 9b63 1cc0
000000b0: cb7b 0440 c06f 903f e087 473d 69b8 7abe
000000c0: 8510 49bf 5292 203f

bn1.weight f4 [50]
0.00046935515 -6.202056e-05 -0.00047142708 5.94313e-05 -0.00041864262 0.13490842 0.0008360839 0.14559884
0.27722672 1.9920408e-05 0.18571196 -0.0008471243 0.00074755994 -0.00031412303 -1.03046095e-05 0.00035150573
0.0004737186 -0.022158284 -0.0004783716 0.08532481 0.49125662 0.0006112092 -5.0675306e-05 0.06484186
-0.000371396 0.38334677 0.0005552634 0.0074808598 -0.00096774317 0.0008868769 0.19228084 -0.0002905094
0.0002608891 0.044693563 0.00032678878 0.2679028 0.1542809 0.123631895 0.1093968 0.15140177
0.00061898684 -0.00045711405 -0.000337589 0.07373337 0.041015718 0.00029524748 -0.00025211496 0.06340537
-0.00013339253 0.21277535
00000000: c813 f639 0911 82b8 df29 f7b9 df45 7938
00000010: 437d dbb9 6f25 0a3e a42c 5b3a dd17 153e
00000020: a9f0 8d3e c01a a737 472b 3e3e 8d11 5eba
00000030: e6f7 433a e1b0 a4b9 f6e1 2cb7 4d4a b839
00000040: 6f5d f839 4a85 b5bc f3cd fab9 c6be ae3d
00000050: fd85 fb3e 8e39 203a 328c 54b8 cfcb 843d
00000060: edb7 c2b9 0746 c43e 198f 113a 0022 f53b
00000070: 25b0 7dba 4d7d 683a 45e5 443e 834f 98b9
00000080: f1c7 8839 9910 373d d954 ab39 8e2a 893e
00000090: d0fb 1d3e b832 fd3d 6e0b e03d 1109 1b3e
000000a0: 8143 223a cfa8 efb9 6efe b0b9 8501 973d
000000b0: 1900 283d 72cb 9a39 4c2e 84b9 adda 813d
000000c0: 49df 0bb9 c8e1 593e

bn1.bias f4 [50]
0.00055187417 -0.00037185274 -0.0015406696 -7.000881e-05 -0.00027360057 0.03997616 0.00031910554 -0.057475947
0.1261679 0.00010195495 -0.2854619 0.00024120772 -0.000819935 0.0007256504 -0.0010454134 -0.0005614369
-0.00060243247 -6.330539e-05 3.7480266e-05 0.08801381 0.02862397 -0.00082335947 -0.0016479903 0.24091002
0.0015292036 -0.254706 0.00014106088 -0.03707119 0.0014582054 -0.0006789302 0.39186552 0.000743259
0.0003985955 0.15284437 8.5630614e-05 -0.021078667 0.01094155 -0.1355246 0.45350185 -0.07134194
0.0008610876 -0.0007287568 -0.00036049527 0.011614149 -0.023083493 0.0001568134 0.001143738 -0.07188043
-0.00042859686 -0.009335408
00000000: a6ab 103a 3bf5 c2b9 4bf0 c9ba b2d1 92b8
00000010: 0c72 8fb9 0bbe 233d 9f4d a739 e66b 6bbd
00000020: 2832 013e a6d0 d538 1028 92be b4ec 7c39
00000030: e8f0 56ba 9339 3e3a 4106 89ba 642d 13ba
00000040: 8fec 1dba d3c2 84b8 2134 1d38 9640 b43d
00000050: d17c ea3c b8d6 57ba 6101 d8ba 1eb1 763e
00000060: 8f6f c83a d368 82be bee9 1339 f6d7 17bd
00000070: 4121 bf3a 3cfa 31ba 99a2 c83e 44d7 423a
00000080: 95fa d039 3c83 1c3e 9694 b338 2bad acbc
00000090: 3044 333c f6c6 0abe 6531 e83e b91b 92bd
000000a0: 9cba 613a 0a0a 3fba db00 bdb9 4649 3e3c
000000b0: 9819 bdbc 476e 2439 7be9 953a 0c36 93bd
000000c0: 4cb5 e0b9 8af3 18bc

bn1.running_mean f4 [50]
-0.16320446 -0.17072302 -0.08479835 0.024147011 -0.1745645 0.76883703 0.08280273 -0.53918487
0.21073765 0.32617545 0.38638934 0.3907829 0.06203668 0.18829231 0.2702167 0.3530187
0.07639624 0.9999976 0.38512567 -0.70925105 0.9035713 0.19249633 0.061137587 0.31865618
0.21434925 -0.94418085 -0.0927696 0.9817473 0.5614249 0.16341956 0.5583432 -0.18671145
0.072156474 0.23924914 0.013029391 0.5734143 -0.10469671 0.8283401 -0.5867178 0.052257925
-0.005141197 0.1539628 0.14529088 -0.93768775 0.8623382 0.28984118 0.012475344 -0.0836182
-0.092134625 0.42938983
00000000: 121f 27be 04d2 2ebe c2aa adbd f4cf c53c
00000010: 09c1 32be 81d2 443f 7a94 a93d 0508 0abf
00000020: 9ccb 573e 7800 a73e d3d4 c53e b214 c83e
00000030: 2c1a 7e3d b3cf 403e d859 8a3e debe b43e
00000040: a275 9c3d d8ff 7f3f 312f c53e 7a91 35bf
00000050: 7350 673f c21d 453e 686b 7a3d e726 a33e
00000060: 5f7e 5b3e d6b5 71bf fdfd bdbd cb53 7b3f
00000070: 8bb9 0f3f 7557 273e 94ef 0e3f 4931 3fbe
00000080: c6c6 933d bafd 743e 3a79 553c 48cb 123f
00000090: 3b6b d6bd 190e 543f 2333 16bf 680c 563d
000000a0: 7c77 a8bb 6da8 1d3e 22c7 143e 4e0c 70bf
000000b0: 32c2 5c3f 1066 943e 6365 4c3c 0540 abbd
000000c0: 14b1 bcbd fcd8 db3e

bn1.running_var f4 [50]
0.7481109 0.65065175 0.81820995 0.833228 0.7623614 0.0633272 0.8292153 0.16269553
0.3397934 0.5809089 0.28101358 0.51669466 0.826624 0.72991186 0.5874841 0.52527755
0.80829185 8.763999e-13 0.5261058 0.08270658 0.014909832 0.7586806 0.77870643 0.33161005
0.7590871 0.00659791 0.8529517 0.0036188348 0.45000228 0.79822785 0.21270643 0.79953504
0.8223118 0.49855644 0.7622697 0.17353551 0.53500885 0.036230914 0.23560382 0.44367716
0.89945275 0.78088266 0.762511 0.01105482 0.06328168 0.65972114 0.77561486 0.6450834
0.8748892 0.22134979
00000000: 3284 3f3f 1d91 263f 3576 513f 6e4e 553f
00000010: 1e2a 433f b1b1 813d 7447 543f a899 263e
00000020: 67f9 ad3e 72b6 143f 03e1 8f3e 1a46 043f
00000030: a19d 533f 81db 3a3f 5c65 163f 9778 063f
00000040: 37ec 4e3f 45af 762b dfae 063f 1162 a93d
00000050: 5e48 743c e438 423f 4e59 473f cbc8 a93e
00000060: 8853 423f 4833 d83b 0b5b 5a3f f929 6d3b
00000070: b366 e63e a958 4c3f b7cf 593e 54ae 4c3f
00000080: 0783 523f ca42 ff3e 1b24 433f 4bb3 313e
00000090: 57f6 083f de66 143d 2142 713e a729 e33e
000000a0: 8942 663f ede7 473f ec33 433f 471f 353c
000000b0: d399 813d 7ce3 283f b28e 463f 3024 253f
000000c0: bdf8 5f3f 85a9 623e

en2.weight f4 [50, 50]
-0.071062535 0.76523125 0.8993197 -0.49401158 0.52570474 0.28281626 -0.32249668 -0.95760787
0.7566658 -0.12222463 -0.34159055 -0.5988444 -0.15844353 0.3788806 -0.6000215 0.19513501
-0.38109505 -0.06739273 -0.76299065 0.49728596 -0.05025728 -0.034416523 -0.09837738 -0.4235494
0.16198756 0.016120426 -0.7292025 0.5042459 -0.38783243 0.64953345 -0.43209437 0.4897782
0.51589453 -0.15785334 0.4991174 -1.428722 -0.0850301 -0.1930139 0.19382036 -0.84329975
-0.23923054 -0.04995779 0.14520313 0.14145283 -0.10267978 -0.42802903 -0.13520733 0.88633305
0.17590696 -0.085348986 0.2503386 0.090045035 0.015690327 -0.79957163 0.26236373 0.37232637
-0.06256098 -1.2187946 0.81045324 -0.24225728 -0.59027416 -0.8188223 -0.25177076 0.33017543
-1.3644191 -0.14407776 -0.40287924 0.009986228 0.21025157 0.9758942 -0.0072569055 -0.3188574
-0.5106894 -0.37206516 -0.03065979 -0.0366009 -0.08396581 0.3311174 -0.51177603 -0.099875964
-0.271955 0.50496054 0.5311849 -0.2513036 -0.10451955 -1.7070401 -0.18926817 -0.11476775
-0.03342629 -0.9891177 -0.0063254395 -0.43599802 -0.43694216 0.056083914 -0.52491486 -0.3982962
-0.03387807 1.1531185 0.5020561 -0.013662218 -0.009211136 -0.4860001 0.47830033 0.2993949
0.05163951 0.10880386 -0.021543218 1.2601675 -0.79886067 -0.15964025 0.52893835 0.14957793
0.25110918 0.2539392 1.2854939 0.29154503 0.7950514 0.3931042 -0.40437767 -0.58076274
0.04205003 0.28635052 0.5994602 0.4319172 -0.14908347 -0.025537431 0.017105708 0.06510377
0.18080784 -0.14377081 0.16115631 0.3992212 0.0782989 0.11599071 -0.37636328 1.1914598
0.05592422 -0.078505255 -0.14122032 1.0217077 -0.07321446 0.2433828 0.35166335 -0.42652112
0.6212134 -0.09988565 -0.070646696 -1.3467796 0.36459008 -0.20625865 -0.7077762 -0.42531353
0.5854727 0.15342562 -0.9634893 -0.14668569 -0.43425682 1.5574323 -0.7313835 0.4484443
0.3811099 0.2606666 0.7593125 -0.0337546 0.8886061 0.0023288406 0.25110453 0.9151551
0.92571867 -0.42782465 -0.05231899 0.86018074 0.4525229 0.17219879 -0.76627624 -0.002355313
0.19603434 -0.08428421 1.5879918 0.34720677 0.31398854 0.081831485 0.07861973 0.2541558
-0.91354316 1.5550159 0.13728952 0.20926641 -0.24812393 0.85025805 -0.115728356 0.11906334
0.47516653 0.3702173 0.48862076 0.19678816 -0.09970475 -1.0428735 -0.23151824 0.0124820545
0.01525689 0.17066723 -0.01951535 -0.19253114 -0.018077347 0.08469364 -0.025051681 0.684914
-1.1268295 -0.1744154 0.5287561 -0.18418005 0.5081008 -0.39535147 0.67003566 -0.003947387
0.018256422 -0.24961016 0.3598311 -0.7026684 0.20100407 -0.04630805 -0.21243842 0.89390236
0.18923736 -0.094873354 0.25411 0.16666515 -0.1695972 -0.18064924 0.22877501 0.028720109
0.18493044 0.08693002 0.23100293 1.5997272 0.28733692 -0.06998117 0.17130882 1.050689
-0.3011157 -0.08040796 0.050824914 -0.50492626 0.067606404 -0.09740031 0.31602696 -0.9972505
-0.8142887 0.18110506 0.051616315 -0.003131863 -0.06905458 0.03281991 0.05551982 -0.22587937
00000000: 3c89 91bd 32e6 433f d139 663f 16ef fcbe
00000010: 9694 063f 4bcd 903e 491e a5be ca25 75bf
00000020: dab4 413f e850 fabd f5e4 aebe de4d 19bf
00000030: 053f 22be a3fc c13e 029b 19bf 79d1 473e
00000040: e41e c3be 3305 8abd 5b53 43bf 449c fe3e
00000050: 94da 4dbd 57f8 0cbd 147a c9bd 78db d8be
00000060: 11e0 253e fc0e 843c 04ad 3abf 4216 013f
00000070: f991 c6be d347 263f 793b ddbe 35c4 fa3e
00000080: aa11 043f 4ea4 21be 518c ff3e 5de0 b6bf
00000090: 4324 aebd 70a5 45be d878 463e 7ee2 57bf
000000a0: daf8 74be 8aa0 4cbd 21b0 143e 03d9 103e
000000b0: c749 d2bd 9f26 dbbe ca73 0abe b9e6 623f
000000c0: f420 343e 73cb aebd 622c 803e 8869 b83d
000000d0: 0089 803c bab0 4cbf 8a54 863e 90a1 be3e
000000e0: f91f 80bd 7601 9cbf dd79 4f3f 4b12 78be
000000f0: 351c 17bf 579e 51bf 19e8 80be c10c a93e
00000100: 49a5 aebf 1f89 13be 3046 cebe 479d 233c
00000110: 304c 573e 34d4 793f 56cb edbb 4741 a3be
00000120: 8abc 02bf 537f bebe 3d2a fbbc d3ea 15bd
00000130: 44f6 abbd 3888 a93e c103 03bf c58b ccbd
00000140: b03d 8bbe 1845 013f bcfb 073f deaa 80be
00000150: 590e d6bd 4a80 dabf 84cf 41be 5b0b ebbd
00000160: 01ea 08bd d136 7dbf a245 cfbb 223b dfbe
00000170: e2b6 dfbe 3fb8 653d d260 06bf 7bed cbbe
00000180: bbc3 0abd 6399 933f c086 003f 7fd7 5fbc
00000190: 4eea 16bc 01d5 f8be c8e3 f43e 4a4a 993e
000001a0: f383 533d 8fd4 de3d 677b b0bc 2b4d a13f
000001b0: 2282 4cbf bc78 23be 8168 073f f52a 193e
000001c0: 6291 803e 5204 823e 108b a43f 6445 953e
000001d0: 7d88 4b3f f444 c93e 970a cfbe deac 14bf
000001e0: a73c 2c3d 899c 923e 3976 193f 4024 dd3e
000001f0: 56a9 18be e033 d1bc 4521 8c3c 2055 853d
00000200: b125 393e a838 13be 2906 253e b966 cc3e
00000210: 2c5b a03d 8a8c ed3d b0b2 c0be c181 983f
00000220: cb10 653d 5dc7 a0bd 0f9c 10be 51c7 823f
00000230: 76f1 95bd 5739 793e 380d b43e fa60 dabe
00000240: d707 1f3f d990 ccbd 37af 90bd 4663 acbf
00000250: 8dab ba3e 7835 53be d230 35bf b2c2 d9be
00000260: 8ae1 153f 9b1b 1d3e 3ca7 76bf c634 16be
00000270: e956 debe f159 c73f f33b 3bbf 7e9a e53e
00000280: d620 c33e 1876 853e 4e62 423f 4342 0abd
00000290: b07b 633f 769f 183b c690 803e 9b47 6a3f
000002a0: e6fb 6c3f d50b dbbe 704c 56bd ce34 5c3f
000002b0: 15b1 e73e e154 303e ae2a 44bf 985b 1abb
000002c0: 3abd 483e 339d acbd 5143 cb3f 16c5 b13e
000002d0: 1bc3 a03e 4497 a73d 6203 a13d b620 823e
000002e0: f7dd 69bf c30a c73f a095 0c3e ef49 563e
000002f0: 3314 7ebe 83aa 593f fd02 edbd 7bd7 f33d
00000300: 0749 f33e 1f8d bd3e 802c fa3e d682 493e
00000310: 0132 ccbd e17c 85bf 1e13 6dbe 8881 4c3c
00000320: 09f8 793c 64c3 2e3e a8de 9fbc e226 45be
00000330: f216 94bc dc73 ad3d 2f39 cdbc 8656 2f3f
00000340: f33b 90bf f399 32be 8f5c 073f b299 3cbe
00000350: e512 023f 826b cabe 7587 2b3f 1559 81bb
00000360: 7e8e 953c ce99 7fbe c83b b83e 14e2 33bf
00000370: 03d4 4d3e 83ad 3dbd 7589 59be c9d6 643f
00000380: 70c7 413e f64c c2bd b51a 823e 45aa 2a3e
00000390: e3aa 2dbe 1dfc 38be ff43 6a3e 6f46 eb3c
000003a0: 685e 3d3e 5e08 b23d 088c 6c3e dcc3 cc3f
000003b0: d31d 933e 4a52 8fbd 946b 2f3e fa7c 863f
000003c0: d62b 9abe eeac a4bd c92d 503d d942 01bf
000003d0: 3a75 8a3d d079 c7bd 49ce a13e cf4b 7fbf
000003e0: 3975 50bf 9b73 393e a16b 533d f13f 4dbb
000003f0: 7d6c 8dbd 2c6e 063d c068 633d ec4c 67be

en2.bias f4 [50]
-0.24654414 0.0060601775 0.4181652 0.33273223 0.6366429 -1.0638248 -0.1550509 -1.7572068
0.53470534 -1.0235105 -1.5839889 0.6043514 -2.0115697 0.2852501 0.47514746 1.608429
-0.8559693 1.0061672 -0.71532774 1.4132798 -1.0317706 -0.07565192 -0.26510176 0.2757835
-0.25128645 -0.30853277 0.122185506 0.40593123 0.3058138 -0.27689826 0.18006842 -3.3759089
-1.1349657 0.028906213 -2.779928 0.28618234 1.4711244 0.04786157 -0.048010398 1.561973
0.8502365 0.76809275 0.11362531 -0.031491477 0.065775044 0.26390642 -0.32482657 -0.074663475
0.20895758 0.94224006
00000000: 1176 7cbe 7494 c63b c019 d63e e15b aa3e
00000010: 07fb 223f 692b 88bf aac5 1ebe 27ec e0bf
00000020: 73e2 083f 6402 83bf 26c0 cabf c6b6 1a3f
00000030: 8fbd 00c0 4d0c 923e 8746 f33e 00e1 cd3f
00000040: ce20 5bbf 16ca 803f b81f 37bf 5ae6 b43f
00000050: 0f11 84bf 65ef 9abd 6bbb 87be 7f33 8d3e
00000060: 9ea8 80be 02f8 9dbe 653c fa3d 38d6 cf3e
00000070: a093 9c3e 9cc5 8dbe db63 383e e40e 58c0
00000080: 8e46 91bf b9cc ec3c 57ea 31c0 7e86 923e
00000090: ce4d bc3f 7e0a 443d 8da6 44bd bbee c73f
000000a0: 19a9 593f baa1 443f 63b4 e83d 35fd 00bd
000000b0: 11b5 863d be1e 873e ab4f a6be 2ae9 98bd
000000c0: faf8 553e a536 713f

bn2.weight f4 [50]
-0.00018286743 -0.00025082755 -8.6257896e-05 0.00028091363 0.00012097561 0.018495537 0.043437265 0.055244595
-8.8112516e-05 0.04427874 0.047636043 -0.0002194346 0.18921368 -0.00023042319 -0.000107227184 0.13169745
0.12606122 -0.000102817125 0.0003961094 0.0014097873 0.19207257 0.00020699718 -0.00012070803 -8.636878e-05
-0.00011335794 -6.505601e-05 0.00015098351 0.09405842 9.472314e-05 -0.0004986412 0.00031786726 0.0918821
3.7593527e-05 0.00010043869 0.1455661 0.00016752914 0.12123932 -4.9665276e-05 0.0001845905 0.18566218
0.000130818 2.4473224e-05 0.110682614 0.039104655 -4.7999463e-05 -0.000108194785 -4.7377645e-05 0.14640294
-0.00012181296 -0.00016622078
00000000: 1ac0 3fb9 8181 83b9 5be5 b4b8 9747 9339
00000010: 49b4 fd38 f483 973c 46eb 313d 2848 623d
00000020: 0cc9 b8b8 a05d 353d 031e 433d 0718 66b9
00000030: 3bc1 413e c19d 71b9 28df e0b8 b2db 063e
00000040: 3116 013e 869f d7b8 e7ac cf39 9dc8 b83a
00000050: acae 443e 620d 5939 a124 fdb8 e320 b5b8
00000060: 95ba edb8 ae6e 88b8 5451 1e39 b3a1 c03d
00000070: 19a6 c638 3fb7 02ba 6ca7 a639 af2c bc3d
00000080: bead 1d38 9ca2 d238 480f 153e c3aa 2f39
00000090: 524c f83d af4f 50b8 a38e 4139 3a1e 3e3e
000000a0: 312c 0939 d94b cd37 91ad e23d 342c 203d
000000b0: 0853 49b8 a2e6 e2b8 5cb7 46b8 a7ea 153e
000000c0: d675 ffb8 8d4b 2eb9

bn2.bias f4 [50]
0.00038328758 -0.00012324823 0.00018956506 0.00040576604 -0.00032707254 0.24829502 0.072814755 0.1108506
-6.307103e-05 0.27248275 0.20160964 0.0011140022 0.10654414 0.0006128488 0.00046428246 0.10151866
0.22059888 -0.00081159594 -0.0008602619 0.0019724618 0.3108073 -0.00076883053 -0.00047765023 0.00049123506
0.00026719505 0.00021651223 -0.00014412393 -0.13583088 0.0003152279 -0.0003530504 -0.00029150868 0.0049367417
-0.00040712382 -0.00041834774 -0.2139282 -0.0005053346 -0.625873 0.00047422718 0.00017053373 0.06577842
4.2147276e-05 0.000936076 -0.05060241 -0.04497426 0.00056368444 -0.0003598132 0.00023180133 0.028380876
-0.0018717442 0.001324762
00000000: fdf3 c839 323c 01b9 fcc5 4639 ffbc d439
00000010: ef7a abb9 0d41 7e3e e71f 953d a405 e33d
00000020: 0045 84b8 dc82 8b3e c272 4e3e b603 923a
00000030: d033 da3d 96a7 203a f06a f339 04e9 cf3d
00000040: ace4 613e 48c1 54ba 3383 61ba 6b44 013b
00000050: 2222 9f3e 588b 49ba 216d fab9 3ac6 003a
00000060: 5016 8c39 8f07 6339 f91f 17b9 4017 0bbe
00000070: 2c45 a539 9f19 b9b9 a2d5 98b9 64c4 a13b
00000080: 3c73 d5b9 af55 dbb9 fe0f 5bbe 6e78 04ba
00000090: 3739 20bf b2a1 f839 4dd1 3239 d6b6 863d
000000a0: 4bc7 3038 ff62 753a 7944 4fbd ee36 38bd
000000b0: 39c4 133a 4fa5 bcb9 b20f 7339 037f e83c
000000c0: 5055 f5ba a3a3 ad3a

bn2.running_mean f4 [50]
-0.09346158 0.10337985 0.10460199 0.042836476 0.32488066 -0.65838426 0.55956554 -0.8710866
0.2571716 -0.9126357 -0.96143943 0.20524944 -0.91009635 0.107420295 0.22141221 0.958847
-0.71445394 0.8936862 -0.42672116 0.9592887 -0.7028397 0.057583675 -0.30138057 -0.058602836
0.16296676 -0.44827688 0.027210493 0.6940168 0.11746029 -0.1255038 0.33431172 -0.99996054
-0.8666859 -0.25015298 -0.99679756 -0.05762256 0.8500843 -0.038255706 0.17159285 0.9006461
0.6787955 0.51624644 0.21128091 -0.23607875 0.1803435 0.07844932 -0.34173948 -0.1682708
-0.12664995 0.88833165
00000000: c968 bfbd d1b8 d33d 9139 d63d 4d75 2f3d
00000010: c256 a63e df8b 28bf b03f 0f3f 88ff 5ebf
00000020: ffab 833e 7ea2 69bf e520 76bf e92c 523e
00000030: 13fc 68bf 2cff db3d e2b9 623e ff76 753f
00000040: 74e6 36bf 9ec8 643f 327b dabe f293 753f
00000050: 4ded 33bf dcdc 6b3d 8e4e 9abe 8709 70bd
00000060: c2e0 263e 8c84 e5be 8ae8 de3c 16ab 313f
00000070: 058f f03d 1184 00be e82a ab3e 6afd 7fbf
00000080: 21df 5dbf 0d14 80be 202e 7fbf a205 6cbd
00000090: 209f 593f 04b2 1cbd 09b6 2f3e be90 663f
000000a0: 8bc5 2d3f ba28 043f 065a 583e a1be 71be
000000b0: f7ab 383e 09aa a03d 7af8 aebe 2e4f 2cbe
000000c0: 86b0 01be b469 633f

bn2.running_var f4 [50]
0.38653675 0.44981906 0.45149854 0.4302809 0.44526777 0.0790079 0.038300157 0.031018846
0.49470994 0.008890884 0.0031910096 0.3680561 0.005836482 0.41788957 0.40057367 0.0019175097
0.08808967 0.028539758 0.34285185 0.004550854 0.041295525 0.43020308 0.29765147 0.5358832
0.35700846 0.24295154 0.4403722 0.058468428 0.34589928 0.4205988 0.30707434 1.4998236e-09
0.018883286 0.35356924 1.760538e-05 0.3326948 0.02484853 0.42757413 0.34771043 0.010452049
0.11036901 0.25319296 0.26405358 0.22570272 0.34727624 0.4456008 0.25796902 0.22702518
0.4167218 0.020044377
00000000: 25e8 c53e af4e e63e d12a e73e c74d dc3e
00000010: 23fa e33e e5ce a13d a0e0 1c3d 3c1b fe3c
00000020: 9f4a fd3e 12ab 113c 4220 513b d971 bc3e
00000030: f63f bf3b 9ff5 d53e fe17 cd3e f354 fb3a
00000040: 5b68 b43d 36cc e93c 478a af3e 551f 953b
00000050: 7f25 293d 9443 dc3e c665 983e a42f 093f
00000060: d0c9 b63e 4ac8 783e 7778 e13e 977c 6f3d
00000070: b619 b13e ba58 d73e d938 9d3e 5a22 ce30
00000080: 1fb1 9a3c 0707 b53e 44af 9337 f956 aa3e
00000090: 258f cb3c ffea da3e 1a07 b23e 123f 2b3c
000000a0: 2609 e23d 82a2 813e 0832 873e 9d1e 673e
000000b0: 31ce b13e ca25 e43e 8414 843e 4a79 683e
000000c0: 8f5c d53e 1b34 a43c

en3.weight f4 [20, 50]
0.14848207 0.15742129 0.32020107 0.005116172 0.4486869 0.3375252 -0.58945274 -0.8368629
0.03519417 0.8831041 0.6137075 0.0069646332 0.11093971 0.321515 0.2027632 -0.99127156
-0.5849384 0.46522868 -0.5942461 0.11741802 0.16887134 -0.7322576 0.24946362 0.18676065
0.06152406 0.048049565 0.75434875 -0.093857616 0.20044383 -0.1394511 -0.08868563 -0.24900515
0.37565598 0.072880425 0.049812984 0.28305703 0.10843976 0.19477853 -0.8827776 1.3552697
-0.23006874 0.29377484 -0.08252047 -0.023212789 0.24772185 0.40251195 0.7286481 0.016634515
0.05067686 -0.2457462 -0.0007817934 -0.0005880603 0.00017507946 0.0004888658 -0.0019020123 -0.14975516
0.09962104 0.0039609773 -0.00043051635 0.03936574 0.013925601 0.0024529651 0.021078516 0.00054133893
0.0014906211 0.087696746 0.13048548 -0.017610319 -0.001012669 -0.0055772327 0.046844095 -0.0005384759
0.00063100137 -0.0003292968 0.00066272 0.0011682124 -0.0011602001 -2.9503722 -0.00063967187 -0.0002919895
0.0012162585 -0.44456103 0.0011570702 -0.0005487729 1.0116972 -4.8311707e-05 0.63608295 0.0008736015
-0.00016295418 0.063365944 -0.00069860264 -0.0011793914 -0.1156144 -0.056954425 0.0013808621 -0.00067766407
-0.00067633635 -0.005338575 -0.00021334956 -0.015952706 -0.26820937 -0.46839845 -0.17102595 -0.2493032
0.038974866 -1.2904944 -2.0796962 -1.6235793 -0.13846453 -1.9705846 0.32776743 0.31785858
-0.15113011 0.11920314 -0.113890424 -0.9835472 -0.36696646 0.19793811 -0.15201578 0.7474016
-0.64713293 0.39161965 -0.28064358 -0.14095803 -0.4567195 0.18340334 -0.18202978 0.72739565
-0.17060669 0.1749979 -0.31626052 0.20727025 -0.20342334 0.18373804 0.7973892 -0.37128577
1.0300244 0.37726325 0.117648676 -0.21476583 -0.61015815 0.1417472 -0.12487396 0.4955679
-0.06788042 -0.0099400375 0.029954683 0.3418452 -0.31138387 -0.45827264 0.35587576 -0.005024124
0.26901728 -0.21860084 0.58698165 0.37627387 -0.18509297 -0.7890627 0.008069195 0.73883307
1.0458835 -0.50915563 0.1921842 0.45156178 0.39903048 -0.7440927 0.12831084 0.5885101
-0.3742613 0.395354 -0.2166125 -0.7631506 0.17040774 -0.18884502 0.23207486 0.1125079
0.11717004 -0.02591013 0.24578175 -0.7464576 -0.15955861 -0.0941045 0.12530313 0.6284568
-0.27279875 0.049457032 0.22846802 0.016503975 0.46744248 1.820702 -0.53814346 -0.47525144
-0.4018302 -0.2585957 0.30761406 0.20627409 0.4492708 0.15646024 -0.3114052 -0.021845883
0.0030631686 0.015297585 -0.014083703 0.007226708 -0.0035472289 0.012646998 0.19192891 -0.4650477
-0.0037994327 -0.055692885 2.1866987 -0.003045813 -0.21455683 -0.018058525 -0.009093054 -1.3322148
1.4218991 0.010935113 0.0056412555 0.009266825 -0.12265149 -0.0035412235 -0.006336886 -0.0029931278
0.0068183914 0.006786012 0.009401504 0.00035939793 0.00012656725 0.019231623 -0.025327351 -0.17359449
-0.009694273 0.0012119178 -0.09955761 0.010165239 -0.09055689 0.0009051849 -0.012641114 1.2364783
-0.0037239841 -0.0023879863 -0.7875353 -0.31921017 -0.00014622611 -0.008202676 -0.0066473633 -0.091034904
0.021941382 -0.013874749 0.016025668 0.016544241 -0.015971614 -0.0012647553 0.034642573 -2.0775783
00000000: af0b 183e 0c33 213e 65f1 a33e 90a5 a73b
00000010: 4aba e53e 1ad0 ac3e 60e6 16bf a63c 56bf
00000020: c327 103d 1c13 623f ef1b 1d3f 9437 e43b
00000030: 5c34 e33d 9d9d a43e 28a1 4f3e f9c3 7dbf
00000040: 86be 15bf 7432 ee3e 8320 18bf dc78 f03d
00000050: 9cec 2c3e 3c75 3bbf 6473 7f3e 2f3e 3f3e
00000060: a700 7c3d 9fcf 443d 001d 413f 6c38 c0bd
00000070: 2641 4d3e 45cc 0ebe d0a0 b5bd 35fb 7ebe
00000080: fb55 c03e 5542 953d b308 4c3d daec 903e
00000090: aa15 de3d 0674 473e b6fd 61bf 7a79 ad3f
000000a0: 2497 6bbe a869 963e 7e00 a9bd bf28 bebc
000000b0: ccaa 7d3e 0c16 ce3e af88 3a3f 1b45 883c
000000c0: 8a92 4f3d e4a4 7bbe 44f1 4cba 0f28 1aba
000000d0: 8995 3739 3a27 003a f14c f9ba 6b59 19be
000000e0: 1e06 cc3d 16cb 813b edb6 e1b9 f83d 213d
000000f0: 3428 643c edc1 203b daac ac3c a4e8 0d3a
00000100: f260 c33a 5a9a b33d fc9d 053e 8443 90bc
00000110: 88bb 84ba 38c1 b6bb 98df 3f3d 8228 0dba
00000120: c969 253a 78a5 acb9 63ba 2d3a b41e 993a
00000130: db11 98ba e6d2 3cc0 a7af 27ba 2b16 99b9
00000140: dd6a 9f3a 819d e3be d5a8 973a 87db 0fba
00000150: 4b7f 813f 4da2 4ab8 55d6 223f 6702 653a
00000160: aede 2ab9 01c6 813d 6e22 37ba cf95 9aba
00000170: 3ec7 ecbd 0b49 69bd 0bfe b43a 44a5 31ba
00000180: 2a4c 31ba 37ef aebb 96b6 5fb9 40af 82bc
00000190: bd52 89be ecd1 efbe 6d21 2fbe 5749 7fbe
000001a0: 1ca4 1f3d ec2e a5bf be19 05c0 72d1 cfbf
000001b0: a5c9 0dbe 1e3c fcbf 22d1 a73e 5cbe a23e
000001c0: dac1 1abe c720 f43d 623f e9bd c0c9 7bbf
000001d0: 07e3 bbbe 4ab0 4a3e 06aa 1bbe b655 3f3f
000001e0: 81aa 25bf 5f82 c83e 84b0 8fbe 4d57 10be
000001f0: 23d7 e9be 16ce 3b3e 0466 3abe 9a36 3a3f
00000200: 85b3 2ebe a632 333e e6ec a1be a73e 543e
00000210: 354e 50be d325 3c3e b321 4c3f 2b19 bebe
00000220: d7d7 833f a628 c13e caf1 f03d 93eb 5bbe
00000230: 5333 1cbf 2e26 113e ebbd ffbd 13bb fd3e
00000240: e404 8bbd 8adb 22bc 8663 f53c 5606 af3e
00000250: b56d 9fbe b6a2 eabe 5935 b63e 68a1 a4bb
00000260: a2bc 893e e6d8 5fbe 6e44 163f f8a6 c03e
00000270: 0389 3dbe 0300 4abf a834 043c 2a24 3d3f
00000280: 83df 853f 0658 02bf efcb 443e 1b33 e73e
00000290: b94d cc3e dc7c 3ebf eb63 033e 99a8 163f
000002a0: 2d9f bfbe d76b ca3e abcf 5dbe d65d 43bf
000002b0: 5e7f 2e3e 9760 41be 08a5 6d3e 8b6a e63d
000002c0: d9f6 ef3d 7b41 d4bc 36ae 7b3e d817 3fbf
000002d0: 5563 23be dcb9 c0bd 774f 003e 8be2 203f
000002e0: 47ac 8bbe 7593 4a3d 85f3 693e 5833 873c
000002f0: 9f54 ef3e c30c e93f c5c3 09bf 2854 f3be
00000300: b0bc cdbe a866 84be 977f 9d3e 8439 533e
00000310: d306 e63e 1d37 203e 8170 9fbe 23f6 b2bc
00000320: 71bf 483b b9a2 7a3c 55bf 66bc 05ce ec3b
00000330: a078 68bb 5b35 4f3c 0389 443e bb1a eebe
00000340: e7ff 78bb 391e 64bd dff2 0b40 439c 47bb
00000350: c9b4 5bbe 79ef 93bc 08fb 14bc 0486 aabf
00000360: ca00 b63f 3029 333c 48da b83b e2d3 173c
00000370: b430 fbbd df13 68bb a7a5 cfbb 5a28 44bb
00000380: d06c df3b 325d de3b c408 1a3c 936d bc39
00000390: 23b7 0439 a38b 9d3c 4e7b cfbc c1c2 31be
000003a0: bad4 1ebc 37d9 9e3a dce4 cbbd 1a8c 263c
000003b0: e475 b9bd ee49 6d3a ad1c 4fbc ec44 9e3f
000003c0: 160e 74bb c37f 1cbb ea9b 49bf 846f a3be
000003d0: 4654 19b9 8464 06bc 20d2 d9bb 8270 babd
000003e0: 6abe b33c ea52 63bc 4348 833c ca87 873c
000003f0: e7d6 82bc 25c6 a5ba 5fe5 0d3d 0bf7 04c0

en3.bias f4 [20]
1.0708508 1.8568269 -3.5080776 1.3106728 2.4022121 -1.8152028 0.4805417 3.1589901
0.639949 0.062287297 -0.7136779 0.07052428 0.43147415 0.5381686 1.2150936 -0.13593137
-0.15192969 -0.43018812 -0.6315072 -2.008524
00000000: a411 893f 81ac ed3f 5884 60c0 20c4 a73f
00000010: d8bd 1940 9158 e8bf 9009 f63e e52c 4a40
00000020: b3d3 233f f720 7f3d 98b3 36bf 096f 903d
00000030: 2eea dc3e 6bc5 093f 3088 9b3f 9831 0bbe
00000040: 7593 1bbe 9e41 dcbe 75aa 21bf a88b 00c0

bn3.weight f4 [20]
0.0002931249 0.061433803 0.0072253468 -0.00014567873 0.15956053 0.08689736 -0.00036980424 3.4836565e-05
0.059778497 0.10896074 0.04795961 -1.9149053e-05 0.15819624 -0.0005092645 0.07370952 0.1794463
0.0145573225 0.12794806 0.2958615 -0.0005906194
00000000: 8fae 9939 03a2 7b3d 9ac2 ec3b 56c1 18b9
00000010: d663 233e 3ef7 b13d 49e2 c1b9 7a1d 1238
00000020: 4cda 743d cf26 df3d 4c71 443d 47a2 a0b7
00000030: 32fe 213e 2980 05ba 04f5 963d c5c0 373e
00000040: d681 6e3c d104 033e 297b 973e ccd3 1aba

bn3.bias f4 [20]
-0.0026948303 -0.44663095 -5.037019e-05 -0.004178241 -0.03852694 -0.017393297 0.0027924173 0.00028482257
0.105680555 0.012206059 0.1840739 0.0009657102 0.3711707 -0.0038923314 -0.27573872 0.009515316
0.1137749 0.11339548 -0.047836788 -0.002259319
00000000: c09b 30bb d0ac e4be 9444 53b8 a0e9 88bb
00000010: 6dce 1dbd 637c 8ebc fd00 373b 3d54 9539
00000020: 0c6f d83d ecfb 473c de7d 3c3e b727 7d3a
00000030: 160a be3e 7c16 7fbb a02d 8dbe 21e6 1b3c
00000040: d102 e93d e43b e83d 82f0 43bd 1511 14bb

bn3.running_mean f4 [20]
0.81398207 0.91147274 -0.9999831 0.8956522 0.9914594 -0.99978316 0.6243001 0.99980253
0.74262094 0.15627679 -0.6068427 0.16586272 0.9579246 0.5805258 0.7076778 -0.40067047
-0.13476081 -0.6205973 -0.53924507 -0.9437557
00000000: 2161 503f 4756 693f e4fe 7fbf 7649 653f
00000010: 49d0 7d3f caf1 7fbf 22d2 1f3f 0ff3 7f3f
00000020: 681c 3e3f 0607 203e 0b5a 1bbf ebd7 293e
00000030: 8c3a 753f 579d 143f 5f2a 353f ae24 cdbe
00000040: bdfe 09be 77df 1ebf f70b 0abf f999 71bf

bn3.running_var f4 [20]
0.016861496 0.003650524 1.2590562e-10 0.011445697 8.662864e-05 3.2000628e-08 0.042955067 1.2069052e-08
0.033121146 0.06325797 0.024965104 0.07365352 0.0010173026 0.0303502 0.021701625 0.08071821
0.066715024 0.03936483 0.037824936 0.004953849
00000000: 1f21 8a3c a13d 6f3b 486f 0a2f bc86 3b3c
00000010: 66ac b538 1071 0933 a7f1 2f3d 4158 4f32
00000020: 0aaa 073d 658d 813d 9e83 cc3c a8d7 963d
00000030: 0357 853a fca0 f83c 9bc7 b13c 974f a53d
00000040: e3a1 883d 043d 213d 52ee 1a3d e653 a23b

en4.weight f4 [3, 20]
-0.00059699954 0.0006142692 0.00094927754 -0.0014603483 0.17562048 0.012676617 0.00077960256 -0.00076262886
0.15506208 -0.2564829 0.20851626 0.0011348278 -0.0064751394 -0.0017497364 -0.03000713 0.21000123
-0.16446264 0.27264437 -0.3968049 0.001009002 -0.00062360475 -0.011617979 0.0010318545 -0.0029651504
0.31840378 0.0009172982 0.0010442623 9.072974e-05 0.2652367 0.18225382 0.05394861 0.0003874412
0.012925114 1.8563169e-05 -0.3330543 0.31766087 0.0992378 -0.17372456 0.29182184 0.0015179134
0.00014591221 1.6728791 0.013688557 0.0011743412 -0.013517501 0.6610733 -0.0008685992 -0.00010440238
-0.044175524 -0.03146581 -0.037002966 1.076564e-05 -1.090052 0.0052413954 0.022862233 0.105239764
-0.01920647 0.0072907754 0.02001696 0.0005752169
00000000: f67f 1cba e806 213a f0d8 783a 2869 bfba
00000010: dbd5 333e 96b1 4f3c 3e5e 4c3a 28eb 47ba
00000020: 98c8 1e3e ba51 83be 4985 553e 81be 943a
00000030: 682d d4bb 6957 e5ba 83d1 f5bc 900a 573e
00000040: e568 28be 0b98 8b3e 032a cbbe 7d40 843a
00000050: 6879 23ba 5659 3ebc 4b3f 873a f852 42bb
00000060: d205 a33e d776 703a a1df 883a 2946 be38
00000070: 1bcd 873e bfa0 3a3e 38f9 5c3d 7a21 cb39
00000080: dbc3 533c 1ab8 9b37 1886 aabe 72a4 a23e
00000090: 303d cb3d dae4 31be ac69 953e b9f4 c63a
000000a0: 0300 1939 e720 d63f f845 603c 5aec 993a
000000b0: 8278 5dbc 1a3c 293f b5b2 63ba 9af2 dab8
000000c0: 65f1 34bd 4be2 00bd 6c90 17bd 129e 3437
000000d0: d386 8bbf 03c0 ab3b 9449 bb3c f287 d73d
000000e0: e356 9dbc 75e7 ee3b 9cfa a33c 27ca 163a

en4.bias f4 [3]
0.30798393 0.2184913 -0.51997304
00000000: 12b0 9d3e 2fbc 5f3e f41c 05bf

bn5.weight f4 [3]
0.67229754 0.67317647 0.39242625
00000000: b11b 2c3f 4b55 2c3f 18ec c83e

bn5.bias f4 [3]
-0.16410369 -0.09597471 -0.34541926
00000000: cc0a 28be 648e c4bd cbda b0be

bn5.running_mean f4 [3]
0.35993344 0.30709133 -0.9263584
00000000: 3249 b83e 133b 9d3e d325 6dbf

bn5.running_var f4 [3]
0.030259572 0.029289996 0.0016731196
00000000: ece2 f73c 93f1 ef3c 944c db3a

de1.weight f4 [20, 3]
-0.46917877 -0.551921 -0.48931172 -0.30973524 -0.7033274 1.7033246 -0.044765655 -0.034187905
1.8456693 0.5495355 -0.38911295 0.12173925 -0.37104523 -0.4553414 -0.78685886 -0.21626358
-0.20446324 1.0203521 0.5396999 0.7435122 -0.66502625 -0.65793896 -0.88105005 0.1372384
0.90898764 -0.55251753 0.3534139 0.8909144 0.010679728 0.28089097 0.006391312 0.8494638
0.36308253 -0.28641897 0.26700607 -1.2587075 0.4540785 0.059541635 -3.125902 -0.7205561
-0.8383945 0.047669765 0.38525373 0.45100528 -1.0580661 0.48995137 0.6247134 1.0639786
-0.48548976 0.30631244 0.16382322 0.028862873 0.19782239 -1.1925889 -0.6929461 -0.28245446
0.2903407 -0.9554904 0.7061974 0.25927624
00000000: 3338 f0be b24a 0dbf 1187 fabe 9e95 9ebe
00000010: 440d 34bf 8a06 da3f 315c 37bd 9e08 0cbd
00000020: e43e ec3f 5cae 0c3f d039 c7be 6e52 f93d
00000030: a4f9 bdbe 8222 e9be 956f 49bf 3374 5dbe
00000040: d05e 51be e69a 823f c629 0a3f d156 3e3f
00000050: 293f 2abf b06e 28bf 7f8c 61bf 3988 0c3e
00000060: 6ab3 683f ca71 0dbf abf2 b43e f712 643f
00000070: 07fa 2e3c f1d0 8f3e 366e d13b 7676 593f
00000080: f4e5 b93e 82a5 92be 05b5 883e 541d a1bf
00000090: fa7c e83e eee1 733d c70e 48c0 5d76 38bf
000000a0: 06a1 56bf 5f41 433d fa3f c53e 2aea e63e
000000b0: b66e 87bf e8da fa3e 38ed 1f3f 7330 883f
000000c0: 1d92 f8be fcd4 9c3e 46c1 273e d571 ec3c
000000d0: f491 4a3e c1a6 98bf ea64 31bf df9d 90be
000000e0: 89a7 943e 059b 74bf 5ac9 343f dbbf 843e

de1.bias f4 [20]
-1.2164803 -2.4292672 1.7039441 -1.0874281 1.4302016 -1.3637458 2.0679727 2.579925
0.3878204 -1.4234679 -1.8265749 -0.60692585 4.0779533 -2.8958044 1.5836849 -2.098633
-1.1949931 0.7608525 1.0574679 0.32330912
00000000: a0b5 9bbf 1d79 1bc0 d71a da3f d830 8bbf
00000010: d910 b73f 398f aebf aa59 0440 7e1d 2540
00000020: 6590 c63e 3234 b6bf 35cd e9bf 7e5f 1bbf
00000030: 987e 8240 dc54 39c0 30b6 ca3f 0150 06c0
00000040: 89f5 98bf 3bc7 423f 1c5b 873f c688 a53e

bn6.weight f4 [20]
0.22967492 0.0073365457 0.44983763 0.35968766 0.22917844 0.07468794 0.05765359 0.6247704
0.22493193 0.2946255 0.1782229 0.15802415 0.1038978 0.35885704 -0.008481693 0.069646694
0.41592613 0.12910701 0.06959552 0.43760085
00000000: e72f 6b3e 6867 f03b 1e51 e63e fb28 b83e
00000010: c1ad 6a3e fef5 983d 2c26 6c3d f4f0 1f3f
00000020: 8e54 663e 27d9 963e 1080 363e 15d1 213e
00000030: 5fc8 d43d 1cbc b73e cdf6 0abc eda2 8e3d
00000040: 45f4 d43e a134 043e 1988 8e3d 380d e03e

bn6.bias f4 [20]
-0.32890332 0.00033790036 0.011151714 -0.09158588 -0.08292722 -0.05132226 0.12850699 0.077445574
0.5666596 -0.18083215 -0.13192414 -0.15731154 -0.012573677 -0.07389644 0.008078005 -0.0689111
-0.11865164 0.40708032 0.40209597 0.09491082
00000000: 0466 a8be 3828 b139 aeb5 363c 6191 bbbd
00000010: bfd5 a9bd 4a37 52bd 5697 033e c99b 9e3d
00000020: 9b10 113f 102c 39be 1f17 07be 4716 21be
00000030: d301 4ebc 0457 97bd 9c59 043c 4321 8dbd
00000040: a2ff f2bd d56c d03e 86df cd3e 9b60 c23d

bn6.running_mean f4 [20]
-0.6619583 -0.97453445 0.67474073 -0.7606371 0.92416984 -0.9007365 0.9505948 0.9851674
0.13112487 -0.88476914 -0.94046545 -0.10158212 0.99658096 -0.98257864 0.91803014 -0.97738147
-0.7814741 0.7514136 0.74661744 0.19017345
00000000: 1976 29bf 177b 79bf cfbb 2c3f 1db9 42bf
00000010: 6596 6c3f ab96 66bf 2e5a 733f ee33 7c3f
00000020: 9945 063e 3b80 62bf 58c2 70bf 490a d0bd
00000030: ee1f 7f3f 468a 7bbf 0604 6b3f ac35 7abf
00000040: b00e 48bf a45c 403f 5222 3f3f d4bc 423e

bn6.running_var f4 [20]
0.058442865 0.005052226 0.054483324 0.04060038 0.0056378213 0.012304428 0.004227119 0.00018092852
0.3235345 0.013208083 0.004428725 0.1968305 0.0003025934 0.00049442105 0.012749612 0.0011929641
0.034630045 0.06423961 0.029224435 0.3428109
00000000: c961 6f3d 258d a53b e829 5f3d 964c 263d
00000010: 79bd b83b 8398 493c a583 8a3b a1b7 3d39
00000020: 50a6 a53e b766 583c d71e 913b ef8d 493e
00000030: 66a5 9e39 099c 013a c0e3 503c 3c5d 9c3a
00000040: 3cd8 0d3d 0f90 833d 1568 ef3c e984 af3e

de2.weight f4 [50, 20]
-1.6195638 1.0987195 0.27036113 -0.22599861 -0.8440714 -0.7952102 1.1945882 1.2202789
1.5170289 0.03848059 0.23565005 -0.99511576 -0.30368966 -0.8559858 1.2869362 -0.82110476
0.33943826 1.8352228 2.3660424 0.2299627 -0.73270625 0.4613255 -0.21117519 0.05242186
0.98526186 -0.63234884 1.0088319 0.95315635 0.94406515 -0.07076918 -0.0029676615 0.40419206
-0.6535998 -0.30714118 0.9275309 -1.8119274 0.26459557 1.5548875 1.2926488 -0.40173656
-1.2826732 1.0884088 -0.23923656 -0.025577966 -0.6638123 -0.9628852 1.6168493 1.0044684
0.64523417 -0.27368554 -0.43302387 -1.2006619 0.2196636 -0.7035675 1.8513368 -1.0160154
-0.20909871 1.6523173 1.2974427 0.3354762 0.024770852 0.033226613 -1.4810902 -0.009704116
0.21776478 -0.2292384 0.10245359 -0.12442681 -0.14345631 0.07054475 0.13115829 0.029397294
-0.04431429 0.028203469 0.08231768 0.031182284 0.05183373 -0.19070677 -0.03339168 -0.016146438
0.26866284 0.21793185 -0.358071 -0.32739225 1.2917837 -1.4777082 0.873279 0.008616841
-0.0810836 -2.877519 -0.13117748 0.52450776 0.50492555 -0.4464295 0.4628426 -1.2761844
-0.31260824 1.2382307 0.31858099 -0.12457588 0.11148784 -0.016369935 0.02722423 -0.50978327
0.046573594 -0.23753956 0.019990034 0.051572185 -0.89464957 -0.35718194 0.26848546 0.38013026
0.014888567 -0.1803157 0.010362157 0.05306053 1.5183631 -0.087356724 0.101012036 1.0851343
0.08659938 0.0005165761 0.092854686 0.5428263 -0.09514445 -0.17071381 0.014186596 0.050349325
-0.31690267 0.18908554 0.10831055 0.22440742 0.030118616 0.001946971 0.0056243804 0.15201294
0.1899382 -0.0047029224 -0.17178339 -0.6970678 1.4576766 0.04549407 -0.33903676 0.09843429
1.5664268 -0.29538587 0.16455886 0.9390123 0.28924522 -0.15981625 -0.33761588 0.22329423
0.18290351 0.5786858 0.34582448 -0.8921348 0.18535349 0.2275807 0.3675132 0.058118686
1.6466206 -0.64300877 -0.05690049 -0.03802237 0.4696183 0.5925663 -1.866639 -1.6400837
-1.2091421 0.016362809 -0.22214812 1.029842 0.2644413 1.5865495 -1.7272718 0.8018386
-0.32096624 -1.8437024 -2.025489 -0.09310552 -0.24666066 0.024973415 0.43517855 -0.46099037
-0.34643832 1.128523 -1.0464498 0.7625581 -0.0072952807 -0.5922136 -0.006738312 -0.4875016
-0.6683761 0.08349759 -1.6442558 0.29934278 0.23893347 -0.73789597 -1.0669571 0.087279454
-1.1218544 1.5149475 0.2267258 -0.03667171 -0.4075356 -0.41633675 1.4024627 0.7636171
1.2900895 -0.487325 -0.5751368 -1.0901854 0.13124073 -0.44359007 1.5636537 -1.1598936
0.48820406 1.2609627 2.0914824 0.20510812 0.13281567 0.03382982 -0.25459316 0.71985596
0.26538926 -0.12893 -0.08736888 0.4632068 0.0019290256 -0.12576543 -0.115078144 -0.1004193
-0.11426864 0.35366923 0.13052396 -0.20166437 0.57261574 0.1328732 0.48892894 -0.1011588
-2.0444326 0.7419246 0.09777917 0.040970694 -0.35324228 -0.49505866 1.3535225 1.1333754
1.0280294 -0.21882917 -0.503319 -1.1083456 0.02239208 -0.70293975 1.3680875 -1.5067798
00000000: de4d cfbf d7a2 8c3f c66c 8a3e 2e6c 67be
00000010: 1015 58bf e592 4bbf 44e8 983f 1932 9c3f
00000020: 012e c23f d39d 1d3d 3f4e 713e e8bf 7ebf
00000030: 367d 9bbe e321 5bbf 53ba a43f ec33 52bf
00000040: daca ad3e 95e8 ea3f 3d6d 1740 587b 6b3e
00000050: a392 3bbf db32 ec3e 4f3e 58be 4eb8 563d
00000060: 1f3a 7c3f 9de1 21bf 6721 813f 0e02 743f
00000070: 41ae 713f 6fef 90bd 197d 42bb 43f2 ce3e
00000080: 5152 27bf 9c41 9dbe aa72 6d3f 3ded e7bf
00000090: 1279 873e 8e06 c73f 8475 a53f 6ab0 cdbe
000000a0: a32e a4bf fb50 8b3f 6efa 74be e288 d1bc
000000b0: 9aef 29bf a57f 76bf ebf4 ce3f 6c92 803f
000000c0: 112e 253f 8320 8cbe 4eb5 ddbe 4aaf 99bf
000000d0: 7fef 603e 001d 34bf 9bf8 ec3f cb0c 82bf
000000e0: f91d 56be 227f d33f 9a12 a63f 89c3 ab3e
000000f0: 3eec ca3c a118 083d 5d94 bdbf 03fe 1ebc
00000100: bbfd 5e3e 79bd 6abe 30d3 d13d 7cd3 febd
00000110: 36e6 12be c479 903d 5c4e 063e 98d2 f03c
00000120: e782 35bd f60a e73c 2c96 a83d fd71 ff3c
00000130: 9b4f 543d a348 43be b7c5 08bd 8945 84bc
00000140: 2d8e 893e 8729 5f3e 1555 b7be f59f a7be
00000150: 2b59 a53f 8b25 bdbf 368f 5f3f a72d 0d3c
00000160: 290f a6bd 4529 38c0 6453 06be 2446 063f
00000170: cd42 013f 6892 e4be b5f9 ec3e 035a a3bf
00000180: 300e a0be 587e 9e3f 0c1d a33e a421 ffbd
00000190: bd53 e43d 3e1a 86bc 5905 df3c 2881 02bf
000001a0: f4c3 3e3d 923d 73be 24c2 a33c 5b3d 533d
000001b0: c107 65bf 8de0 b6be ed76 893e 6fa0 c23e
000001c0: 2def 733c aea4 38be 09c6 293c 0056 593d
000001d0: b959 c23f 15e8 b2bd 66df ce3d aee5 8a3f
000001e0: 045b b13d d66a 073a 992a be3d aaf6 0a3f
000001f0: 18db c2bd 9acf 2ebe e56e 683c 183b 4e3d
00000200: 1141 a2be a49f 413e ecd1 dd3d 0fcb 653e
00000210: 51bb f63c 8231 ff3a b94c b83b 48a9 1b3e
00000220: 297f 423e f91a 9abb fce7 2fbe 0973 32bf
00000230: 2695 ba3f fd57 3a3d 3a96 adbe eb97 c93d
00000240: ac80 c83f d13c 97be 1e82 283e 1c63 703f
00000250: f317 943e dfa6 23be fddb acbe 3ea7 643e
00000260: 0f4b 3b3e c124 143f e80f b13e f262 64bf
00000270: 4ecd 3d3e ea0a 693e b12a bc3e dc0d 6e3d
00000280: 77c4 d23f 399c 24bf 7d10 69bd 58bd 1bbd
00000290: cf71 f03e 6db2 173f 07ee eebf 43ee d1bf
000002a0: 2bc5 9abf 4c0b 863c cc7a 63be ddd1 833f
000002b0: da64 873e 0e14 cb3f 3e17 ddbf 4b45 4d3f
000002c0: b055 a4be 71fe ebbf 9da1 01c0 1bae bebd
000002d0: 9d94 7cbe 0c95 cc3c b9cf de3e ee06 ecbe
000002e0: 5d60 b1be 7173 903f 11f2 85bf 0237 433f
000002f0: 400d efbb 4f9b 17bf 0fcd dcbb cf99 f9be
00000300: b21a 2bbf c900 ab3d f976 d2bf 7543 993e
00000310: faaa 743e c0e6 3cbf 0d92 88bf 92bf b23d
00000320: ed98 8fbf cde9 c13f cf2a 683e 1335 16bd
00000330: 82a8 d0be 172a d5be e683 b33f 697c 433f
00000340: a721 a53f aa82 f9be 2a3c 13bf 328b 8bbf
00000350: f863 063e 3d1e e3be ce25 c83f 6577 94bf
00000360: e2f5 f93e 3a67 a13f d9da 0540 dd07 523e
00000370: d500 083e 2391 0a3d 095a 82be 7b48 383f
00000380: 1ae1 873e 3a06 04be 75ee b2bd 7129 ed3e
00000390: 5cd7 fc3a a7c8 00be 17ae ebbd a2a8 cdbd
000003a0: ad05 eabd 2214 b53e 13a8 053e 1b81 4ebe
000003b0: f296 123f ea0f 083e e554 fa3e 582c cfbd
000003c0: fcd7 02c0 c5ee 3d3f 7240 c83d e3d0 273d
000003d0: 2cdc b4be 5478 fdbe 3a40 ad3f 7212 913f
000003e0: 7896 833f c114 60be 84d9 00bf 45de 8dbf
000003f0: 986f b73c dcf3 33bf 7e1d af3f 29de c0bf

de2.bias f4 [50]
3.0217845 1.672927 3.1424222 -1.0729913 0.2914251 -0.2555718 -0.7524751 0.29356444
-3.2963793 -3.072371 4.222344 1.2430373 2.9712188 -0.7429125 -2.7056115 -0.016322402
-2.9976811 -2.8924785 0.2512526 0.1441973 0.8571365 -2.0409184 -2.279027 0.32431406
3.1047661 2.4473603 -0.7067072 3.1914833 3.1432474 -0.7899102 -2.2848737 2.4363635
-1.00004 0.09408361 3.276262 -0.90718335 -1.5295192 2.1829877 -0.015567247 -1.1798408
2.6280704 0.051226042 -0.97744954 -3.5175452 -2.62819 -3.7090738 2.2039678 -0.49520016
0.7029741 0.36816972
00000000: eb64 4140 7922 d63f 721d 4940 c757 89bf
00000010: ac35 953e 4fda 82be 35a2 40bf 144e 963e
00000020: e1f7 52c0 baa1 44c0 711d 8740 d91b 9f3f
00000030: 7328 3e40 832f 3ebf bd28 2dc0 8fb6 85bc
00000040: 02da 3fc0 5e1e 39c0 2ea4 803e 75a8 133e
00000050: 4c6d 5b3f 689e 02c0 94db 11c0 7e0c a63e
00000060: 7db4 4640 8da1 1c40 c3ea 34bf 4341 4c40
00000070: f72a 4940 8e37 4abf 5f3b 12c0 61ed 1b40
00000080: 5001 80bf e8ae c03d 47ae 5140 2b3d 68bf
00000090: 49c7 c3bf 12b6 0b40 c40d 7fbc 0605 97bf
000000a0: 4e32 2840 66d2 513d 223a 7abf 761f 61c0
000000b0: 4434 28c0 7761 6dc0 cf0d 0d40 e08a fdbe
000000c0: 1cf6 333f be80 bc3e

bn7.weight f4 [50]
0.15176184 -0.012863533 0.29871956 0.37689546 -0.0030191382 0.4040672 0.24199289 0.16638458
0.20917632 0.06575946 -0.0018934853 0.44605932 -0.059318926 0.1668518 0.23728879 0.0008501549
0.35432664 0.21497324 0.1300191 0.13041632 0.24100177 0.031066986 0.12876886 -0.0066548903
0.34531933 -0.10413321 0.1861402 -0.021565102 0.24965605 0.30032757 0.15922879 0.08795997
0.38612947 0.15381555 0.1324399 0.006154237 0.21561815 0.1464658 0.47254 -0.00024015615
0.07289426 0.25145203 0.15415955 0.026931578 0.20601107 -0.016688146 0.12875687 0.28013137
0.3829309 0.3407637
00000000: 7567 1b3e 91c1 52bc c5f1 983e 71f8 c03e
00000010: bcdc 45bb e5e1 ce3e fccc 773e b860 2a3e
00000020: 5132 563e e5ac 863d d32e f8ba e361 e43e
00000030: 67f8 72bd 33db 2a3e d5fb 723e eedc 5e3a
00000040: 4d6a b53e f221 5c3e ba23 053e db8b 053e
00000050: 2bc9 763e 3180 fe3c fcdb 033e 4411 dabb
00000060: b2cd b03e cb43 d5bd 899b 3e3e 4ca9 b0bc
00000070: d6a5 7f3e 89c4 993e df0c 233e 5b24 b43d
00000080: c3b2 c53e d381 1d3e 539e 073e 7ba9 c93b
00000090: 01cb 5c3e 21fb 153e c3f0 f13e 6dd2 7bb9
000000a0: 9649 953d 52be 803e 00dc 1d3e 9d9f dc3c
000000b0: 91f4 523e 94b5 88bc d7d8 033e 616d 8f3e
000000c0: 850f c43e 9478 ae3e

bn7.bias f4 [50]
0.0016992982 0.0036098857 0.00028811334 0.114512786 0.0010988358 -0.5764929 -0.23861656 -0.020253222
-0.001710707 0.012500268 0.0013045409 -0.27971366 0.00017771202 0.017354362 0.054925103 0.0019353954
0.11782415 0.08022864 -0.03951708 0.052847974 -0.04254733 1.8193198e-06 0.022565693 0.0007504357
0.14089692 -0.0029690897 0.1539843 -0.00026273573 -0.06537152 0.22388771 0.03932889 -0.0067295628
0.13279171 -0.32747108 -0.025907118 0.003551443 -0.035353877 0.010066127 0.5703041 -0.00090032566
0.0013975113 -0.3072044 0.046407904 -0.0007629646 0.051031303 -0.0014889434 -0.013292353 0.014744692
-0.62674326 0.8112974
00000000: fcba de3a d593 6c3b eb0d 9739 ae85 ea3d
00000010: d006 903a 0a95 13bf e657 74be 16ea a5bc
00000020: cd39 e0ba edcd 4c3c 21fd aa3a a136 8fbe
00000030: 3558 3a39 bc2a 8e3c 25f9 603d 18ad fd3a
00000040: ca4d f13d ea4e a43d a9dc 21bd 1e77 583d
00000050: 1c46 2ebd 5a2f f435 b0db b83c e3b8 443a
00000060: 4847 103e 0f95 42bb 0fae 1d3e cbbf 89b9
00000070: 81e1 85bd d242 653e 5517 213d aa83 dcbb
00000080: 8dfa 073e 4aaa a7be 2a3b d4bc 54bf 683b
00000090: 3acf 10bd 66ec 243c 73ff 113f d503 6cba
000000a0: b32c b73a e549 9dbe 3716 3e3d b001 48ba
000000b0: 3306 513d a628 c3ba 2bc8 59bc b893 713c
000000c0: 3f72 20bf 30b1 4f3f

bn7.running_mean f4 [50]
0.9999924 0.9911709 0.99997866 -0.7567084 0.664263 -0.38342157 -0.80127186 0.12913437
-0.9999866 -0.993432 0.99999875 0.8052315 0.99999064 -0.46174017 -0.99542546 0.28690493
-0.99303627 -0.9889953 0.29848337 0.17499718 0.760992 -0.9976871 -0.99527687 0.52381957
0.99329406 0.99989754 -0.6037563 0.9999966 0.9945225 -0.83184695 -0.9933423 0.98384255
-0.584983 0.15621857 0.99659306 -0.84689146 -0.8589776 0.99086004 -0.07787484 -0.9523692
0.9999806 -0.040841177 -0.6623682 -0.99999726 -0.993181 -0.99999905 0.9946635 -0.30197072
0.5613927 0.2514661
00000000: 80ff 7f3f 60bd 7d3f 9afe 7f3f a4b7 41bf
00000010: 240d 2a3f d54f c4be 2720 4dbf cd3b 043e
00000020: 1fff 7fbf 8f51 7ebf ebff 7f3f a723 4e3f
00000030: 63ff 7f3f 3569 ecbe 34d4 7ebf 34e5 923e
00000040: a037 7ebf cc2e 7dbf d0d2 983e 7632 333e
00000050: 5fd0 423f 6c68 7fbf 77ca 7ebf 0a19 063f
00000060: 8548 7e3f 49f9 7f3f c68f 1abf c7ff 7f3f
00000070: 0799 7e3f ecf3 54bf ae4b 7ebf 1bdd 7b3f
00000080: 72c1 15bf c3f7 1f3e b920 7f3f e1cd 58bf
00000090: f5e5 5bbf 01a9 7d3f d87c 9fbd 78ce 73bf
000000a0: bbfe 7f3f 1449 27bd f690 29bf d2ff 7fbf
000000b0: 1c41 7ebf f0ff 7fbf 44a2 7e3f e89b 9abe
000000c0: 6fb7 0f3f 2ac0 803e

bn7.running_var f4 [50]
2.4934926e-10 0.002519712 9.118948e-10 0.067884915 0.32504845 0.4783471 0.03460542 0.5221733
2.5828624e-09 0.0010001891 1.9722477e-12 0.041279797 2.5205246e-10 0.5017197 0.00033362457 0.44352576
0.00030067514 0.00040819086 0.4202175 0.49616572 0.17702386 0.00063986744 0.0005341654 0.366631
0.00033503858 7.5985966e-08 0.14786705 3.360307e-11 0.0003782374 0.03933606 0.00053033786 0.0028707231
0.10506755 0.35245734 0.00019131078 0.12082501 0.038592968 0.0003858535 0.59780383 0.014540492
1.8846429e-09 0.52420974 0.3645032 4.5974214e-11 0.00018789149 3.6863694e-12 0.0001651731 0.52811646
0.070759214 0.40223187
00000000: ca14 892f c121 253b e4a8 7a30 3f07 8b3d
00000010: c06c a63e e9e9 f43e 6abe 0d3d 26ad 053f
00000020: 327e 3131 c718 833a dbc8 0a2c 0115 293d
00000030: 3b91 8a2f b470 003f 55ea ae39 cf15 e33e
00000040: efa3 9d39 7302 d639 c026 d73e 6f09 fe3e
00000050: be45 353e c7bc 273a 3c07 0c3a 0fb7 bb3e
00000060: 1ea8 af39 ba2d a333 766a 173e b2c9 132e
00000070: 2a4e c639 d91e 213d 5f06 0b3a be22 3c3b
00000080: a82d d73d 4a75 b43e 999a 4839 1a73 f73d
00000090: a913 1e3d 614c ca39 ac09 193f 3e3b 6e3c
000000a0: fd82 0131 9c32 063f 2aa0 ba3e 5d32 4a2e
000000b0: bd04 4539 ddb3 812c 5132 2d39 a432 073f
000000c0: 35ea 903d 56f1 cd3e
