jet_by_jet_compression/split_data_training/models/AE_3D_50_subtrain_6.pth (torch_old, 100037 bytes, 48 tensors)

en1.weight f4 [50, 4]
0	0x3ed1828f	0.4091992
1	0x3ecb4e2d	0.3970808
2	0xbdad2899	-0.08455009
3	0xbdc7ec07	-0.097618155
4	0xbf0072cb	-0.5017516
5	0xbf07fa4f	-0.53116316
6	0x3ea2e5e4	0.31816018
7	0x3e37191b	0.1788067
8	0x3e5d935c	0.21638244
9	0x3d231aa1	0.039820317
10	0xbd76f45f	-0.060291644
11	0x3ebec47f	0.3725929
12	0xbe891976	-0.26777238
13	0xbefb982e	-0.4913954
14	0xbf14ed8e	-0.5817498
15	0xbe74180d	-0.238373
16	0x3ed96b2f	0.42464587
17	0xbeeb23c4	-0.45925725
18	0x3c201fb3	0.009773183
19	0xbe703768	-0.23458636
20	0x3e8cf108	0.27527642
21	0xbe7018b0	-0.23446918
22	0x3e83c196	0.25733632
23	0x3e40bce5	0.18822058
24	0xbf109f1e	-0.56492794
25	0x3e727a5e	0.23679492
26	0xbdba82e4	-0.09106997
27	0xbf1a1f1b	-0.60203713
28	0x3ec50576	0.3848073
29	0x3c239898	0.009985112
30	0xbec05293	-0.37563
31	0x3e7ba79c	0.24575657
32	0xbd7fa877	-0.06241652
33	0xbc6d1d54	-0.014472324
34	0x3c7a7735	0.01528721
35	0xbd48a5fb	-0.048986416
36	0x3f0b9814	0.5452893
37	0xbdf5e0aa	-0.12005742
38	0x3ea514e1	0.32242492
39	0xbe85a276	-0.2610051
40	0x3ce188f1	0.027531119
41	0x3da56866	0.08076553
42	0xbe31124f	-0.1729214
43	0x3e61be76	0.22045311
44	0x3eb089a4	0.3448001
45	0xbe9a6aa5	-0.30159488
46	0xbebd9732	-0.37029415
47	0xbe4efa6f	-0.2021272
48	0x3e3e31d5	0.18573697
49	0xbeab91bb	-0.3350962
50	0xbee00d3d	-0.437601
51	0x3e2ed66f	0.17073987
52	0x3e421dcc	0.18956679
53	0x3ec35ac0	0.38155174
54	0xbf02eed2	-0.5114566
55	0x3ece4367	0.402858
56	0x3da44521	0.08020998
57	0xbaaf5903	-0.0013377968
58	0x3de0130e	0.109411344
59	0x3d8cfd1d	0.06884215
60	0x3ee99377	0.4562032
61	0x3f0b43db	0.54400414
62	0x3cc19fe0	0.023635805
63	0x3ea1a4cd	0.31571046
64	0xbf142179	-0.57863575
65	0xbed99c9f	-0.42502305
66	0xbeab13b9	-0.33413485
67	0x3e81e606	0.25370806
68	0x3e8ad417	0.27114937
69	0xbf276a73	-0.65396804
70	0xbe5eb3d6	-0.2174829
71	0xbdcee84b	-0.101029
72	0x3ecb35cf	0.3968949
73	0x3ee7c483	0.45267114
74	0x3e545dd3	0.20738916
75	0x3eb4417a	0.35206205
76	0x3f084b76	0.53240144
77	0x3efcc639	0.49369982
78	0xbe849ea1	-0.25902274
79	0x3e73901e	0.23785445
80	0x3eec44b3	0.46146163
81	0xbd3fabc0	-0.046794653
82	0x3d93c4bd	0.07215259
83	0xbed12100	-0.4084549
84	0x3ea4bbf2	0.3217464
85	0x3ebe56c5	0.37175575
86	0xbf0f2707	-0.55918926
87	0x3d4a4056	0.04937776
88	0x3a9798d8	0.0011565937
89	0xba6a3976	-0.0008934954
90	0x3bb4d893	0.0055189817
91	0xba74d36b	-0.0009339365
92	0xbe9f0bf6	-0.31063813
93	0x3e8e1a51	0.27754453
94	0xbe9795a2	-0.29606348
95	0x3ee73a4b	0.45161662
96	0xbee5380f	-0.44769332
97	0x3f02b37a	0.5105511
98	0xbd44a580	-0.048009396
99	0xbe855d44	-0.2604772
100	0xbe1a2489	-0.15053
101	0xbedcce7f	-0.43126294
102	0x3e0b7002	0.13616946
103	0x3ed66899	0.41876677
104	0x3d0f2982	0.034951694
105	0xbd4bb556	-0.049733482
106	0xbe4c2006	-0.19934091
107	0xbe38cd35	-0.1804703
108	0x3ac4d2ef	0.0015016476
109	0xb907d358	-0.00012953335
110	0x3b03b111	0.0020094553
111	0x3a62b665	0.0008648395
112	0xbe4ab2db	-0.1979479
113	0x3e44fb64	0.19236523
114	0x3ea61f12	0.3244558
115	0xbe2e05cb	-0.16994397
116	0xbe9cce81	-0.306263
117	0xbefc54cc	-0.49283445
118	0xbe97be55	-0.296374
119	0x3e2bf55d	0.16792817
120	0x3e6dfe32	0.23241499
121	0x3f067b25	0.52531654
122	0x3ec1cbb9	0.3785074
123	0xbf3ec9a9	-0.7452646
124	0x3e87c5a7	0.26517984
125	0xbc95eab0	-0.018300384
126	0xbec124c3	-0.3772336
127	0xbf607a38	-0.8768649
128	0x3e876dc9	0.26450947
129	0x3e9ce87c	0.30646122
130	0x3eae63db	0.3406056
131	0xbdc75432	-0.09732856
132	0xbf144de6	-0.57931364
133	0xbc9f9d76	-0.019484263
134	0x3d0db3d2	0.03459532
135	0xbe76aa8a	-0.24088493
136	0x3e6e34b0	0.23262286
137	0x3d499738	0.04921648
138	0x3e9dd71f	0.30828187
139	0xbeafc09f	-0.34326646
140	0x3ecbce20	0.39805698
141	0xbf126655	-0.57187396
142	0x3de6c35f	0.11267733
143	0x3e881cfb	0.2658461
144	0x3e8c0093	0.27344188
145	0x3f045480	0.51691437
146	0xbb1d54a0	-0.002400674
147	0x3ecc7503	0.39933023
148	0x3e5b1f93	0.21398763
149	0x3e56969d	0.20955892
150	0xbf18731e	-0.59550655
151	0xbe821efe	-0.2541427
152	0x3dacf58b	0.08445271
153	0x3f15e7a9	0.5855661
154	0xbeef713a	-0.46766073
155	0x3ddd85bd	0.10816524
156	0xbe96cf2a	-0.2945493
157	0xbd9ec40d	-0.077522375
158	0xbf0ba5f0	-0.54550076
159	0x3da46c5b	0.0802848
160	0xbd77bda1	-0.06048358
161	0xbe4a0f6d	-0.19732447
162	0x3f099e48	0.53757143
163	0xbd19d4a3	-0.0375563
164	0x3d9d2287	0.07672601
165	0xbea30f96	-0.3184783
166	0x3e77ac9d	0.2418694
167	0x3e587bb8	0.21140945
168	0xbecb3618	-0.39689708
169	0x3c8e8ea1	0.017401995
170	0x3e34d248	0.17658341
171	0x3db8efe1	0.09030128
172	0xbe9affa4	-0.30273163
173	0xbe9dfa5e	-0.30855078
174	0xbebdf113	-0.37097988
175	0xbe0a60cd	-0.13513489
176	0xbe9020f7	-0.2815015
177	0x3e417c28	0.18895018
178	0x3e2e91a7	0.1704775
179	0xbeb93861	-0.36175826
180	0xbe435665	-0.19075926
181	0x3bf15276	0.0073645664
182	0xbed772e2	-0.42079836
183	0xbe3d8889	-0.18509115
184	0x3ece4923	0.40290174
185	0xbf0f6d8e	-0.5602654
186	0xbe096c52	-0.13420227
187	0x3e327eb0	0.1743114
188	0xbf019c17	-0.506288
189	0x3ed8f5c6	0.4237501
190	0xbe9217b3	-0.28533706
191	0x3eea3805	0.45745865
192	0xbd9b803f	-0.075928204
193	0x3ec5df1a	0.38646775
194	0xbeee7339	-0.46572283
195	0x3e2a822f	0.16651224
196	0xbccd226e	-0.025040831
197	0x3c36e691	0.01116337
198	0x3d870ed2	0.065946236
199	0x3c809b94	0.015699185

en1.bias f4 [50]
0	0x3ec52f2b	0.3851255
1	0xbe89a0c1	-0.26880458
2	0x3c346e18	0.0110125765
3	0x3f2996ba	0.66245615
4	0x3f0c29d3	0.5475132
5	0xbd5b654c	-0.0535634
6	0xbeb12e70	-0.34605742
7	0xbe108cf4	-0.1411627
8	0x3d31ec12	0.043438025
9	0x3f39f7a6	0.72643507
10	0x3cd73b6c	0.026273452
11	0x3ec712f3	0.38881645
12	0xbc4bedbe	-0.012446819
13	0x3ef4b7a6	0.47796363
14	0xbd772461	-0.060337428
15	0xbe628f32	-0.22124937
16	0xbef2a615	-0.47392336
17	0x3ed047da	0.40679818
18	0xbec2c3f1	-0.38040116
19	0xbf12c775	-0.573356
20	0x3eff5d1f	0.49875733
21	0x3f152bf6	0.58270204
22	0x3b5f8310	0.003410522
23	0xbe6a2a4b	-0.22867696
24	0x3e8cde95	0.27513567
25	0xbf1e9046	-0.61938894
26	0x3e04ac82	0.12956432
27	0xb945cdf4	-0.00018864108
28	0x3e9e3cc0	0.30905724
29	0xbe433fdd	-0.1906733
30	0xbe6d6a9b	-0.23185198
31	0xbebf5964	-0.37372887
32	0x3ee10add	0.439536
33	0xbe9c8d14	-0.30576384
34	0xbcb49d15	-0.022047559
35	0xbe886981	-0.26642993
36	0x3e6afada	0.22947255
37	0x3efda153	0.49537143
38	0xbc5c9d0e	-0.013465179
39	0x3ef497c3	0.47772035
40	0x3ece96e2	0.4034949
41	0x3d2ca46f	0.042149004
42	0x3e223ef5	0.15844329
43	0xbd697970	-0.057000577
44	0x3db35bb8	0.08757728
45	0xbe0a57bd	-0.13510032
46	0xbe0dfcb2	-0.13865927
47	0x3e96a834	0.29425204
48	0xbe98d3dc	-0.29849136
49	0x3c500ca8	0.01269833

en2.weight f4 [50, 50]
0	0x3e9b6448	0.30349946
1	0xbee5240d	-0.44754067
2	0xbe2d376b	-0.16915672
3	0x3da3d9ee	0.08000551
4	0xbe417143	-0.18890862
5	0xbe930cfe	-0.2872085
6	0xbd049ff3	-0.032379102
7	0xbd55a265	-0.052156825
8	0x3dd237f6	0.1026458
9	0x3e1418af	0.14462541
10	0xbadf8221	-0.0017052331
11	0xbdd0df04	-0.10198787
12	0x3dbe0155	0.09277598
13	0x3da5b1f6	0.08090584
14	0xbe88ad92	-0.26694924
15	0x3c9e6449	0.019334929
16	0xbe987121	-0.2977381
17	0xbbb1ef8b	-0.005430167
18	0x3d9b84f0	0.07593715
19	0x3d1f5081	0.038895134
20	0x3e25db93	0.16197042
21	0x3e9a6329	0.30153778
22	0xbcdabe58	-0.026702091
23	0x3d62628e	0.05526977
24	0x3ec20b94	0.37899458
25	0xbda89577	-0.08231633
26	0x3dc44751	0.09583915
27	0xbbdad8fa	-0.0066786977
28	0xbe1593cd	-0.14607163
29	0xbd98bc23	-0.07457759
30	0xbf097b5f	-0.53703874
31	0x3dd4eae7	0.103963666
32	0x3e83bba6	0.25729102
33	0x3de8b329	0.11362297
34	0xbe895d96	-0.26829213
35	0xbee084c7	-0.438513
36	0x3d7bb906	0.06145575
37	0x3e5efb92	0.21775654
38	0x3eaf17bd	0.34197798
39	0x3ec043a6	0.37551612
40	0xbe131b4d	-0.14365883
41	0xbe43dada	-0.19126454
42	0x3db96ac4	0.09053567
43	0x3e0dafad	0.13836546
44	0x3dbec2b6	0.09314482
45	0x3e4d4426	0.20045528
46	0xbd24077c	-0.0400462
47	0xbcb3db01	-0.021955015
48	0x3e2de4f0	0.16981864
49	0xbe29996b	-0.1656243
50	0x3dd712bf	0.105016224
51	0xbcf345af	-0.029696314
52	0x3dbe4b5c	0.092917174
53	0x3dd347e3	0.10316446
54	0x3e99ffc9	0.3007796
55	0xbd4d9ffd	-0.050201405
56	0x3d7fbc16	0.062435232
57	0x3e4d93f9	0.20075978
58	0xbd37fbd5	-0.0449179
59	0x3e238862	0.15969995
60	0x3d630bf2	0.055431314
61	0x3dc48af6	0.09596817
62	0x3e9e6ae7	0.30940935
63	0x3ed46616	0.41484135
64	0x3ce93c1b	0.028471043
65	0x3e393f0a	0.18090454
66	0x3e28bc1e	0.16478011
67	0x3e655af8	0.22397983
68	0xbd7e74cb	-0.0621231
69	0x3d6b40cd	0.057434846
70	0x3df2c3d3	0.11853757
71	0x3e86944b	0.26285014
72	0xbce0378b	-0.027370235
73	0xbd88bd3d	-0.06676719
74	0x3e036440	0.12831211
75	0x3de7d3fd	0.113197304
76	0xbd159a98	-0.036524385
77	0x3c07676d	0.008264405
78	0xbd419586	-0.047261737
79	0x3e37b30c	0.17939395
80	0x3db1e7ca	0.086867884
81	0x3db511b3	0.088412665
82	0xbde57b6d	-0.11205182
83	0xbe51a203	-0.20471959
84	0x3e3714fd	0.178791
85	0xbc0c71d9	-0.008572065
86	0x3e1be6ef	0.15224813
87	0x3e6315d0	0.2217629
88	0x3e99121a	0.29896623
89	0x3ca032fb	0.01955556
90	0x3da454f8	0.08024019
91	0xbeb4e4d7	-0.3533084
92	0xbdcf2b0b	-0.10115632
93	0x3d5fc722	0.054633267
94	0xbe45dc12	-0.19322231
95	0xbdf4b1d5	-0.11947981
96	0x3e193ac7	0.14963828
97	0x3d761159	0.060075138
98	0x3d80251d	0.06257079
99	0x3d0fb3ee	0.035083704
100	0xbcf1f9a7	-0.029537989
101	0x3e4f0ff5	0.20220931
102	0xbdecbb58	-0.115591705
103	0x3e825c87	0.25461218
104	0x3d599d08	0.053128272
105	0x3d22e605	0.039770145
106	0x3d81867a	0.063244775
107	0x3e08b198	0.13348997
108	0xbd9092f7	-0.07059281
109	0x3ca6c199	0.020355986
110	0xbd464a20	-0.048410535
111	0x3da22041	0.07916308
112	0x3efb77bf	0.49114797
113	0xbdb9f8c4	-0.090806514
114	0x3d16ea72	0.03684468
115	0xbe465219	-0.19367255
116	0x3e44a587	0.19203769
117	0x3e8330dc	0.25623214
118	0xbe521fef	-0.20519994
119	0x3cb9829d	0.02264529
120	0xbcb58473	-0.022157883
121	0x3c76b64e	0.015058113
122	0xbd182f93	-0.037154745
123	0xbcec84b4	-0.028871872
124	0xbe2a7e8a	-0.16649833
125	0x3d564600	0.05231285
126	0xbde41612	-0.11137022
127	0xbc58ccee	-0.013232453
128	0xbea0c72e	-0.31401962
129	0x3e8e455c	0.27787292
130	0xbe0c169c	-0.136805
131	0x3d3701d6	0.044679485
132	0xbea79f78	-0.32738853
133	0x3e0141fb	0.12622826
134	0xbdf945fe	-0.12171553
135	0x3e450c66	0.19243011
136	0xbe1eb021	-0.15496875
137	0x3db0270b	0.08601197
138	0xbe018be1	-0.12651016
139	0x3d77c159	0.060487125
140	0xbc41cc17	-0.011828444
141	0xbcedcf6c	-0.02902957
142	0x3dfd7206	0.12375264
143	0x3e84c2c4	0.25929844
144	0xbc04694a	-0.0080817435
145	0x3e348158	0.17627466
146	0x3ed9c89d	0.42535868
147	0x3dc31da7	0.0952714
148	0xbe237ed6	-0.15966353
149	0xbda5be0e	-0.08092891
150	0xbe2e0dbd	-0.16997428
151	0x3d947454	0.0724875
152	0xbe387d5f	-0.18016575
153	0x3e160dea	0.14653745
154	0x3da55415	0.08072678
155	0xbdd20709	-0.10255248
156	0x3e18267b	0.14858429
157	0xbebf3114	-0.3734213
158	0xbdb70c8f	-0.08937942
159	0x3cf18ec1	0.029487016
160	0xbc1e93e1	-0.009678812
161	0xbdeb6b11	-0.11495031
162	0xbde13409	-0.10996253
163	0xbd6c86f8	-0.057745904
164	0xbde75faa	-0.11297543
165	0xbe26c4b4	-0.16285974
166	0xbead39ce	-0.33833164
167	0xbe819e41	-0.2531605
168	0x3c195d32	0.009360598
169	0xbe151400	-0.1455841
170	0x3e287ae1	0.16453125
171	0xbd9d12c8	-0.07669598
172	0xbcb3ca3d	-0.02194702
173	0xbd76159a	-0.060079195
174	0x3be51143	0.006990583
175	0xbd264b81	-0.04059935
176	0xbd05972a	-0.032614864
177	0x3cb29373	0.021798825
178	0x3e5656f9	0.20931615
179	0xbeaf1b74	-0.34200633
180	0x3eae7496	0.34073323
181	0xbeef0395	-0.4668242
182	0x3dee3c5d	0.11632607
183	0x3e6c038e	0.23048231
184	0x3e363f7a	0.17797652
185	0xbbe4408c	-0.0069657024
186	0xbd3cb9a1	-0.046075467
187	0x3e1eb2a0	0.15497828
188	0xbe8478b8	-0.2587335
189	0xbddfca06	-0.10927205
190	0x3e7f1d97	0.24913631
191	0x3d9cc331	0.07654417
192	0xbdbb725b	-0.09152671
193	0xbcf988bf	-0.030460713
194	0x3e28c455	0.16481145
195	0x3e83ba23	0.2572795
196	0xbe14a1fd	-0.14514919
197	0xbe087278	-0.13324916
198	0xbd861c82	-0.06548406
199	0xbdb1fb75	-0.0869054
200	0x3ce88ed8	0.028388426
201	0x3cc58102	0.024109367
202	0x3e051236	0.12995228
203	0xbe06f582	-0.13179591
204	0xbd581b90	-0.05276066
205	0x3c8627be	0.016376372
206	0xbc18e5a0	-0.009332091
207	0xbee34920	-0.44391727
208	0x3de069ea	0.109577015
209	0xbde1c596	-0.11024015
210	0x3d434530	0.047673404
211	0xbdb1be2c	-0.086788505
212	0xbea0f670	-0.31438017
213	0xbdad260e	-0.08454524
214	0xbc3768a2	-0.01119438
215	0xbe1095fa	-0.14119712
216	0x3cb15714	0.021647967
217	0xbe1a6127	-0.15076123
218	0xbc51c5ed	-0.012803537
219	0xbe7d6294	-0.24744636
220	0xbda0cfb7	-0.078521185
221	0xbe54e43a	-0.20790187
222	0xbc82ddae	-0.015974846
223	0x3ea15c26	0.31515616
224	0x3e051589	0.12996496
225	0x3cbceb8b	0.023061534
226	0xbdc42a6d	-0.095784046
227	0xbc69ed7e	-0.014277814
228	0x3e95cee1	0.292594
229	0xbc1e3457	-0.0096560335
230	0xbd9cbe5b	-0.07653495
231	0xbf1546bb	-0.5831105
232	0xbe093848	-0.13400376
233	0x3ea41b12	0.32051903
234	0xbd54c15b	-0.05194221
235	0x3d2015f8	0.03908345
236	0xbdf0225e	-0.11725305
237	0xbdb3e0fd	-0.087831475
238	0xbdaacbab	-0.08339628
239	0xbdd16e35	-0.102260984
240	0x3dc41cc4	0.09575799
241	0x3df97609	0.121807165
242	0xbb6eef62	-0.0036458601
243	0x3d85f28e	0.06540404
244	0x3e3edf39	0.1863984
245	0xbc69b43e	-0.0142641645
246	0xbdf33ded	-0.11877046
247	0x3d9e11a4	0.077182084
248	0xbd00037b	-0.03125332
249	0x3e2a2470	0.16615462
250	0x3c734d5c	0.014849987
251	0xbd8a86eb	-0.06764015
252	0x3d4754a7	0.048664715
253	0x3dcf6be7	0.101280026
254	0x3e9178fc	0.28412616
255	0xbe785d6c	-0.24254388

en2.bias f4 [50]
0	0xbd35db9b	-0.044398885
1	0x3e382663	0.17983393
2	0x3d05a089	0.0326238
3	0x3de52ee5	0.11190585
4	0x3e12bf50	0.14330792
5	0x3e0f892d	0.14017172
6	0xbcf06042	-0.029342774
7	0x3edbae05	0.42906204
8	0xbcbc895f	-0.023014722
9	0x3c846579	0.016161667
10	0x3c5a938c	0.013340842
11	0xbc25ea64	-0.010126684
12	0xbafacf8f	-0.0019135344
13	0x3e7137b2	0.23556402
14	0x3e1fb01a	0.15594521
15	0x3d1458c8	0.03621748
16	0x3dec277c	0.115309685
17	0x3eb73f54	0.35790503
18	0xbf427282	-0.75955975
19	0x3e454d44	0.19267756
20	0x3f3c90ee	0.73658645
21	0x3e50a201	0.203743
22	0x3e043d02	0.12913898
23	0xbe8250a8	-0.2545216
24	0xba9128db	-0.0011074798
25	0x3d80975c	0.062788695
26	0xbe1de07a	-0.15417662
27	0xbd0cc55b	-0.0343679
28	0x3dcf491e	0.10121368
29	0x3e001b63	0.12510447
30	0x3dceaddd	0.100917555
31	0xbd5b727f	-0.05357599
32	0x3b223aa1	0.0024754184
33	0x3d9e11b3	0.077182196
34	0xbeaea7ca	-0.34112388
35	0xbdf91db7	-0.12163871
36	0xbe06ee26	-0.13176784
37	0xbe0d5da7	-0.13805257
38	0x3e4b0d49	0.19829287
39	0x3e0f2195	0.13977654
40	0x3ce2abb6	0.027669769
41	0x3e6e89a7	0.23294698
42	0xbf0361af	-0.5132093
43	0xbcd12731	-0.025531383
44	0x3ee9680c	0.45587194
45	0xbe27fbf7	-0.1640471
46	0xbd88539d	-0.06656573
47	0x3bc5500b	0.0060215048
48	0x3da4c5cc	0.08045539
49	0x3e029de3	0.12755542

en3.weight f4 [20, 50]
0	0x3e4c46b0	0.1994884
1	0xbc97e0b2	-0.01853976
2	0x3dbd7860	0.09251475
3	0xbe718974	-0.2358759
4	0x3cccf2bc	0.025018089
5	0xbc9b48c4	-0.018955596
6	0x3dce5034	0.10073891
7	0xbe24ee1f	-0.16106461
8	0x3de42132	0.11139144
9	0x3d6e4f81	0.05818129
10	0x3e133597	0.14375912
11	0xbe9673d9	-0.2938526
12	0xbd90b6c2	-0.07066108
13	0xbd811786	-0.06303315
14	0xbdaed2fa	-0.08536334
15	0xbd72eeea	-0.059309877
16	0xbe1abd3b	-0.15111248
17	0xbe8060b7	-0.25073788
18	0x3e8a9122	0.27063853
19	0xbdd7574c	-0.105146974
20	0x3dd838ab	0.105576836
21	0xbc9c08bb	-0.019047132
22	0xbe347762	-0.17623666
23	0x3de28b87	0.11061769
24	0xbd3c3c8a	-0.045956172
25	0x3d706bee	0.05869668
26	0x3dac4d44	0.08413175
27	0x3e1c1b78	0.15244853
28	0x3b165817	0.002294069
29	0xbdf2c08d	-0.118531324
30	0xbc459f65	-0.012061928
31	0x3da3cf30	0.07998502
32	0xbe0fe43e	-0.14051911
33	0xbbef85d1	-0.0073096533
34	0x3d5e291a	0.054238416
35	0x3e09f537	0.13472448
36	0x3e2b5c91	0.1673453
37	0xbcc8d828	-0.024517134
38	0xbe061c68	-0.13096774
39	0xbdf58e22	-0.1199
40	0x3dcce7a2	0.10005118
41	0xbe7ef037	-0.24896322
42	0xbc2df349	-0.010617086
43	0x3d5d73e7	0.05406561
44	0xbe04f097	-0.12982403
45	0x3d466e3b	0.048444968
46	0xbbc52474	-0.0060163084
47	0x3e6ee1f4	0.23328382
48	0xbd5cd6e8	-0.053915888
49	0xbe15fe91	-0.1464789
50	0x3d10310a	0.035203017
51	0x3db8d4b2	0.090249434
52	0xbd81d4b7	-0.063394
53	0x3d89d2ab	0.06729635
54	0xbe1d392a	-0.15353838
55	0xbd90cc47	-0.07070213
56	0x3e136f32	0.14397886
57	0x3dde1ed5	0.108457245
58	0xbe4e952a	-0.20174089
59	0xbe221e51	-0.15831877
60	0xbbad6f72	-0.0052928263
61	0x3dfebc29	0.124382325
62	0x3e64850c	0.22316378
63	0x3ddbc5f4	0.10731116
64	0xbe40434f	-0.18775676
65	0xbd1e4d79	-0.038648102
66	0xbddc27ef	-0.10749804
67	0xbe4ecf4c	-0.20196265
68	0x3e4031f4	0.18769056
69	0xbccdc9dc	-0.025120668
70	0x3dec5803	0.115402244
71	0x3e34fefa	0.17675391
72	0xbe007ce6	-0.12547645
73	0x3e491d45	0.19640072
74	0xbb9396f2	-0.004504078
75	0x3e51e1a3	0.2049623
76	0xbe5d0ff5	-0.21588118
77	0x3e560ded	0.2090375
78	0x3c6b4085	0.014358644
79	0xbd73de2e	-0.05953806
80	0xbde818da	-0.11332865
81	0x3e855654	0.26042426
82	0xbde6ab51	-0.11263145
83	0xbb8cff55	-0.004302899
84	0xbcdac2a3	-0.026704138
85	0x3eb94e07	0.36192343
86	0x3cd23bba	0.025663245
87	0xbebf9b96	-0.3742339
88	0x3da70c65	0.08156661
89	0xbd42160b	-0.047384303
90	0x3e2b431d	0.1672482
91	0x3d10bba0	0.035335183
92	0x3d324fa9	0.043533
93	0x3ded6685	0.1159182
94	0xbc838a7a	-0.016057242
95	0x3d8be797	0.06831282
96	0x3e08b1c5	0.13349064
97	0xbc873518	-0.01650481
98	0x3dd70b20	0.10500169
99	0xbd714637	-0.058904853
100	0x3d28b4fe	0.041188233
101	0x3da6b2e6	0.08139591
102	0x3c6d7fb7	0.014495782
103	0xbd166ad2	-0.036722966
104	0xbe090169	-0.13379444
105	0x3daa52b2	0.08316554
106	0xbc76146b	-0.015019516
107	0xbd8b7e3b	-0.06811186
108	0x3e18f68f	0.14937805
109	0xbd1ac947	-0.03778961
110	0xbd9c80ce	-0.07641755
111	0xbe35ec63	-0.17765956
112	0x3bfe5db4	0.007762635
113	0xbb87a6fc	-0.004139779
114	0x3df3243d	0.11872146
115	0x3d870abc	0.06593844
116	0x3d96ca3e	0.073627934
117	0x3da97086	0.08273415
118	0xbc4679dd	-0.012114015
119	0xbdb176c9	-0.086652346
120	0x3df530cb	0.11972197
121	0xbec29138	-0.38001418
122	0xbdcf42ce	-0.10120164
123	0xbe668b66	-0.22514114
124	0x3cf48628	0.029849127
125	0x3da0ef7d	0.07858179
126	0x3e8981af	0.26856753
127	0xbe8909b1	-0.26765206
128	0xbc163122	-0.009166988
129	0x3df09601	0.11747361
130	0xbd231a96	-0.039820276
131	0xbea111a9	-0.31458786
132	0xbd70202d	-0.058624435
133	0x3a21e9c7	0.0006176498
134	0x3db47156	0.088106796
135	0xbe5ce81d	-0.21572919
136	0x3d1849b9	0.037179682
137	0x3e5529f5	0.20816787
138	0x3dfb0a8a	0.122578695
139	0x3e011a6d	0.12607737
140	0xbd8e1a84	-0.06938651
141	0xbd9a7c9f	-0.07543301
142	0xbd926f4f	-0.07150137
143	0xbe0aee99	-0.1356758
144	0x3e0d6ad9	0.1381029
145	0xbdc74fbe	-0.097320065
146	0x3e097030	0.13421702
147	0xbc2f3718	-0.010694288
148	0xbd6350bc	-0.055496916
149	0xbe033e76	-0.12816796
150	0xbd84a8a2	-0.06477477
151	0xbe5d1189	-0.2158872
152	0x3b982519	0.0046430943
153	0x3e25d5ee	0.16194889
154	0x3db706c8	0.0893684
155	0x3c3ef894	0.011655945
156	0xbe61e08f	-0.22058319
157	0x3e0aae10	0.13542962
158	0x3e82a3fa	0.2551573
159	0xbc109155	-0.008823712
160	0x3dece251	0.11566604
161	0xbc52abdf	-0.01285836
162	0x3e03c220	0.12867022
163	0x3e60239a	0.21888581
164	0xbd97c7d1	-0.07411159
165	0xbdbf9fb5	-0.093566336
166	0xbcf4b025	-0.029869149
167	0x3ba17b37	0.0049280184
168	0x3cae8c34	0.021307088
169	0x3e3c6767	0.1839882
170	0xbd8a630a	-0.067571715
171	0x3d190c36	0.03736516
172	0x3e576a14	0.2103656
173	0x3d2fa317	0.042880144
174	0xbdad6c64	-0.084679395
175	0x3ce9b182	0.028527025
176	0xbd907e8a	-0.070553854
177	0x3e18c505	0.14918907
178	0xba01403e	-0.00049305323
179	0xbd8457ce	-0.0646206
180	0xbd458441	-0.04822183
181	0x3c6d9607	0.014501101
182	0x3dc5c4ec	0.096567005
183	0x3aaca73c	0.0013172398
184	0xbda31b36	-0.079641744
185	0xbd7f7045	-0.062362928
186	0x3d539630	0.0516569
187	0xbe3d91c3	-0.18512635
188	0xbc84b12d	-0.016197765
189	0x3dea4384	0.11438659
190	0x3d346d82	0.044049747
191	0x3d2c4006	0.042053245
192	0x3dfabfac	0.1224359
193	0xbdf0e9b6	-0.11763327
194	0xbe6fe0ec	-0.23425645
195	0xbd0fadcd	-0.03507786
196	0x3dd74cdb	0.10512706
197	0x3cf25053	0.029579317
198	0x3e9be8a4	0.30450928
199	0x3e20f97a	0.15720168
200	0x3e693391	0.22773577
201	0x3cc81539	0.024424182
202	0x3c98c811	0.018650087
203	0xbe016f7c	-0.12640184
204	0x3c9e002e	0.019287195
205	0x3e3488aa	0.17630258
206	0xbe81252c	-0.25223672
207	0x3e0c0cf0	0.1367681
208	0xbcf80ab9	-0.03027855
209	0xbc7d6309	-0.015465506
210	0xbdde5e4c	-0.108578295
211	0xbd6bdd2f	-0.057583984
212	0xbd5f9171	-0.054582063
213	0x3dd9f50d	0.10642443
214	0xbdfbe038	-0.12298626
215	0xbd6e72fb	-0.058215123
216	0xbe76f2d0	-0.24116063
217	0xbb61c516	-0.0034449748
218	0x3e77f6b6	0.24215207
219	0xbe848d3e	-0.2588901
220	0x3e0c23b0	0.13685489
221	0x3d45d3d8	0.048297733
222	0x3e477f95	0.19482262
223	0xbdbb2ed1	-0.09139789
224	0xbdf69ad1	-0.12041248
225	0xbd501206	-0.05079844
226	0xbd73d889	-0.059532676
227	0xbd9a1a63	-0.07524564
228	0x3b9cae5a	0.0047815265
229	0xbd1e603d	-0.038666
230	0xbda7eabf	-0.08199071
231	0xbdbc8b5c	-0.09206268
232	0x3e557b3a	0.20847788
233	0xbc0e9a32	-0.008703755
234	0xbe5b0ac8	-0.21390831
235	0xbe43e2b8	-0.19129455
236	0x3e692d8c	0.22771281
237	0xbcbca9c4	-0.02303017
238	0xbda22dc8	-0.07918888
239	0xbd1fca04	-0.039011016
240	0x3d45586b	0.048180025
241	0xbda0ffc2	-0.07861282
242	0x3d96ab27	0.073568635
243	0xbd5806be	-0.052740805
244	0xbe669ee8	-0.22521555
245	0xbe15e8fd	-0.14639659
246	0x3c80c479	0.015718685
247	0xbca366f8	-0.01994656
248	0x3e7871fa	0.24262229
249	0x3de70f8e	0.11282264
250	0xbd6138e7	-0.054985907
251	0xbde823b4	-0.11334935
252	0xbd412ea3	-0.047163617
253	0x3d944b3d	0.07240913
254	0x3d35669e	0.044287317
255	0xbdc1233d	-0.09430549

en3.bias f4 [20]
0	0xbdcffb73	-0.10155382
1	0x3d8cc807	0.0687409
2	0x3ddd640f	0.108101
3	0xbe0714e8	-0.13191569
4	0xbddbe4ae	-0.107369766
5	0xbe77fbe3	-0.24217181
6	0xbe9bdef2	-0.3044353
7	0x3d5f3bb4	0.054500297
8	0xbe9247de	-0.28570455
9	0xbdbc8333	-0.09204712
10	0xbe7fc34b	-0.24976842
11	0x3eb62fc4	0.35583317
12	0xbe8d4610	-0.27592516
13	0x3d3f4dad	0.046704937
14	0xbd19cf6e	-0.037551336
15	0xbdb0451a	-0.0860693
16	0xbe60de45	-0.21959789
17	0xbca62daa	-0.020285446
18	0xbeef01f0	-0.46681166
19	0xbe357e73	-0.17724018

en4.weight f4 [3, 20]
0	0x3e8568e7	0.26056597
1	0x3bdc5b52	0.0067247534
2	0x3d7e1255	0.0620292
3	0xbd8c9f04	-0.06866267
4	0x3de729f6	0.112873
5	0xbdbe95aa	-0.0930589
6	0x3d1b056f	0.03784698
7	0xbe243a74	-0.16037923
8	0x3b15e86b	0.0022874128
9	0x3d9b226e	0.07574926
10	0xbde8068b	-0.11329373
11	0xbcde6794	-0.027149
12	0x3db35048	0.08755547
13	0xbc020ec9	-0.007938095
14	0x3d452dcd	0.048139382
15	0x3e00ca27	0.12577115
16	0xbeaad31c	-0.3336419
17	0xbe8d627f	-0.2761421
18	0xbe6131c3	-0.21991639
19	0x3ea4a55d	0.32157412
20	0x3d7e2960	0.062051177
21	0x3dd34f11	0.10317815
22	0xbe0f7886	-0.1401082
23	0x3e2f8fe9	0.17144741
24	0x3dbf50a2	0.09341551
25	0x3e4228de	0.18960902
26	0xbe698c8a	-0.22807518
27	0xbbb2c487	-0.005455557
28	0xbc784ac1	-0.0151545415
29	0xbe78142a	-0.24226442
30	0x3e8e4bbe	0.27792162
31	0x3d8f2c3f	0.06990861
32	0xbe06176f	-0.13094877
33	0xbb828d3e	-0.0039841225
34	0x3e091e6d	0.13390513
35	0xbdbbd448	-0.09171349
36	0xbe1d301f	-0.15350388
37	0xbd8d5f31	-0.06902922
38	0x3c71235f	0.014717906
39	0xbc86e5b5	-0.016466955
40	0xbdd3986a	-0.10331805
41	0xbde0373d	-0.10948036
42	0x3da78b1a	0.081808284
43	0x3d868e6f	0.06570136
44	0x3d45ce23	0.04829229
45	0xbe4cf2cc	-0.20014495
46	0x3e0243cb	0.12721173
47	0x3ce8e282	0.02842832
48	0x3e88ad8e	0.26694912
49	0xbd9f2007	-0.077697806
50	0x3e432073	0.19055347
51	0x3e9f8844	0.3115865
52	0x3e37ce24	0.1794973
53	0x3b3ced30	0.0028827898
54	0x3e5a4725	0.21316202
55	0x3e26498b	0.16238992
56	0xbd1ce070	-0.038299978
57	0x3d2525c1	0.040319208
58	0xbe740147	-0.23828612
59	0xbd20fab4	-0.03930159

en4.bias f4 [3]
0	0xbaf56d96	-0.0018724676
1	0xbe1040fb	-0.14087288
2	0xbc01a030	-0.007911727

de1.weight f4 [20, 3]
0	0xbf26b6fb	-0.65122956
1	0xbf12cc8b	-0.5734336
2	0xbdaf5d1b	-0.0856268
3	0xbe6ef563	-0.23335795
4	0x3f816f9f	1.0112189
5	0xbdf597b5	-0.119918264
6	0x3e80e6ad	0.25175992
7	0xbe3137d1	-0.17306449
8	0x3f1fcff5	0.6242669
9	0x3ed5105d	0.41614047
10	0x3de2245a	0.1104209
11	0xbe0a7e5a	-0.13524762
12	0x3f46c6e8	0.77647257
13	0xbe74528c	-0.23859614
14	0xbd31e04f	-0.043426808
15	0xbec1399e	-0.3773927
16	0x3efbc3b6	0.49172753
17	0xbf1bf9c0	-0.60927963
18	0x3ec360dc	0.38159835
19	0xbeaf3a51	-0.3422418
20	0xbf0f94b6	-0.5608629
21	0x3e4e08f7	0.20120607
22	0xbe728f53	-0.23687486
23	0x3f11f907	0.5702061
24	0xbf10c7f5	-0.5655511
25	0xbf2818ab	-0.6566264
26	0x3f3b59d6	0.73183954
27	0x3f052d1d	0.5202196
28	0xbe89e0f7	-0.26929447
29	0xbeff4637	-0.49858257
30	0xbece544a	-0.40298682
31	0xbedf7608	-0.43644738
32	0x3d882a38	0.066486776
33	0x3d8328cb	0.06404265
34	0x3ca6b4ff	0.020349978
35	0x3f3aeb52	0.7301532
36	0xbeaec17f	-0.34132
37	0xbed54438	-0.4165361
38	0x3f00e0c3	0.5034296
39	0x3d1e83ad	0.038699795
40	0xbf287c6b	-0.65814847
41	0xbf420c61	-0.7580014
42	0x3f1a816f	0.6035375
43	0xbe20e058	-0.1571058
44	0xbef3d57f	-0.47623822
45	0xbed18703	-0.40923318
46	0xbef11931	-0.47089532
47	0xbf0abd52	-0.5419513
48	0x3ed4e3ab	0.41579947
49	0xbf30ae71	-0.69016176
50	0x3f3dbbee	0.7411488
51	0xbda4bf47	-0.08044296
52	0xbf0c32be	-0.54764926
53	0xbeb3239a	-0.349881
54	0x3f6973fe	0.91192615
55	0x3f16c8fe	0.5890044
56	0x3ed95cd4	0.42453635
57	0x3ebb1674	0.36540568
58	0xbf4a9d9d	-0.7914675
59	0xbed47e6c	-0.41502702

de1.bias f4 [20]
0	0xbe51f659	-0.2050413
1	0x3f170255	0.58987933
2	0xbe6bed1f	-0.23039673
3	0xbbb9a37d	-0.0056652413
4	0xbe8b05d3	-0.2715288
5	0xbe35c0b4	-0.17749292
6	0x3db7f515	0.089822926
7	0xbe052f44	-0.13006312
8	0xbea3a032	-0.31958157
9	0x3db3c0ff	0.087770455
10	0x3cdf89e8	0.027287439
11	0x3e823a4a	0.25435096
12	0x3e3e8138	0.1860398
13	0xbf103478	-0.5633006
14	0xbd981d02	-0.07427408
15	0xbc7a4915	-0.015276213
16	0x3eb0e406	0.34548968
17	0xbcee2031	-0.029068084
18	0xbf0eac80	-0.55731964
19	0x3ea52174	0.32252085

de2.weight f4 [50, 20]
0	0x3e4ba84e	0.19888422
1	0xb9ec34f2	-0.00045052875
2	0xbe2f025d	-0.17090745
3	0x3d3a165c	0.04543148
4	0x3bf0f625	0.0073535615
5	0x3cee9d27	0.02912767
6	0x3e41743e	0.18891999
7	0xbe41e71e	-0.1893582
8	0xbe4e5aa9	-0.20151772
9	0xbd951307	-0.0727902
10	0x3cab35d8	0.020899698
11	0xbe59db6e	-0.21275112
12	0xbdc643cc	-0.096809
13	0x3eb5c51f	0.35501954
14	0x3da6d8e8	0.0814684
15	0x3eb6817d	0.35645667
16	0xbd9454a8	-0.072427094
17	0x3c47f5f2	0.012204634
18	0xbd94b274	-0.072606
19	0x3e8e3c3b	0.27780327
20	0x3e960ee8	0.29308248
21	0x3e23f9fd	0.16013332
22	0xbde01e80	-0.109433174
23	0xbe3d62f4	-0.18494779
24	0xbe0a2cd6	-0.13493666
25	0xbe863115	-0.26209322
26	0x3e45bf64	0.19311291
27	0x3e9e39a2	0.30903345
28	0x3eb30052	0.34961182
29	0xbe97ba08	-0.29634118
30	0x3e9b62f7	0.30348942
31	0x3dcfb97b	0.101427995
32	0x3ef2ea9c	0.47444618
33	0x3d83c576	0.06434147
34	0x3df16155	0.11786143
35	0x3d6d566b	0.057943743
36	0x3f14c0bb	0.58106583
37	0x3e0e7ebb	0.13915531
38	0xbf0a7a26	-0.54092634
39	0x3e2a2fab	0.16619746
40	0xbee3f443	-0.44522294
41	0x3e65a694	0.22426826
42	0xbe95403f	-0.29150578
43	0x3e8bc704	0.27300274
44	0x3dc742ef	0.097295634
45	0x3d617c99	0.055050466
46	0x3b34f1d0	0.0027609952
47	0xbeb2fd49	-0.34958866
48	0xbf30e001	-0.690918
49	0x3ee57b29	0.44820526
50	0xbde45eff	-0.111509316
51	0xbd7cffff	-0.061767574
52	0x3cabe9fc	0.020985596
53	0xbd926c9a	-0.0714962
54	0x3e469b4b	0.19395177
55	0xbdd79794	-0.10526958
56	0x3d9716ba	0.073773816
57	0xbe8761d0	-0.26441813
58	0x3e8be328	0.27321744
59	0x3e665098	0.22491682
60	0x3e429b37	0.19004522
61	0xbf2eae8c	-0.6823509
62	0x3f7bda07	0.9837956
63	0x3e61635b	0.22010557
64	0x3e8f0201	0.27931216
65	0xbe85e811	-0.26153615
66	0xbe2d3413	-0.16914396
67	0x3edd31d6	0.43202084
68	0x3f847140	1.0347061
69	0x3e6af79f	0.22946022
70	0xbd3b9268	-0.04579392
71	0x3db83b51	0.08995689
72	0x3e27c321	0.1638303
73	0x3d8935bd	0.06699703
74	0x3cb5dfa8	0.022201374
75	0xbeb6ef5f	-0.357295
76	0x3e34da54	0.1766141
77	0x3e1c90ce	0.15289614
78	0x3ef46f30	0.4774108
79	0x3e1773bd	0.14790244
80	0xbddd4220	-0.10803628
81	0x3e2426bf	0.16030405
82	0x3ec53d67	0.3852341
83	0xbe8ed3f5	-0.27896085
84	0x3de05214	0.10953155
85	0xbf238c9c	-0.6388643
86	0xbd21ca99	-0.039499853
87	0x3f02d937	0.51112694
88	0x3eba1966	0.36347502
89	0x3ce6c097	0.028168006
90	0x3f10130a	0.5627905
91	0x3f138661	0.5762692
92	0x3ed50c6b	0.41611037
93	0xbf0abc3b	-0.54193467
94	0xbe817fd7	-0.25292847
95	0xbe6828fc	-0.22671884
96	0x3fba91eb	1.4575781
97	0x3e7e1033	0.24810867
98	0xbe42dea1	-0.19030239
99	0x3ed3fdb1	0.4140449
100	0x3e6b0df1	0.22954537
101	0x3e614481	0.21998788
102	0x3cd3164b	0.025767466
103	0x3e0ad63e	0.1355829
104	0xbcc9295d	-0.024555856
105	0xbe5252a9	-0.20539345
106	0xbe2713b1	-0.16316105
107	0xbe5ad6ee	-0.21371052
108	0xbd113a93	-0.03545625
109	0xbe3d9074	-0.18512136
110	0x3e217cff	0.15770338
111	0x3c949dcb	0.018141648
112	0x3d68f3ff	0.056873318
113	0xbe229afc	-0.15879434
114	0x3e708932	0.23489836
115	0xbe162003	-0.14660649
116	0xbe75355c	-0.23946136
117	0x3e3956d1	0.18099524
118	0x3e854ea8	0.26036572
119	0xbd0b23ba	-0.03396962
120	0xbe3b3726	-0.18282756
121	0xbd9818be	-0.07426594
122	0xbe04e1f8	-0.12976825
123	0x3e01e498	0.12684858
124	0x3cf6811e	0.030090865
125	0xbe0c6f0b	-0.13714235
126	0x3e04e7ff	0.12979124
127	0xbbe4e851	-0.006985702
128	0x3e008ce7	0.1255375
129	0x3daa165e	0.083050475
130	0x3d9c5a40	0.07634401
131	0xbe3370aa	-0.17523447
132	0xbd35d1bb	-0.044389468
133	0x3d34597e	0.04403066
134	0xbe2085b9	-0.15676011
135	0x3e027d7d	0.12743182
136	0x3d58e3bf	0.05295157
137	0xbe3b2286	-0.18274888
138	0xbd04ab6a	-0.032390036
139	0xbe3ea2af	-0.18616746
140	0x3d8a4e2a	0.0675319
141	0x3e6e1363	0.23249583
142	0xbe26bdff	-0.16283415
143	0xbd31a6f6	-0.043372117
144	0x3d474640	0.04865098
145	0xbd8969e8	-0.06709653
146	0x3e33f108	0.17572415
147	0x3d70503f	0.05867028
148	0xbed58e38	-0.41710067
149	0x3c2a8365	0.010407303
150	0xbe94b146	-0.290415
151	0x3e1d0e74	0.15337545
152	0xbccf3809	-0.025295274
153	0x3dc76a37	0.09737056
154	0x3c5732bb	0.013134654
155	0xbe8700b9	-0.2636774
156	0x3e1bd422	0.15217641
157	0x3d51b0d7	0.05119404
158	0x3e46d676	0.19417748
159	0x3df32de2	0.11873986
160	0xbe1e2492	-0.15443638
161	0x3d3c5d70	0.045987546
162	0xbe245e91	-0.16051699
163	0x3ccb6e9a	0.024833012
164	0xbd32c17d	-0.043641556
165	0xbf29aa6c	-0.6627567
166	0x3e4097ce	0.18807909
167	0xbb1cc1d3	-0.002391924
168	0x3e96e176	0.29468888
169	0x3e928b27	0.2862179
170	0x3e411b8d	0.18858166
171	0x3e7a5baf	0.24449037
172	0x3f057ab8	0.5214038
173	0x3db08c0a	0.0862046
174	0xb9c5c11d	-0.0003771865
175	0x3e829dd1	0.2551103
176	0x3f61a271	0.8813849
177	0x3ed81061	0.42199996
178	0xbedd58c1	-0.43231776
179	0x3f96d13c	1.1782603
180	0x3e0c4f9b	0.13702242
181	0x3e60ae64	0.21941525
182	0xbec1e767	-0.37871858
183	0x3ddd0342	0.10791637
184	0xbd7916a9	-0.060812626
185	0x3f408dce	0.75216377
186	0xbd93cb85	-0.07216553
187	0xbf1a2a9d	-0.6022127
188	0xbedc05f4	-0.42973292
189	0x3cad0333	0.02111969
190	0xbda16cc4	-0.078820735
191	0xbe9718c5	-0.29511085
192	0xbec3f804	-0.38275158
193	0x3e48ee93	0.19622259
194	0x3e869fc5	0.2629377
195	0x3e8206fa	0.25395948
196	0xbf6f1677	-0.93393654
197	0xbe3c9829	-0.1841742
198	0x3e5dc20d	0.21656056
199	0xbe90f0bc	-0.28308666
200	0xbe4c2efa	-0.19939795
201	0xbd49d8f1	-0.049279157
202	0x3d3837c4	0.044975057
203	0x3c1e4e89	0.009662279
204	0xbdf4004a	-0.11914118
205	0x3d944a78	0.07240766
206	0xbda1e751	-0.07905448
207	0x3e41c477	0.18922602
208	0xbdab8195	-0.08374325
209	0xbdf96438	-0.12177318
210	0xbd433402	-0.04765702
211	0xbc106416	-0.008812925
212	0xbcb99357	-0.022653265
213	0x3e09ff5a	0.13476315
214	0xbdd2a054	-0.102844864
215	0x3dbed428	0.09317809
216	0x3be96d97	0.00712366
217	0xbd132679	-0.035925362
218	0xbd479de9	-0.04873458
219	0x3e1ce3c9	0.15321268
220	0xbd9d2199	-0.07672424
221	0x3da75a3b	0.08171507
222	0x3e75e3f2	0.24012735
223	0xbc88d4ba	-0.016702998
224	0xbd95a652	-0.07307114
225	0xbdbbee0b	-0.091762625
226	0x3e8b109f	0.27161118
227	0x3e48c330	0.19605708
228	0x3d2acffd	0.04170226
229	0x3d80d913	0.062914036
230	0x3d4104be	0.047123663
231	0x3e0a2613	0.13491087
232	0xbdd6083f	-0.104507916
233	0xbde34883	-0.11097815
234	0x3d8ed729	0.06974632
235	0x3e0bd062	0.1365371
236	0xbd6fb5d3	-0.05852301
237	0xbe80f3b5	-0.25185934
238	0x3e5e8296	0.21729502
239	0x3df915bd	0.121623494
240	0xbc18e9ec	-0.009333115
241	0xbc02ef4e	-0.007991625
242	0x3e4f9695	0.20272286
243	0xbbf6d426	-0.0075326143
244	0xbdaba61a	-0.08381291
245	0x3e087abc	0.1332807
246	0x3cfbcb1d	0.0307365
247	0xbe02483b	-0.12722866
248	0xbd899a39	-0.06718869
249	0xbdd65997	-0.10466307
250	0x3e958863	0.29205617
251	0x3a8bf26b	0.0010677105
252	0xbe2d9c87	-0.16954242
253	0xbe075ad7	-0.13218246
254	0x3df15b21	0.117849596
255	0xbe12cb21	-0.143353

de2.bias f4 [50]
0	0x3e10ba57	0.14133583
1	0x3cbf96bd	0.023387307
2	0xbd0d20e6	-0.034455203
3	0xbeb35fb3	-0.3503395
4	0x3e934164	0.28760827
5	0xbdbee630	-0.093212485
6	0x3d82c76a	0.063856915
7	0xbe8f0e78	-0.27940726
8	0x3ea99849	0.33123997
9	0x3e322a9e	0.1739907
10	0xbc279be8	-0.010230042
11	0xbd340ced	-0.04395764
12	0xbd9a6780	-0.07539272
13	0x3ecb198d	0.3966793
14	0x3eb1e673	0.3474613
15	0x3dcab7f5	0.09898368
16	0xbd9abc17	-0.075554065
17	0xbde3e8bb	-0.11128374
18	0x3e437b94	0.1909011
19	0xbe48ded7	-0.19616257
20	0xbc763494	-0.015027184
21	0x3e5756f9	0.21029271
22	0x3efb53a6	0.49087256
23	0xbd0f9791	-0.035056654
24	0xbe9af0b4	-0.30261767
25	0xbdad2f81	-0.08456326
26	0xbd07b452	-0.03313095
27	0xbdf05d97	-0.11736601
28	0xbe364d3f	-0.17802905
29	0xbe4bfca1	-0.19920589
30	0xbd1f324c	-0.038866326
31	0x3e0c33df	0.13691662
32	0xbe0ee219	-0.13953437
33	0x3ec0ba4d	0.37642136
34	0x3e98ef8e	0.29870266
35	0xbd66be9d	-0.056334127
36	0xbe51b9ff	-0.20481108
37	0xbea92da0	-0.33042622
38	0x3dce6e99	0.100796886
39	0xbdc5c960	-0.0965755
40	0x3c19c7af	0.009385987
41	0xbd85a9ed	-0.065265514
42	0xbd05e4bf	-0.032688852
43	0xbe283e40	-0.16429996
44	0xbe96bdbd	-0.29441634
45	0xbe07ce0e	-0.13262197
46	0xbe362643	-0.17788033
47	0x3da53a43	0.08067753
48	0xbe3e52c9	-0.18586268
49	0x3eb1feba	0.34764653

de3.weight f4 [50, 50]
0	0x3e21e3fc	0.15809625
1	0x3d40a085	0.047028083
2	0xbe36f915	-0.17868455
3	0x3e658659	0.22414531
4	0xbec77c1f	-0.38961884
5	0xbe7a5650	-0.24446988
6	0xbb4e7f91	-0.003150914
7	0xbe3a77e3	-0.18209796
8	0xbd0f75af	-0.03502434
9	0x3e86a7fa	0.2630003
10	0xbbcb3cc9	-0.0062023145
11	0xbe01ce6f	-0.12676404
12	0xbb953292	-0.0045531476
13	0xbf2bbf07	-0.6708836
14	0xbeadd6bc	-0.33952892
15	0xbd998eaa	-0.07497914
16	0x3d692d2b	0.05692784
17	0xbd194feb	-0.03742973
18	0x3e48d649	0.19612993
19	0xbe0d3a19	-0.13791694
20	0x3c2ba833	0.010477114
21	0x3d49e9fc	0.04929541
22	0xbf0859d1	-0.5326205
23	0x3e20ef4b	0.15716283
24	0xbe197915	-0.14987595
25	0x3e467a35	0.19382556
26	0x3b3d496e	0.0028882879
27	0xbe6bb4e9	-0.2301823
28	0x3eb73f35	0.3579041
29	0x3dd695d5	0.10477797
30	0xbe23dc3a	-0.16001979
31	0x3e829e16	0.25511235
32	0xbcbd2dce	-0.02309313
33	0xbd15fa38	-0.03661558
34	0xbea50390	-0.3222928
35	0x3f111705	0.5667575
36	0x3f202458	0.62555456
37	0x3dec11b2	0.115268126
38	0x3e25cecd	0.1619217
39	0xbe6972e4	-0.22797734
40	0x3c73edd1	0.014888243
41	0x3cb60813	0.022220647
42	0xbdd809a3	-0.10548713
43	0xbd2221ec	-0.03958313
44	0xbe9d2d28	-0.30698514
45	0x3da9ae3d	0.082851864
46	0xbeae92c5	-0.3409635
47	0x3c516a16	0.0127816405
48	0xbcf06d6d	-0.029349053
49	0x3d68eeb5	0.056868274
50	0xbdc32133	-0.095278166
51	0xbd9a7f6e	-0.075438365
52	0xbd15a173	-0.036530923
53	0xbd2e0c64	-0.042492285
54	0x3c64ea8d	0.013971937
55	0x3e28d6d4	0.164882
56	0x3b6e8d86	0.0036400273
57	0x3dfea2b6	0.124333784
58	0x3c462d09	0.012095698
59	0xb9aa8240	-0.0003252197
60	0xbc81e766	-0.01585741
61	0x39ea5d4e	0.00044701475
62	0xbbbcc608	-0.005760912
63	0xbd3a7238	-0.045519084
64	0x3bb4644d	0.005505121
65	0xbd97a35f	-0.074042074
66	0xbd0248fe	-0.031807892
67	0xbd2bc53b	-0.04193614
68	0x3e143559	0.14473476
69	0x3d572029	0.052520905
70	0xbbdf3f69	-0.006812979
71	0x3ce2f917	0.027706666
72	0xbc6f5833	-0.014608431
73	0x3cc10431	0.023561569
74	0x3d035086	0.032059215
75	0xbd4bc7fe	-0.049751274
76	0xbdcd766b	-0.10032352
77	0xbd6862cb	-0.05673484
78	0x3e1a32d1	0.15058447
79	0xbdd26df2	-0.10274877
80	0x3c091593	0.00836696
81	0x3c81a482	0.015825514
82	0x3da86332	0.08222045
83	0xbcaf9a8b	-0.021435997
84	0xba8f0640	-0.0010911897
85	0x3d66d7eb	0.05635826
86	0x3d2cb8fc	0.042168602
87	0xbcf17b4c	-0.029477738
88	0x3d3491d2	0.044084378
89	0x3b59ce6b	0.0033234607
90	0x3b88b47e	0.004171907
91	0xbd53ed25	-0.05173983
92	0xbd7c8c26	-0.061657093
93	0x3b003100	0.0019560456
94	0x3dc4f699	0.09617347
95	0xbd25b0f9	-0.040451977
96	0x3d481045	0.04884364
97	0xbb7be9c7	-0.0038438903
98	0x3ceb7a88	0.02874495
99	0x3d0e6d93	0.034772467
100	0x3e9f43f5	0.31106535
101	0xbf77c66b	-0.96787137
102	0xbf0ea3f3	-0.55718917
103	0x3f33e594	0.70272183
104	0xbf21927d	-0.6311415
105	0xbe820aa9	-0.25398758
106	0x3dd2b5d7	0.102885894
107	0x3f9f15f3	1.2428573
108	0xbfc7a2ca	-1.5596554
109	0x3e5c416d	0.21509333
110	0x3f00a264	0.5024779
111	0xbefd5c58	-0.49484515
112	0x3e033c60	0.12816
113	0xbe99877d	-0.29986182
114	0xbf3f7c07	-0.74798626
115	0x3f3d229f	0.7388095
116	0x3ef96b19	0.48714522
117	0xba74e864	-0.000934249
118	0xbfb2d309	-1.3970653
119	0x3f5e117e	0.8674544
120	0x3eb2a635	0.3489243
121	0xbe679fad	-0.22619505
122	0xbf0365bc	-0.5132711
123	0x3e6d3acd	0.23166962
124	0x3ed3a487	0.41336462
125	0x3d418a8b	0.047251265
126	0xbe83dbb9	-0.25753573
127	0x3eb70261	0.35744002
128	0x3ef4234f	0.47683188
129	0x3f82f508	1.0231028
130	0x3f497f96	0.78710306
131	0xbf2c7f6a	-0.6738192
132	0xbc3c8cf2	-0.011508213
133	0xbf8400f3	-1.031279
134	0xbf97bd8c	-1.185472
135	0x3f9205cc	1.1408019
136	0x3facb8f9	1.3493949
137	0x3f62de61	0.88620573
138	0xbf419204	-0.7561343
139	0xbe86d41c	-0.26333702
140	0xbe0d143e	-0.13777253
141	0x3c74ac78	0.014933698
142	0x3f6c294a	0.922505
143	0x3f0bf6c4	0.5467341
144	0xbeb13e99	-0.3461807
145	0x3ebcb81d	0.36859217
146	0x3eeeebb4	0.46664202
147	0xbde5015f	-0.11181902
148	0xbdddf811	-0.108383305
149	0xbe869c1d	-0.2629098
150	0xbb5a01c2	-0.0033265208
151	0xbe97f83c	-0.29681575
152	0xbe689f33	-0.2271698
153	0x3edc0327	0.42971155
154	0xbd37e7c4	-0.044898763
155	0x3c82a432	0.015947435
156	0x3cf21c5a	0.029554535
157	0x3dfc156d	0.12308774
158	0xbf1a49d1	-0.60268885
159	0x3e6d07be	0.23147485
160	0xbacd56dd	-0.0015666146
161	0x3da424ff	0.08014869
162	0x3c9431ee	0.018090215
163	0xbe6ad8eb	-0.2293431
164	0xbf016420	-0.50543404
165	0xbdce3798	-0.100691974
166	0x3e51c7c0	0.20486355
167	0x3e6940e7	0.22778665
168	0xbe073e4f	-0.13207363
169	0x3c325ebd	0.010886845
170	0x3c7d943e	0.015477238
171	0x3deae135	0.11468736
172	0xbe893a24	-0.2680217
173	0x3e1c1724	0.15243202
174	0x3df48db3	0.119410895
175	0xbe509fea	-0.20373502
176	0xbd145728	-0.03621593
177	0xbc86ac90	-0.016439706
178	0xbd8da515	-0.069162525
179	0xbdf82e64	-0.12118223
180	0x3e7368da	0.23770466
181	0xbe684cc0	-0.22685528
182	0xbc115a5e	-0.008871643
183	0xbf0550c8	-0.5207639
184	0x3dbe8137	0.093019895
185	0xbd4b40d9	-0.04962239
186	0xbe3c8cfe	-0.18413159
187	0x3f553151	0.83278376
188	0xbecd999e	-0.40156263
189	0xbe114d46	-0.14189634
190	0x3c88473d	0.016635532
191	0x3ee47f1e	0.44628233
192	0x3e200265	0.15625913
193	0xbc8271b5	-0.01592336
194	0xbd127495	-0.035755713
195	0xbec21bc0	-0.37911797
196	0x3e09233a	0.13392344
197	0xbb032728	-0.0020012353
198	0x3c5fb7a2	0.013654621
199	0x3de3482b	0.11097749
200	0xbcb4f7d3	-0.022090828
201	0x3dad07a1	0.08448721
202	0x3decbb8b	0.115592085
203	0x3ba33b46	0.004981431
204	0xbdafcff6	-0.08584587
205	0xbd8045ad	-0.062632896
206	0x3d1ba14c	0.03799562
207	0x3e0abb12	0.13547924
208	0xbddfe9cd	-0.10933266
209	0xbb34938b	-0.0027553763
210	0xbd14047b	-0.036137085
211	0x3deff684	0.11716941
212	0x3cc6916c	0.024239264
213	0x3e2314f3	0.1592596
214	0xbd960898	-0.07325858
215	0xbe035b7f	-0.12827872
216	0x3dbea4cd	0.09308777
217	0xbb2d00b5	-0.0026398127
218	0x3e15bbbe	0.14622399
219	0xba8c3901	-0.0010698141
220	0xbd04f071	-0.032455865
221	0xbdc2e331	-0.095159896
222	0x3da7fb37	0.08202212
223	0xbce97cc8	-0.028501883
224	0x3c6ae3de	0.014336554
225	0x3dfc43b6	0.12317602
226	0x3e17a271	0.1480806
227	0xbdf3621a	-0.11883946
228	0x3d6276ed	0.055289198
229	0x3e0b43de	0.13600108
230	0x3d8dabcb	0.069175325
231	0x3e663f8e	0.22485182
232	0xbd8e4e0a	-0.069484785
233	0xbcaeb2f2	-0.021325562
234	0x3c1598d2	0.0091306735
235	0xbe16384a	-0.1466991
236	0xbd8bb082	-0.068207756
237	0xbd4d076c	-0.050055906
238	0x3bb22e1f	0.005437627
239	0x3cca1084	0.024666078
240	0xb95d8ea1	-0.00021129336
241	0xbdc4fda4	-0.096186906
242	0x3e04efcc	0.129821
243	0x3bcb0e2b	0.0061967573
244	0xbc14049e	-0.009034304
245	0xbcaccd62	-0.021094028
246	0x3cd6427b	0.026154747
247	0xbd5ae45a	-0.05344043
248	0x3c1f9e6f	0.009742363
249	0x3d1136ae	0.035452537
250	0x3cb8124c	0.022469662
251	0x3d2efb4d	0.042720128
252	0xbdd7ba14	-0.105335385
253	0x3dd970cc	0.106172174
254	0xbe32de6a	-0.17467657
255	0xbea6f1ca	-0.32606345

de3.bias f4 [50]
0	0x3e416ace	0.18888399
1	0x3d13052e	0.03589361
2	0xbfd4941d	-1.66077
3	0xbca19009	-0.019722002
4	0xbe22d3ee	-0.15901157
5	0xbb2ef578	-0.0026696604
6	0xbdc69fe7	-0.09698468
7	0xbe95c8e4	-0.2925483
8	0x3e08ceee	0.13360187
9	0x3e037aff	0.12839888
10	0x3e9251a6	0.28577918
11	0xbdc91a13	-0.098194264
12	0xbd20aa14	-0.0392247
13	0x3e0f5409	0.139969
14	0x3dd4c18d	0.103884794
15	0x3e2a3bba	0.16624346
16	0xbc5e6f4f	-0.013576343
17	0xbe81289c	-0.25226295
18	0xbf4db4ea	-0.8035418
19	0xbe24a3c5	-0.16078098
20	0xbd9beed8	-0.07613915
21	0x3e950783	0.29107293
22	0xbdf06060	-0.11737132
23	0xbe7bb08b	-0.24579065
24	0xbcb7e5d3	-0.022448456
25	0xbe096edb	-0.13421194
26	0x3ee80151	0.45313504
27	0x3d2ad3d6	0.04170593
28	0xbebd80a7	-0.37012216
29	0xbd969147	-0.07351928
30	0xbe4e58e4	-0.20151097
31	0x3f95179e	1.1647832
32	0x3e096224	0.13416344
33	0x3f6bc1aa	0.9209238
34	0xbca47562	-0.020075504
35	0x3e375850	0.17904782
36	0xbe463938	-0.19357765
37	0xbd908e09	-0.07058341
38	0x3f858b12	1.0433066
39	0xbd088e19	-0.03333864
40	0xbea43cf1	-0.32077745
41	0xbd3c4780	-0.045966625
42	0x3e05da11	0.13071467
43	0xbf482549	-0.7818189
44	0x3e8a4404	0.27005017
45	0xbe11b6ab	-0.14229839
46	0xbf45eb0e	-0.7731179
47	0x3f853fe7	1.0410126
48	0xbe9cf649	-0.3065665
49	0x3c99c681	0.018771412

de4.weight f4 [4, 50]
0	0xbde2c569	-0.11072809
1	0xba990ca1	-0.0011676737
2	0x3eaa1a4e	0.33223194
3	0xbee69a28	-0.45039487
4	0x3c9f886c	0.01947423
5	0xbd391b83	-0.045192253
6	0xbf3c4ff3	-0.7355949
7	0xbe53ec4f	-0.20695613
8	0x3da8ff37	0.08251803
9	0x3e0134c7	0.12617789
10	0xbe9c575c	-0.305354
11	0x3e6fb0f5	0.23407348
12	0xbcbd10b2	-0.02307925
13	0x3f00c3aa	0.5029856
14	0xbcdfabf4	-0.027303673
15	0xbe1bc695	-0.15212472
16	0x3d0c4b1e	0.034251325
17	0x3cb9645f	0.022630868
18	0x3e96b251	0.2943292
19	0x3bfea32a	0.0077709155
20	0x3b90e5eb	0.0044219396
21	0x3df3d17d	0.11905191
22	0x3dfea945	0.12434629
23	0xbe10382c	-0.14083928
24	0x3f24e95c	0.6441858
25	0xbe7833e0	-0.24238539
26	0xbe2ceecc	-0.16887969
27	0xbdf29e9a	-0.11846657
28	0x3e9026fb	0.2815474
29	0xbe1f333a	-0.15546885
30	0xbae5e96d	-0.001754088
31	0xbec11d24	-0.37717545
32	0xbd85341f	-0.06504082
33	0xbe867613	-0.26261958
34	0xbe265f0d	-0.16247196
35	0xbe09dc2e	-0.13462898
36	0x3c91c167	0.017792417
37	0x3c00823a	0.007843548
38	0xbebfd733	-0.3746887
39	0xbdaadf62	-0.08343388
40	0xbdb2f480	-0.08738041
41	0x3da25868	0.079270184
42	0x3c7634f7	0.015027276
43	0x3db0a078	0.08624357
44	0x3d029904	0.03188421
45	0x3d3707d8	0.044685215
46	0xbd01c967	-0.031686213
47	0xbe0eb033	-0.13934402
48	0x3d2d8c04	0.042369857
49	0x3b8965da	0.00419305
50	0x3e1484e8	0.14503825
51	0x3c3d1c87	0.011542446
52	0x3d3aa035	0.04556294
53	0xbd1c2615	-0.038122255
54	0xbcb6f0c3	-0.022331601
55	0xbc25124e	-0.010075165
56	0x3d8012be	0.06253575
57	0xbecaea13	-0.3963171
58	0xbe10aa1f	-0.14127396
59	0x3d0c387c	0.034233555
60	0xbd94de76	-0.072689936
61	0xbdb51237	-0.08841365
62	0xbb8439df	-0.004035219
63	0xbdb2b655	-0.08726183
64	0x3c09cd11	0.008410708
65	0xbec27175	-0.37977186
66	0x3e7f8b3f	0.24955462
67	0x3ceaaad1	0.028645905
68	0x3dffaa3d	0.12483642
69	0x3d06ad83	0.032880317
70	0x3be9c1ca	0.007133697
71	0x3b62ff6c	0.0034637107
72	0x3e85992d	0.26093426
73	0xbd487cf6	-0.048947297
74	0x3ce01ded	0.02735802
75	0x3d7810bb	0.06056283
76	0x3e60a82e	0.21939155
77	0xbd86fc56	-0.06591098
78	0x3d074e48	0.03303364
79	0xbcb215a8	-0.021738842
80	0xbc9738d5	-0.018459717
81	0xbcb41201	-0.021981241
82	0x3ea5ecbd	0.3240718
83	0x3d4531ee	0.04814332
84	0x3eb20ad6	0.34773892
85	0x3e503e5f	0.20336293
86	0xbc46df04	-0.012138132
87	0x3be00b3d	0.006837277
88	0x3d22089a	0.039558984
89	0xbb3191ba	-0.0027094916
90	0xbdd1dd83	-0.10247328
91	0xbc3abc8c	-0.011397492
92	0x3c098aa3	0.00839487
93	0xbbf3c647	-0.007439408
94	0xbe008a91	-0.12552859
95	0xba22e109	-0.00062133424
96	0x3dcfc085	0.10144142
97	0x3ce37d8d	0.027769828
98	0x3c0eba06	0.008711344
99	0x3cbacbf3	0.022802329
100	0xbd00cba7	-0.031444218
101	0x3b8cb511	0.0042940457
102	0xbe6725f9	-0.22573079
103	0xbbe28a27	-0.0069134417
104	0xbb0fcc0d	-0.0021941692
105	0x3dacf165	0.0844448
106	0x3d6299c1	0.055322412
107	0x3c9b251a	0.01893859
108	0xbc767c5b	-0.015044297
109	0x3d1e03f1	0.038577978
110	0x3d850698	0.06495398
111	0xbc3ecd02	-0.011645557
112	0xbe9b7ed4	-0.303702
113	0xbadfb59a	-0.0017067671
114	0xba806447	-0.000979551
115	0xbb201a1d	-0.0024429627
116	0x3c9405ac	0.01806911
117	0x3e1592fd	0.14606853
118	0x3e47c4c3	0.19508652
119	0x3a92f6ed	0.0011212506
120	0x3ba0f783	0.004912318
121	0x3eee70e6	0.4657051
122	0x3d012ed5	0.031538803
123	0x3b756bbd	0.003744825
124	0x3b69bf49	0.0035666993
125	0x3c5122c0	0.012764633
126	0xbe357c71	-0.17723252
127	0x3c3b466d	0.011430365
128	0x3c0af309	0.008480796
129	0xbabbfee4	-0.0014342931
130	0xbadcbbe0	-0.0016840659
131	0x3ea4b7c7	0.3217146
132	0x3cc907f1	0.02453992
133	0xbe8bf8fa	-0.27338392
134	0x3d164849	0.03669003
135	0xbb6c8632	-0.0036090729
136	0xbebc41d2	-0.36768967
137	0xb99fe7f6	-0.00030499668
138	0xbe139c6a	-0.14415136
139	0x3ee36ba0	0.4441805
140	0xbe5dd50b	-0.216633
141	0x3e2ab9f8	0.16672504
142	0xbe4578aa	-0.19284311
143	0xbe97d0e4	-0.29651558
144	0x3ddb2a1c	0.10701391
145	0xbcb9ee45	-0.022696624
146	0x3e81bc7d	0.25339118
147	0xbe5648c9	-0.20926203
148	0xbdc38094	-0.09546009
149	0x39f2b948	0.00046295882
150	0x3f3c09aa	0.73452246
151	0xbc3646dd	-0.011125294
152	0xbf3f31d7	-0.74685425
153	0x3d66ecb1	0.05637807
154	0xbc997840	-0.018734097
155	0xbca7b744	-0.02047313
156	0x3e1bb8ba	0.15207186
157	0x3e6ed4c5	0.23323353
158	0xbf44a16f	-0.7680883
159	0x3f02c2c7	0.51078457
160	0xbc1ed282	-0.009693744
161	0x3c27ff88	0.0102537945
162	0x3c914aec	0.01773592
163	0xbda3012f	-0.0795921
164	0x3c3fb30e	0.011700405
165	0xbdd7dbfb	-0.10540005
166	0xbf1bce47	-0.6086163
167	0xbce8ab6b	-0.028402051
168	0xbed1001b	-0.40820393
169	0xbb01239a	-0.0019705058
170	0xbbba6018	-0.005687725
171	0x3c4fdd81	0.012687088
172	0x3f01a1a8	0.5063729
173	0x3e33b750	0.17550397
174	0xbe216d8b	-0.15764444
175	0xbcc4ba07	-0.024014486
176	0xbf18959f	-0.59603304
177	0xbda4d277	-0.080479555
178	0x3d5d37b4	0.0540082
179	0xbd49c4ce	-0.049259953
180	0xbb1e3779	-0.002414195
181	0x3f38415b	0.71974725
182	0xbeba9d6d	-0.3644823
183	0x3f0cbc84	0.5497515
184	0xbbafb7fd	-0.0053625093
185	0x3e753257	0.23944984
186	0xbb8f2999	-0.0043689725
187	0xbc347383	-0.011013868
188	0x3f2b3f37	0.66893333
189	0xbb28cfc0	-0.0025758594
190	0xbe9a4709	-0.3013232
191	0x3c693f57	0.014236293
192	0x3c8e1211	0.0173426
193	0xbf37458f	-0.71590513
194	0xbf4a1684	-0.78940606
195	0xbf379959	-0.71718365
196	0xbef7143a	-0.4825762
197	0x3f03e933	0.5152771
198	0xbd56b9c1	-0.052423242
199	0x3b41b3d7	0.0029556656

de4.bias f4 [4]
0	0xbe543277	-0.20722376
1	0xbe060491	-0.1308768
2	0x3d6e6a7e	0.058207028
3	0x3f11cf37	0.5695681
