jet_by_jet_compression/split_data_training/models/AE_3D_50_subtrain_1.pth (torch_old, 100037 bytes, 48 tensors)

en1.weight f4 [50, 4]
0.32340422 0.31781217 -0.025163315 -0.06650818 -0.5010805 -0.4946618 0.2918295 0.1575826
0.24087961 0.095117375 -0.08217663 0.49333218 -0.32459912 -0.48862422 -0.54349357 -0.20935231
0.26080897 -0.32706052 -0.009008305 -0.24561353 0.3052767 -0.2462193 0.3693994 0.19506611
-0.38728362 0.2481248 -0.0034643714 -0.6059434 0.42370096 0.007478461 -0.34472007 0.20448808
-0.19902831 -0.02227894 0.11779556 -0.2188406 0.45027885 -0.030840257 0.1993398 -0.26713026
0.033548262 0.11973702 -0.1936378 0.3414669 0.32489902 -0.28460166 -0.21682197 -0.115668364
0.038016412 -0.37970856 -0.35389912 0.19360186 0.16286525 0.30768132 -0.48232508 0.4399205
0.22911666 -0.06821314 0.2102685 0.15246244 0.33451048 0.47032043 -0.049596455 0.26209834
-0.53167015 -0.4231553 -0.30976105 0.30680043 0.23718627 -0.6077207 -0.20464991 -0.0862533
0.32373774 0.37539637 0.21230766 0.2656271 0.45385492 0.4401141 -0.13218023 0.19563237
0.23617698 -0.0030743056 0.07209719 -0.3583733 0.193995 0.3127087 -0.5318332 0.0673106
-0.16313249 -0.042180933 -0.1258574 -0.23094308 -0.21450433 0.25437662 -0.2848285 0.3181549
-0.47824323 0.42531183 0.02961544 -0.22721377 -0.13217878 -0.38711697 0.12161366 0.35350472
0.0875743 -0.050089583 -0.1781663 -0.23385559 0.06391598 0.04789313 -0.12345879 -0.111767635
-0.14026842 0.15872408 0.25820342 -0.2287997 -0.3703225 -0.5023795 -0.29710507 0.17880715
0.22412826 0.33743128 0.47418213 -0.59490675 0.1281712 0.11120991 -0.34143144 -0.6956482
0.249817 0.30673024 0.24389568 -0.10254364 -0.49174795 0.016663004 0.09868003 -0.26990017
0.3487398 0.10079058 0.3670218 -0.26144964 0.3713868 -0.49279246 0.0027979107 0.21742585
0.23913278 0.39053643 0.028671097 0.36019725 0.17854825 0.17180184 -0.44977707 -0.23556557
0.020142231 0.5474725 -0.41093037 0.06978349 -0.26563483 -0.12072724 -0.46188504 0.044679612
-0.031508736 -0.21211924 0.51058275 0.0246637 -0.0052405046 -0.3636806 0.33172345 0.14741282
-0.4152574 -0.08922352 0.12055585 0.12577233 -0.24772346 -0.3025882 -0.3233421 -0.09058487
-0.38544884 0.1733647 0.18396711 -0.37510416 -0.22232586 0.05217054 -0.44047293 -0.051226486
0.42625967 -0.4497658 -0.12762944 0.15924495 -0.4597464 0.2609375 -0.19885693 0.33930174
-0.06516125 0.37091747 -0.3746078 0.16385756 -0.011349991 -0.037344627 0.25898665 0.18727489
00000000: 3d95 a53e 47b8 a23e 4c23 cebc 7135 88bd
00000010: d046 00bf 5044 fdbe ad6a 953e 555d 213e
00000020: 25a9 763e e6cc c23d 394c a8bd 0996 fc3e
00000030: db31 a6be f42c fabe 6522 0bbf 7460 56be
00000040: c188 853e 7a74 a7be 9297 13bc 1d82 7bbe
00000050: 3a4d 9c3e ea20 7cbe eb21 bd3e 69bf 473e
00000060: 0a4a c6be 6d14 7e3e 820a 63bb 1b1f 1bbf
00000070: 55ef d83e e10d f53b 267f b0be 5365 513e
00000080: 14ce 4bbe 5382 b6bc cc3e f13d c017 60be
00000090: f38a e63e b5a4 fcbc bc1f 4c3e 4cc5 88be
000000a0: e769 093d af38 f53d fd48 46be c0d4 ae3e
000000b0: 2a59 a63e 4fb7 91be 9406 5ebe 89e3 ecbd
000000c0: 19b7 1b3d 2969 c2be 4432 b5be 913f 463e
000000d0: 26c6 263e 6888 9d3e 50f3 f6be 433d e13e
000000e0: 8f9d 6a3e 55b3 8bbd a050 573e 1d1f 1c3e
000000f0: f544 ab3e d7cd f03e a725 4bbd c131 863e
00000100: 891b 08bf d0a7 d8be 0099 9ebe f214 9d3e
00000110: f5e0 723e 9593 1bbf bf8f 51be 92a5 b0bd
00000120: f4c0 a53e f433 c03e 2e67 593e 4600 883e
00000130: ac5f e83e a356 e13e 415a 07be da53 483e
00000140: 61d8 713e 4a7a 49bb b1a7 933d b57c b7be
00000150: a0a6 463e 5b1b a03e 3826 08bf 24da 893d
00000160: 340c 27be eac5 2cbd c3e0 00be 587c 6cbe
00000170: 06a7 5bbe a73d 823e 0bd5 91be 33e5 a23e
00000180: 4cdc f4be 79c2 d93e 149c f23c baaa 68be
00000190: e059 07be 3234 c6be 9510 f93d 92fe b43e
000001a0: 285a b33d bc2a 4dbd 3a71 36be d777 6fbe
000001b0: 62e6 823d 962b 443d f6d7 fcbd 6ee6 e4bd
000001c0: 86a2 0fbe 9188 223e 3d33 843e 784a 6abe
000001d0: e99a bdbe f19b 00bf 281e 98be 3919 373e
000001e0: e181 653e cbc3 ac3e 00c8 f23e cf4b 18bf
000001f0: 503f 033e 05c2 e33d 1ad0 aebe 0016 32bf
00000200: 07d0 7f3e bf0b 9d3e cabf 793e 6602 d2bd
00000210: 63c6 fbbe da80 883c c118 ca3d 5b30 8abe
00000220: 068e b23e 4b6b ce3d 48ea bb3e badc 85be
00000230: 6926 be3e 4b4f fcbe 275d 373b e2a4 5e3e
00000240: 39df 743e 64f4 c73e a6df ea3c c66b b83e
00000250: 5ad5 363e d2ec 2f3e 2e49 e6be 1a38 71be
00000260: 5201 a53c 2827 0c3f 7765 d2be a5ea 8e3d
00000270: 4a01 88be d83f f7bd 327c ecbe f801 373d
00000280: 4e0f 01bd c935 59be 8db5 023f 870b ca3c
00000290: 8ab8 abbb 5834 babe a8d7 a93e 63f3 163e
000002a0: 9e9c d4be d2ba b6bd fce5 f63d 76ca 003e
000002b0: 38ab 7dbe d7ec 9abe 198d a5be 8f84 b9bd
000002c0: 8d59 c5be 8486 313e e061 3c3e a70d c0be
000002d0: 64a9 63be c7b0 553d ab85 e1be ddd2 51bd
000002e0: b53e da3e b447 e6be 4bb1 02be 1c11 233e
000002f0: e163 ebbe 9a99 853e 27a1 4bbe f5b8 ad3e
00000300: 4373 85bd e5e8 bd3e 98cc bfbe 47ca 273e
00000310: 50f5 39bc aef6 18bd e699 843e fdc4 3f3e

en1.bias f4 [50]
0.3917548 -0.27328363 0.043952405 0.60134053 0.5213986 -0.037236053 -0.5012872 -0.10435872
0.06505558 0.7177177 0.07825006 0.39976752 0.08441152 0.45772102 -0.1399321 -0.21431507
-0.46421754 0.37378967 -0.40784058 -0.5446075 0.56620514 0.5840299 -0.0073472043 -0.27973855
0.25901258 -0.63936865 0.24704725 0.09348389 0.30060783 -0.17412399 -0.27564237 -0.31475008
0.42627728 -0.36251685 -0.027189484 -0.2933632 0.31401217 0.3847981 0.012269008 0.46582416
0.34888795 0.036014725 0.16789363 -0.10033085 0.09401294 -0.20963472 -0.1358787 0.2724453
-0.26402107 0.076200016
00000000: 1694 c83e d5eb 8bbe 7007 343d 74f1 193f
00000010: 617a 053f d584 18bd 5c54 00bf 06ba d5bd
00000020: dc3b 853d 59bc 373f 9141 a03d 54ae cc3e
00000030: f2df ac3d 695a ea3e 5c4a 0fbe 6975 5bbe
00000040: ecad edbe 5c61 bf3e 7bd0 d0be 666b 0bbf
00000050: d2f2 103f fc82 153f d1c0 f0bb e439 8fbe
00000060: 4c9d 843e aaad 23bf f4f9 7c3e 7b74 bf3d
00000070: 45e9 993e 8f4d 32be ff20 8dbe ec26 a1be
00000080: 0441 da3e cf9b b9be 7bbc debc b433 96be
00000090: 34c6 a03e 4204 c53e f303 493c 8180 ee3e
000000a0: 71a1 b23e 2d84 133d 4fec 2b3e 437a cdbd
000000b0: db89 c03d 7caa 56be c923 0bbe f37d 8b3e
000000c0: c52d 87be c10e 9c3d

en2.weight f4 [50, 50]
0.18221515 -0.18152219 -0.110282734 0.061142135 -0.11251058 -0.15764734 -0.008890038 0.033747878
0.026213197 0.20521674 0.053825114 -0.07395165 -0.027511561 0.1064363 -0.1951553 -0.04081948
-0.17536096 0.037287608 0.049373597 0.024178404 0.16859369 0.2471129 0.0741635 0.04613826
0.2398556 -0.05894675 0.14576948 -0.12518148 -0.09159096 -0.15583725 -0.3726324 0.1337625
0.31536385 0.08886848 -0.11482204 -0.29891816 0.14355381 0.14342932 0.27943432 0.17296068
-0.019853506 -0.116547145 -0.022784585 0.050670456 -0.015199078 0.07062559 -0.059369974 0.09200634
0.087076664 -0.13089012 0.119651854 -0.044579487 0.21379244 0.073535986 0.28305176 -0.08480351
-0.03770215 0.15121202 -0.07749682 0.08557429 0.18675663 0.103177585 0.27283773 0.30732048
-0.096131995 0.10724377 0.079356045 0.22266544 -0.107877426 0.042976093 0.0133220535 0.16862255
-0.1632549 0.030772636 0.13668486 0.11362004 0.10301627 -0.11442496 -0.0045097116 0.07275097
-0.039159734 -0.062148888 -0.06467738 -0.1476374 0.06734674 0.006754728 0.084460855 0.18539497
0.22541928 0.07987136 0.068489835 -0.34681746 -0.08012265 0.011538662 -0.16398342 -0.12158999
0.12641244 0.15612526 0.076126724 -0.016421625 -0.0031584955 0.21459031 -0.15900846 0.22404
0.044649173 0.03261274 0.09122461 0.025466414 -0.042506907 0.038238365 -0.060358245 0.10439299
0.3700157 -0.10357897 0.042885967 -0.15128148 0.12363376 0.2437567 -0.1708919 0.012483671
-0.01985404 0.015531678 0.0797748 -0.02207015 -0.13892937 0.008152624 -0.1158953 0.020470226
-0.2188734 0.20204723 0.0014516636 0.031711865 -0.23420264 0.09059237 -0.2073542 0.13584359
-0.11207626 0.09718527 -0.067163445 0.13316622 0.0136541175 -0.020418003 0.113115214 0.20016907
0.02233941 0.12228667 0.3315387 0.2301664 -0.15640043 -0.10031696 -0.13406375 -0.030398088
-0.12575917 0.21707435 0.10346956 0.014083903 0.04414792 -0.2772786 0.033692744 -0.034982186
0.011411702 -0.10919932 -0.07942411 -0.06546916 -0.10673116 -0.18700857 -0.11389549 -0.09928782
-0.053253412 -0.07082535 0.15006366 -0.061933868 0.025059637 -0.059196997 -0.07392478 -0.015793722
0.00049142604 -0.18664601 0.22659095 -0.2011948 0.119142 -0.12198042 0.052080784 0.21304446
0.11603861 0.07241496 -0.03422175 0.08778787 -0.18485409 -0.10575042 0.117061846 0.13575585
-0.007281751 0.04665548 0.03510129 0.17272538 -0.07314236 -0.15768862 0.022621278 0.048294846
-0.0051722988 0.12882933 -0.008959728 -0.09105481 -0.041876774 -0.045550935 0.04595544 -0.2233219
0.10987776 -0.080672935 -0.026243323 -0.13395083 -0.21997191 -0.018182922 -0.03966567 -0.039016426
0.020348566 -0.14563867 0.009501314 -0.14493383 -0.013857791 -0.118360005 -0.027569411 0.1981137
0.21172023 0.1418503 -0.15945064 -0.1976473 0.122690044 0.106452316 0.16311245 -0.20571323
-0.18978101 0.24573392 0.07246322 -0.057758037 -0.1441189 -0.10513601 0.032164123 0.02908752
0.041166406 0.084621176 0.20218554 0.07478419 0.10718039 -0.021746198 -0.1995514 -0.013325567
0.00933833 0.25260594 0.020052236 -0.080147915 -0.0074837413 0.007734145 0.18762985 -0.12470388
00000000: 9c96 3a3e f4e0 39be eadb e1bd 2d70 7a3d
00000010: f26b e6bd 4e6e 21be 86a7 11bc 373b 0a3d
00000020: 0fbd d63c 5624 523e b977 5c3d f673 97bd
00000030: ed5f e1bc 46fb d93d cad6 47be 5432 27bd
00000040: d391 33be e4ba 183d f83b 4a3d ca11 c63c
00000050: d3a3 2c3e 2a0b 7d3e 08e3 973d 79fb 3c3d
00000060: b59c 753e 2672 71bd 9844 153e 932f 00be
00000070: 0b94 bbbd cd93 1fbe adc9 bebe 09f9 083e
00000080: 5f77 a13e ad00 b63d d127 ebbd cd0b 99be
00000090: c5ff 123e 23df 123e 0412 8f3e 9b1c 313e
000000a0: d2a3 a2bc 45b0 eebd bda6 babc d38b 4f3d
000000b0: 8e05 79bc 26a4 903d ee2d 73bd d26d bc3d
000000c0: 4055 b23d 0f08 06be 080c f53d fb98 36bd
000000d0: 68ec 5a3e 099a 963d 29ec 903e 76ad adbd
000000e0: 926d 1abd 53d7 1a3e a7b6 9ebd 9341 af3d
000000f0: 213d 3f3e c54e d33d 63b1 8b3e 1c59 9d3e
00000100: dae0 c4bd 9fa2 db3d 6c85 a23d 6902 643e
00000110: d7ee dcbd b307 303d be44 5a3c 64ab 2c3e
00000120: 4b2c 27be e516 fc3c 1ef7 0b3e a0b1 e83d
00000130: 32fa d23d a257 eabd 34c6 93bb 76fe 943d
00000140: f565 20bd d58f 7ebd 9375 84bd 422e 17be
00000150: 16ed 893d c456 dd3b d0f9 ac3d 2ed8 3d3e
00000160: 50d4 663e 9893 a33d 6644 8c3d 0f92 b1be
00000170: 5817 a4bd a80c 3d3c 45eb 27be 2c04 f9bd
00000180: 4372 013e 4ddf 1f3e 54e8 9b3d a586 86bc
00000190: c3fe 4ebb 90bd 5b3e 1dd3 22be be6a 653e
000001a0: 0de2 363d f094 053d f8d3 ba3d f19e d03c
000001b0: b91b 2ebd d59f 1c3d 353a 77bd fecb d53d
000001c0: b372 bd3e 3621 d4bd 32a9 2f3d 88e9 1abe
000001d0: b233 fd3d 5b9b 793e 49fe 2ebe 5088 4c3c
000001e0: f1a4 a2bc 9478 7e3c f860 a33d 76cc b4bc
000001f0: 8043 0ebe 9592 053c 845a edbd 2db1 a73c
00000200: 5920 60be 78e5 4e3e bf45 be3a 4de4 013d
00000210: d1d2 6fbe 7e88 b93d a954 54be 951a 0b3e
00000220: 3d88 e5bd 1209 c73d fd8c 89bd ba5c 083e
00000230: 85b5 5f3c a843 a7bc f3a8 e73d 1ff9 4c3e
00000240: 2301 b73c 6f71 fa3d 71bf a93e beb0 6b3e
00000250: 6f27 20be fa72 cdbd 0248 09be 6905 f9bc
00000260: 03c7 00be bd48 5e3e d9e7 d33d 2cc0 663c
00000270: 73d4 343d 76f7 8dbe 6701 0a3d 7b49 0fbd
00000280: 26f8 3a3c e5a3 dfbd 1ca9 a2bd b214 86bd
00000290: de95 dabd 2d7f 3fbe 0a42 e9bd 6a57 cbbd
000002a0: 4020 5abd e20c 91bd 4aaa 193e 5eae 7dbd
000002b0: de49 cd3c 8d78 72bd e065 97bd d661 81bc
000002c0: 0bd3 003a 2220 3fbe 7507 683e 0206 4ebe
000002d0: b900 f43d dfd0 f9bd a952 553d 5428 5a3e
000002e0: a7a5 ed3d 4b4e 943d 1b2c 0cbd 20ca b33d
000002f0: 644a 3dbe ad93 d8bd 1fbe ef3d 9503 0b3e
00000300: c19b eebb d119 3f3d 5fc6 0f3d ecde 303e
00000310: a9cb 95bd 2079 21be 4250 b93c d1d0 453d
00000320: 637c a9bb d6eb 033e d3cb 12bc f27a babd
00000330: fb86 2bbd 9e93 3abd c53b 3c3d 7fae 64be
00000340: 9707 e13d da37 a5bd 3dfc d6bc 682a 09be
00000350: 5140 61be 5af4 94bc 7878 22bd b0cf 1fbd
00000360: 09b2 a63c 4e22 15be 66ab 1b3c 8969 14be
00000370: ca0b 63bc bb66 f2bd 3fd9 e1bc 51de 4a3e
00000380: 30cd 583e 3441 113e 0747 23be 0e64 4abe
00000390: eb44 fb3d ac03 da3d f306 273e 7da6 52be
000003a0: f455 42be aca1 7b3e 9967 943d b193 6cbd
000003b0: e893 13be 8c51 d7bd 87be 033d f348 ee3c
000003c0: 1b9e 283d de4d ad3d ba09 4f3e 7428 993d
000003d0: 6481 db3d 1525 b2bc 3457 4cbe 7b53 5abc
000003e0: cbff 183c 9155 813e 9644 a43c 9724 a4bd
000003f0: 2c3a f5bb b66e fd3b 0a22 403e bf64 ffbd

en2.bias f4 [50]
-0.00622956 0.14595 0.073948435 0.121876664 0.12771729 0.14728081 0.00029656893 0.33751774
0.055697467 0.12682891 0.03877383 -0.011305212 0.004759379 0.2181228 0.08573299 0.10497344
0.09579694 0.24317163 -0.32398608 0.17200793 0.47625324 0.18847919 0.10786834 -0.17714986
-0.03669297 0.07573519 -0.10344425 0.00053121586 0.15536487 0.11274985 0.089749634 0.016412497
0.009838733 0.10593777 -0.30621487 -0.09067317 -0.11125364 -0.043392524 0.1945404 0.105456285
0.025101012 0.18331252 -0.30869907 0.012705937 0.4025582 -0.19889209 -0.04015166 0.012037675
0.12474908 0.13907936
00000000: 5621 ccbb eb73 153e 4772 973d 799a f93d
00000010: 52c8 023e c8d0 163e cf7c 9b39 20cf ac3e
00000020: 0723 643d 70df 013e 4fd1 1e3d 7f39 39bc
00000030: 91f4 9b3b 955b 5f3e c794 af3d 51fc d63d
00000040: 3031 c43d fc01 793e 81e1 a5be d922 303e
00000050: 77d7 f33e b000 413e 14ea dc3d c666 35be
00000060: 5e4b 16bd 0d1b 9b3d 94da d3bd 4b41 0b3a
00000070: f817 1f3e 65e9 e63d a8ce b73d 8073 863c
00000080: a332 213c e7f5 d83d 32c8 9cbe dbb2 b9bd
00000090: f3d8 e3bd 5cbc 31bd 9935 473e 77f9 d73d
000000a0: a3a0 cd3c 47b6 3b3e ce0d 9ebe 902c 503c
000000b0: 1c1c ce3e 5eaa 4bbe 1176 24bd ab39 453c
000000c0: 727c ff3d d26a 0e3e

en3.weight f4 [20, 50]
0.11116175 0.023395311 0.042984378 -0.11601295 0.08710369 0.06009964 0.12629484 -0.1906377
0.051630557 0.075585775 0.05808873 -0.14448959 0.016250115 -0.049011055 -0.040087543 -0.043287665
-0.044611134 -0.23340291 0.25195795 -0.008524585 0.029112598 -0.044414937 -0.07230176 0.10789245
0.065607555 -0.01781333 0.061407275 0.0664101 0.015990188 -0.1061693 -0.013432959 0.027119922
-0.13180341 0.019364718 0.07248276 0.108291596 0.09460516 0.009563384 -0.14972964 -0.060748655
0.06713024 -0.07962205 -0.07502544 -0.018676842 -0.15023129 0.09453077 -0.013418625 0.1590032
-0.07380155 -0.082962245 0.089561366 0.027457858 -0.089442186 -0.009657195 -0.059556648 0.013013027
0.08874356 0.09099223 -0.08591513 -0.15036102 0.07219476 0.004753317 0.119835526 0.11003224
0.01805247 -0.017482271 -0.111473575 -0.14527895 0.13478756 -0.0007780471 0.15078305 0.10576578
-0.19495004 0.16760065 0.03343176 0.11571839 -0.099155664 0.3098018 0.013596466 -0.08154179
-0.06422461 0.19378243 -0.0512783 -0.13515007 0.038189713 0.24100512 0.026621835 -0.18838708
0.06048171 -0.13310312 0.09270572 0.013803357 -0.03280378 0.092632644 -0.09031113 0.043703914
0.08548934 0.15205695 0.09070363 -0.052870125 -0.038186617 0.05919605 0.10249359 -0.02590243
-0.14766376 0.040707063 0.091919154 -0.042682674 0.03208563 0.052560646 0.03151203 -0.14644569
0.024386603 -0.01767656 0.11996962 0.013606441 0.056096554 0.108208604 0.008905528 -0.0884678
0.09795111 -0.19790697 0.0056040497 -0.1401507 -0.09165429 -0.013236675 0.15531409 -0.18456084
0.03001423 0.10940543 -0.054671735 -0.21233197 -0.035690952 -0.08019529 0.04958358 -0.13419697
0.034502286 0.091371976 0.1518353 0.025882015 0.05876733 -0.080480404 -0.046049643 -0.052240703
0.15868333 -0.099108994 0.11168973 -0.0050331694 -0.10068954 -0.118010096 0.025866004 -0.23130043
-0.003123252 0.151929 0.07573045 0.069631934 -0.18093666 0.11299376 0.19673169 -0.0520502
0.077394955 0.024608001 0.05927874 0.18826675 -0.0062963036 -0.12378824 0.006390476 0.062842466
0.0007648667 0.053401757 -0.034489386 -0.023744032 0.21603861 0.03300799 -0.12358635 0.017972669
0.06474413 0.040098052 0.06716004 -0.06523851 -0.04134193 -0.007299876 0.050294455 -0.08822362
-0.07821573 -0.04156419 0.05744953 -0.18056317 0.058264364 0.10297654 0.14275625 0.016951503
0.12720954 -0.14099847 -0.17600301 -0.048434045 0.12513521 0.047324184 0.17426889 0.10536814
0.1718604 0.015794594 0.06144374 -0.015627692 -0.026269453 0.102007985 -0.16561963 0.14291932
0.04195363 -0.004209377 0.07493273 -0.032752935 -0.032410275 0.0031923617 -0.04248624 -0.06854894
-0.06337262 0.019590953 0.14502111 -0.11276719 0.11877981 0.05498941 0.253532 -0.05357675
-0.15677318 -0.038196333 -0.07963612 -0.15346333 -0.038516827 -0.034153584 -0.11603944 -0.041529894
0.09575356 0.054938138 -0.15126504 -0.094215445 0.1813824 0.021207092 -0.054233275 -0.05488415
0.0064820875 -0.058345623 0.06702888 -0.033694264 -0.17478175 -0.073977 0.06494754 -0.050346762
0.22381546 0.049565192 -0.0917813 -0.20713621 -0.100560986 0.008480978 0.14625026 -0.12976268
00000000: c6a8 e33d 86a7 bf3c 6310 303d 3398 edbd
00000010: 6b63 b23d 0a2b 763d 6f53 013e 8736 43be
00000020: 907a 533d b7cc 9a3d 73ee 6d3d 14f5 13be
00000030: f61e 853c d1bf 48bd d632 24bd 684e 31bd
00000040: 2aba 36bd 2c01 6fbe a200 813e b3aa 0bbc
00000050: 8b7d ee3c 70ec 35bd f212 94bd b8f6 dc3d
00000060: 415d 863d 43ed 91bc 3286 7b3d 0502 883d
00000070: dbfd 823c 4a6f d9bd ea15 5cbc 992a de3c
00000080: 79f7 06be c2a2 9e3c d771 943d fcc7 dd3d
00000090: 5ac0 c13d bdaf 1c3c ba52 19be 95d3 78bd
000000a0: 947b 893d e310 a3bd f0a6 99bd 2d00 99bc
000000b0: 3bd6 19be 5999 c13d cbd9 5bbc bcd1 223e
000000c0: 4425 97bd 1ce8 a9bd f36b b73d 4def e03c
000000d0: 772d b7bd 3639 1ebc acf1 73bd 9734 553c
000000e0: 2fbf b53d 225a ba3d 46f4 afbd 3df8 19be
000000f0: d9da 933d b7c1 9b3b 546c f53d 9558 e13d
00000100: c6e2 933c fb36 8fbc 424c e4bd 01c4 14be
00000110: c005 0a3e dbf5 4bba df66 1a3e bb9b d83d
00000120: fca0 47be 819f 2b3e beef 083d c3fd ec3d
00000130: 2012 cbbd 579e 9e3e b6c3 5e3c 62ff a6bd
00000140: 3188 83bd e76e 463e 3209 52bd c864 0abe
00000150: d16c 1c3d 0cca 763e 0916 da3c 8be8 40be
00000160: abbb 773d 2f4c 08be 7fdc bd3d 7a27 623c
00000170: 425d 06bd 2fb6 bd3d 0bf5 b8bd e002 333d
00000180: 0915 af3d d1b4 1b3e d3c2 b93d 588e 58bd
00000190: 9269 1cbd 8f77 723d 29e8 d13d 5531 d4bc
000001a0: 2b35 17be 73bc 263d 1c40 bc3d 07d4 2ebd
000001b0: 396c 033d d549 573d c212 013d dcf5 15be
000001c0: 6ac6 c73c 6fce 90bc a2b2 f53d 8ded 5e3c
000001d0: 80c5 653d 799c dd3d 7ee8 113c 9b2e b5bd
000001e0: 979a c83d 20a8 4abe 2da2 b73b aa83 0fbe
000001f0: 3fb5 bbbd a4de 58bc a80a 1f3e 84fd 3cbe
00000200: 67e0 f53c f40f e03d 78ef 5fbd 8d6d 59be
00000210: ad30 12bd 6e3d a4bd 2718 4b3d ee6a 09be
00000220: 4552 0d3d 3b21 bb3d b67a 1b3e 8506 d43c
00000230: 03b6 703d e9d2 a4bd 8d9e 3cbd 59fa 55bd
00000240: e27d 223e a8f9 cabd 96bd e43d 49ed a4bb
00000250: 5136 cebd 47af f1bd f1e4 d33c 05da 6cbe
00000260: 79af 4cbb 4793 1b3e 9118 9b3d 309b 8e3d
00000270: 7647 39be 4669 e73d 0874 493e 9732 55bd
00000280: 3f81 9e3d b896 c93c 44ce 723d 00c9 403e
00000290: 3951 cebb b084 fdbd 3367 d13b 8db3 803d
000002a0: 5681 483a cdbb 5a3d be44 0dbd d882 c2bc
000002b0: 3a39 5d3e 6333 073d d71a fdbd 6b3b 933c
000002c0: 9298 843d db3d 243d 348b 893d c59b 85bd
000002d0: 2856 29bd cc33 efbb 8f01 4e3d 96ae b4bd
000002e0: 922f a0bd 363f 2abd 3350 6b3d 8de5 38be
000002f0: 9da6 6e3d 5de5 d23d b22e 123e e1dd 8a3c
00000300: 3843 023e e761 10be 223a 34be c762 46bd
00000310: 7223 003e 01d7 413d 8b73 323e 40cb d73d
00000320: 2cfc 2f3e aa63 813c 6eac 7b3d a505 80bc
00000330: 0933 d7bc 90e9 d03d 3198 29be 7159 123e
00000340: 92d7 2b3d d0ee 89bb 5576 993d f127 06bd
00000350: a3c0 04bd f136 513b 0d06 2ebd 6363 8cbd
00000360: 81c9 81bd 357d a03c 6a80 143e 7cf2 e6bd
00000370: d442 f33d 933c 613d f2ce 813e 4b73 5bbd
00000380: 2689 20be c273 1cbd 4318 a3bd 7e25 1dbe
00000390: d2c3 1dbd a1e4 0bbd 16a6 edbd 401b 2abd
000003a0: 711a c43d d006 613d 39e5 1abe 07f4 c0bd
000003b0: 4fbc 393e 7fba ad3c b623 5ebd 34ce 60bd
000003c0: b167 d43b d2fb 6ebd 7046 893d ff02 0abd
000003d0: fdf9 32be 4181 97bd 3703 853d 6838 4ebd
000003e0: e12f 653e df04 4b3d d6f7 bbbd 841b 54be
000003f0: ebf2 cdbd cdf3 0a3c a1c2 153e 82e0 04be

en3.bias f4 [20]
-0.080766656 0.12614234 0.071138464 -0.09823088 -0.06890405 -0.14667572 -0.14218687 0.1370303
-0.12377374 -0.09042093 -0.17307255 0.1654891 -0.17567936 0.059080042 -0.024946116 -0.10848784
-0.18993941 -0.03007808 -0.24270861 -0.12347236
00000000: fd68 a5bd 752b 013e 0bb1 913d 462d c9bd
00000010: 911d 8dbd 2932 16be 6f99 11be ac51 0c3e
00000020: 167d fdbd 9c2e b9bd ee39 31be fa75 293e
00000030: 4ae5 33be eafd 713d cc5b ccbc df2e debd
00000040: 7a7f 42be 4e66 f6bc 9b88 78be 14df fcbd

en4.weight f4 [3, 20]
0.23424026 -0.003334586 0.08718169 -0.049036775 0.09425846 -0.09163937 0.06275548 -0.09136519
0.006220946 0.093809925 -0.18984286 -0.07641503 0.10441837 -0.0042709443 0.067582175 0.15967824
-0.2992337 -0.21801572 -0.21293963 0.2617697 0.15302452 0.10772316 -0.13095553 0.14981799
0.10722218 0.16598089 -0.19467688 -0.01783946 -0.024649993 -0.18728988 0.23576133 0.050443903
-0.1749488 -0.009424605 0.15608664 -0.10494885 -0.13926804 -0.10956666 0.018057803 -0.0029981793
-0.16743124 -0.103199415 0.024727913 0.075450726 0.0676809 -0.12894231 0.12016539 0.018657878
0.21404715 -0.070445545 0.18705554 0.27815983 0.14870155 0.0028740512 0.21075933 0.17304508
-0.1133051 0.05845933 -0.18175091 -0.057278115
00000000: aedc 6f3e 1289 5abb 508c b23d c9da 48bd
00000010: 940a c13d 6cad bbbd f285 803d ac1d bbbd
00000020: 14d9 cb3b 6b1f c03d 2b66 42be 7c7f 9cbd
00000030: 4cd9 d53d 47f3 8bbb 8668 8a3d b182 233e
00000040: 2935 99be 833f 5fbe d90c 5abe ae06 863e
00000050: 76b2 1c3e f69d dc3d 3519 06be e369 193e
00000060: 4d97 db3d e5f6 293e 6059 47be 0f24 92bc
00000070: c8ee c9bc ebc8 3fbe 6b6b 713e 449e 4e3d
00000080: c725 33be a969 1abc 2dd5 1f3e 6cef d6bd
00000090: 489c 0ebe 7c64 e0bd f5ed 933c 1a7d 44bb
000000a0: 1873 2bbe 375a d3bd 3192 ca3c e985 9a3d
000000b0: 499c 8a3d 7409 04be 4619 f63d 68d8 983c
000000c0: 2d2f 5b3e c145 90bd 7d8b 3f3e f76a 8e3e
000000d0: 3845 183e 945a 3c3b 4bd1 573e bb32 313e
000000e0: 810c e8bd 0d73 6f3d e91c 3abe 759c 6abd

en4.bias f4 [3]
-0.03216479 -0.13436535 -0.0061979913
00000000: 3abf 03bd 1297 09be 8518 cbbb

de1.weight f4 [20, 3]
-0.54365325 -0.5040086 -0.08558664 -0.2198713 0.8550848 -0.11689853 0.21470426 -0.18923828
0.54535335 0.58107716 0.14470948 -0.19142856 0.6758869 -0.17865764 -0.06797618 -0.4010897
0.49386567 -0.6143602 0.43971497 -0.32990605 -0.5842363 0.25439432 -0.25947842 0.5342176
-0.489509 -0.6521196 0.670164 0.5465592 -0.2295081 -0.51161873 -0.31544253 -0.5385783
0.026033523 0.027982585 0.024375513 0.7398051 -0.32262015 -0.4008761 0.45181957 0.024930721
-0.5135178 -0.7447618 0.59746873 -0.17949545 -0.52024984 -0.40360165 -0.5632595 -0.6070039
0.41071337 -0.66270554 0.652244 -0.045700606 -0.5503279 -0.39158496 0.87427646 0.5071973
0.31484058 0.43232206 -0.6993692 -0.3392538
00000000: dc2c 0bbf b506 01bf 0c48 afbd f125 61be
00000010: d6e6 5a3f 7f68 efbd 6fdb 5b3e aec7 41be
00000020: 479c 0b3f 79c1 143f b92e 143e d905 44be
00000030: ed06 2d3f 07f2 36be 1837 8bbd a15b cdbe
00000040: f6db fc3e b646 1dbf 5222 e13e 72e9 a8be
00000050: 8390 15bf f93f 823e 5bda 84be 7cc2 083f
00000060: eca0 fabe 4ff1 26bf de8f 2b3f 4eeb 0b3f
00000070: 2c04 6bbe 72f9 02bf af81 a1be 44e0 09bf
00000080: 4144 d53c bc3b e53c 28af c73c de63 3d3f
00000090: 782e a5be a23f cdbe e554 e73e 833b cc3c
000000a0: e775 03bf b6a8 3ebf b6f3 183f a8cd 37be
000000b0: 182f 05bf e0a4 cebe c631 10bf 9c64 1bbf
000000c0: 0649 d23e 12a7 29bf 76f9 263f 8f30 3bbd
000000d0: 4ae2 0cbf d37d c8be 95d0 5f3f afd7 013f
000000e0: c932 a13e 5159 dd3e dc09 33bf adb2 adbe

de1.bias f4 [20]
-0.28499725 0.48532206 -0.22598541 -0.010138918 -0.32395202 -0.20091228 0.07509402 -0.124129295
-0.2830943 0.12122334 -0.011251962 0.26163146 0.31154034 -0.5092509 -0.1283637 -0.071172245
0.33928382 -0.05693184 -0.50706357 0.30571416
00000000: 29eb 91be 227c f83e b868 67be b41d 26bc
00000010: 0add a5be f3bb 4dbe e5ca 993d 8037 febd
00000020: bcf1 90be f143 f83d 265a 38bc 8ff4 853e
00000030: 3782 9f3e 445e 02bf c671 03be c1c2 91bd
00000040: 9cb6 ad3e 5c31 69bd ebce 01bf 9186 9c3e

de2.weight f4 [50, 20]
0.16043122 -0.004054597 -0.21121909 0.08320962 -0.02543548 0.06795746 0.20321625 -0.24607043
-0.19788817 -0.041454345 -0.014278468 -0.20334366 -0.14788705 0.30523068 0.05356998 0.32508165
-0.12786236 -0.003753438 -0.06663822 0.24268587 0.2801169 0.14775333 -0.16124095 -0.118225105
-0.061088514 -0.13257058 0.24466571 0.23468347 0.313038 -0.22662489 0.24846904 0.07023715
0.3322648 0.10701081 0.17454101 0.053318694 0.41073215 0.1293767 -0.2899411 0.08410121
-0.39680526 0.1646671 -0.31791803 0.22573045 0.061642043 0.08353513 -0.021437217 -0.4078233
-0.4841768 0.41755265 -0.08419681 -0.05615525 0.07863489 -0.07930063 0.09976485 -0.062516585
0.022250652 -0.2809682 0.21509805 0.16387133 0.17163353 -0.4864863 0.7453049 0.13888748
0.14318824 -0.20387167 -0.28959048 0.3255166 0.65483475 0.07125186 -0.04721096 0.08237739
0.15574998 0.020619432 -0.023226265 -0.35318056 0.14542082 0.11259249 0.34235314 0.08655101
-0.16283631 0.11948258 0.32058603 -0.11627562 0.1106517 -0.52238494 -0.036104776 0.42918104
0.2918263 0.07613947 0.44005764 0.5278968 0.24823341 -0.41987774 -0.18748306 -0.2947408
1.1584462 0.18458329 -0.13523757 0.31127638 0.1399172 0.26536205 0.030917492 -0.008805855
-0.13288724 -0.14978197 -0.28727317 -0.24279554 -0.0873999 -0.3235474 -0.0075035826 0.044524744
0.08778903 -0.1951241 0.050762717 -0.23492819 -0.29124287 0.06448519 0.28443182 -0.117761694
-0.09791176 -0.1672468 -0.19084093 -0.08041238 0.03735601 -0.14432824 0.17157 -0.020207234
0.3131411 0.08834707 0.22941495 -0.15131734 0.03303631 0.005497471 -0.13019863 0.275243
0.050578598 -0.095839255 -0.35452375 -0.12232636 0.06560591 0.21905749 -0.16810039 0.13117976
0.06384578 -0.044857185 0.24031225 0.03651462 -0.4024485 0.09700366 -0.29152387 0.12564684
-0.04640702 0.10438869 0.043752357 -0.2599694 0.13351172 0.073678814 0.16953048 0.09689499
-0.14064404 0.053481653 -0.17689548 0.0838102 -0.037378907 -0.58362204 0.25031492 -0.024631834
0.29638234 0.38442668 0.17241967 0.19500953 0.37567902 0.13414147 0.019742515 0.30522707
0.6297709 0.42139253 -0.32566494 1.0608985 0.113783754 0.15705009 -0.21707743 0.13560738
0.021488726 0.5712629 -0.16791415 -0.42828906 -0.31066483 -0.095703706 -0.11275877 -0.26652542
-0.43363664 0.16562739 0.26446915 0.13981415 -0.80805135 -0.21995771 0.26790985 -0.34376502
-0.2136198 -0.07182503 -0.042612046 0.2796909 -0.14595212 0.24091469 -0.0021800788 0.06514633
-0.22742292 -0.0027750842 -0.2783108 -0.13333446 -0.13483866 0.09997586 -0.05762107 0.118210234
-0.2256154 -0.11630337 0.0034440744 0.06237309 -0.16320553 0.086086266 0.32404482 0.12568858
-0.036932565 -0.2819937 0.18783334 0.29690647 0.064956196 0.020156235 -0.019549038 0.23274794
0.042301238 -0.084162824 0.023068609 0.019179078 0.12982324 -0.32925987 0.27007398 0.1047477
-0.15717454 0.0601779 0.21542288 0.05841101 -0.058332477 0.15158205 -0.08248414 -0.12673484
-0.12107883 -0.24363402 0.040754814 0.036168396 -0.30412754 -0.19004571 0.015239016 -0.260285
00000000: 1548 243e 6ddc 84bb d149 58be ce69 aa3d
00000010: 115e d0bc 482d 8b3d ec17 503e e3f9 7bbe
00000020: 32a3 4abe 08cc 29bd 3cf0 69bc 5239 50be
00000030: b46f 17be 3247 9c3e 326c 5b3d 1a71 a63e
00000040: 5aee 02be 3dfc 75bb 9e79 88bd a582 783e
00000050: 7b6b 8f3e a64c 173e 591c 25be 0120 f2bd
00000060: f337 7abd 95c0 07be a689 7a3e dd50 703e
00000070: 8446 a03e 5b10 68be ab6e 7e3e 7fd8 8f3d
00000080: 9d1e aa3e 7c28 db3d e1ba 323e b464 5a3d
00000090: 7c4b d23e 537b 043e 2973 94be 413d ac3d
000000a0: 0f2a cbbe 7e9e 283e 27c6 a2be e225 673e
000000b0: 5e7c 7c3d 7714 ab3d 1a9d afbc 37ce d0be
000000c0: 06e6 f7be 76c9 d53e 616f acbd 0c03 66bd
000000d0: 540b a13d 5e68 a2bd 8451 cc3d b208 80bd
000000e0: 0047 b63c 10db 8fbe aa42 5c3e e3cd 273e
000000f0: b3c0 2f3e bb14 f9be 4dcc 3e3f 8538 0e3e
00000100: f09f 123e bcc3 50be 3445 94be 1daa a63e
00000110: 40a3 273f 7fec 913d 4860 41bd 7ab5 a83d
00000120: ec7c 1f3e 15ea a83c 0245 bebc 15d4 b4be
00000130: 32e9 143e e496 e63d e948 af3e a841 b13d
00000140: 90be 26be 48b3 f43d da23 a43e ea21 eebd
00000150: 5c9d e23d 05bb 05bf 9ae2 13bd 9ebd db3e
00000160: 426a 953e 03ef 9b3d 3c4f e13e 3f24 073f
00000170: e630 7e3e 37fa d6be 8ffb 3fbe 44e8 96be
00000180: f747 943f 6703 3d3e b87b 0abe 9e5f 9f3e
00000190: 7446 0f3e 89dd 873e ae46 fd3c 6f46 10bc
000001a0: 9813 08be 7260 19be 7815 93be 659f 78be
000001b0: b8fe b2bd 01a8 a5be 9de0 f5bb 945f 363d
000001c0: bcca b33d 9dce 47be 91ec 4f3d 0491 70be
000001d0: c91d 95be d010 843d 0ca1 913e 0b2d f1bd
000001e0: f685 c8bd bf42 2bbe ce6b 43be 3faf a4bd
000001f0: 9e02 193d c8ca 13be 0cb0 2f3e a489 a5bc
00000200: 0854 a03e 4fef b43d c1eb 6a3e eff2 1abe
00000210: 1551 073d 2124 b43b ca52 05be a7ec 8c3e
00000220: 812b 4f3d 5f47 c4bd 2384 b5be 3e86 fabd
00000230: 645c 863d 9b50 603e 8222 2cbe fd53 063e
00000240: 94c1 823d 2bbc 37bd 6a14 763e 5b90 153d
00000250: bb0d cebe dba9 c63d 9e42 95be 91a9 003e
00000260: 4a15 3ebd bdc9 d53d ac35 333d b61a 85be
00000270: 4cb7 083e ebe4 963d 6699 2d3e e170 c63d
00000280: fe04 10be 940f 5b3d 1724 35be afa4 ab3d
00000290: a01a 19bd 4168 15bf 4729 803e b3c8 c9bc
000002a0: 6dbf 973e 93d3 c43e c88e 303e 94b0 473e
000002b0: 0059 c03e 625c 093e 0ebb a13c b946 9c3e
000002c0: aa38 213f c3c0 d73e 8ebd a6be 86cb 873f
000002d0: 7507 e93d bdd1 203e 8c49 5ebe a9dc 0a3e
000002e0: 2009 b03c 493e 123f b0f1 2bbe b448 dbbe
000002f0: 760f 9fbe 4e00 c4bd 12ee e6bd 0576 88be
00000300: 9f05 debe 3a9a 293e 8068 873e 712b 0f3e
00000310: 74dc 4ebf 983c 61be 7b2b 893e f801 b0be
00000320: 26bf 5abe 0019 93bd f889 2ebd a533 8f3e
00000330: 7974 15be 57b2 763e a7df 0ebb 706b 853d
00000340: 8ee1 68be 30de 35bb c17e 8ebe d488 08be
00000350: 2513 0abe 25c0 cc3d 1204 6cbd 3518 f23d
00000360: b907 67be 7630 eebd fbb5 613b ed7a 7f3d
00000370: 5a1f 27be ff4d b03d 34e9 a53e 82b4 003e
00000380: 9a46 17bd 7a61 90be 6257 403e 2004 983e
00000390: c107 853d b01e a53c 4e25 a0bc 7a55 6e3e
000003a0: 1044 2d3d 8f5d acbd 61fa bc3c 711d 9d3c
000003b0: 62f0 043e c094 a8be 2347 8a3e f685 d63d
000003c0: 5df2 20be 1a7d 763d d197 5c3e 6240 6f3d
000003d0: 09ee 6ebd 5338 1b3e 72ed a8bd c7c6 01be
000003e0: 2df8 f7bd 327b 79be 85ee 263d 5025 143d
000003f0: 9bb6 9bbe 589b 42be 11ad 793c 1344 85be

de2.bias f4 [50]
0.16052899 -0.0032064999 -0.023870049 -0.29476774 0.27480617 -0.09674598 0.04748213 -0.2671176
0.30193213 0.11484201 0.06859973 -0.030377993 -0.16999017 0.1221798 0.33897024 0.066004
-0.07321489 -0.14555794 0.22222483 -0.1712407 -0.06445908 0.05823678 0.3482537 -0.09036322
-0.2966973 -0.08042256 -0.0024404314 -0.16898361 -0.17942092 -0.11365093 -0.001612417 0.15144533
-0.006484394 0.3626233 0.24515547 0.028317304 -0.20379311 -0.2912701 0.06743058 -0.11051536
0.029286057 -0.082101725 -0.043350626 -0.26513806 -0.25078687 -0.09233044 -0.13848387 0.14768097
-0.057152804 0.13630965
00000000: b661 243e 2424 52bb 1f8b c3bc cceb 96be
00000010: 65b3 8c3e c222 c6bd 9f7c 423d a3c3 88be
00000020: d996 9a3e 4a32 eb3d 047e 8c3d 45db f8bc
00000030: e711 2ebe 6739 fa3d 828d ad3e 1b2d 873d
00000040: b0f1 95bd 240d 15be e88e 633e b959 2fbe
00000050: 1f03 84bd b189 6e3d 4f4e b23e 5a10 b9bd
00000060: b5e8 97be 95b4 a4bd a5ef 1fbb 0a0a 2dbe
00000070: 1eba 37be d2c1 e8bd bd57 d3ba 7c14 1b3e
00000080: 0a7b d4bb c3a9 b93e 090a 7b3e b1f9 e73c
00000090: 24af 50be 5b21 95be 0b19 8a3d e155 e2bd
000000a0: 50e9 ef3c f324 a8bd 6d90 31bd 2dc0 87be
000000b0: 2367 80be be17 bdbd b7ce 0dbe ae39 173e
000000c0: 0f19 6abd c294 0b3e

de3.weight f4 [50, 50]
0.14041404 -0.102080464 -0.20135781 0.17061526 -0.47058737 -0.338022 0.24271725 -0.103415206
-0.088095896 0.23950432 0.1522701 -0.22101533 -0.34103364 -0.5691556 -0.24525848 0.015790036
0.055397473 -0.028277645 0.042167317 -0.18094705 -0.12099536 0.028028797 -0.43790123 0.19024251
-0.15174022 0.21625704 -0.06551148 -0.10324207 0.40179014 -0.03927624 -0.122879595 0.21963584
0.06671995 0.05188089 -0.35855862 0.48567593 0.48870668 -0.0059808064 0.095107585 -0.23009743
-0.04273308 -0.0046523185 0.07153148 0.10906447 -0.3973032 0.10252508 -0.42252308 0.10233607
-0.040868197 -0.047895662 0.0329829 0.008799941 -0.15267718 -0.048432764 0.17269062 -0.08807576
0.10152971 0.041218866 0.08641251 -0.19884366 -0.20751351 0.026509982 0.049699754 -0.07151402
-0.09151364 -0.12767924 0.0601824 -0.23117395 0.17372425 -0.025277736 -0.18959567 0.11767997
-0.0242164 0.13985522 0.25817025 0.08636175 -0.033298988 0.046478916 0.18800709 -0.09675927
-0.0120026935 0.20063853 -0.17438284 -0.09412587 -0.0049146162 0.041365113 -0.04233342 0.02311019
0.19403395 0.07009473 0.011321469 -0.19228747 -0.0071630115 0.05767711 0.06715375 0.22285832
-0.09735157 0.06266684 0.027149957 0.023577038 0.066772304 -0.48798686 -0.54267514 0.48866022
-0.38479587 -0.15679827 -0.61132103 0.9804932 -1.0395216 0.18234585 -0.1963475 -0.0073503517
0.21410364 -0.36280417 -0.49137282 0.040764507 0.47749355 0.12924337 -0.955473 0.53405
0.5850177 -0.04109884 -0.58543974 0.26879054 0.36328036 0.07288089 0.23171346 0.5291792
0.32938895 0.79829806 0.8333137 -0.60739565 0.05101044 -0.7707275 -0.6248361 0.5919719
0.28627416 0.7008407 -0.8374803 -0.36212027 -0.5712716 0.2707885 0.4474877 0.7908074
-0.2961346 0.11965406 0.110551886 -0.25037217 -0.32246557 -0.20023471 0.029048137 -0.24811117
-0.2320105 0.26884753 0.17844686 0.025043344 -0.25430447 0.1568276 -0.33146748 0.119461946
-0.058675796 0.099216126 0.21076395 -0.15224107 -0.36956453 -0.08562483 0.178013 0.15270211
-0.1401206 0.086513616 0.11962294 0.119656704 -0.22376645 0.23914765 0.21483582 -0.11628857
0.15361476 0.018464988 -0.053659614 -0.08488098 0.18506835 -0.19780004 -0.071614906 -0.31233907
0.073633246 -0.05963689 -0.18520726 0.490632 -0.28153992 -0.10734387 -0.32777318 0.4085843
0.019681945 -0.0011033702 -0.11441683 -0.29986614 0.20347863 -0.100514755 -0.046629213 0.17737943
-0.029212533 0.07526488 0.006280762 0.053605366 -0.12478108 0.090145394 0.045781486 -0.10477855
-0.06570864 0.13856596 -0.05832557 0.046215598 0.17296822 0.15791814 -0.18674546 -0.022050865
0.17923 -0.011946758 0.23912112 -0.18117848 -0.084961064 -0.032185834 0.110211596 0.08407279
0.14996117 -0.10967497 -0.046365082 -0.02209047 0.03606617 0.1258462 0.03753525 0.1621972
0.07493191 -0.07022948 0.037447322 -0.12777565 -0.056903202 -0.0635291 -0.049706124 0.122860946
-0.1089493 -0.19536693 0.15264046 -0.031119535 0.12531514 0.05142872 -0.014925766 0.10521813
0.30231538 -0.046967056 0.00064379454 0.025895558 -0.00942285 0.036210768 -0.09205613 -0.06314957
00000000: b3c8 0f3e 900f d1bd be30 4ebe c4b5 2e3e
00000010: d4f0 f0be 3811 adbe df8a 783e 5acb d3bd
00000020: 9f6b b4bd 9f40 753e b1ec 1b3e d851 62be
00000030: f69b aebe 2eb4 11bf 0a25 7bbe 1b5a 813c
00000040: 76e8 623d 85a6 e7bc a3b7 2c3d 2f4a 39be
00000050: 6acc f7bd a69c e53c 9734 e0be efce 423e
00000060: ca61 1bbe 7c72 5d3e e22a 86bd 9470 d3bd
00000070: 70b7 cd3e 1fe0 20bd 4ca8 fbbd 38e8 603e
00000080: 78a4 883d 0e81 543d ff94 b7be 84aa f83e
00000090: c337 fa3e a4fa c3bb c4c7 c23d a99e 6bbe
000000a0: e208 2fbd 7a72 98bb 197f 923d 315d df3d
000000b0: 536b cbbe abf8 d13d f254 d8be 9395 d13d
000000c0: 6965 27bd 3e2e 44bd 1419 073d a12d 103c
000000d0: 6857 1cbe 6f61 46bd cfd5 303e 1061 b4bd
000000e0: cfee cf3d 1dd5 283d 0bf9 b03d ac9d 4bbe
000000f0: 6c7e 54be 762b d93c f891 4b3d f175 92bd
00000100: 816b bbbd 59be 02be d281 763d ddb8 6cbe
00000110: c5e4 313e 4113 cfbc 5e25 42be 3202 f13d
00000120: 7961 c6bc 3536 0f3e e42e 843e 6ede b03d
00000130: 8564 08bd ad60 3e3d ee84 403e b929 c6bd
00000140: f2a6 44bc 3074 4d3e 6a91 32be 10c5 c0bd
00000150: ca0a a1bb 776e 293d cf65 2dbd 9551 bd3c
00000160: d6b0 463e d38d 8f3d af7d 393c 02e7 44be
00000170: b2b7 eabb d53e 6c3d e887 893d f934 643e
00000180: 4360 c7bd 7957 803d 9669 de3c a224 c13c
00000190: ebbf 883d 6ad9 f9be c2ec 0abf ac31 fa3e
000001a0: f703 c5be ba8f 20be 897f 1cbf 9a01 7b3f
000001b0: 0b0f 85bf dfb8 3a3e 520f 49be 38db f0bb
000001c0: fc3d 5b3e 78c1 b9be 3895 fbbe aff8 263d
000001d0: 097a f43e 6058 043e e199 74bf 80b7 083f
000001e0: b8c3 153f 4257 28bd 61df 15bf ea9e 893e
000001f0: e2ff b93e 9342 953d 4b46 6d3e 4a78 073f
00000200: aba5 a83e 435d 4c3f 0c54 553f 487e 1bbf
00000210: 53f0 503d 664e 45bf 42f5 1fbf 788b 173f
00000220: 8792 923e 4c6a 333f 1c65 56bf d467 b9be
00000230: db3e 12bf caa4 8a3e 1c1d e53e 5b72 4a3f
00000240: f49e 97be 300d f53d 0769 e23d c830 80be
00000250: 351a a5be 540a 4dbe 5cf6 ed3c db10 7ebe
00000260: 2994 6dbe 62a6 893e c6ba 363e b327 cd3c
00000270: 3234 82be 6a97 203e 1bb6 a9be 77a8 f43d
00000280: 0856 70bd d331 cb3d 81d2 573e 15e5 1bbe
00000290: 9037 bdbe 125c afbd 0a49 363e f15d 1c3e
000002a0: c67b 0fbe 0d2e b13d dffc f43d 930e f53d
000002b0: 0823 65be 1fe3 743e ecfd 5b3e b428 eebd
000002c0: 304d 1d3e e343 973c 2fca 5bbd 14d6 adbd
000002d0: 8f82 3d3e 188c 4abe d6aa 92bd e8ea 9fbe
000002e0: 07cd 963d d045 74bd f9a6 3dbe 1e34 fb3e
000002f0: 0026 90be 1ad7 dbbd e3d1 a7be f631 d13e
00000300: 083c a13c f69e 90ba 5f53 eabd 0e88 99be
00000310: b45c 503e aeda cdbd 46fe 3ebd f4a2 353e
00000320: 1f4f efbc 7924 9a3d dace cd3b 4d91 5b3d
00000330: 398d ffbd 269e b83d 5e85 3b3d 2396 d6bd
00000340: 4092 86bd 3ce4 0d3e cbe6 6ebd 914c 3d3d
00000350: 951e 313e 4bb5 213e 343a 3fbe 04a4 b4bc
00000360: 1288 373e 56bc 43bc 2bdc 743e da86 39be
00000370: 1100 aebd 4bd5 03bd 9eb6 e13d 5b2e ac3d
00000380: 6c8f 193e 459d e0bd 50e9 3dbd 13f7 b4bc
00000390: 1fba 133d d4dd 003e 90be 193d 0617 263e
000003a0: e775 993d 79d4 8fbd 5d62 193d 9fd7 02be
000003b0: 5513 69bd 8b1b 82bd a698 4bbd 859e fb3d
000003c0: d020 dfbd 450e 48be c84d 1c3e 65ee febc
000003d0: 9d52 003e eca6 523d 338b 74bc 9a7c d73d
000003e0: 15c9 9a3e 8760 40bd 52c4 283a ec22 d43c
000003f0: 4c62 1abc be51 143d ed87 bcbd 9054 81bd

de3.bias f4 [50]
0.20953846 -0.043781 -1.2061752 -0.053420853 -0.14560346 0.033939157 -0.052864015 -0.20014563
0.08205965 0.16310792 0.22682124 -0.14571664 0.0306819 0.14150757 0.05200873 0.0637215
0.03339105 -0.15751036 -0.41815758 -0.050778136 0.01673374 0.19828129 -0.023619797 -0.17602459
0.008841373 -0.05226253 0.2460823 0.020316644 -0.26673156 0.014898783 -0.18891855 0.75763935
0.08522466 0.6854423 -0.03136616 0.124713324 -0.15586478 -0.05675756 0.7976767 0.048986457
-0.22869438 0.055817362 0.09627888 -0.46370238 0.038240008 -0.10217229 -0.36949116 0.4836212
-0.24234082 -0.008169995
00000000: 4091 563e b553 33bd f363 9abf d3cf 5abd
00000010: 1319 15be c903 0b3d f087 58bd faf2 4cbe
00000020: e40e a83d c305 273e d443 683e be36 15be
00000030: 9c58 fb3c 5ce7 103e 1b07 553d 6b80 823d
00000040: 0ec5 083d 654a 21be c018 d6be bcfc 4fbd
00000050: 3215 893c 400a 4b3e 4e7e c1bc ca3f 34be
00000060: 68db 103c 3c11 56bd 00fd 7b3e 176f a63c
00000070: 0a91 88be 061a 743c dd73 41be a7f4 413f
00000080: 448a ae3d 2679 2f3f cd79 00bd b369 ff3d
00000090: 049b 1fbe 9e7a 68bd 8a34 4c3f 06a6 483d
000000a0: dc2e 6abe bfa0 643d dd2d c53d 666a edbe
000000b0: 8ea1 1c3d b53f d1bd f22d bdbe 339d f73e
000000c0: 3128 78be 71db 05bc

de4.weight f4 [4, 50]
-0.16366708 0.099062644 0.30281425 -0.33065012 -0.01663628 -0.11115815 -0.5374923 -0.20114218
-0.0023044494 0.096663125 -0.27810296 0.30004212 -0.13208129 0.37725958 0.008909369 -0.094205976
0.068153925 0.036959477 0.23664181 0.026267298 -0.08804059 0.160647 0.04959607 -0.18890975
0.43737575 -0.22758786 -0.2060647 -0.0817186 0.30446133 -0.1632433 0.02248264 -0.34778282
-0.012061672 -0.23376936 -0.21620476 -0.21539518 0.037482284 0.036285773 -0.34231067 -0.17598477
-0.07103813 0.17611249 0.016683768 0.06261061 -0.030070404 0.024851695 -0.051453058 -0.110840306
0.147942 0.051402163 0.06403706 0.026234232 0.03470443 -0.049208052 -0.0072941114 -0.032318324
0.13480179 -0.16098703 -0.09442454 0.020029157 -0.14101541 -0.08443059 0.025141763 -0.05351381
0.06673817 -0.37745005 0.17406939 0.02560576 0.11508767 0.11569975 0.021600181 -0.010922245
0.22310719 -0.0034560238 0.039763547 0.014008682 0.12561376 -0.06593705 -0.013973479 -0.022141686
-0.028578624 -0.017181618 0.26080155 0.054896258 0.42307574 0.16190125 -0.019968975 0.011305972
0.05789656 0.005607202 -0.116806306 -0.09165501 -0.008845512 -0.020934125 -0.024044286 0.044154137
0.10503681 0.036718678 0.0228396 0.02283092 0.015567961 0.042355385 -0.23530966 0.012659762
0.06733715 0.15346919 0.04171928 0.012795052 -0.065882176 0.07247035 0.100642875 -0.081492335
-0.26881066 -0.047612205 0.08007003 -0.0075029433 -0.01123694 0.14555831 0.18330249 -0.12618035
0.07488072 0.33871362 0.00613551 -0.015927121 0.033268787 0.036723245 -0.1843489 0.105569854
-0.0609257 0.088731386 0.005667563 0.32860872 -4.634905e-05 -0.25708777 0.06760208 -0.06361984
-0.24352959 0.00056761096 -0.12965022 0.33399624 -0.2305609 0.1939606 -0.19703066 -0.3063978
0.12771828 -0.048126496 0.21263205 -0.1980857 -0.2096754 -0.0065120324 0.57794344 0.07240135
-0.6093038 0.18817852 -0.033540837 -0.11228258 0.22187655 0.23784336 -0.5269584 0.30481797
0.06334639 -0.027572438 -0.025807751 -0.14549786 0.069094785 -0.03211882 -0.5082884 -0.07720384
-0.3269625 -0.084959134 -0.060387645 0.04270347 0.37950826 0.18494356 -0.27627546 -0.067385964
-0.3932112 -0.1986762 -0.06485079 -0.028429072 -0.0453485 0.5843312 -0.33033675 0.41727144
0.061232936 0.18794289 -0.028284082 -0.047128364 0.53505373 -0.07498426 -0.20358342 0.003402099
0.008439338 -0.5783592 -0.5636108 -0.500228 -0.3646116 0.3793941 -0.08764486 -0.012351575
00000000: 5898 27be 5be1 ca3d 780a 9b3e f94a a9be
00000010: cf48 88bc e2a6 e3bd 1899 09bf 37f8 4dbe
00000020: 3f06 17bb 51f7 c53d 8363 8ebe 1f9f 993e
00000030: 5140 07be 2b28 c13e 9af8 113c 10ef c0bd
00000040: 4994 8b3d d262 173d 3b52 723e 842e d73c
00000050: a04e b4bd a680 243e 4025 4b3d 8f71 41be
00000060: b7ef df3e cb0c 69be a002 53be 155c a7bd
00000070: 5be2 9b3e 4029 27be 832d b83c 9710 b2be
00000080: 529e 45bc 3c61 6fbe c864 5dbe 8e90 5cbe
00000090: 0687 193d 64a0 143d 5843 afbe 5a35 34be
000000a0: 707c 91bd d556 343e 66ac 883c fe39 803d
000000b0: 3556 f6bc c895 cb3c 71c0 52bd 3e00 e3bd
000000c0: 1c7e 173e 138b 523d dd25 833d 2ce9 d63c
000000d0: 3b26 0e3d 628e 49bd 7103 efbb 3860 04bd
000000e0: 7b09 0a3e c9d9 24be a761 c1bd 3014 a43c
000000f0: 5866 10be f2e9 acbd 19f6 cd3c 4c31 5bbd
00000100: 06ae 883d 2241 c1be 3f3f 323e 2cc3 d13c
00000110: 16b3 eb3d fef3 ec3d ddf2 b03c 37f3 32bc
00000120: 3676 643e 757e 62bb 1adf 223d ac84 653c
00000130: e5a0 003e 010a 87bd 05f1 64bc 7b62 b5bc
00000140: b81d eabc 77c0 8cbc c887 853e e6da 603d
00000150: 629d d83e 71c9 253e fa95 a3bc af3c 393c
00000160: f124 6d3d 9fbc b73b 2538 efbd 9fb5 bbbd
00000170: c4ec 10bc 0b7e abbc 86f8 c4bc f8da 343d
00000180: 8a1d d73d 5366 163d 1d1a bb3c e907 bb3c
00000190: c310 7f3c d77c 2d3d 04f5 70be e46a 4f3c
000001a0: 0fe8 893d 0727 1d3e d6e1 2a3d 56a2 513c
000001b0: 3ced 86bd 566b 943d da1d ce3d 74e5 a6bd
000001c0: 8da1 89be 0405 43bd c2fb a33d 40db f5bb
000001d0: 241b 38bc 3d0d 153e a6b3 3b3e 6c35 01be
000001e0: 105b 993d df6b ad3e 630c c93b 9879 82bc
000001f0: da44 083d 1d6b 163d f5c5 3cbe 0235 d83d
00000200: 3a8d 79bd cdb8 b53d f7b6 b93b 673f a83e
00000210: ea66 42b8 02a1 83be f672 8a3d 1e4b 82bd
00000220: d25f 79be bacb 143a 07c3 04be 8e01 ab3e
00000230: 2818 6cbe 9c9d 463e 68c2 49be 2ce0 9cbe
00000240: 95c8 023e 4a20 45bd 37bc 593e fad6 4abe
00000250: 26b5 56be e362 d5bb 1af4 133f 2947 943d
00000260: 55fb 1bbf dfb1 403e 1e62 09bd 69f4 e5bd
00000270: 9b33 633e 368d 733e bfe6 06bf 1a11 9c3e
00000280: c1bb 813d 98df e1bc c76a d3bc 64fd 14be
00000290: 9181 8d3d 068f 03bd 301f 02bf 0c1d 9ebd
000002a0: a167 a7be 0eff adbd 0959 77bd d5e9 2e3d
000002b0: e84e c23e d861 3d3e fa73 8dbe a701 8abd
000002c0: fa52 c9be c671 4bbe 7ed0 84bd 16e4 e8bc
000002d0: 59bf 39bd bb96 153f e621 a9be 9aa4 d53e
000002e0: 63cf 7a3d 1a74 403e 05b4 e7bc ac09 41bd
000002f0: 48f9 083f 5991 99bd 2c78 50be c0f5 5e3b
00000300: 2645 0a3c 590f 14bf cc48 10bf f10e 00bf
00000310: 5fae babe f23f c23e 267f b3bd 435e 4abc

de4.bias f4 [4]
-0.17781748 -0.11994434 0.06781075 0.43198097
00000000: c915 36be 61a5 f5bd 5de0 8a3d 9c2c dd3e

exp_avg f4 [50, 4]
1.8562778e-06 -2.7786166e-06 -3.7371215e-06 1.1721164e-06 -1.8154551e-06 4.766152e-06 1.3682243e-06 3.190317e-06
-1.7706766e-07 1.0698842e-06 2.1932053e-06 7.977549e-07 -1.5158517e-07 5.9206686e-06 -4.0760146e-06 -9.229966e-06
6.5165327e-06 6.259905e-06 -1.1195916e-06 8.8911145e-07 2.4135095e-06 8.65661e-07 3.2755086e-06 -3.727923e-06
-1.9606937e-06 1.0796525e-06 5.8883006e-07 -1.4983916e-06 -2.7040635e-06 -5.1250368e-06 1.0389513e-08 5.5420815e-06
1.273207e-06 2.7461158e-06 -2.4716758e-06 -5.473977e-06 8.3907225e-06 2.870242e-06 -4.292161e-06 -5.7732864e-06
2.097202e-07 8.885621e-07 1.7068683e-06 2.3548223e-06 5.762414e-06 1.344856e-06 -2.780485e-06 5.1089655e-06
1.6780251e-06 -8.923424e-07 -1.147347e-06 1.2445604e-06 4.235925e-06 1.1028e-06 -1.1798064e-06 2.973089e-07
1.9864113e-07 -4.7357953e-06 3.1500663e-06 2.6279534e-07 8.6766966e-07 -5.318076e-06 2.2414704e-06 8.960636e-06
-4.5846737e-06 1.7389261e-06 1.2373454e-06 5.3710896e-06 8.778075e-06 1.8317965e-06 -1.4980682e-06 6.393831e-06
1.910544e-06 -7.4817954e-06 2.2870065e-06 8.137095e-06 1.069657e-06 -4.056359e-06 4.301973e-07 1.12631205e-05
2.8689028e-06 3.69801e-06 -2.8333025e-06 -5.922855e-07 4.606571e-07 2.1033497e-06 -1.8195367e-06 -5.51243e-07
-6.817819e-07 2.52102e-06 -2.8724837e-06 -4.2477188e-07 -2.6271389e-06 -2.2130998e-06 1.736484e-06 2.4796037e-07
3.7257407e-06 2.0224002e-06 -3.4954803e-06 -1.7476242e-07 -2.1688552e-06 7.925447e-07 4.895588e-06 5.682214e-07
3.6713525e-06 4.4764975e-06 -1.5250537e-06 7.4292785e-07 7.0162486e-07 -1.4563849e-06 -2.7635715e-06 8.9692657e-07
3.1525512e-06 2.1892683e-07 -2.8129857e-06 -4.199284e-06 -3.715846e-06 2.4180383e-06 -1.2614133e-06 7.516957e-06
-1.1062662e-06 -1.3275618e-06 8.088618e-08 -4.9227697e-07 -1.7139301e-07 -2.7558826e-07 -1.1439021e-06 -2.3803877e-07
4.373391e-06 -2.3393134e-06 -3.579916e-06 -2.4165886e-06 -3.0377441e-06 1.8151203e-06 2.033849e-06 -9.304305e-07
2.2083996e-06 -2.1220199e-06 3.3061957e-07 8.735453e-07 -2.6065404e-06 -9.736414e-07 4.4259414e-06 -6.4137237e-07
1.3235743e-06 -1.5420555e-06 -6.5078814e-07 3.2224905e-06 4.593642e-06 1.3087745e-06 -4.166813e-06 9.086989e-06
-2.3865766e-06 -3.998347e-06 -3.728901e-06 5.078874e-06 3.4042441e-06 5.066917e-06 -3.0445094e-06 -8.100816e-06
4.20176e-06 3.3204234e-08 3.0347887e-06 -2.6133291e-06 1.2387658e-06 -1.8612407e-07 3.5107137e-06 -6.6304933e-06
-1.8098629e-06 7.272058e-07 9.6389044e-08 -4.026391e-06 -5.5118187e-07 4.3354635e-06 -3.0795209e-06 -2.3358355e-06
9.185069e-07 -4.1121928e-07 -2.6629623e-06 -3.939203e-06 -3.3058009e-06 3.559454e-06 -2.5974632e-06 3.610163e-06
-2.255089e-06 -1.6819002e-06 2.0560406e-06 2.2258891e-06 2.620276e-07 1.8960992e-06 -3.9312044e-07 -9.422041e-07
-3.6698957e-06 -2.2067659e-06 -1.5047074e-06 2.3388998e-06 1.2359853e-06 -5.0099055e-07 3.665366e-06 -4.906949e-06
00000000: 3825 f935 4578 3ab6 42cb 7ab6 9d51 9d35
00000010: 90aa f3b5 efec 9f36 d4a3 b735 3b19 5636
00000020: fd1f 3eb4 f198 8f35 fb2e 1336 4d25 5635
00000030: 6ac3 22b4 28aa c636 b3c4 88b6 67da 1ab7
00000040: 97a8 da36 2d0c d236 e044 96b5 46ab 6e35
00000050: c7f7 2136 c55f 6835 cfd0 5b36 3b2d 7ab6
00000060: 7694 03b6 94e8 9035 1810 1e35 581c c9b5
00000070: 7577 35b6 bbf7 abb6 907d 3232 1ef6 b936
00000080: 0fe3 aa35 e949 3836 11df 25b6 1bad b7b6
00000090: e1c5 0c37 629e 4036 6205 90b6 27b8 c1b6
000000a0: 732f 6134 8685 6e35 8c17 e535 8a07 1e36
000000b0: c25a c136 e680 b435 5e98 3ab6 ae6d ab36
000000c0: 8138 e135 4e89 6fb5 8bfe 99b5 c50a a735
000000d0: 5222 8e36 eb03 9435 d759 9eb5 d39d 9f34
000000e0: 0f4a 5534 2ce8 9eb6 ba65 5336 5116 8d34
000000f0: cee9 6835 ed71 b2b6 2b6c 1636 a355 1637
00000100: 0cd6 99b6 0c65 e935 dd12 a635 4f39 b436
00000110: 8c45 1337 0cdc f535 3b11 c9b5 978a d636
00000120: e536 0036 220c fbb6 797a 1936 8f84 0837
00000130: 2291 8f35 dc1b 88b6 def5 e634 bcf6 3c37
00000140: 6087 4036 542b 7836 c423 3eb6 8dfd 1eb5
00000150: 3b50 f734 4627 0d36 ce36 f4b5 21f9 13b5
00000160: b203 37b5 cb2e 2936 e5c4 40b6 340c e4b4
00000170: e74d 30b6 c484 14b6 2311 e935 6a1f 8534
00000180: bd07 7a36 92b8 0736 e593 6ab6 54a6 3bb4
00000190: a68c 11b6 42bf 5435 c844 a436 e187 1835
000001a0: 5b61 7636 d234 9636 72b0 ccb5 9d6d 4735
000001b0: 4b57 3c35 0179 c3b5 cc75 39b6 53c4 7035
000001c0: 6b90 5336 2612 6b34 bac6 3cb6 93e7 8cb6
000001d0: c05d 79b6 9545 2236 d54d a9b5 2b3a fc36
000001e0: 047b 94b5 ad2e b2b5 a6b3 ad33 0425 04b5
000001f0: 2708 38b4 90f4 93b4 2d88 99b5 9997 7fb4
00000200: 25bf 9236 19fd 1cb6 7d3e 70b6 ad2c 22b6
00000210: 0cdc 4bb6 0f9f f335 427d 0836 b2c2 79b5
00000220: 0434 1436 0668 0eb6 0280 b134 937d 6a35
00000230: 06ec 2eb6 10ae 82b5 8c82 9436 c62a 2cb5
00000240: aba5 b135 a0f8 ceb5 d2b1 2eb5 f741 5836
00000250: 1623 9a36 26a9 af35 a7d0 8bb6 5274 1837
00000260: 1329 20b6 8a29 86b6 083e 7ab6 326b aa36
00000270: 7874 6436 7c04 aa36 4650 4cb6 bde8 07b7
00000280: d8fc 8c36 719c 0e33 46a9 4b36 a760 2fb6
00000290: ab43 a635 65d9 47b4 9a99 6b36 817b deb6
000002a0: 6aea f2b5 3435 4335 70fe ce33 6f1a 87b6
000002b0: eef4 13b5 5979 9136 c4a9 4eb6 59c1 1cb6
000002c0: 508f 7635 8cc5 dcb4 58b5 32b6 7f2d 84b6
000002d0: 3ad9 5db6 f4de 6e36 1450 2eb6 2146 7236
000002e0: 2256 17b6 a7bd e1b5 82fa 0936 7c60 1536
000002f0: cdac 8c34 797d fe35 100e d3b4 c6eb 7cb5
00000300: 5448 76b6 f317 14b6 5af5 c9b5 fef5 1c36
00000310: 22e4 a535 cf7b 06b5 82fa 7536 5fa6 a4b6
