jet_by_jet_compression/split_data_training/models/AE_3D_50_bn_drop_pp0_subtrain_0.pth (torch_old, 117006 bytes, 104 tensors)

en1.weight f4 [50, 4]
00000000: a2db c93e 8d4a e7be 9ee5 6d3e ff5f b43c
00000010: 76b1 903e c25d 533e ca87 a43d 6166 fb3c
00000020: 82cc 96be 1d56 0e3f 21eb 473e 0f6f 343e
00000030: db81 323d 7bad 8fbe 99ed cdbe b246 f1be
00000040: 9d9c 0f3f f97d ebbe 3837 813e 6f0f 9bbe
00000050: 97d3 41be fc0c 223d 3965 2fbe 80e2 ecbd
00000060: dfc7 8c3e ba91 853e 6694 06bf df29 cbbe
00000070: 96e7 1a3d ac7d d23e 6ac3 91be 451a 0cbf
00000080: 5017 123e 299c 7abd 89a6 b73e 929b a2be
00000090: 14cc 54bd eea4 76be 1c96 8cbe 4663 ddbd
000000a0: baea bdbd 0f82 393d cae2 0dbf 6604 c2be
000000b0: 4505 1a3d eca9 023f d0c6 0abf b522 08be
000000c0: dff2 6abe bc56 ac3e 5c14 12be eaf6 8f3d
000000d0: af21 10bf daa3 17bf a81a 3a3e 0731 a43e
000000e0: 2f9f b43c 9ba5 7c3e 661e a2be ef50 0a3f
000000f0: 9b11 ef3a 2d0d ec3e b3ad c1bd c1c2 d43c
00000100: e8ef a7be 4e91 c0be 6ce8 ddbe 548d bd3e
00000110: f002 6abe 9d39 1b3f 08c2 04be 6e58 9c3e
00000120: 6449 06bf 1d15 f13e c308 ebbd 51f5 b4bd
00000130: 3a82 cfba c742 03be 399a 133f 1549 693e
00000140: 41c7 a03d fae3 a83e d2f8 1b3e 22e1 95bd
00000150: 0723 d73d a572 5e3e cfd3 5fbe 4671 4b3d
00000160: 1f82 d1be 1a6c 6bbe e78f 88be 768b 47bd
00000170: 268a e0be b1dc a9bd d252 8ebe ab7e f0be
00000180: b595 233d 3173 cbbe 6ea6 85be c61e e0bd
00000190: e891 adbd 79cf d63e 4147 afbb 13d2 0f3e
000001a0: ff67 24bf e63d 28bf b05a d43e d1b1 6d3e
000001b0: 0788 2a3e 9403 cbbe 4a52 92bd a193 28be
000001c0: 9719 fabe 53a0 153f 02ff 15bc f171 4c3d
000001d0: 81f4 b0be df7e 90be ab1e a4bd 7481 aa3c
000001e0: bea3 cd3e acfa 2d3d f374 a0be 0742 c23c
000001f0: 406c f23e 2d1e 08bf b2d4 bc3e 2991 8bbe
00000200: c107 16bf 3b00 1fbe 4975 0ebe a69a 903e
00000210: ee28 02bf d930 843e fa63 d53e 55f6 633e
00000220: d583 153e 2029 68be 18e7 97bd 585d 103e
00000230: 34a5 ecbe 5426 d7bd f281 b9be f2e7 3f3e
00000240: d9f4 d0be 583b 1abe ad1d 993d f69c 7bbe
00000250: 8791 793e 62ee 26be 847a ff3e bb52 76bd
00000260: aea7 b83e 9b1b 8dbe cc8e edbd 3be4 0d3f
00000270: cb27 a33e a5cb 0b3d 7ca5 25bf 6ab5 abbe
00000280: fe3b c23c 917e db3e cc2e ad3e 59e5 7bbe
00000290: b8fa d03e 0191 e7be e36f b6be fa59 043d
000002a0: ec91 363e d6e4 533e cb3b f6be 52a0 aa3e
000002b0: 3616 183f e0ce 9c3e 66b7 12be 2981 363e
000002c0: 747b 2dbe 92ca 03be 8622 d73e 5f82 dbbd
000002d0: 3517 d5be 2058 753d 4039 c3bd 0837 f03e
000002e0: 754a 963e a3b3 743e 46b3 213e 3bd4 2abe
000002f0: 4d86 a5be fee0 81bc 019f 053f e970 99be
00000300: 4880 11be 7eff 15bf 733b 0a3f cd10 9b3e
00000310: 9de5 b6be 08de 0d3e f870 f53e 9c9e 82be
0.3942538 -0.45174065 0.23232123 0.02201843 0.28260392 0.20641235 0.08033712 0.030688467
-0.29452902 0.5560015 0.19523288 0.1762049 0.04358087 -0.28062043 -0.40220335 -0.4712425
0.5609835 -0.45994547 0.2523744 -0.30285212 -0.18928371 0.039563164 -0.17128457 -0.11566639
0.2749624 0.26087743 -0.5257019 -0.39680383 0.037818514 0.41111505 -0.28469402 -0.54727584
0.14266706 -0.061184082 0.35869244 -0.31759316 -0.051952437 -0.24086353 -0.27458274 -0.108099505
-0.09273286 0.04529005 -0.5542418 -0.3789398 0.03760268 0.5104053 -0.54209614 -0.1329449
-0.2294421 0.33659923 -0.14265579 0.07029517 -0.563014 -0.5923439 0.18174231 0.32068655
0.02204856 0.24672548 -0.31663817 0.54029745 0.00182395 0.46103802 -0.094569586 0.025971772
-0.3280022 -0.3761086 -0.43341386 0.37021887 -0.22852683 0.60634786 -0.12964642 0.30536216
-0.52455735 0.4708642 -0.114762805 -0.08835853 -0.0015831657 -0.12818442 0.576572 0.22781785
0.07850505 0.32986432 0.15231636 -0.07318331 0.10504728 0.21723421 -0.21858142 0.049668573
-0.40919587 -0.22990456 -0.2667229 -0.048716985 -0.438554 -0.08294047 -0.27797562 -0.4697164
0.039937694 -0.39736322 -0.26103538 -0.109433696 -0.08475095 0.41955164 -0.0053490703 0.1404498
-0.64221185 -0.6571945 0.4147544 0.23212363 0.16653453 -0.39651167 -0.07144602 -0.16462566
-0.48847649 0.5844776 -0.009155037 0.04991335 -0.34561542 -0.28221795 -0.08013662 0.020813681
0.40163988 0.042475387 -0.31339225 0.023713125 0.47348213 -0.53171045 0.36881024 -0.27259186
-0.5860558 -0.15527432 -0.13911928 0.28242987 -0.50843704 0.25818518 0.4167784 0.22261937
0.14601071 -0.22671938 -0.074171245 0.14098108 -0.4621979 -0.105053574 -0.36231953 0.18740824
-0.40811804 -0.150617 0.07476363 -0.24571595 0.2437192 -0.16301873 0.4989816 -0.06013749
0.3606543 -0.27560124 -0.11599502 0.5542638 0.31866297 0.034129757 -0.64705634 -0.33536845
0.023710247 0.4287 0.33824766 -0.24599208 0.40816283 -0.45227817 -0.35632238 0.03231237
0.17829102 0.20692763 -0.48092493 0.3332544 0.5940889 0.30626583 -0.14327773 0.17822708
-0.16941625 -0.12870243 0.42018527 -0.10718226 -0.41619268 0.059898496 -0.09532404 0.46916986
0.2935368 0.23896651 0.15791044 -0.16682522 -0.32329026 -0.015854355 0.52195746 -0.29968956
-0.14209092 -0.58592975 0.5399696 0.30286255 -0.35722056 0.1385423 0.4793775 -0.25511634

en1.bias f4 [50]
00000000: d253 da3e 5e38 23bf 695a adbe d055 fabe
00000010: cd76 9ebe b2ed 663f dbef 133e fcca 4fbf
00000020: 2829 bebd fcd9 ca3e 55b1 c63e f93c 333f
00000030: bcec debe 7fdc f0be 91b8 573f e566 dbbe
00000040: 07b1 b13e 2025 7e3f 741d cb3e 1193 cdbe
00000050: 3682 023f 2900 f3be 218e 69bf 1d3d ad3d
00000060: 4754 3b3f 62f7 9dbf 92e4 7fbe 5d57 a53f
00000070: 94c8 bd3e 3db9 06bf 24a0 633f ae14 063e
00000080: be54 84bf 0be5 8d3d f81a cdbe d58b 1a3f
00000090: 746b f1be ee54 513f 6457 57be db43 4bbf
000000a0: 2ebb 9c3e 0043 553e 1fca 6c3e ed49 38bf
000000b0: 1e50 853f 90f9 2abe c589 473f ba2d b9be
000000c0: 3df3 843e 8903 3c3e
0.42642075 -0.63757885 -0.3385804 -0.48893595 -0.30950013 0.90206444 0.14446966 -0.81169105
-0.09285194 0.39619434 0.3880717 0.7001491 -0.4353999 -0.47043225 0.84266 -0.4285194
0.34705374 0.992754 0.39670908 -0.40151265 0.50979936 -0.4746106 -0.91232497 0.08458922
0.7317547 -1.234112 -0.24989536 1.2917286 0.3706709 -0.526264 0.8891623 0.13093826
-1.0338361 0.06928452 -0.40059638 0.60369617 -0.47152293 0.8177022 -0.2102943 -0.79400414
0.30611557 0.2082634 0.23123978 -0.719878 1.0415075 -0.16696763 0.77944595 -0.361677
0.25966826 0.18360724

bn1.weight f4 [50]
00000000: 30ea 2b3f 5275 5b3f d08d 3f3f 026d 1e3f
00000010: 682c 353f 2ee6 5a3f 8cfc 013f 0c87 063f
00000020: e764 253f 6e87 373f b9ea 393f baf0 713f
00000030: fcb6 273f d2c5 423f 5b3c 3f3f 63ac 4c3f
00000040: 7d6c 173f 382b 163f aecb 573f 76f5 2c3f
00000050: 4607 573f 5388 1b3f 3128 253f b471 373f
00000060: 2b90 113f 2dfb 653f f7b4 453f 5b75 4c3f
00000070: a7c2 2a3f 1ae6 ec3e b241 5d3f 35d5 1e3f
00000080: 3950 0a3f 5513 1e3f f31e 4d3f 47d5 213f
00000090: d366 f93e 3c6e 433f 9c01 1a3f 397d 103f
000000a0: e576 0b3f d870 293f c212 243f 6f80 443f
000000b0: d45d 643f b240 023f 8ce5 2b3f 90aa 193f
000000c0: f1ae 263f e5ee 083f
0.67154217 0.8572589 0.74825764 0.6188508 0.70770884 0.85507476 0.5077598 0.52549815
0.6460709 0.71691024 0.72623783 0.94507945 0.65513587 0.760831 0.7470147 0.7995054
0.59149915 0.58659697 0.84295166 0.67562044 0.83995473 0.6075489 0.6451445 0.7165787
0.5686061 0.8983639 0.77229255 0.7986657 0.66703266 0.46269304 0.8642837 0.6204408
0.5402866 0.6174825 0.8012535 0.6321606 0.4871126 0.7634008 0.60158706 0.56441075
0.54478294 0.6618781 0.6409112 0.76758474 0.8920567 0.5087997 0.67147136 0.6002588
0.6511069 0.53489524

bn1.bias f4 [50]
00000000: 4fa3 a23d a30d 5bbc debf acbe c82b 8b3e
00000010: d31d 11be cbab be3e f39b 83bc cf9a 583e
00000020: ee81 043f 94e0 463f 79ab 96be cca1 cf3e
00000030: 93a3 18be 53ea 04bf f3b4 d6bd 3d3d a03e
00000040: 01eb 85bd 8d0e 883e 29d2 ce3e b1bc cfbe
00000050: d2dd 0e3e e3ac 00bf 7ebd 80be 917e 093f
00000060: 608c 873d 6b67 01be 9bf9 493d 30aa 5bbe
00000070: 83b9 a7be 0809 283d e116 063f 163e 3fbc
00000080: 0943 8c3d 933a 773e 9082 123d 74e2 b43e
00000090: 3d74 02be d6eb 2c3f 91b4 193e 5711 86be
000000a0: 8998 acbd 3c65 0f3f 94e7 33bf cea1 94bd
000000b0: f3d9 7a3e d8f1 d6be 42f7 7b3e 6a69 07be
000000c0: 3b4a ff3e 02bd 943e
0.07941305 -0.0133699505 -0.33740133 0.2718184 -0.14171533 0.37240443 -0.016065573 0.21152805
0.51760757 0.7768643 -0.29427698 0.4055313 -0.14906149 -0.5192005 -0.10483732 0.3129672
-0.06538964 0.265736 0.40394714 -0.40573648 0.13951805 -0.50263804 -0.2514457 0.5370875
0.06618571 -0.12637107 0.049310308 -0.2145164 -0.32758722 0.041024238 0.5237866 -0.011672517
0.068487234 0.24143438 0.035769045 0.3532902 -0.12739654 0.6754736 0.15010287 -0.26185104
-0.08427531 0.56013846 -0.70275235 -0.07257424 0.24497204 -0.41981387 0.2460604 -0.13223806
0.4986132 0.29050452

bn1.running_mean f4 [50]
00000000: f184 9b3e 3036 05bf 9e40 87be 1107 aabe
00000010: fd0f 50be c0ad 2f3f a4fc f33d 1b0b 09bf
00000020: 846a 8ebd 5543 af3e a7be 943e 4806 ee3e
00000030: b160 b9be 3b9e a4be 0eba 113f 4248 b3be
00000040: 100d 703e 8348 233f 04b8 913e 8251 98be
00000050: 3da8 d93e fb6f d2be 967b 20bf ffb2 cd3d
00000060: af77 0d3f 3935 4bbf d365 1ebe 89b6 4f3f
00000070: ddf6 813e 6925 d6be 260a 213f d514 d63d
00000080: ed32 2dbf 3050 423d e9f6 b5be fc77 e33e
00000090: a551 b1be e5ff 113f e824 55be ceb6 01bf
000000a0: 3b99 813e 7e7b 113e c388 1d3e c239 f6be
000000b0: 37a3 353f a19f 18be dca9 183f b8ce 77be
000000c0: d334 183e 58b7 123e
0.30374864 -0.5203581 -0.26416487 -0.33208516 -0.20318599 0.68624496 0.11913422 -0.5353257
-0.0695391 0.34231058 0.29051706 0.46489167 -0.36206582 -0.3215197 0.5692452 -0.35016066
0.23442483 0.6378252 0.28460705 -0.29749686 0.42511168 -0.4110106 -0.6268858 0.100439064
0.5526075 -0.79378086 -0.1546853 0.811379 0.25383654 -0.41825417 0.6290611 0.10453192
-0.6765583 0.047439754 -0.3553994 0.44427478 -0.34632602 0.5703109 -0.2081486 -0.5066956
0.25312218 0.14207265 0.15384202 -0.4809094 0.7095217 -0.14904644 0.59634185 -0.2419995
0.14863901 0.14327753

bn1.running_var f4 [50]
00000000: 13c9 583e 5029 893d d2ea 783e 7be6 313e
00000010: 2721 8f3e 2a51 ec3c 50d6 883e 622f c83d
00000020: 4c9f 1f3e ca82 d23d 323b 793e 2c32 603e
00000030: 3f05 e63d 5d23 953e 7adc ab3d 1442 0b3e
00000040: 5b0f 753e dd07 9a3d 0ab2 8d3e 8d5b 603e
00000050: e7d4 b43d 11d9 8b3d facb b13d 32ab 9a3e
00000060: 86f4 d93d 2ff3 1a3d 462f c33e 89fc 093d
00000070: 5a19 933e 818f d63d 677e 9d3d 2a8e a13e
00000080: 1d0d a03d b307 8a3e 5158 ab3d 1004 233e
00000090: 4cf5 193e 353c eb3d 5ccf 953e 0270 433e
000000a0: bcec 5b3e 8aad 8b3e 1871 733e 986a 5f3e
000000b0: 5ce0 5d3d 7113 2e3e 719f 863d b05f 833e
000000c0: 0130 9e3e d587 8c3e
0.21170454 0.06697333 0.24308327 0.17373078 0.2795498 0.028847296 0.26726007 0.097746626
0.1558811 0.10278852 0.24338987 0.21894139 0.11231469 0.29128543 0.08391662 0.13599426
0.23931639 0.07521031 0.27674896 0.21909924 0.088296704 0.068285115 0.086814836 0.30208737
0.10642342 0.037829574 0.38122004 0.033688102 0.2873028 0.1047659 0.07690125 0.31553775
0.07815001 0.26959 0.083664544 0.15919518 0.1503498 0.11486093 0.29259765 0.19085696
0.21477026 0.27280837 0.2377361 0.21818006 0.054169044 0.16999604 0.0657338 0.2565894
0.30896 0.27447382

en2.weight f4 [50, 50]
00000000: 6b96 a13e 96e0 453d c6d8 37be 9854 38be
00000010: 1132 823e dd69 163e 9162 22be 27b2 44be
00000020: 5889 123d d64e 8d3c 2015 c6bd 2331 48be
00000030: 0636 81bd 1f8f 51bd 4cfe 983c 5b0b 97bd
00000040: 0aa6 15be e5a8 37be b776 adbe 49e3 93bd
00000050: 6f78 14be 751d b1bc ea6e 44bd 09e7 4bbe
00000060: 0cd8 613d 1943 dc3c eb2d 78bc 04f2 593e
00000070: de5e e8bd 169f 053e 5305 cf3d 2199 eb3d
00000080: 7481 f0bc cd98 61be 83a8 b43d f141 99bd
00000090: 5c53 27be 4847 243e 6356 a53d c989 403b
000000a0: b6f7 0f3d fae6 24bc bdc5 c63d 1fd1 303e
000000b0: 5654 113e 511a 05be f8df 0ebe b873 c9bd
000000c0: 9cb3 a43d 2b23 0ebe 9878 1b3e 42ad 03be
000000d0: 059a 51bd 332c a03d 5bcc 623c f969 933c
000000e0: b5eb cebd 1559 c3bd dd98 ffbd 409a a2bb
000000f0: 409c dcbd a133 7abe 2834 f3bd 7a01 423e
00000100: f15f f5bc cb93 5bbe 8ea9 90bd 99f6 d8bb
00000110: dee8 2cbe 0065 fc3d cc6f 24be fefd 8abd
00000120: 34df 1e3e be2e eb3d f104 fc3d b329 5cbe
00000130: 7c5f 193e 5349 f33c 67cd 3fbe 9cba fb3d
00000140: 1f96 aabd 19be 3a3d 09da 683e e856 e33c
00000150: 963a aa3d 7ce3 9dbd f0ca 433d f6bf 0e3d
00000160: 3c6d 803d b4df 813c bb13 ebbd 42eb 7bbc
00000170: e335 56bd 6087 68be 3efa a43d 2df9 15bd
00000180: 147a 20be 43d3 d83d f1e0 b83e 22b2 2f3d
00000190: c0eb febc ba8c d5be d272 303d e29d fe3d
000001a0: 3285 693d fdd4 153e 1fc2 50bd c44d 463d
000001b0: 0e42 0abd 9d6f 873e 8757 52bd 9968 053e
000001c0: 449e 123e 25d1 013e 59c2 693d be2e d63d
000001d0: bebc 6c3e 7dd6 30be 5b20 5e3d 1c2d afbd
000001e0: d991 b4bd 1219 6e3d f939 233e b5c1 86bc
000001f0: d666 9c3d 7724 f7bd 92df d43d a6ce 9ebb
00000200: e60a a5bd 9c58 403e 89fe 0abe 0eb0 263e
00000210: 1d18 1ebd 7e48 803d ba8c 8c3c 5f95 033e
00000220: c5aa ee3d f5de bd3d c2ba dd3d 147f 2f3c
00000230: 3d03 e1bd 5d14 8a3d 7245 e9bd 6f7d 69be
00000240: fe45 203d 72be 26bd 8037 21bd 2d21 21be
00000250: 618f 74bd cfb9 febd 42d9 9dbc dd96 f63d
00000260: 59dc 563e 596b 08be 9c28 c4be 6365 20be
00000270: e6e2 d33d 85f4 413e 4ac6 623d acf9 183d
00000280: 5065 adbd 5db9 2e3e e8e3 d33c d0ff cabe
00000290: e429 0dbe a50f 64bd 4236 6abe 88c6 3f3e
000002a0: 59ff 823e 19ef 543c e065 ae3d 3ce5 b9bc
000002b0: b682 153b 393c f4bb ad3b 91bd 95ab a7be
000002c0: a836 26be 88e3 873e 2939 723e 7e9c 583d
000002d0: e9f6 f73d 8055 a7be c28d 98bd 45c3 033e
000002e0: 9174 8dbd e451 e4bd 1661 00be 83a6 26be
000002f0: 416f 003d 945f ab3d 7f01 463e 94e7 853c
00000300: 8f6d dabd 6bcf 323e 6f7b 953d ded3 be3d
00000310: 632d 72bc 0a56 623c 8e38 67be dee3 c8bd
00000320: 164b 03bc 4973 58be ac69 0abe c251 923d
00000330: c31e 09be accb cbbd d90b 013d 7a65 34be
00000340: ee05 31be 8ee1 22bd 39bd ccbd 39a6 64bd
00000350: aef9 5fbe e013 743e af41 f33c 0cbf 9ebe
00000360: 7124 d93a c69f eb3d f3ab 4bbc 321d bdbd
00000370: b031 3ebe a7c6 4dbe 71da abbd e60c 163e
00000380: 706f 513e 7ec8 c8be ef47 153e a0c4 4a3e
00000390: d8b5 02be 0b45 233d 7715 46bd 615c d13d
000003a0: 2ca5 0c3e 2734 f6b9 f25f 84bc 8724 2cbd
000003b0: f533 29bd ee6e 553c 9657 c0bd e7f9 71bd
000003c0: c729 afbd f1c0 19bd b5a4 a93d 8cc4 35be
000003d0: c87a 7fbd 67d5 b8bc 6a8f f8bd bb31 dcbd
000003e0: b9a6 80bd c2c1 df3d e48a adbd 9cef 263d
000003f0: 7437 1f3c 77ce f1bd 0054 c5ba d8ee 32be
0.31560072 0.048309885 -0.17953786 -0.1800102 0.25428823 0.14688821 -0.15857913 -0.19208585
0.035775512 0.017249506 -0.09671998 -0.19549994 -0.06309132 -0.05116188 0.018675946 -0.07375213
-0.1461412 -0.17935522 -0.33879635 -0.072210856 -0.14499067 -0.021620492 -0.04795734 -0.19912352
0.05513768 0.026887463 -0.015147666 0.21283728 -0.113462195 0.13048968 0.101084374 0.115038164
-0.029358603 -0.22030945 0.088212036 -0.074832805 -0.16340393 0.16042817 0.080731176 0.0029379001
0.035148345 -0.010064835 0.09705684 0.17267273 0.14192328 -0.1299832 -0.13952625 -0.09836525
0.0804207 -0.13880603 0.15182722 -0.12859061 -0.051172275 0.0782093 0.013842667 0.017994868
-0.10103551 -0.095384754 -0.12480328 -0.0049622357 -0.1077199 -0.24433757 -0.118751824 0.18945876
-0.029952975 -0.21443097 -0.0706359 -0.0066211936 -0.16885707 0.12323952 -0.16058272 -0.067867264
0.15514833 0.11483525 0.1230563 -0.21500282 0.1497783 0.02969805 -0.18730699 0.12291452
-0.083294146 0.045591448 0.22739424 0.027751401 0.08311956 -0.07709405 0.04780096 0.034851037
0.06270835 0.01585374 -0.11478373 -0.015375914 -0.052297484 -0.22707891 0.080555424 -0.036614586
-0.15671569 0.1058717 0.36109117 0.04289449 -0.031118274 -0.41708928 0.04307825 0.124324575
0.05701179 0.1463203 -0.05096638 0.048414007 -0.0337544 0.26452342 -0.051353004 0.13028182
0.14318186 0.12677439 0.05707011 0.10458134 0.23118874 -0.17269321 0.054230075 -0.08553526
-0.08816881 0.058129378 0.15940084 -0.016449789 0.07636802 -0.12067502 0.10394205 -0.0048464118
-0.08058719 0.18783802 -0.1357366 0.16278097 -0.038597215 0.06263827 0.017156947 0.1284995
0.116536655 0.09271041 0.10826637 0.01071145 -0.10986946 0.06742165 -0.11390199 -0.22801755
0.03912925 -0.040708967 -0.03935957 -0.15735312 -0.05970705 -0.12437784 -0.019268636 0.12040494
0.20982493 -0.133222 -0.38312232 -0.15663676 0.10346012 0.18940933 0.055364884 0.03734748
-0.084665895 0.17062898 0.02586551 -0.39648294 -0.13785511 -0.055678982 -0.2287226 0.18728077
0.2558544 0.012996458 0.08515525 -0.022692315 0.0022813505 -0.007453468 -0.070914604 -0.32748094
-0.16231787 0.2654078 0.23654617 0.052883618 0.12107641 -0.3268242 -0.07448913 0.12867458
-0.06906999 -0.11148432 -0.12537035 -0.16274457 0.0313561 0.083678395 0.19336508 0.016345777
-0.10665428 0.17461936 0.07298934 0.09317754 -0.014781329 0.013814459 -0.22580168 -0.09809087
-0.008013507 -0.21137728 -0.13516873 0.071445 -0.13390641 -0.09950957 0.03150544 -0.17616835
-0.17287418 -0.039765887 -0.09997029 -0.055822585 -0.21872589 0.23835707 0.029694406 -0.31005132
0.0016566647 0.11505084 -0.012431133 -0.09234084 -0.18573642 -0.20095311 -0.08391274 0.14653358
0.20452666 -0.39215463 0.14578222 0.19801569 -0.1276468 0.039860766 -0.048360314 0.10222698
0.13734883 -0.00046959633 -0.016159032 -0.042027023 -0.041309316 0.013026936 -0.09391706 -0.059076216
-0.0855289 -0.03753752 0.082833685 -0.17750758 -0.062372953 -0.022562696 -0.12136729 -0.10751673
-0.062818 0.10925628 -0.08473757 0.040755853 0.009717811 -0.11806958 -0.0015054941 -0.17473924

en2.bias f4 [50]
00000000: f23b 3dbe 03d0 673e bc51 683e ccc3 953e
00000010: 8fce 913e 8fae 2fbf 4784 37be a510 34bf
00000020: 3220 493d 2fab aabe 3001 12bf 6420 b83e
00000030: 1198 a7bf e5c9 29be ed8a ec3e fb31 183f
00000040: 6e23 8bbe 8981 b33d 3b1d 7cbe 26cf 2fbe
00000050: 5c1a 2abf 6f5d e33e e76e 6bbe 13a3 b03e
00000060: c467 f9be fba9 9abd de4e 2d3e bc1c 9b3d
00000070: fbef c13c 524f 6c3e d2d8 57bc 4da6 d9be
00000080: 7b8d 93be e697 8abd 6f02 48be 2440 ab3e
00000090: cc4b dc3e 7077 083e 7c06 593c 1679 063f
000000a0: ab5d a33d 2c44 793d 2561 19bd 5691 2cbd
000000b0: 3d75 80bd 11b2 033e bc1b a8be 85fc 5abe
000000c0: 4c80 f03c 86e0 173e
-0.18479899 0.22637944 0.22687429 0.29250944 0.28477904 -0.6862573 -0.17921554 -0.703379
0.04910297 -0.33333728 -0.5703306 0.35962212 -1.3093282 -0.16580923 0.46199742 0.59451264
-0.27175468 0.08764941 -0.24620526 -0.17168865 -0.6644647 0.44407222 -0.22991525 0.34499416
-0.4871198 -0.075519525 0.16924617 0.0757384 0.023674002 0.23077133 -0.013174253 -0.4250969
-0.2881888 -0.067672536 -0.19532178 0.33447373 0.43026578 0.13326812 0.013246175 0.5252851
0.0797685 0.06085603 -0.03744616 -0.04213079 -0.062723614 0.12860896 -0.3283366 -0.21385391
0.029358052 0.14831743

bn2.weight f4 [50]
00000000: cf04 493f 25b1 cd3e a89c 2d3f 9d7d 193f
00000010: 6ec5 1b3f 68c0 083f fbc6 343f 3cde 363f
00000020: aecf 193f 27a4 323f d232 2e3f 854a 3d3f
00000030: 4914 3c3f 0070 423f 845c 2e3f d71f f63e
00000040: e202 353f ac61 283f 32c5 d03e bca8 073f
00000050: 4cf6 253f 9e62 083f a581 483f fb26 0e3f
00000060: 5986 153f f0ea 2c3f 0e9b 173f 5ed1 2d3f
00000070: 0af6 0b3f 07d5 153f 5922 223f 18e5 133f
00000080: 1dc0 113f 4bcc 083f 1608 083f bfae 173f
00000090: eea1 153f 349a 1f3f e553 f13e 9226 0b3f
000000a0: 14de 283f 2298 183f d9e8 223f ad0f 293f
000000b0: a2b0 2a3f 2642 0a3f c0fc 153f caad 543f
000000c0: c301 ea3e 1d44 c83e
0.7852296 0.40174213 0.67817163 0.59957296 0.6084813 0.5341859 0.7061612 0.7143285
0.6008252 0.69781727 0.68046296 0.7394183 0.7346845 0.7595215 0.6810992 0.48071167
0.70707524 0.65774035 0.40775448 0.52991843 0.64828944 0.5327548 0.7832282 0.5552823
0.58408123 0.67545986 0.5922097 0.67897594 0.546723 0.5852818 0.6333366 0.57771444
0.56933767 0.53436726 0.5313734 0.59251016 0.5845021 0.6234467 0.4713432 0.5435573
0.65963864 0.59607136 0.6363655 0.66039544 0.6667577 0.54007185 0.5858879 0.8307768
0.4570447 0.39114466

bn2.bias f4 [50]
00000000: f671 6b3e 1c5e 32be 3b9a 5f3e 903a 673e
00000010: a617 a43d 4155 36be b09e 9ebe a01b 68be
00000020: fe4a cbbd ab30 f03c 0e7a 11bf cff8 8a3e
00000030: 9bf4 9fbd 81c3 d0be 6bac 003e c644 e23c
00000040: 9229 bfbe 3eeb 503e c696 273e 92b0 10be
00000050: 4205 c43e cbb4 76bc d116 8e3c 0b56 a6bd
00000060: bef6 d83e 90ae ff3c 452b 803e d78a 85be
00000070: e8d1 db3c 8aea 9d3e 2e15 5fbd 2e24 8abd
00000080: 03ed f83e 5c16 5c3e 2faf a4be 0155 53be
00000090: fdda 2cbe b67c 353e 21af 03be e631 413e
000000a0: eefe 8ebe 602e b93e 8517 29bf 8dd1 b73c
000000b0: a22b d43e ec30 bf3e 336f 1dbe 901e 7c3b
000000c0: 464a 31be edc5 243d
0.22992691 -0.17418712 0.21836178 0.22580934 0.08012323 -0.1780596 -0.30980444 -0.22666788
-0.09926413 0.029320082 -0.56826866 0.2714295 -0.07810327 -0.40774158 0.12565772 0.027620684
-0.37336403 0.20402238 0.16366109 -0.14129856 0.3828526 -0.015057753 0.017344864 -0.0812188
0.4237575 0.031211168 0.25033012 -0.2608249 0.02683349 0.30843002 -0.054463558 -0.06745182
0.48618326 0.21492904 -0.32164904 -0.20637895 -0.16880412 0.17723355 -0.12859775 0.18866691
-0.2792887 0.36168194 -0.6605151 0.022438789 0.4143954 0.37342012 -0.1537445 0.0038470365
-0.1731349 0.04022782

bn2.running_mean f4 [50]
00000000: 1f33 17be 9842 893d 90bb a73e ff65 8f3e
00000010: 7976 0e3e 5399 3fbf 0ea9 e6be f9c2 44bf
00000020: 77e9 b93b 8c09 02bf ddd2 40bf 40e8 1c3f
00000030: c7f7 78bf e7d8 5dbe 887e 0e3f 0171 0c3f
00000040: eb70 07bf ce6c f13e ac1a 14be 70a9 013d
00000050: 66d8 6bbf 2296 e03e 55e6 27bf dcab 223e
00000060: 47b7 a9be f2b5 26bd 0b29 e6bd 594f 503d
00000070: d310 4c3e f88d d73e a8f1 173e f2bd 3dbf
00000080: 82d5 a4be 6701 2c3e 72f3 b5be 16be c53d
00000090: 110d 433f cca2 583e 1ac3 2bbd 3966 b33e
000000a0: 6ed9 c63e 368f 9b3e c826 0cbe 13f6 da3c
000000b0: f7f6 bf3d 7a57 3c3e 30e5 98be 3c97 a6be
000000c0: 98fa 1fbe 03d0 6bbe
-0.14765595 0.06702155 0.32760286 0.28007504 0.13912381 -0.7484333 -0.45050853 -0.76860005
0.005673583 -0.5079582 -0.7532175 0.61291885 -0.9725308 -0.21664773 0.5566182 0.5485993
-0.52906674 0.47153324 -0.144633 0.03165573 -0.9212707 0.43864542 -0.65585834 0.15885872
-0.33147642 -0.04070086 -0.11238297 0.05085692 0.19928293 0.421005 0.14838278 -0.7411796
-0.32194144 0.1679741 -0.35537297 0.09655397 0.7619181 0.21155852 -0.04193411 0.35038927
0.3883776 0.303827 -0.13686669 0.026728665 0.09373277 0.18392745 -0.29862356 -0.32537258
-0.15622938 -0.23028569

bn2.running_var f4 [50]
00000000: 013f 283f fdc7 293f bb5c f23e a463 093f
00000010: a31c 0e3f fa51 4e3e 8d3e c13e f9f8 0e3e
00000020: 7a43 023f c7a1 b53e 0f9c 2e3e 05b2 983e
00000030: 307c 063b 1329 263f 4630 ca3e e939 a83e
00000040: 0fca c93e e79a c73e 3c50 263f d478 123f
00000050: 28ec ab3c 1d47 fb3e 4d72 2e3e 2b9d 313f
00000060: baad 073f e3c6 163f a6c4 313f 7dd8 203f
00000070: fd62 263f 6f9c d73e 1b77 2d3f b768 183e
00000080: 4e34 d63e 8d1b 0e3f eab6 903e 7a7e 023f
00000090: f5b9 e73d 1deb 203f 629e 243f 88fe e13e
000000a0: 4a56 b43e 5c3a 123f 864d 183f 81a4 0b3f
000000b0: dce3 2f3f 1931 0d3f 6f3d f43e 7ead 173f
000000c0: 8749 193f cba5 153f
0.65721136 0.6632078 0.47336373 0.53667665 0.55512446 0.20148459 0.37743035 0.13962163
0.5088421 0.3547499 0.17051719 0.29823318 0.00205208 0.64906424 0.39489955 0.32856682
0.3941197 0.3898537 0.6496618 0.5721562 0.020986632 0.49077693 0.1703579 0.69380444
0.5299946 0.5889723 0.69440687 0.62830335 0.64994794 0.42111537 0.67759866 0.14883696
0.4183678 0.5551079 0.28264552 0.5097424 0.11314765 0.62858754 0.64304173 0.44139504
0.35222083 0.571203 0.5949329 0.5454789 0.6870706 0.5515304 0.4770312 0.59249103
0.5987782 0.58456105

en3.weight f4 [20, 50]
00000000: 6bc5 153e 4eb3 c5bd 1c45 e23d 1ee6 88bd
00000010: 22f5 db3d 7928 4dbd 2157 8bbe 5820 95be
00000020: 6ec3 7e3d c1b6 763d 2da7 803d 2b93 91bc
00000030: c095 ecbd 7d31 7b3e 3ff6 cc3c e0af 11be
00000040: fe65 b2bd 445a a4bd 0e4d 8dbe 0883 da3c
00000050: e078 f03b 6daf 2cbe d62d a63d c77b 2b3e
00000060: d1cf a33c 2b83 36be a710 ea3b 3e9e 72bd
00000070: d0cd 0a3e a42a 56bb 4950 ddbc d6f5 b3bd
00000080: 19b2 a03d 9c15 65bc 0715 d93b 2803 a83c
00000090: b678 9c3c 4abe d13d ddfd 00bf aaa3 4c3e
000000a0: fd28 a2bd 7840 0a3e d1b6 33be c925 9fbd
000000b0: ff9a 823d 878b 753e 8681 433e 6017 063e
000000c0: ba86 97bb c836 71bc 4e4b b7bd 486a cfbc
000000d0: 0eb7 32bb 07fc 543d b64b 013e 7a48 41bc
000000e0: 364c d03d 6ca5 a93d 2710 0cbe 9c12 46bd
000000f0: 84ab 33be 898d 7e3e afb5 89bd 36bc 66be
00000100: d8c3 423d d34b 8a3d a95e b6bd 6742 01be
00000110: bfda 423e 8859 bebd b108 a03c a264 963d
00000120: 1796 123e 4e4b 9f3c 3cb0 7abb 3471 c6bc
00000130: 9a69 cbbd 7c20 4abe 443d 273d 6936 a73d
00000140: 6ad0 ce3d f9bf c6bd f211 e93c ddea 9fbc
00000150: 2917 e4bd 003f 6bbd 0c25 f83d dc8e 523d
00000160: b0be 9c3d 8a8e c83d f907 eabd 4990 d43d
00000170: cae6 70bc ed49 883c 955e 2c3e c40d 643d
00000180: 592f e3bd 1613 e3bd bf9f 223d 42c1 3fbe
00000190: cea7 d8bd 0b4e a43d 3076 0fbc 6e90 813d
000001a0: f1c4 223e 9e11 0ebd 9eaa 61bd a303 ec3d
000001b0: 50d7 473b 9a18 74bd e0ee 823c e6af 6f3d
000001c0: 918f 743e e64b 6a3d e500 df3d be9e 1abd
000001d0: b615 b2bc ef2e 31be 8512 adbd c7e2 a93e
000001e0: b686 fdbd 9254 b63d 5c07 213e a117 b1bc
000001f0: 28d6 bcbd 5fe5 273e f563 783d 4e22 82bd
00000200: d818 f23c e880 15be 12cd 97bd fff1 e73c
00000210: bb2f d53d 12c5 f53c 9d4c 973c 741d a6bd
00000220: b3a9 e33d 4d3d 93bd 4a1d f03c cb1f 8a3d
00000230: 65e0 37be 1889 2f3e 35a1 55be 753a a5bd
00000240: 76e5 9bbd a7b9 0dbe a55a 89bd 52e9 bebb
00000250: af65 063e 76b5 95bd 28ab cdbc 2a94 0bbe
00000260: 4988 adbd fc1f 573e 6e4b d43b 427f a73d
00000270: 7c84 07be fbac 9ebe b5ce 713c 6f4d 0abd
00000280: d5ee 2abe 7a20 edbd ab33 0d3e c3f5 253e
00000290: 37aa 403c 52bf 12bd 0932 593e b276 003e
000002a0: c2ea a4bd 2292 263c 3015 06be 8e57 4cbe
000002b0: ae66 45bd 490d 9c3d 1e2d 253d 97f5 f0bd
000002c0: 5675 4c3e 6710 5bbd bb69 aa3d cc35 e8bb
000002d0: 3e27 2cbe 87ea 623d e828 d83c 83a8 343b
000002e0: 9994 dabd f2ad e73d 142a 42bd 16eb 02be
000002f0: 6649 8bbd 0b0b 163c 1653 0bbe 74e7 893e
00000300: 439c edbd c683 a33d a67f a4bd 2ff6 413c
00000310: 0e5c 7d3d 83f2 6e3d a8a8 b9bd fe87 a73c
00000320: ebe9 933d d558 ef3c 7161 383e 71fd 98bd
00000330: e4d6 31bd 0971 97bc fcdf debd da34 38be
00000340: 7d6c 8b3d 529a 3abe e5bf 9c3d 3a9c eb3d
00000350: 8d66 cfbd 89d5 1fbe c4e2 ed3d 14a4 30bd
00000360: bd60 88bb bdfe 823d 806b 9e3b 4717 f0bd
00000370: d40f d93d 4b39 333e 50d1 61bc 795e a0bd
00000380: 01d5 a3bd fc4b dfbd f346 f9bc 9e48 ae3d
00000390: 0f03 5d3c 5317 003d 9836 f4bc e714 77bd
000003a0: 4e1d 3e3e ce32 eb3c 0366 853d a136 bb3c
000003b0: 2746 babd 279f 8b3d 301d 6f3d d4b8 623d
000003c0: d8d1 40be fbc6 953d 27fe 5cbe beac b0bc
000003d0: 756a 4b3d a0c5 eb3d f7f7 1c3e 065f 5dbd
000003e0: a9d3 893d 4a94 c4bd 7c14 1bbe 410d b6bd
000003f0: d9c5 f93a 6200 223e 1c03 5bbd e55c 4dbe
0.1462609 -0.0965334 0.11048338 -0.06684516 0.10740115 -0.050087426 -0.27214912 -0.2912624
0.062198095 0.06023288 0.06281886 -0.01777037 -0.11552 0.24530597 0.025019763 -0.14227247
-0.0871086 -0.08025029 -0.2759785 0.026673809 0.007338628 -0.16863795 0.08114211 0.16746436
0.019996556 -0.17823474 0.0071430984 -0.059232943 0.13555074 -0.0032679224 -0.027015822 -0.08787124
0.078464694 -0.013982203 0.006624821 0.020509318 0.019100528 0.10241373 -0.50387365 0.19984308
-0.07917974 0.13501155 -0.17550208 -0.07770879 0.063772194 0.23979007 0.19092378 0.13094854
-0.004624215 -0.0147225335 -0.0894991 -0.025319234 -0.0027269754 0.051998165 0.12626538 -0.011797065
0.10170786 0.08283505 -0.13678037 -0.04835759 -0.17545897 0.24858679 -0.067241065 -0.22532734
0.047550052 0.067527436 -0.08904774 -0.12622987 0.19028758 -0.092944205 0.019535394 0.07343413
0.14315067 0.019445088 -0.0038252017 -0.024223901 -0.09932251 -0.19738954 0.04082991 0.08164675
0.100983456 -0.09704585 0.02845094 -0.019521171 -0.1113723 -0.05743313 0.12116441 0.051405773
0.07653558 0.09792812 -0.11427302 0.10379083 -0.014703462 0.016636813 0.16832955 0.05567719
-0.11093015 -0.11087625 0.039703127 -0.18726066 -0.10578881 0.08022698 -0.008756205 0.06326376
0.1589544 -0.03468477 -0.055094354 0.11524131 0.0030493326 -0.059593774 0.015983045 0.05851736
0.23882891 0.05720129 0.108888425 -0.037749045 -0.021738868 -0.1730306 -0.08450798 0.3318083
-0.1237921 0.08902849 0.15725464 -0.021617712 -0.092205346 0.16396092 0.0606422 -0.06354199
0.029552862 -0.14599955 -0.07412161 0.028313635 0.104094945 0.030001197 0.01846915 -0.081110865
0.11116352 -0.071894266 0.029310841 0.06744345 -0.17956693 0.17142141 -0.20862277 -0.080677904
-0.076121256 -0.13840352 -0.06706742 -0.005826154 0.13124727 -0.073100016 -0.025106028 -0.13630739
-0.0847326 0.21008295 0.0064787185 0.081785694 -0.13234133 -0.3099135 0.014758755 -0.033765253
-0.1669267 -0.1157846 0.13789241 0.16207032 0.011759332 -0.03582699 0.21210493 0.12545279
-0.08052589 0.010166677 -0.1309402 -0.19955274 -0.048193626 0.076197214 0.04032623 -0.117655925
0.19966635 -0.05348244 0.08320948 -0.007086491 -0.16811845 0.055399444 0.026386693 0.002756626
-0.10672874 0.11312474 -0.04740341 -0.1278499 -0.06801109 0.009157906 -0.13605914 0.26934397
-0.1160207 0.07984118 -0.080321595 0.01183848 0.06185537 0.058336746 -0.09065372 0.020450588
0.07222351 0.029217163 0.18005921 -0.07470215 -0.043417826 -0.018486517 -0.108825654 -0.17988911
0.06807802 -0.18222931 0.076537885 0.11504407 -0.10126982 -0.15608801 0.11615518 -0.043125227
-0.0041619227 0.06396244 0.0048345923 -0.1172319 0.10598722 0.17502324 -0.013782814 -0.07830519
-0.07999612 -0.10903165 -0.030429339 0.085099444 0.013489499 0.031272244 -0.029811189 -0.06032267
0.18565866 0.028710749 0.06513598 0.022853198 -0.09095412 0.06817465 0.058377445 0.055352047
-0.18830049 0.07313343 -0.21581326 -0.021566745 0.049662072 0.11512303 0.15328966 -0.0540457
0.06729824 -0.095985964 -0.15144533 -0.08889247 0.0019056156 0.15820459 -0.053469762 -0.20054968

en3.bias f4 [20]
00000000: a5f6 153b 68ad 253f 4a25 a7bd dba1 473e
00000010: 7ada ec3e 573f dabe e29b 04bd 5cb0 b83e
00000020: 45cd a8bd bee7 ec3d 7caf 7ebe 48d6 8d3e
00000030: 9a40 b33c 1f4b efbd 8da2 003f 9edd 463c
00000040: 5943 0e3e 5256 fabe 21a6 2abf 3a2a cb3d
0.0022882607 0.6471772 -0.08161409 0.19495337 0.46260434 -0.4262645 -0.032375224 0.36072052
-0.08242277 0.11567639 -0.2487163 0.27702546 0.02188139 -0.1168425 0.5024803 0.012137799
0.13892879 -0.48893982 -0.6665974 0.099201635

bn3.weight f4 [20]
00000000: c475 113f 7b48 3e3f 400b 343f 81cd 3f3f
00000010: 1408 373f a4fa 333f c6fc 093f f0f2 403f
00000020: 16e3 393f 1664 493f dd94 4d3f 6d61 443f
00000030: 3e8f 393f 8fdb 443f 4c72 273f c725 483f
00000040: e54b 443f 61df 5b3f db2f 513f d6a8 1b3f
0.5682032 0.74329346 0.70329666 0.7492295 0.714967 0.7030432 0.53901327 0.75370693
0.7261213 0.78668344 0.8030527 0.7671116 0.72484195 0.7689752 0.6540878 0.78182644
0.76678306 0.85887724 0.81713647 0.608045

bn3.bias f4 [20]
00000000: 0e39 9cbd 83c0 acbd a8d1 ae3d 89c0 233e
00000010: bd89 01bd cd5c d4bc 59d6 63bd 6e20 dabd
00000020: 1848 f93d df7c 7ebc 8db7 ee3d 1e94 25be
00000030: 3484 303e 4e65 96bd 2ae1 f739 44a5 593d
00000040: 3b6d cf3d 02ac 0a3e 20d6 3cbe 66cf 7c3d
-0.0762807 -0.08435156 0.085360825 0.15991415 -0.031625498 -0.025923157 -0.05562434 -0.10650717
0.12171954 -0.015532701 0.11656103 -0.16169783 0.17237931 -0.07343541 0.00047279272 0.053136125
0.10128256 0.13542178 -0.18441057 0.061721228

bn3.running_mean f4 [20]
00000000: fca3 5c3e 4946 1d3f 1701 93bd 21f9 653e
00000010: 93b3 103f edc9 01bf 15ca 213e c3b5 f03e
00000020: c50e fa3c 0788 8e3e a594 87be c62b 743e
00000030: 9a5a 9abd 6d84 90be 886d 183f 6adf 1e3d
00000040: 99eb 353e 6f1b 06bf 63a6 3abf 52b3 0b3c
0.2154693 0.6143537 -0.07177942 0.22458316 0.5652401 -0.5069874 0.15799744 0.47013673
0.03052462 0.27838156 -0.26480594 0.23844823 -0.07536812 -0.28226033 0.5954213 0.038787283
0.17765655 -0.5238561 -0.72910136 0.00852664

bn3.running_var f4 [20]
00000000: a5da 103f f326 703e 9246 e33e 22a2 033f
00000010: 6876 733e a100 823e 4aae f73e 4f1b 9a3e
00000020: fc32 c83e 7fd6 df3e 014d c93e d2bc d93e
00000030: e1d6 043f 6e81 ce3e 05d6 873e f5f2 cf3e
00000040: bbe5 e43e 7be1 9a3e ceb5 013e 2da2 f23e
0.56583625 0.23452358 0.44389778 0.5141927 0.23775637 0.25391105 0.4837516 0.3009896
0.39101398 0.43718335 0.39316562 0.4252687 0.5189038 0.40333122 0.2653047 0.4061505
0.4470652 0.30250153 0.12667009 0.47389355

en4.weight f4 [3, 20]
00000000: c1e1 8b3c ee1a 21bc a1ac 883d 7667 623d
00000010: 2b28 913d a3fa 363d cc9b f73c b90b 263d
00000020: 5910 db3d 7120 0bbe 677c 083e f12d a0bd
00000030: 3a21 513b 697a 88bd 0d7a 943c 14a3 bc3d
00000040: daef 9cbd 500c f83d c5ce 9fbd 6a9c 0b3c
00000050: f0d3 cf3c 5aa9 9fbd ac54 12bd 3386 3c3d
00000060: 74d2 e03d bb8d b6bc f563 7b3d acaa b23c
00000070: 01c6 753d 6a1c 963d ca51 b03d 37be a73d
00000080: a36d b33c beb5 d23c f99a c6bd 7d9f 8a3d
00000090: 906d 463d a1f8 04be 33f8 323e 93b2 24bd
000000a0: 0d0d cd3c 27f9 d63d 5ed7 b03d 28e6 edbc
000000b0: 7f4b c83c aedc d73d 61c5 4b3c 9733 1b3e
000000c0: 3269 abbd fc34 b4bd d3dd 27be 2c54 bd3d
000000d0: a832 d2bd b450 bbbd 2a15 f33a 4bf4 a83d
000000e0: 29bc 9abd 3f52 bebd d824 2f3e 126e 1d3c
0.017075421 -0.009833081 0.06673551 0.05527445 0.070877396 0.04467262 0.030225657 0.040538523
0.106964774 -0.13586594 0.13328706 -0.07821263 0.0031910674 -0.06663973 0.018124605 0.09210792
-0.076629356 0.121117234 -0.0780311 0.008521179 0.025369614 -0.07795973 -0.03572528 0.04602642
0.10977641 -0.02228438 0.061374623 0.021809898 0.060003284 0.07329638 0.0860935 0.081905775
0.021902865 0.025721427 -0.096975274 0.06768701 0.04844433 -0.1298547 0.17477493 -0.040209364
0.025030637 0.10496741 0.08634828 -0.029040411 0.024450062 0.10540138 0.0124371955 0.15156399
-0.08369674 -0.087991685 -0.16393213 0.0924457 -0.10263568 -0.09146252 0.0018545736 0.0824972
-0.0755542 -0.09293031 0.17103899 0.009608762

en4.bias f4 [3]
00000000: d187 973e 812b 3e3d abf3 c43c
0.29595807 0.046428207 0.024041971

bn5.weight f4 [3]
00000000: 14c9 583f 8ee3 6e3f b5b8 5d3f
0.8468182 0.9331597 0.86609966

bn5.bias f4 [3]
00000000: 9131 a4bc fc17 d83c 3343 553b
-0.020043166 0.026378624 0.0032541275

bn5.running_mean f4 [3]
00000000: f6cd 9e3e 4027 7b3b d7fe abbd
0.3101651 0.0038322955 -0.08398216

bn5.running_var f4 [3]
00000000: 34f8 083e cc86 363e bda0 423e
0.13375932 0.17824858 0.1900663

de1.weight f4 [20, 3]
00000000: 44da d6be 9c89 c6be 133a e0be 0d79 aebe
00000010: a759 febe d286 b93e 9426 6dbe 98a4 dabd
00000020: 2779 093f 8908 d13e 2109 b4be e603 03be
00000030: 6a35 a5be 0eab 99be 451b c0be f527 d13c
00000040: a558 48be 680d 523e a05e b73e f376 103f
00000050: 1e83 06bf 6463 afbe 05ba cebe ec3c 023e
00000060: d9a4 e33e dd7b 93be 0a46 6b3d e380 ba3e
00000070: 25f9 9bbd 8536 0f3e 17b4 05be ff9c 0c3f
00000080: 8029 c13e 043e a4be 7985 d33e 3976 dbbe
00000090: 31b1 1d3f 8caf 65bd 787b 90be 9983 b4be
000000a0: a794 3bbe 2d79 013e 6b59 d33e 4630 a23e
000000b0: 5db2 fbbe dffc cb3e a6c3 243e e9e5 ef3e
000000c0: f130 d2be 77b4 d03e 10fc ad3e 1b78 dabe
000000d0: 8e04 f83e 1c30 c9be f648 f9be d462 a9bd
000000e0: 8df2 ae3e cfae 02bf 615c 0b3f 7d3d c63e
-0.41963398 -0.38776863 -0.43794307 -0.3407673 -0.49677774 0.36235672 -0.23159248 -0.10675925
0.5370049 0.40826824 -0.35163215 -0.12794456 -0.32267314 -0.30013317 -0.37520805 0.025531748
-0.19565065 0.20512927 0.3581438 0.564315 -0.5254382 -0.34255517 -0.40376297 0.12718552
0.44461706 -0.28805438 0.05743984 0.36426458 -0.0761588 0.13985641 -0.1305698 0.5492706
0.37726974 -0.32078564 0.4131277 -0.42863634 0.615985 -0.056075618 -0.282192 -0.3525665
-0.18318425 0.12643881 0.41279158 0.31677455 -0.49159518 0.39841363 0.16090259 0.46855095
-0.41052964 0.40762684 0.3398137 -0.42669758 0.48440975 -0.39294517 -0.48688477 -0.08270803
0.34169427 -0.51047987 0.54437834 0.38718787

de1.bias f4 [20]
00000000: a0e7 63bf c978 2b3e 157b 6a3f 6241 3fbf
00000010: 95b0 383f 73fb 43bf 3b3f 593f 0982 dd3e
00000020: cc58 1b3f 909c 37bf b05e 84bf 6c61 28bf
00000030: 3a02 053e 53cf bbbe ca95 df3e 7220 02bf
00000040: a2a8 77bf d729 103f eec5 1d3f b9b4 e43e
-0.89025307 0.16745295 0.9159406 -0.7470914 0.7214444 -0.76555556 0.8486211 0.4326327
0.6068237 -0.7172327 -1.0341396 -0.65773654 0.1298913 -0.36681613 0.43668967 -0.5083076
-0.9674169 0.5631384 0.6163014 0.4466913

bn6.weight f4 [20]
00000000: 9714 7d3f d8a7 493f c8f0 5b3f 7c71 783f
00000010: 39c2 5c3f 83c1 7f3f 5620 393f c8c8 703f
00000020: e420 593f c604 713f 8e44 7c3f 989b 523f
00000030: e326 3d3f 4c93 513f a198 2a3f 0355 463f
00000040: 35d6 783f 49fb 673f 29a2 623f 42f7 6b3f
0.9885954 0.78771734 0.8591428 0.97048163 0.8623386 0.9990465 0.72314966 0.9405637
0.8481581 0.9414791 0.98542106 0.8226867 0.7388746 0.8186538 0.66639143 0.7747347
0.97201854 0.90617806 0.88528687 0.9217416

bn6.bias f4 [20]
00000000: abb6 29bf 2247 f63e a0d6 853e 7356 a0be
00000010: 12ea 94be 7559 f4bd 88b7 183e f8f0 983e
00000020: 3341 4d3f 940a 81be f73b c3be a5eb 08bf
00000030: a783 f63c 318a 84be 699a dd3e 2ab2 6ebe
00000040: 45ea a8be e3ef 063f c712 4f3f 5dc6 623e
-0.66294354 0.48101145 0.26140308 -0.31315956 -0.2908483 -0.11931125 0.14913762 0.29871345
0.8017761 -0.25203383 -0.38131687 -0.53484565 0.030092074 -0.25886682 0.43281868 -0.23310152
-0.32991233 0.5270979 0.80888027 0.22145982

bn6.running_mean f4 [20]
00000000: 42b8 1abf 78e4 f53d 1c5c 253f ee05 0ebf
00000010: dbde 093f afb2 1fbf 5b5f 0c3f 9f8e b23e
00000020: 985c ea3e 37fe 13bf ad51 27bf a925 ebbe
00000030: 3ce3 c33d b1d3 a3be f554 a73e 3915 c6be
00000040: a5ac 1fbf 7a6b c83e 075b f23e 0246 a03e
-0.60437405 0.120064676 0.6459367 -0.554778 0.53855675 -0.62382025 0.54833 0.34874436
0.45773768 -0.57809776 -0.65359 -0.4592717 0.09564826 -0.31997445 0.32682005 -0.38688067
-0.6237281 0.39144498 0.47335073 0.31303412

bn6.running_var f4 [20]
00000000: 61a7 e13d 2d2e 683e cf50 8c3d 91dd d33d
00000010: 6c6c c53d 109f bc3c 9bcd 333e 7e1e f93d
00000020: 9f67 0a3e 91ae 243d 2c31 c93d ef4c 373e
00000030: e9a1 693e 9ef0 a73d e668 4e3e 67fe 1a3e
00000040: 7deb ea3d 96c9 523e e380 e93d ccb5 923e
0.11018253 0.22673865 0.068513505 0.10344995 0.096398205 0.023025066 0.17558901 0.12164019
0.13516091 0.040205542 0.09823832 0.17900442 0.2281567 0.08200191 0.20157203 0.1513611
0.11470697 0.20584711 0.11401536 0.28654325

de2.weight f4 [50, 20]
00000000: 8c74 45bd 7cbb 043c 1e97 7ebb 4c13 a2bc
00000010: b00a 5bbe 0c41 9cbd ba83 8dbe da3d 813e
00000020: 593d 3c3d 9198 283e b8d8 7a3e a10d 563e
00000030: 94aa 20be f2a8 cd3d e70d 62be bbca 5c3d
00000040: 5f7a b23d 5655 8cbe c3c3 cc3e 4d63 b53e
00000050: af3e 2b3e 0f99 11be 0811 1abd 97ed 0ebe
00000060: 4195 993e abf8 ccbe 30d1 fc3d b5f8 c1bd
00000070: 0ed4 e5bc 6a2d e1bd 09ae 5f3e 903f cf3e
00000080: 8208 0fbe 8cf2 d33d a5da db3d a9b4 4fbe
00000090: 4f7f 063e 9fde b93e dcad b03d 8e5c d73b
000000a0: ee01 33be dbdf d73b cdf2 983d e1d0 213e
000000b0: e7b6 7ebe 5451 183e 7469 cf3c 066c a53d
000000c0: 4508 0fbc cedd 843e 3557 f5bd 346d b7be
000000d0: 885a 1c3e e84e cc3d 69a5 60bd a49a e0bc
000000e0: f709 0abd b816 50be 89ec ad3c 971b 103e
000000f0: bf28 ba3d 6fd0 70be ee96 dfbe 3d47 bd3d
00000100: 04b6 123e 2ab2 93bd 1803 db3d ad45 32be
00000110: c57b b1bd ad7b c8bb 66e9 d6bd cc38 19be
00000120: 95df ddbd 33bd 013e c9dd f93d 4716 ebbc
00000130: 2882 463d 5511 32bd daab 71bd a638 90be
00000140: 18e0 573e 0cf5 173e 7ba6 483e da44 e3bd
00000150: 5128 2a3d ac3f 8fbe 4730 0d3e 4444 75bd
00000160: 539e 34be 5e21 bfbe ae17 e73d 4cd5 643c
00000170: b52c 9fbd 3ac0 8f3c fe35 6abe e410 81be
00000180: 016c 74be 0bd3 9a3d d5a8 923c 0896 28bd
00000190: 1b91 843d d039 09be 3cc3 3c3e 902a 95bd
000001a0: c7bb 2ebe 1b2e 8dbe 42a7 90bc 510f 263e
000001b0: a98f bdbe 6776 1bbe cae6 223d 9599 6e3e
000001c0: 0cae 30be c278 71bd 80e1 fcbd c412 0a3e
000001d0: 7ee6 0e3f 5f24 1fbe 1016 3a3e eb75 a63e
000001e0: cb75 a13d ca90 73bd b14d 153e 9437 ba3e
000001f0: 48d7 f93d 17a7 47be 9615 58bd 6f5d 583e
00000200: d255 5abe a774 143d 4575 1d3e 4c7a 5c3d
00000210: 52d2 0d3d 1a00 ccbd a328 32bd 3e0a 423d
00000220: 7558 593b 8a75 15be 1979 86be 979a a0be
00000230: 1c5c d43e 8afa a03d 534a 1f3e 8c27 7bbd
00000240: 0ce9 a93e 1cb5 4ebd 6611 93bd 80f8 473e
00000250: 5f07 18bc fe8c cfbd bb4d 8abe 5c92 503e
00000260: 8776 b5bd 5d74 be3d 3d92 aa3d 5965 59be
00000270: 991c 353c 2d36 2bbd 0837 963d be7d 123e
00000280: 3dc3 85be 99a0 25bc 9bcf 58bd bf30 9dbd
00000290: 8ca3 45be c153 75be 0676 c4bd add5 b1be
000002a0: 85e3 743d 8e63 e73c c840 3bbe 0d65 ec3d
000002b0: 1eb5 ad3d adb6 e3ba 2ae3 36bb 6cdb 0a3e
000002c0: 6517 40be 1019 d33b 3e33 d9bd ea1f a13c
000002d0: 3bc8 9d3e 7c0c e83d 860b eabd 1552 b1bd
000002e0: 9f35 15be b2b6 a53e 542d a0be 80c6 1ebc
000002f0: da26 ecbd da35 763d 3e5f 033e 31bc c23b
00000300: 43db 5abe 39ed 873e 9bc2 67be e6d7 393e
00000310: fbe6 2e3e 4ca6 46be 3c5a 10be 5363 20be
00000320: b406 b8bd bbf7 243e fa9c df3d 7b3e dc3d
00000330: 2331 b13d 6bad 50be 6673 c23e 1f91 3dbe
00000340: 58f8 67bd db1d bb3d df39 6f3d 8cc2 98be
00000350: 7eea 03be 5fc5 cbbe 7ec0 a33e 3af0 d3bd
00000360: 06ff 813e b9e5 18be 1388 7cbe cfad 23be
00000370: fed3 1fbd 7697 943e df4e 4fbd eebf 6e3e
00000380: 6c68 e63e d82d 93be 6afc afbc a61d 873e
00000390: 610a 10be 251a 73be 8340 86be b0e2 9ebc
000003a0: 4cb9 c5bd 5130 bdbd 20c0 5b3d 416d 82bd
000003b0: c107 063e 995a 3dbc 2fb2 4d3e e430 53be
000003c0: 0416 cdbe 6d5f 0b3d 4306 c63d 9279 1d3e
000003d0: 078e 88be d0b3 083d f3e5 8b3e c26c 95be
000003e0: 0301 19ba 481e 4e3e b20a 963e 12af 6abe
000003f0: 668b 1a3e 0f16 60bd 37d6 c73c 1bd3 ba3e
-0.04820685 0.00810134 -0.0038847397 -0.019784592 -0.21390796 -0.07629594 -0.27639562 0.25242501
0.045956943 0.1646445 0.24496734 0.20903637 -0.1569007 0.100419894 -0.22075616 0.053904276
0.08714747 -0.27408856 0.39993104 0.35427323 0.1672313 -0.14218543 -0.0376139 -0.13957821
0.29996684 -0.4003347 0.12344587 -0.09471265 -0.028055217 -0.1099499 0.21843733 0.40478182
-0.13968089 0.103489965 0.107350625 -0.2028376 0.13134502 0.3630266 0.08626911 0.0065723127
-0.17481205 0.006587965 0.074681856 0.15802337 -0.24874459 0.14874774 0.025318839 0.080772445
-0.008729999 0.25950474 -0.11979524 -0.35825503 0.1526891 0.09975988 -0.054845247 -0.027417488
-0.03370091 -0.20321167 0.021230953 0.14073025 0.09089803 -0.23517011 -0.43669838 0.09242103
0.14327246 -0.072117165 0.106939495 -0.17409392 -0.08666185 -0.006118259 -0.10493736 -0.14963073
-0.108336605 0.1266983 0.12200505 -0.028697146 0.04846397 -0.04347356 -0.05900178 -0.2816822
0.21081579 0.14839572 0.19594757 -0.11097117 0.041542355 -0.27978265 0.13787948 -0.059879556
-0.17638521 -0.37330145 0.112838134 0.01396687 -0.07772199 0.017547715 -0.22872159 -0.252082
-0.23869325 0.075597845 0.017902771 -0.041158706 0.06472989 -0.1340096 0.18433851 -0.07283509
-0.17063819 -0.27574238 -0.01765788 0.1621678 -0.37023667 -0.15181886 0.03977088 0.23300774
-0.17253894 -0.058953054 -0.12347698 0.13483721 0.55820453 -0.15541218 0.18172479 0.3251184
0.07883795 -0.059464253 0.14580418 0.36370528 0.12199265 -0.19497333 -0.05275496 0.21129392
-0.213218 0.03624406 0.15376766 0.05382757 0.034624405 -0.09960957 -0.043495785 0.04737305
0.0033164297 -0.14595619 -0.26264265 -0.31367943 0.41476524 0.078602865 0.15555696 -0.06131701
0.33185613 -0.050465688 -0.07181053 0.19528389 -0.009279101 -0.10134314 -0.2701243 0.20368332
-0.08860498 0.09299538 0.08328674 -0.21230067 0.0110541815 -0.041799713 0.07334715 0.1430578
-0.26125517 -0.01010909 -0.052932363 -0.07675313 -0.1930067 -0.23957731 -0.09592824 -0.34733334
0.059787292 0.028245714 -0.18286431 0.115427114 0.08481811 -0.0017373167 -0.0027906396 0.13560265
-0.18758924 0.0064421967 -0.10605477 0.019668538 0.30816826 0.11330506 -0.11427979 -0.08658234
-0.14571236 0.32365948 -0.31284583 -0.009690881 -0.11530848 0.06010995 0.12829301 0.0059428443
-0.21372704 0.26548174 -0.2263283 0.18148765 0.170803 -0.19399375 -0.14096922 -0.15662889
-0.089856535 0.16110127 0.10918613 0.10754105 0.0865195 -0.20378654 0.37978667 -0.1851239
-0.056633323 0.09136554 0.0584048 -0.29835927 -0.1288242 -0.3979902 0.31982797 -0.10348554
0.2538988 -0.14931382 -0.24661283 -0.15984271 -0.03902053 0.29021806 -0.050612327 0.23315403
0.45001543 -0.28745914 -0.021482665 0.26389807 -0.14066459 -0.23740442 -0.26221094 -0.019395202
-0.09654483 -0.09237731 0.05365002 -0.06368495 0.13088895 -0.011557245 0.20087503 -0.20624119
-0.4005586 0.034026552 0.09669163 0.15378407 -0.26670858 0.033374608 0.27323875 -0.29184538
-0.00058366376 0.20128739 0.29305035 -0.22918347 0.15092239 -0.054708537 0.024394138 0.36489186

de2.bias f4 [50]
00000000: 2c83 ab3d 178d 4c3e 9a99 ad3e c0c7 03bf
00000010: a803 cabd 7b15 94bd 8bf8 21bf 0ef6 4fbe
00000020: 27b8 2cbe 08aa 84bf 8e12 b93e fbb0 293f
00000030: f943 3e3e 34be 2f3e 0165 46bf 52f2 d5be
00000040: 47cc 9abf c232 4ebf 341b 9c3d f0f9 4e3d
00000050: c49a caba 86ca 913d bf94 a13e d1ea abbe
00000060: 64e5 853f dea8 dabd f22b 9cbe f46e d4bd
00000070: 0439 3b3f ae9c 02bf 1086 b4be 217d 193f
00000080: d96c 00bf 91f2 1e3d ae7b 3f3f be7e fdbe
00000090: 00c2 43bf f653 f83e e0ea 653d e497 123e
000000a0: b7a8 d6bb 8d34 453e ef07 07bf a2ab 04be
000000b0: 8723 90be c078 b43e 4a08 c63e 0768 1cbf
000000c0: 59ae ab3e c04e 853e
0.083746284 0.19975697 0.3390625 -0.5147667 -0.098639786 -0.072306596 -0.6326987 -0.20308706
-0.16867124 -1.036439 0.3614697 0.66285676 0.18580617 0.171624 -0.7749787 -0.41786438
-1.209359 -0.805462 0.07622376 0.050531328 -0.0015457501 0.071187064 0.31558797 -0.33577588
1.046063 -0.1067674 -0.30502278 -0.10372725 0.73133874 -0.51020324 -0.35258532 0.59956557
-0.5016609 0.038805548 0.74798095 -0.4951076 -0.76467896 0.48501557 0.056132197 0.14315754
-0.006550874 0.19258328 -0.5274648 -0.12956098 -0.28152105 0.35248375 0.386782 -0.61096233
0.33531454 0.26036644

bn7.weight f4 [50]
00000000: 2657 1d3f ebb9 1c3f 303a 0f3f 8632 223f
00000010: 5040 3a3f f8d2 513f dca6 693f a531 4a3f
00000020: 39b0 273f bc3d 4e3f 130f 9d3e 73bd 653f
00000030: 736c 143f 6db7 333f b98a 3d3f 2940 283f
00000040: ed7c 6c3f c8f6 263f 8a4b 033f c933 1f3f
00000050: e8f1 2b3f 42f1 3a3f 9de1 303f 04c7 1f3f
00000060: b6c6 813f 4cda 1b3f 289d 5a3f a2cc 153f
00000070: e72d 283f 8cac 4b3f 9062 433f b84b 453f
00000080: 52ea 1c3f 5d4d 1e3f d3cc e33e 14f0 243f
00000090: 6fe9 713f 2ac9 5e3f eef9 743f fc78 2c3f
000000a0: 8e13 163f db4c 313f 21cf 453f 3b67 de3e
000000b0: 4566 133f 0dc2 f33e 3885 3b3f 1dc3 383f
000000c0: c290 453f 190a 413f
0.614611 0.6122119 0.5594816 0.6335834 0.72754383 0.8196254 0.9127023 0.78982
0.6550327 0.8056295 0.30675563 0.897422 0.5797798 0.7020176 0.740398 0.657229
0.9237812 0.6522031 0.5128714 0.6218839 0.67165995 0.7302438 0.6909426 0.6241305
1.0138767 0.6087997 0.8539605 0.5851537 0.6569504 0.7956016 0.7632227 0.7706866
0.61295044 0.61836797 0.44492206 0.6442883 0.94496816 0.870257 0.9569386 0.6737211
0.5862359 0.692579 0.7726918 0.43438134 0.57577926 0.47608986 0.7325015 0.7217272
0.7717401 0.7540603

bn7.bias f4 [50]
00000000: f027 e43d 5b7f 31bf f2c1 1fbf d029 3bbe
00000010: 0dcc 7c3c e63e 3abf ef24 62bf be59 c9be
00000020: 99c1 043f 1b17 97bf e9ee fc3c b9f4 3dbf
00000030: b6cf 88bf 4e37 753e b648 7d3e 0023 75bf
00000040: 5196 daba b804 393e 99db c6be 132e 3f3f
00000050: 3d1a 133f a731 173f 051d 3f3d 70fb 12bf
00000060: 1350 833f 40a6 56bf d1bc ac3e 8a53 af3d
00000070: 92c5 8cbe 580e e53e 5102 e9bc 1cfb 17bf
00000080: 4299 2d3f 4ede 8abf 7659 7dbd 5bd8 3abf
00000090: db90 8abf 0a10 7c3f 73ec 523f 9fbb 793f
000000a0: eac8 0a3f ccd2 cebe 5fbd d4be 39e7 29bf
000000b0: c732 e13d 3094 f03c 2618 263f d4b8 06bf
000000c0: 710b 88bf 353d a23f
0.1114043 -0.69334954 -0.6240531 -0.18277669 0.015429509 -0.72752225 -0.88337606 -0.3932628
0.51857907 -1.1803926 0.03087564 -0.7420154 -1.0688388 0.23946878 0.24734768 -0.9575653
-0.0016676878 0.18068206 -0.38839415 0.7467968 0.5746191 0.5906014 0.046658535 -0.57414913
1.0258812 -0.8384743 0.33737805 0.08560856 -0.27494484 0.44737506 -0.028443487 -0.5936754
0.6781198 -1.0849092 -0.061852895 -0.7298638 -1.0825456 0.98461974 0.8239204 0.9755191
0.5421282 -0.403952 -0.4155073 -0.6636844 0.10996013 0.029367536 0.648806 -0.52625775
-1.0628492 1.2674929

bn7.running_mean f4 [50]
00000000: 443e 8a3d 24ea 20bc f02a a23e 11e4 0ebf
00000010: f4c8 83bd 0673 7fbe 0a8d 47bf ba70 31be
00000020: 4a9e c8bc 6423 57bf 4f78 8c3e cc95 ff3e
00000030: 8dcd 163e 7630 3ebd bfa8 4ebf 1f44 b6be
00000040: 8e13 63bf 7361 28bf 6a98 8e3e ceff 89bd
00000050: 29eb 4f3e 4e74 463e 5d81 cf3d cd3a 00bf
00000060: d5fc 6b3f 18c8 b2be 7681 98be 9ff0 85bc
00000070: 85ca 1c3f f7cd 0bbf 2f46 efbe 23ad c93e
00000080: 7862 03bd d868 4cbe 58e5 d73e a6dd 0bbf
00000090: 2087 49bf 3770 353f 6b3f 89bd 1005 003e
000000a0: c997 2c3e aae1 8e3e 16a2 28bf 4a12 7d3d
000000b0: 30de c8be 9fe9 9b3c 509d d93e 8c46 adbe
000000c0: 5fb0 5e3e 368e 953e
0.067501575 -0.0098214485 0.31673384 -0.5581675 -0.06434813 -0.24946222 -0.77949584 -0.17328158
-0.02448954 -0.84038377 0.27435538 0.49918973 0.14726849 -0.046432935 -0.80726236 -0.35598847
-0.88701713 -0.65773696 0.27850658 -0.06738244 0.2030455 0.19380304 0.10132096 -0.5008972
0.92182666 -0.34918284 -0.2978627 -0.016350089 0.6124652 -0.5461115 -0.46733233 0.39389905
-0.03207633 -0.1996187 0.42167163 -0.54635084 -0.7872181 0.7087435 -0.06701549 0.12501931
0.16854776 0.27906543 -0.65872324 0.06178502 -0.39232016 0.019032298 0.42502832 -0.33842885
0.21746968 0.2921006

bn7.running_var f4 [50]
00000000: 3cc4 073f 3b1f 1e3f c776 cc3e e8b5 833e
00000010: d18c db3e 713a 0e3f 248b ce3d 448c f93e
00000020: 082b bd3e 4206 943d 181f ca3e f96a aa3e
00000030: 54d1 133f 61d4 a83e 9bce 543d 3779 c33e
00000040: 643a db3c 2588 453e 1960 033f 8ef4 0e3f
00000050: 0b3a ec3e 3fe7 d73e 4754 f13e bdc6 d33e
00000060: 9a35 833c 759a ce3e c718 f63e e8de b93e
00000070: 20aa 783e 8be6 d33e 4bd0 bf3e 82e9 a13e
00000080: 5a92 c83e c84b e93e 4855 c43e 9998 863e
00000090: 2efd a73d 68ff f13d 1299 173f e7c6 0a3f
000000a0: 6760 d63e 2173 1e3f 2b1e 303e 4712 103f
000000b0: 4fae b63e f943 183f 4974 d83e d069 ca3e
000000c0: 72dd 953e 2866 db3e
0.53033805 0.61766404 0.3993437 0.2572472 0.42880872 0.55557925 0.10085133 0.48739827
0.36946893 0.07227756 0.39476848 0.3328474 0.57741284 0.32974532 0.051954847 0.38178417
0.026761241 0.19290216 0.5131851 0.5584191 0.46138033 0.42168614 0.4713461 0.41362563
0.01601677 0.40352216 0.4806578 0.36302876 0.24283648 0.41386828 0.37463602 0.31623465
0.39174157 0.4556563 0.38346314 0.26288298 0.08202587 0.11816293 0.5921794 0.5420975
0.41870424 0.6189442 0.17199008 0.5627789 0.35679862 0.5947872 0.4227622 0.39533854
0.29270512 0.42851377
