jet_by_jet_compression/split_data_training/models/AE_3D_50_subtrain_7.pth (torch_old, 100037 bytes, 48 tensors)

en1.weight f4 [50, 4]
000000 7d 5b dd 3e 2c 51 d6 3e cd 3f cc bd 8e 5b a2 bd
       0.43233863 0.41858804 -0.099731065 -0.07927619
000010 f4 71 fe be 3c e2 0c bf 74 42 b0 3e 5e 93 3b 3e
       -0.49696314 -0.55032706 0.344257 0.18317935
000020 3e da 4e 3e 3e 55 24 3d 43 d7 8b bd 43 cb a8 3e
       0.2020044 0.040120356 -0.06828167 0.32967576
000030 6b b1 7b be b3 23 f9 be f7 13 13 bf b6 2f 7a be
       -0.24579398 -0.4866005 -0.5745234 -0.24432263
000040 73 b0 dd 3e 97 c6 f1 be 4c 81 17 3d 1d e8 81 be
       0.43298683 -0.47221825 0.03698854 -0.253724
000050 cc 23 8a 3e db e8 5c be de d5 88 3e f3 d2 38 3e
       0.26980436 -0.21573202 0.26725668 0.1804922
000060 9d 2a 0c bf 1c 9a 7a 3e 59 91 11 be 18 9d 19 bf
       -0.5475252 0.2447285 -0.14215602 -0.6000533
000070 db 1c ca 3e e2 83 87 ba ea 46 c1 be af 9f 81 3e
       0.3947514 -0.0010338987 -0.37749416 0.2531714
000080 63 76 8d 3b de 8b bb ba bf 38 f8 bb ef 46 a5 b9
       0.0043170913 -0.0014308651 -0.007575124 -0.00031524102
000090 75 e0 0e 3f 2b 11 ee bd 8e e5 ad 3e 38 8f 88 be
       0.55811244 -0.11624368 0.339642 -0.26671767
0000a0 ae 6a c8 3c 92 16 80 3d fd b4 18 be 42 b6 3d 3e
       0.024464931 0.06254305 -0.14912792 0.18526557
0000b0 d2 31 b2 3e f9 36 98 be 4c 48 cc be c9 c3 58 be
       0.34803635 -0.2972944 -0.39898908 -0.21168436
0000c0 fe 66 3d 3e ef ad b2 be e8 a3 e3 be 33 51 29 3e
       0.1849632 -0.34898326 -0.44460988 0.16534881
0000d0 bd de 4f 3e 03 52 c2 3e 94 56 05 bf 48 16 da 3e
       0.20299812 0.37953195 -0.5208523 0.42595124
0000e0 5f bc 5e 3c 97 ca 87 3b fe 60 16 3d 33 a8 52 3c
       0.013594716 0.0041440236 0.036713593 0.012857485
0000f0 9c cb ed 3e b2 10 13 3f aa 98 ee 3c 8f 92 9a 3e
       0.46444404 0.5744735 0.02912553 0.3018994
000100 e5 ae 17 bf c8 b0 dd be 34 87 ac be 13 79 7e 3e
       -0.5925124 -0.43298936 -0.33696902 0.24850874
000110 cb 24 91 3e f8 13 26 bf b1 17 62 be aa 2b 07 be
       0.28348383 -0.6487422 -0.2207935 -0.1320025
000120 7b e1 cc 3e a5 97 ea 3e 9d 27 5c 3e ed e2 c1 3e
       0.40015778 0.4581882 0.21499486 0.37868443
000130 35 91 07 3f 4e 15 00 3f 25 4d 8f be b8 1e 77 3e
       0.52955943 0.5003251 -0.27988544 0.24132812
000140 29 8f f6 3e 92 c4 5b bd 3c af 54 3d 13 0a dc be
       0.48156098 -0.05365426 0.05192493 -0.42976436
000150 17 29 a0 3e 14 62 b8 3e 14 c9 16 bf e1 bf fb 3c
       0.3128135 0.36012328 -0.5890057 0.030731143
000160 da 6c b6 3a a8 f1 4f ba 98 21 d0 3a 58 1c 37 3b
       0.0013917938 -0.0007932433 0.0015879152 0.0027940478
000170 2f 64 a7 be 23 71 8e 3e e0 95 90 be 96 01 f8 3e
       -0.32693622 0.2782069 -0.28239346 0.4843871
000180 89 35 e8 be de 60 07 3f c6 af 1b bd 32 05 89 be
       -0.45353344 0.5288218 -0.038009427 -0.26761776
000190 1b fb 36 be 2e f7 dc be eb 79 20 3e 9d 1e dc 3e
       -0.17869227 -0.43157333 0.15671508 0.42992106
0001a0 de c1 49 3c 75 7a 24 bd 93 cf 1c be fb 66 20 be
       0.012314288 -0.040155847 -0.15313558 -0.15664284
0001b0 02 b6 3d 38 33 f7 65 b9 06 c7 42 ba ae 5e ca 38
       4.523062e-05 -0.00021931231 -0.00074301695 9.649746e-05
0001c0 b9 12 54 be 6b 84 46 3e 3b 0a ae 3e df 31 33 be
       -0.20710267 0.19386451 0.3399218 -0.17499493
0001d0 b5 d6 a1 be df e3 fb be be da 9a be 9c ce 2f 3e
       -0.3160912 -0.4919729 -0.30245012 0.17168659
0001e0 16 e9 67 3e fb 61 08 3f 98 02 bf 3e a8 ee 44 bf
       0.22647509 0.53274506 0.37306666 -0.7692666
0001f0 d1 4a 86 3e 3c 78 cd bb c4 85 c5 be 54 3d 66 bf
       0.26228955 -0.0062704366 -0.38578618 -0.8993733
000200 eb 7f 8c 3e f8 71 a2 3e 10 ee b7 3e a3 2d a6 bd
       0.27441344 0.31727576 0.35923815 -0.08114173
000210 e3 88 19 bf d0 02 a0 bc 87 e7 c3 3c dd 3d 79 be
       -0.599745 -0.019532591 0.023914112 -0.24340005
000220 46 3b 63 3e 68 6f 6f 3d f7 db 8e 3e ee a5 ae be
       0.2219058 0.058455855 0.27902195 -0.3411097
000230 02 8b ce 3e 27 6a 16 bf a9 9a f2 3d 81 9f 87 3e
       0.4034043 -0.58755726 0.11845905 0.2648888
000240 28 03 96 3e 92 40 07 3f 42 39 40 3c c3 e1 df 3e
       0.29299283 0.528329 0.011732401 0.4372693
000250 b1 08 68 3e 51 30 69 3e f4 d1 1d bf e2 5b 7f be
       0.22659566 0.22772337 -0.6164849 -0.24937394
000260 43 f6 b4 3d ad a9 16 3f 3f 89 f4 be 8b b5 00 3e
       0.08836033 0.58852655 -0.4776096 0.12569253
000270 0e 71 aa be 65 c5 7a bd f4 94 12 bf 50 20 ba 3d
       -0.3328938 -0.061223406 -0.57258534 0.09088194
000280 09 98 94 bd 37 38 42 be 3e 78 0d 3f 01 f2 ca bc
       -0.07255561 -0.18966757 0.552616 -0.0247736
000290 2a 25 99 3d a0 a7 a1 be 7f f6 7a 3e 54 d9 4f 3e
       0.074777916 -0.315732 0.24508093 0.20297748
0002a0 38 ec bc be 98 df 6a 3c a2 40 42 3e bf 7a 8b 3d
       -0.3689897 0.0143355355 0.18969968 0.06810521
0002b0 6d 3c 94 be 33 56 96 be ae a1 b7 be 36 d8 03 be
       -0.2895235 -0.2936264 -0.3586554 -0.12875447
0002c0 6d 63 88 be 0b b6 43 3e 68 59 41 3e 51 78 ad be
       -0.26638356 0.19112413 0.18881762 -0.33880857
0002d0 ad 11 3c be d1 13 30 3c e1 28 d5 be a5 34 33 be
       -0.18366118 0.010746912 -0.4163275 -0.17500551
0002e0 56 73 cf 3e 3b de 15 bf 1d c2 11 be 9f e3 3f 3e
       0.40517682 -0.5854222 -0.14234205 0.18739174
0002f0 3c 80 02 bf 6e f2 e3 3e 43 91 92 be cf 3f f5 3e
       -0.5097692 0.44520897 -0.2862645 0.47900245
000300 81 97 84 bd 5f fa c3 3e ee ea f1 be 40 f1 33 3e
       -0.064742096 0.38276955 -0.4724955 0.17572498
000310 f8 01 3c bb 6d 85 7c b8 f4 d1 3d bb 91 6f a2 b9
       -0.0028687697 -6.0205744e-05 -0.0028964253 -0.0003098217

en1.bias f4 [50]
000000 9c b4 c2 3e ba 21 85 be 44 cc 04 3c 8e e4 2c 3f
       0.3802842 -0.26002294 0.008105341 0.67536247
000010 22 54 0b 3f b1 af 5d bd 64 5e aa be 71 4e 13 be
       0.5442525 -0.05412263 -0.3327514 -0.14385392
000020 b7 01 07 bb d4 0c 3a 3f 10 1e 9e 3c 52 7c c6 3e
       -0.0020600387 0.72675824 0.019301444 0.38766724
000030 07 58 df bc 6b 02 f5 3e 6f 02 d3 bc b2 39 67 be
       -0.027263654 0.47853407 -0.025757996 -0.22580603
000040 95 3f f4 be bb df cf 3e 2f 66 be be 11 92 16 bf
       -0.4770476 0.4060038 -0.37187335 -0.5881663
000050 9e bc f9 3e 72 12 15 3f 2f 9f 8c 3a a7 6a 5c be
       0.48776716 0.5823127 0.0010728593 -0.2152506
000060 00 04 8e 3e f8 5a 1d bf 11 f1 d3 3d c2 cd e0 b9
       0.27737427 -0.6146693 0.10348714 -0.0004287791
000070 2c b5 9f 3e 39 f2 3a be b6 53 61 be 4e 07 c3 be
       0.3119291 -0.18256463 -0.2200459 -0.3809151
000080 73 93 dd 3e 1e 15 97 be d0 1a ee bc 2b 09 88 be
       0.43276557 -0.295083 -0.02906552 -0.26569495
000090 1b 26 62 3e ce f9 04 3f ca 24 82 bc 8c 05 f5 3e
       0.22084849 0.5194367 -0.015886683 0.47855794
0000a0 29 e1 d2 3e 90 8b 24 3d e4 9f 1e 3e da d4 54 bd
       0.4118741 0.04017216 0.15490681 -0.051960804
0000b0 01 2d b1 3d 60 a7 ff bd 64 48 12 be 7b 4c 9c 3e
       0.08651162 -0.12483096 -0.14285427 0.305271
0000c0 78 f1 98 be 63 9a b8 bb
       -0.29871726 -0.0056336387

en2.weight f4 [50, 50]
000000 0b 29 a4 3e 31 34 ee be 6b 1d 4d be e3 0e ac 3d
       0.32062563 -0.46524194 -0.20030753 0.08401277
000010 4c 22 5c be c4 fb b0 be 87 f4 e2 bc cb c4 93 bd
       -0.21497458 -0.34567082 -0.02770449 -0.0721527
000020 7a e0 02 3b 53 0e f5 3d 3e b4 47 bd 67 8e db bd
       0.0019970224 0.11965623 -0.048755877 -0.107205205
000030 14 25 e4 3d 03 c2 cf 3d cb cf 61 be a0 ba 8f 3c
       0.111398846 0.10144427 -0.22051923 0.017545044
000040 55 a2 a0 be de 46 9b bc 62 ab 8c 3d 34 9e af 3c
       -0.3137385 -0.01895469 0.06868626 0.021437742
000050 1a ee 1d 3e 91 2e ac 3e f8 73 dd b8 e6 6a 48 3d
       0.1542286 0.33629277 -0.00010559702 0.04893007
000060 96 11 c1 3e 63 58 d3 bd af d1 c4 3d 8e a9 d2 3b
       0.3770873 -0.10319593 0.096103065 0.006428904
000070 45 2b 1b be cc 35 8c bd b6 d3 11 bf 95 b5 07 3e
       -0.15153225 -0.068461984 -0.5696367 0.13252862
000080 7c 2f 7c 3e f1 28 fa 3d a7 63 89 be b4 47 e0 be
       0.24627489 0.1221484 -0.2683384 -0.43804705
000090 9d e9 57 3d 86 8b 81 3e 84 65 ba 3e 30 0f cf 3e
       0.052713025 0.2530176 0.36405575 0.40441275
0000a0 11 76 21 be 8d f6 75 be cf a1 07 3e b4 e7 1d 3e
       -0.15767695 -0.24019833 0.13245319 0.15420419
0000b0 6c ba ef 3d 45 5f 74 3e d2 af 0c bd 88 7a 33 bd
       0.11705479 0.23864467 -0.034347363 -0.043818027
0000c0 c0 b5 39 3e 8c 35 cd 3c 85 25 b4 3d a4 d2 30 bd
       0.18135738 0.025049947 0.08796219 -0.043169633
0000d0 64 8f be 3d a6 d7 ea 3d ea a2 94 3e 6d 26 3b bd
       0.09304693 0.11466913 0.29030544 -0.045690943
0000e0 76 34 71 3d c8 17 4e 3e fb e1 67 3c 36 59 33 3e
       0.05888792 0.2012626 0.014152999 0.175145
0000f0 55 36 32 3d f7 26 9b 3d 0a 61 a2 3e 9d ad d8 3e
       0.043508846 0.07575791 0.3171466 0.42319956
000100 c3 bd d1 3c b9 12 40 3e 97 b6 38 3e a0 d7 64 3e
       0.02560318 0.18757142 0.18038402 0.2234788
000110 23 4c 78 bd 3d 31 7e 3d 99 1f 09 3e ab ba 86 3e
       -0.060619485 0.062058676 0.1339096 0.2631429
000120 fb 50 f1 bb cb 28 93 bd db 13 01 3e 34 0e df 3d
       -0.00736439 -0.07185515 0.1260523 0.10891381
000130 53 4c a6 bd ed 08 e8 3a 84 2a 6f bd 38 91 51 3e
       -0.081200264 0.0017702855 -0.058390155 0.20465553
000140 cb 83 d0 3d 6d af 02 3e 68 8e 0c be 76 81 50 be
       0.101813875 0.12762232 -0.13726199 -0.20361885
000150 a8 7c 4b 3e 5f 8a d2 bb 6b a6 25 3e 09 f0 6d 3e
       0.19871771 -0.0064251865 0.16176765 0.23236097
000160 fb 34 9e 3e ee 30 cd bb c1 c6 96 3d 43 26 b5 be
       0.30899796 -0.0062619364 0.07362128 -0.35380754
000170 55 03 c6 bd 36 4d ad 3d 3d dc 4f be 9c 58 df bd
       -0.09668604 0.084619924 -0.20298858 -0.10905573
000180 98 6a 21 3e 9f 65 54 3d 66 69 91 3d 49 7f 0a 3d
       0.15763319 0.051854726 0.07100181 0.033812795
000190 fa 9a 02 bd 5b de 4a 3e 28 1b e3 bd 03 25 82 3e
       -0.03188608 0.19811384 -0.11089164 0.25418863
0001a0 90 99 6d 3d 39 d3 01 3d 75 4d 50 3d 89 34 1d 3e
       0.058007777 0.03169558 0.05085512 0.15352072
0001b0 a4 e1 69 bd 78 d0 70 3c bc df 3f bd 20 57 a3 3d
       -0.057099953 0.01469814 -0.04684423 0.07975602
0001c0 2a 69 07 3f c6 fa cc bd a0 95 2b 3d 4f e9 54 be
       0.5289484 -0.10008769 0.04189074 -0.20792125
0001d0 bf ce 5a 3e 7b 4e 89 3e cf 3f 5e be 68 ea 12 3d
       0.2136793 0.26817688 -0.21704029 0.03586808
0001e0 2a 4b da bc 41 f7 23 3c 08 fd 2b bc 9b 46 15 bd
       -0.02664717 0.01000768 -0.010497339 -0.036444288
0001f0 bb c1 32 be 1a 6a 58 3d ba b5 e7 bd 31 bd a1 3c
       -0.17456715 0.05283556 -0.113139585 0.019743534
000200 1e 79 a9 be 65 94 97 3e b8 6b 0c be 35 7b 64 3c
       -0.33100218 0.29605404 -0.13712966 0.0139453905
000210 dc e2 b1 be 85 4c 03 3e c3 fc d8 bd 08 bb 50 3e
       -0.34743392 0.12822159 -0.105950855 0.20383847
000220 e7 1c 3b be 4f 31 cd 3d a0 4d 10 be ed 44 5a 3d
       -0.18272744 0.100191705 -0.14092112 0.05328839
000230 7c c7 f2 bc 3d 8a 00 bd 00 f0 d7 3d f6 1d 92 3e
       -0.029636137 -0.031381834 0.10543823 0.28538483
000240 46 b9 6b bc 95 cb 44 3e 03 6c e8 3e 87 f0 7f 3d
       -0.014387434 0.19218285 0.45394906 0.062485244
000250 bb 66 22 be 1c 72 95 bc 6a 15 37 be d4 2c af 3d
       -0.15859501 -0.018242888 -0.17879263 0.08553472
000260 3b 58 52 be e4 34 1c 3e 5e e0 a3 3d e8 05 01 be
       -0.2054147 0.15254551 0.08001779 -0.1259991
000270 76 17 2d 3e f1 a7 ba be 83 30 3a bd b4 c1 1a 3d
       0.16903481 -0.36456254 -0.04545642 0.037782386
000280 fd b7 c3 bc 7c 90 e1 bd 14 71 e9 bd 02 6f a7 bd
       -0.023891443 -0.11013886 -0.11398521 -0.0817547
000290 07 3f f6 bd 0d f6 29 be 46 cf bb be ea db 89 be
       -0.1202374 -0.16597767 -0.36681575 -0.26925594
0002a0 79 e9 e9 ba 0f b3 15 be 37 b3 2c 3e 8a 40 af bd
       -0.001784607 -0.14619087 0.1686524 -0.08557232
0002b0 b3 f5 3b bc fc 54 af bd c8 4b a5 3b 58 ed 3b bd
       -0.0114721535 -0.08561131 0.005044434 -0.045880646
0002c0 52 c0 b7 bc 7c 82 2a 3c d3 23 4d 3e 1d 3b b5 be
       -0.022430573 0.010407086 0.20033197 -0.35396662
0002d0 4b 7a b9 3e 91 0e 03 bf 95 52 01 3e dd e3 62 3e
       0.36226115 -0.511941 0.12629159 0.22157235
0002e0 72 b0 3d 3e e5 3f ea bb df 76 55 bd c0 98 2d 3e
       0.1852434 -0.00714873 -0.052115317 0.16952801
0002f0 87 4c 8e be f6 a9 c3 bd b7 8a 80 3e e6 fb 4e 3d
       -0.2779276 -0.09553902 0.2510583 0.050533198
000300 18 dd 05 be a8 5b cf bc ee 89 34 3e 65 fc 8f 3e
       -0.13072622 -0.02531226 0.17630741 0.2812225
000310 2a 7e 0a be 08 43 18 be 14 81 99 bd db 5e 96 bc
       -0.1352469 -0.1486932 -0.07495323 -0.018355777
000320 7b 58 09 3d c0 07 56 bc 0b 32 16 3e d6 2a f8 bd
       0.033531647 -0.013063371 0.14667527 -0.12117545
000330 35 52 83 bd dd 6d 32 3d fa 13 38 3b f3 f1 e6 be
       -0.06412164 0.043561805 0.0028088079 -0.45106468
000340 98 ce e2 bc fc 21 bb bd 08 d3 6b 3d e0 79 bc bd
       -0.027686402 -0.091373414 0.057574302 -0.09202933
000350 62 90 b5 be 30 a8 9f bd d0 76 6e 3c 85 13 15 be
       -0.35461718 -0.07795751 0.014554694 -0.14558227
000360 62 b7 fc 3b bc 8f 22 be 93 44 b1 bc f7 ba 87 be
       0.0077122906 -0.15875143 -0.021639144 -0.2650983
000370 f5 77 be bd f2 a4 63 be ee f4 97 bc dc e1 a9 3e
       -0.09300224 -0.2223089 -0.018549409 0.3318013
000380 f6 d6 d1 3d 06 13 08 39 77 ec 9c bd b2 80 e0 3a
       0.10246079 0.00012977057 -0.076622896 0.0017128198
000390 f4 ab a4 3e a4 d2 22 bd 54 e9 f6 bd 49 84 1e bf
       0.3216244 -0.039751664 -0.120562226 -0.619206
0003a0 cc 28 f9 bd 9d b1 a6 3e d3 32 94 bd 30 cc 8e 3d
       -0.121659845 0.32557383 -0.072362565 0.069725394
0003b0 9e 7b ca bd 93 2e bc bd 00 9b b5 bd 0e 42 11 be
       -0.09886859 -0.09188571 -0.088674545 -0.14185354
0003c0 20 da fa 3d 0d 5f f8 3d a1 8e 7d bd 67 0c d2 3d
       0.12248635 0.121275045 -0.0619036 0.10256272
0003d0 ee 3f 4f 3e 5c 38 3d bc 01 87 c7 bd 6d 57 a8 3d
       0.20239231 -0.011549082 -0.09742547 0.082198
0003e0 40 d2 0e bd 4d e3 d2 3c a9 83 f3 3c 1e 5f a4 bd
       -0.03486848 0.025743151 0.029725866 -0.08025955
0003f0 e4 3e 38 3d 7c 4d 05 3e 00 a5 9f 3e 0d 4b 80 be
       0.044981852 0.13017839 0.31180573 -0.2505726

en2.bias f4 [50]
000000 01 cb 51 bd bf 8f 37 3e 8f 48 0f 3d cc 90 d1 3d
       -0.05121899 0.17925929 0.034981307 0.10232696
000010 6c 8a 0d 3e 93 31 13 3e ee 44 ec bc 80 53 e6 3e
       0.13822335 0.1437438 -0.028841462 0.4498558
000020 95 da db bc 7a b9 1d bb 38 a0 0c 3c b6 b4 fd bb
       -0.026837626 -0.0024066851 0.008583121 -0.0077424897
000030 3e 48 84 ba 0b 4a 6f 3e ff a1 29 3e e5 c2 06 3d
       -0.0010092331 0.23368089 0.16565703 0.03290071
000040 eb 01 eb 3d 92 29 be 3e e6 2f 4b bf dd b1 3f 3e
       0.11474975 0.3714109 -0.7936996 0.18720193
000050 ba 4b 4d 3f 58 dd 4d 3e 68 6d 09 3e 66 15 8b be
       0.80193675 0.20103967 0.13420641 -0.27164763
000060 4a 56 c0 ba 32 07 66 3d cf 0e 29 be 36 06 fa bc
       -0.0014674154 0.056159206 -0.16509555 -0.03052054
000070 c3 d1 b9 3d ad 4e f2 3d 26 5e d4 3d a9 20 56 bd
       0.09073212 0.118314125 0.1036952 -0.05227724
000080 ea 36 30 3b 49 a9 8b 3d 90 07 af be 96 72 e0 bd
       0.00268882 0.06819398 -0.34185457 -0.109593555
000090 34 43 06 be 75 86 19 be 76 bd 51 3e f7 85 0b 3e
       -0.13111573 -0.14992698 0.2048243 0.13625322
0000a0 17 fe 85 3c 77 18 7d 3e b6 97 07 bf 62 fe b6 bc
       0.016356511 0.24716364 -0.5296587 -0.022338096
0000b0 4d 54 ee 3e 16 77 2e be fe 99 b7 bd d5 20 93 3b
       0.4654869 -0.17037615 -0.089649186 0.004489998
0000c0 ae aa 78 3d 93 ae fa 3d
       0.060709648 0.12240329

en3.weight f4 [20, 50]
000000 21 a8 54 3e 84 af 0c bd f5 44 d5 3d 92 20 7c be
       0.20767261 -0.034347072 0.10413543 -0.246218
000010 5e 63 97 3c da d4 1d bd c2 2b a8 3d 00 ad 2a be
       0.01848 -0.03853307 0.08211471 -0.16667557
000020 65 55 ee 3d 0e 13 59 3d 79 e7 19 3e d2 c2 a2 be
       0.116373815 0.052996688 0.15029706 -0.3178926
000030 b4 cf 8b bd b0 42 89 bd 4d 57 e4 bd 41 91 5e bd
       -0.068267256 -0.06702173 -0.11149464 -0.054337744
000040 59 43 21 be 77 32 7b be e4 4b 88 3e b0 e1 f7 bd
       -0.15748347 -0.2453097 0.266204 -0.12103593
000050 bc 14 ed 3d 8c f6 8b bc f4 cf 31 be 5b 52 f8 3d
       0.115762204 -0.017085336 -0.17364484 0.12125083
000060 e3 98 40 bd 5e d5 8a 3d c7 1b a5 3d ad d9 30 3e
       -0.047020804 0.06778978 0.08061939 0.17270537
000070 3e 2e ca 3b 8b f0 f3 bd be 1b 82 bc ba 32 98 3d
       0.0061700633 -0.11911114 -0.01588237 0.0743155
000080 50 b8 1b be 07 e1 4f b9 77 99 3d 3d 87 b0 18 3e
       -0.15207028 -0.00019824888 0.046288934 0.1491109
000090 1e c7 34 3e 5b 2d e5 bc ab 00 fe bd 5d f8 0a be
       0.17654082 -0.027975729 -0.12402471 -0.13571306
0000a0 c8 5a d5 3d 14 b4 92 be d6 af 74 3a dd 74 66 3d
       0.10417706 -0.28653014 0.0009334063 0.056263793
0000b0 85 d0 f3 bd 61 ed 25 3d 71 a1 79 bc fa 63 6b 3e
       -0.11905006 0.040509585 -0.015236245 0.22987357
0000c0 f9 26 89 bd 04 b9 23 be 1d 84 1c 3d a3 db d5 3d
       -0.066968866 -0.15988547 0.03821193 0.10442283
0000d0 e1 9d 94 bd 45 4f 53 3d c5 77 1d be f9 d3 88 bd
       -0.072566755 0.05158927 -0.1537772 -0.066810556
0000e0 b0 96 17 3e ef 26 ef 3d d7 b7 61 be aa a6 20 be
       0.14803576 0.11677348 -0.22042786 -0.15688577
0000f0 b4 d2 91 bc bc 03 0e 3e 00 32 73 3e 1c 2f d0 3d
       -0.017800666 0.13868612 0.23749542 0.101652354
000100 9f c1 58 be ec 78 38 bd 3d 9a d7 bd ce 43 4d be
       -0.2116761 -0.045037195 -0.105274655 -0.20045397
000110 b6 5d 41 3e 23 49 01 3b d0 bc cf 3d 84 c4 36 3e
       0.18883404 0.001972743 0.10143435 0.17848402
000120 c5 1b dc bd 6a 41 54 3e d6 0b 10 3b 26 c9 61 3e
       -0.10747484 0.20728078 0.002197971 0.22049388
000130 77 75 66 be d6 a3 35 3e 4e ab ca 3c 00 df 88 bd
       -0.22505747 0.1773828 0.024739888 -0.06683159
000140 d1 15 d1 bd 17 76 88 3e 05 79 dc bd e3 37 8f 3b
       -0.10209239 0.26652595 -0.1076527 0.004370676
000150 61 44 24 bd 9d 02 c4 3e f8 c9 e8 ba d3 7a cf be
       -0.040104274 0.38283244 -0.0017760387 -0.40523395
000160 4e 05 9f 3d 6c d0 34 bd a1 11 27 3e ca 0b 2a 3d
       0.07764684 -0.04414408 0.16315319 0.04151515
000170 eb 66 83 3d 5e 10 f5 3d c8 11 18 bc 35 78 58 3d
       0.064161144 0.119660124 -0.009281583 0.052849013
000180 41 3a 0b 3e 01 2f d6 bb 9e 72 b3 3d e8 28 50 bd
       0.13596441 -0.006536365 0.08762096 -0.05082026
000190 64 48 3d 3d 75 76 97 3d 33 e3 7e 3c b1 46 06 bd
       0.046211615 0.07395641 0.015557098 -0.03278226
0001a0 eb 2b 0a be 26 02 9a 3d e2 5b eb bc e7 9f 9f bd
       -0.13493316 0.07519941 -0.028730337 -0.07794171
0001b0 d1 73 16 3e c4 6c 28 bd 49 c1 98 bd f2 bc 2c be
       0.14692618 -0.041119352 -0.07458741 -0.16868952
0001c0 89 be 1e bc b7 80 b8 3b c3 1f ef 3d 6d c9 9e 3d
       -0.009688982 0.0056305784 0.1167598 0.07753263
0001d0 ba 7a 74 3d 79 9a 94 3d 8b 34 02 bc 8a e0 ab bd
       0.059687354 0.07256026 -0.0079470975 -0.08392437
0001e0 cd dd 04 3e 56 aa cd be e4 29 ac bd b9 9b 77 be
       0.12975235 -0.40169019 -0.084064275 -0.24180497
0001f0 cf d1 42 3d a7 c8 b1 3d 89 7f 92 3e bf bd 8e be
       0.04756337 0.086808495 0.28612927 -0.2787914
000200 a1 fa 29 bc 02 58 cc 3d de bf 13 bd 6d ce a6 be
       -0.010374696 0.09977724 -0.03607165 -0.32579365
000210 35 c9 68 bd 5f 72 aa ba e7 b4 cc 3d 7c 3e 65 be
       -0.05683251 -0.0013004056 0.09995442 -0.22387117
000220 a6 e1 03 3d ab 77 60 3e dc 31 f2 3d ff 9e 08 3e
       0.032197617 0.2192065 0.11825916 0.13341902
000230 5d c6 ab bd e0 9b 6b bd 74 e8 a3 bd 5d be 0e be
       -0.08387444 -0.0575217 -0.08003321 -0.13939805
000240 ad da 0e 3e 4c 06 bf bd 68 ac 26 3e f6 20 23 bc
       0.13950606 -0.09327373 0.16276705 -0.009956589
000250 65 ef 6a bd 6c e2 f5 bd 99 68 82 bd ed f8 4f be
       -0.05735721 -0.12006077 -0.06367607 -0.20309801
000260 3a 85 bd 3a 16 06 20 3e 99 78 b0 3d 11 22 7c 3c
       0.001445926 0.15627322 0.08616752 0.015388981
000270 d3 f4 59 be 1c f4 0b 3e e4 d3 80 3e 71 ca 58 bb
       -0.212848 0.13667339 0.2516166 -0.003307965
000280 f3 a3 cc 3d b6 c3 bf bc f1 1c 15 3e f1 38 60 3e
       0.09992208 -0.023408752 0.14561822 0.21896721
000290 71 11 a0 bd 08 cd a9 bd 9d cf 10 bd 6c 93 a5 bb
       -0.07815827 -0.0829106 -0.035354245 -0.0050529744
0002a0 4e 53 68 3c 81 f5 4a 3e 6e 9c a5 bd 7a 7c 1f 3d
       0.014180018 0.19820215 -0.08086477 0.03893707
0002b0 61 45 4e 3e f8 59 2d 3d b8 4f be bd b2 15 06 3d
       0.20143653 0.04232213 -0.09292549 0.032735534
0002c0 d2 4f ad bd 48 cc 19 3e cb 60 c1 ba 05 72 65 bd
       -0.0846249 0.15019333 -0.0014753578 -0.05601694
0002d0 ba 6b 47 bd 57 0b e6 3b 02 70 cb 3d 84 2b 2b 3b
       -0.04868672 0.007020395 0.09933473 0.0026118467
0002e0 b5 1c 7b bd 73 25 60 bd 37 19 87 3d 09 23 38 be
       -0.061306674 -0.054723214 0.06596606 -0.17982115
0002f0 3b a4 d5 bc 57 79 05 3e 99 79 49 3d 3e 69 4a 3d
       -0.026079288 0.13034569 0.04918823 0.049416773
000300 49 f4 e5 3d 60 a4 ec bd 69 54 7e be 39 f9 92 bc
       0.11228234 -0.115547895 -0.24836887 -0.017941104
000310 3e ae 98 3d d0 3d 9c 3c b8 71 ab 3e 5b 9d 23 3e
       0.07455109 0.019072443 0.33485198 0.15977995
000320 4b 2c 73 3e 05 99 2f 3d 8f 65 8e 3c 8a 12 04 be
       0.23747365 0.04287054 0.017382411 -0.12897697
000330 df 86 50 3b b4 1b 4c 3e 18 c7 87 be 48 11 0e 3e
       0.003181867 0.19932443 -0.26519084 0.1387378
000340 85 f0 27 bd 29 59 ae 3b ee 62 cd bd 97 b8 84 bd
       -0.04100086 0.0053206873 -0.10028635 -0.0648052
000350 78 ec 2a bd 0d c7 07 3e 64 93 06 be 20 63 74 bd
       -0.04172942 0.13259526 -0.13142163 -0.059664845
000360 83 e9 6e be ac db a7 bb 8f 37 87 3e 3c 7e 7a be
       -0.23331265 -0.0051226225 0.26409575 -0.24462217
000370 68 b2 06 3e af 61 18 3d fd 36 3e 3e 1c 14 ae bd
       0.13153994 0.037202533 0.18575664 -0.08499929
000380 34 d4 e5 bd 6e a4 37 bd 62 57 55 bd 12 fb 9e bd
       -0.11222115 -0.044834547 -0.052085288 -0.077627316
000390 cd ec a1 bb 60 fc 17 bd 02 47 c2 bd 07 ef ab bd
       -0.004941559 -0.037105918 -0.094862 -0.083952
0003a0 94 55 48 3e a7 d4 ff bb ba ce 64 be 5a 42 59 be
       0.19563895 -0.0078073326 -0.22344485 -0.21216717
0003b0 b0 f8 73 3e 06 ed 1f bd 7a dd 92 bd e7 95 29 bd
       0.23825336 -0.039044403 -0.071711496 -0.041402724
0003c0 c7 ca 40 3d 52 2c aa bd 9f 4d 9b 3d c7 a9 43 bd
       0.047068384 -0.08309235 0.075831644 -0.047769334
0003d0 4f ad 6d be b3 50 23 be 3d 53 5c 3b b3 dc aa bc
       -0.23210643 -0.15948753 0.003361895 -0.02085719
0003e0 3d 05 6a 3e c3 62 12 3e f0 43 41 bd c4 18 d0 bd
       0.22853561 0.14295487 -0.04718393 -0.10160974
0003f0 b9 30 3f bd 3c 0e 91 3d 35 6b 13 3d f3 78 e5 bd
       -0.046677325 0.07082793 0.035990912 -0.1120471

en3.bias f4 [20]
000000 1a da cd bd 04 e3 82 3d da 53 ec 3d eb f2 0a be
       -0.10051365 0.06390956 0.11539431 -0.13569228
000010 6b 0f f8 bd 2f 32 87 be 0d 61 a5 be 33 6c 42 3d
       -0.12112316 -0.26405475 -0.32300606 0.047466468
000020 7b d2 a8 be f6 cf cb bd 76 a5 85 be 94 88 bf 3e
       -0.32973084 -0.09951775 -0.261028 0.37408888
000030 c2 a1 95 be 28 64 3d 3d aa 45 2a bd 45 4a b0 bd
       -0.29224974 0.046238095 -0.041570343 -0.08607916
000040 d3 1d 63 be 03 ac 7b bc 3a 76 fe be 04 55 42 be
       -0.22179346 -0.015360835 -0.49699575 -0.18977743

en4.weight f4 [3, 20]
000000 e0 62 84 3e 8f d6 22 3c 52 5c 72 3d 55 39 8d bd
       0.25856686 0.00993885 0.059170075 -0.06895701
000010 8d 45 f2 3d 15 02 bd bd 4f 85 01 3d d3 30 26 be
       0.11829672 -0.09228913 0.031621274 -0.16229562
000020 0b 44 fc ba 10 8d 9b 3d a3 59 d0 bd 4d 2a b3 bc
       -0.0019246353 0.07595265 -0.10173347 -0.021870757
000030 a1 f0 b1 3d b9 88 f0 bb 1f 92 3d 3d 50 07 ed 3d
       0.086884744 -0.0073405174 0.04628193 0.115736604
000040 fc 5b ac be 57 69 92 be de 89 58 be e2 02 a8 3e
       -0.33663929 -0.28595993 -0.21146342 0.328147
000050 50 ec 3e 3d 37 af ce 3d 74 9b 15 be b0 a3 30 3e
       0.046612084 0.10092013 -0.14610082 0.17249942
000060 c1 e4 bd 3d 0a 2a 47 3e b5 9c 6b be 9d 48 67 bb
       0.09272147 0.1944963 -0.23008998 -0.0035291084
000070 94 3f da bb 26 70 82 be 74 70 90 3e a2 10 90 3d
       -0.006660411 -0.25476187 0.28210795 0.070344225
000080 b3 20 09 be 05 0f 43 bb 4e 06 0b 3e e1 14 bc bd
       -0.1339138 -0.002976359 0.13576624 -0.0918367
000090 30 6b 16 be 31 29 84 bd 7e c5 68 3c 74 fb 8b bc
       -0.14689326 -0.06453169 0.014207242 -0.017087676
0000a0 df 08 ba bd 48 f3 e3 bd 2e c0 b9 3d a1 9a 84 3d
       -0.09083723 -0.111303866 0.090698585 0.064748056
0000b0 88 ce 3a 3d 68 ed 55 be ae 08 01 3e 45 70 e2 3c
       0.04560712 -0.20891345 0.12600967 0.027641425
0000c0 dc 6f 8c 3e 43 91 9b bd de 44 46 3e 4c 9e a3 3e
       0.27429092 -0.07596066 0.19362208 0.31956708
0000d0 fe fa 39 3e 10 64 e0 3a 2e 84 5d 3e 01 16 25 3e
       0.18162152 0.0017119665 0.21632454 0.16121675
0000e0 2a e1 0a bd 3e 72 15 3d e0 63 7e be f6 1e 1d bd
       -0.03390614 0.036485903 -0.24842787 -0.038359605

en4.bias f4 [3]
000000 70 1b e6 39 b8 a0 12 be c5 8c 15 bc
       0.0004388946 -0.14319122 -0.0091278

de1.weight f4 [20, 3]
000000 ac 36 2b bf 29 a1 14 bf 8a e3 ad bd 87 a1 76 be
       -0.668803 -0.5805841 -0.08490665 -0.24085055
000010 de 59 85 3f 52 de f3 bd af 62 84 3e 15 cb 2e be
       1.041805 -0.119076386 0.2585654 -0.17069657
000020 47 a9 22 3f e9 f4 c7 3e 03 88 c8 3d da 60 f8 bd
       0.63539547 0.3905404 0.09791567 -0.12127848
000030 b8 bc 47 3f 6c a7 80 be da 4e 35 bd 1a 60 bb be
       0.78022337 -0.25127733 -0.04426465 -0.36596757
000040 a8 63 fe 3e f7 0a 1c bf 4c 2d c0 3e 8e fa ae be
       0.49685407 -0.6095423 0.3753456 -0.34175533
000050 41 46 0f bf 86 8e 45 3e bd e3 72 be da ca 12 3f
       -0.55966574 0.1929265 -0.23719688 0.57340777
000060 8e 66 14 bf 08 83 26 bf e2 b4 3c 3f 5f 82 05 3f
       -0.57968986 -0.6504369 0.73713505 0.52152056
000070 39 89 8c be a1 b5 fc be 7d 63 cc be 2a a8 d5 be
       -0.27448443 -0.49357322 -0.39919654 -0.41729861
000080 99 29 8a 3d 2d 2c 6f 3d 28 b8 7b 3c 3f c3 3a 3f
       0.067462154 0.05839174 0.0153637305 0.7295417
000090 49 0b b5 be c2 66 d2 be 7d 78 ff 3e 67 f1 1e 3d
       -0.35360172 -0.41094023 0.49896613 0.038804438
0000a0 31 21 2b bf 87 8b 43 bf 33 0f 19 3f ac 36 17 be
       -0.6684752 -0.76384777 0.5978882 -0.1476695
0000b0 ef a3 ef be d5 b5 cc be 55 05 eb be 86 d5 09 bf
       -0.4680476 -0.39982477 -0.45902506 -0.53841436
0000c0 a2 b2 d1 3e d7 ec 31 bf ee 5c 41 3f 0f 8a b4 bd
       0.409566 -0.69502014 0.75532424 -0.08815395
0000d0 3c 87 0a bf 35 7f b2 be 75 ed 6a 3f 2d 4a 19 3f
       -0.541126 -0.34862676 0.9176858 0.5987881
0000e0 61 10 de 3e 30 d2 b5 3e 60 53 4d bf d0 68 d8 be
       0.4337187 0.35511923 -0.80205345 -0.42267466

de1.bias f4 [20]
000000 58 f7 49 be e1 e0 1b 3f db c9 6c be 3e ff 00 bc
       -0.1972326 0.6089001 -0.23123877 -0.0078733545
000010 85 dd 86 be 7e 78 32 be 25 7e b7 3d c9 35 05 be
       -0.2634088 -0.17428777 0.08959607 -0.13008799
000020 ff 18 a9 be ea 7b a6 3d 38 09 f2 3c 0f 4b 81 3e
       -0.33026883 0.081291035 0.029545411 0.25252578
000030 24 3f 33 3e 4a 33 13 bf fd ed 8f bd 2e b3 0b bc
       0.17504555 -0.57500136 -0.070278145 -0.0085266065
000040 ff 29 b2 3e 8e 18 d4 bc f7 f6 11 bf 9f 1c a8 3e
       0.34797665 -0.025890615 -0.57017463 0.32834336

de2.weight f4 [50, 20]
000000 0d 4e 51 3e 88 4c 73 3b 28 fc 22 be 4a 2b 0d 3d
       0.2043993 0.0037124474 -0.15916502 0.03446511
000010 e9 17 4b 3c 6b bd 81 3b 44 22 3c 3e bb e2 2d be
       0.012395837 0.003959348 0.18372446 -0.16981022
000020 3b 27 49 be 36 93 99 bd c1 a3 f3 3c 20 ad 4c be
       -0.19643871 -0.074987814 0.02974117 -0.19987917
000030 40 26 91 bd 11 5b b6 3e a5 dc 98 3d f1 9e b3 3e
       -0.07087374 0.35616353 0.074639596 0.350822
000040 a1 01 3c bd 95 19 35 3c 59 d7 a1 bd 6b e8 97 3e
       -0.04589999 0.0110534625 -0.079024024 0.29669508
000050 10 f7 99 3e 86 fc 27 3e 42 a5 eb bd f4 25 41 be
       0.30071306 0.16404924 -0.1150613 -0.18862134
000060 db 36 1e be 1e 95 87 be 36 bd 3e 3e b8 2c 9b 3e
       -0.15450613 -0.26480955 0.18626866 0.30307555
000070 a5 80 b5 3e e8 3c 9e be d0 7e a1 3e a3 ea c9 3d
       0.3544971 -0.30905843 0.31542063 0.098592065
000080 8a 73 f8 3e fb af 7f 3d eb 75 e3 3d bf 8c 94 3d
       0.4852565 0.062423687 0.111064754 0.07253408
000090 71 e8 19 3f 1b 2f 16 3e 9f 54 1d bf d4 c3 28 3e
       0.601203 0.14666407 -0.61457247 0.16480953
0000a0 b9 8c e9 be 1a 47 67 3e 68 fe 86 be b1 09 89 3e
       -0.45615175 0.22585717 -0.26365972 0.26765206
0000b0 fc d1 e0 3d 9d 09 37 3d 51 6a 4f ba 96 9f a2 be
       0.10977551 0.044686902 -0.0007912266 -0.3176238
0000c0 f5 91 2e bf b8 03 e5 3e b5 0e d8 bd 53 02 63 bd
       -0.6819146 0.447294 -0.1054968 -0.05542214
0000d0 a3 6b 78 3c ae 36 94 bd 04 25 56 3e 81 16 02 be
       0.015162381 -0.07236992 0.20912558 -0.12703897
0000e0 a5 86 ac 3d 91 ce 87 be 30 a0 94 3e 55 7e 6e 3e
       0.08424119 -0.26524785 0.29028463 0.2329038
0000f0 f2 06 3c 3e 2f 54 34 bf dc fb 80 3f a1 8f 5e 3e
       0.18362024 -0.70440954 1.0076861 0.21734478
000100 e7 ce 8c 3e 83 14 8d be 21 9b 28 be 10 28 e4 3e
       0.27501604 -0.27554712 -0.16465427 0.44561815
000110 bb fa 8a 3f 2c 13 6c 3e b4 fa 4f bd 20 f9 c4 3d
       1.0857767 0.23054188 -0.0507762 0.09617829
000120 91 96 31 3e 08 26 8f 3d f3 41 61 3c 1e 33 ba be
       0.17342593 0.06989676 0.013748634 -0.36367124
000130 a5 ee 3e 3e 20 38 1a 3e 37 d2 fc 3e ad 09 1e 3e
       0.18645723 0.15060472 0.4937913 0.15433379
000140 66 24 cc bd 82 d7 2c 3e c4 67 cf 3e 27 ef 9e be
       -0.0996788 0.16879085 0.40508854 -0.31041834
000150 72 af e2 3d e7 10 24 bf 0c ec 56 bd 81 28 08 3f
       0.1106862 -0.6408829 -0.052471206 0.53186804
000160 20 ae c2 3e 13 00 c5 3b 46 78 13 3f b5 a0 14 3f
       0.38023472 0.0060119717 0.576054 0.5805772
000170 70 cb d5 3e 1a a3 0f bf c4 76 8a be b6 ab 63 be
       0.41756773 -0.5610825 -0.27043736 -0.22233471
000180 8d a5 bb 3f 79 b9 80 3e 6c 8a 48 be 25 ab d6 3e
       1.4659897 0.25141504 -0.19584054 0.41927448
000190 5e 1e 84 3e 84 c1 32 3e ea 48 81 3c f1 74 12 3e
       0.25804418 0.17456633 0.015781838 0.14302422
0001a0 2a 87 0c 3d 27 cc 86 be 13 69 e8 bd 88 f9 50 be
       0.03430859 -0.2632763 -0.11348166 -0.20407689
0001b0 af cd a8 bc c7 5c ff bd 97 95 66 3e 38 6e e0 3c
       -0.02060589 -0.12468868 0.22518001 0.027396306
0001c0 f9 96 e7 3d 31 34 13 be 03 42 9e 3e 53 09 d9 bd
       0.113080926 -0.14375378 0.30909738 -0.105974816
0001d0 ba 4c 37 be de 25 72 3e f5 e6 2f 3e d0 07 99 3c
       -0.17900363 0.23647258 0.17177947 0.018680483
0001e0 45 72 22 be a3 47 8f bd ad 73 0c be 04 b9 e6 3d
       -0.15863903 -0.069960855 -0.13716002 0.11265758
0001f0 38 c3 36 3d 3d f3 03 be f8 a9 04 3e 7e 24 8e bc
       0.04461977 -0.12885757 0.12955463 -0.017351385
000200 ed a9 e8 3d 04 7e 85 3d b0 23 b3 3d fa 96 25 be
       0.11360536 0.06518176 0.08747041 -0.16170874
000210 d1 9e 36 bd 12 47 92 3c e3 4b 41 be 47 65 14 3e
       -0.044585053 0.017856155 -0.18876605 0.14491759
000220 1e 83 33 3d 0f 4f 29 be b2 03 fb 3c 56 06 21 be
       0.043826215 -0.16534065 0.03064141 -0.15725073
000230 9d c3 c8 3d 2a a0 6d 3e a0 70 26 be aa b9 02 be
       0.09802935 0.23205629 -0.162539 -0.12766138
000240 b7 c0 7a 3c ff 3d a1 bd f2 a5 1f 3e b2 69 89 3d
       0.015304736 -0.07873153 0.15590647 0.06709613
000250 ad bc cb be 8c fa ea bc e5 b9 77 be 01 a6 1b 3e
       -0.39792386 -0.028683923 -0.24192007 0.15200044
000260 ba 7c 88 3c 24 c8 cd 3d 04 25 1e bd 08 a1 69 be
       0.016661037 0.100479394 -0.03860952 -0.22815335
000270 ec 3a 29 3e 7c 82 8e 3d 0d cb 22 3e ca ad 0f 3e
       0.16526383 0.06958482 0.1589777 0.14031139
000280 7e 98 16 be 4a 4c 1c 3d 65 21 1d be 2b 5d c4 3c
       -0.14706609 0.038158692 -0.1534477 0.023970207
000290 64 7e 09 bd 62 0e 29 bf 37 64 3d 3e 3b e3 7e 3b
       -0.0335678 -0.6603757 0.1849526 0.0038892764
0002a0 2b 28 97 3e 2e 28 8f 3e 6f da 45 3e 17 ec 74 3e
       0.29522833 0.27960342 0.19321607 0.23918186
0002b0 f8 1b 04 3f 78 58 ae 3d b3 2e 15 3c 94 f8 83 3e
       0.51605177 0.08512968 0.009105372 0.25775588
0002c0 75 23 65 3f ff 2b db 3e f3 58 e1 be 39 d4 98 3f
       0.8950723 0.42807004 -0.44013175 1.1939765
0002d0 ae 3d 0a 3e d9 e1 6b 3e 0d 2c d5 be f3 42 09 3e
       0.13500091 0.23035373 -0.4163517 0.13404445
0002e0 d2 bb 84 bd 60 71 45 3f 11 fa 39 bd b6 4b 24 bf
       -0.064811364 0.7712612 -0.045404498 -0.64178026
0002f0 90 c7 eb be 6a 3c 5b 3d 0e 26 b6 bd a1 a1 97 be
       -0.46050692 0.053524412 -0.08893977 -0.296155
000300 16 06 ca be c1 21 4b 3e 31 27 8f 3e bd 91 88 3e
       -0.39457768 0.19837095 0.27959588 0.2667369
000310 98 b4 71 bf 55 46 38 be a6 86 58 3e f7 68 89 be
       -0.9441619 -0.1799558 0.21145114 -0.26837894
000320 1b 31 27 be 3b 68 5f bd 77 66 83 b9 4e 01 ac bb
       -0.16327326 -0.05454276 -0.0002506261 -0.005249179
000330 1a e3 e5 bd 7b c0 ac 3d f5 2a 7b bd 95 c8 18 3e
       -0.11224957 0.0843515 -0.061320264 0.14920266
000340 de d7 8a bd 53 09 d7 bd bc 61 23 bd c2 fa 9f 3c
       -0.06779455 -0.10499825 -0.03988813 0.01952875
000350 13 67 28 bd 0a 0a ce 3d 46 5b b7 bd e7 98 91 3d
       -0.041113924 0.100605085 -0.08952956 0.07109242
000360 54 7e a7 3c 36 3c 28 bd 1a 58 00 bd 26 84 2d 3e
       0.02044598 -0.041073047 -0.03133402 0.16944942
000370 37 35 8b bb 08 e1 b1 3d f5 bd 37 3e db bf 2f be
       -0.004248287 0.086854994 0.17943557 -0.17163031
000380 e1 66 1b be 14 19 60 3b bb 76 8d 3e 3b 35 06 3e
       -0.15175964 0.0034194635 0.27629647 0.13106243
000390 66 b2 16 3d 74 20 36 3d d3 3c 0c 3e 68 2a b2 3d
       0.036791228 0.044464543 0.13695078 0.086994946
0003a0 99 00 f0 bd d2 51 e4 bd e3 f6 f8 3c 88 92 4c 3e
       -0.11718864 -0.111484185 0.030391162 0.19977772
0003b0 2e cc 17 be c3 a3 63 be c0 ab 04 3e 1f 97 fc 3d
       -0.14823982 -0.22230439 0.12956142 0.123335116
0003c0 2a 04 6e bc e3 83 87 3b 7c 87 65 3e aa e6 20 bc
       -0.01452736 0.004135595 0.22414964 -0.00982062
0003d0 28 8d e1 bd d4 a4 12 3e 14 9d ff 3c ad 69 e9 bd
       -0.110132515 0.1432069 0.03120283 -0.11397109
0003e0 72 cb 8d bd 91 e7 b4 bd 4f 8b 9b 3e f9 d7 06 bc
       -0.0692357 -0.0883323 0.30379722 -0.008230203
0003f0 39 08 09 be b1 fc b8 bd 89 2b fb 3d 9d 89 12 be
       -0.13382043 -0.09032572 0.12264163 -0.14310308

de2.bias f4 [50]
000000 4b 40 13 3e da 93 ed 3c 6f 30 28 bd e9 9b b5 be
       0.14379995 0.029001165 -0.041061815 -0.35470513
000010 ce 56 8f 3e 87 69 34 bd 71 8e 85 3d 4f 4d 90 be
       0.27995914 -0.04404595 0.06521309 -0.28183982
000020 8e 76 a8 3e 59 53 40 3e 6f 70 e8 bc d5 11 28 bd
       0.3290295 0.18781795 -0.028373925 -0.04103263
000030 9d b1 5b bd de 2e df 3e ab a7 b3 3e 9a 07 d2 3d
       -0.053636182 0.43590444 0.35088858 0.10255356
000040 7e d8 9c bd b3 33 cd bd b4 6e 42 3e 7f c2 49 be
       -0.0765848 -0.100196265 0.18987542 -0.197031
000050 f8 ed 76 bc 7b b6 5f 3e e9 ab 00 3f 10 58 d0 bc
       -0.015071385 0.21846955 0.50262314 -0.025432616
000060 86 21 9a be d6 e6 b7 bd a4 96 9b bc 25 de e6 bd
       -0.301037 -0.08979575 -0.01899273 -0.112728395
000070 95 68 43 be bb 85 50 be 35 c6 51 bd e8 f5 fe 3d
       -0.19082864 -0.20363514 -0.051214416 0.12449247
000080 4c 92 02 be 4e 8a c1 3e f0 1e 9f 3e 2c 42 91 bd
       -0.1275112 0.3780083 0.3107829 -0.070926994
000090 d5 a8 4f be bc eb ad be 6b ff d0 3d 29 11 c1 bd
       -0.20279248 -0.33968914 0.10204967 -0.09427101
0000a0 e8 ec 3a 3c 41 34 82 bd ae af 01 bd fc 66 18 be
       0.011409022 -0.06357623 -0.03166168 -0.14883035
0000b0 1a 2d 98 be d5 ab 13 be ed a5 39 be 19 d3 79 3d
       -0.2972191 -0.14421017 -0.18129702 0.060992334
0000c0 79 7c 2b be ab 39 bd 3e
       -0.16746701 0.3695806

de3.weight f4 [50, 50]
000000 e1 7b 2d 3e 18 04 8f 3d 32 d0 23 be 9c e4 62 3e
       0.16941787 0.06983203 -0.15997389 0.2215752
000010 44 89 b7 be d8 6b a2 bc 4a 82 85 bb 5f f4 2f be
       -0.35846913 -0.019826815 -0.0040743696 -0.17183064
000020 d4 84 05 bd 33 ad 87 3e 49 3c 1a 3b 59 24 a8 3c
       -0.032597378 0.26499328 0.0023534468 0.020525144
000030 a0 f8 a8 3b 74 6c 31 bf e3 b5 ab be 93 20 a6 bd
       0.0051565915 -0.6930611 -0.33537206 -0.08111682
000040 6c c8 2b 3d 7d 1a 5b bd 2e 19 4e 3e 78 25 0b be
       0.041939184 -0.053492058 0.20126793 -0.13588512
000050 ea 30 e1 3b ed ca 49 3d 05 49 0e bf 04 d1 0f 3e
       0.006872286 0.04926579 -0.5558017 0.14044577
000060 82 0d e4 bd fe 44 47 3e c9 ea 2a 3d a4 d5 57 be
       -0.11135389 0.19459912 0.041727815 -0.21077591
000070 24 8f c4 3e 4d 28 00 3e d7 d5 21 be 73 0b 7b 3e
       0.38390458 0.12515374 -0.1580423 0.24516086
000080 8c 4b 43 bc 2e 9e 0c bd 15 80 aa be 36 17 11 3f
       -0.011919867 -0.03433054 -0.33300844 0.5667604
000090 ca b5 22 3f 38 fb f5 3d ee 04 39 3e 17 21 66 be
       0.6355864 0.12010807 0.18068287 -0.2247356
0000a0 22 d0 6b 3b 7f 86 a0 3c 2a 6f 01 be 60 87 56 bd
       0.003598221 0.019595383 -0.12640062 -0.052375197
0000b0 9f ea 9a be b8 71 b4 3d 92 b0 a8 be 72 aa be 3b
       -0.30257127 0.08810753 -0.32947212 0.0058186585
0000c0 dd 9a 79 bc 52 c3 4f 3d 48 ee d5 bd ba 78 80 bd
       -0.015234676 0.05072338 -0.10445839 -0.06273027
0000d0 f4 49 19 bd 18 da 17 bd 44 65 4a 3c af 20 d4 3d
       -0.037424043 -0.037073225 0.012353245 0.103577964
0000e0 84 57 fc 3c c9 7a 00 3e bc ab a6 3c f9 de 24 bb
       0.03080345 0.12546839 0.020345561 -0.0025157316
0000f0 8e b2 07 bd 5b 94 96 3c be 79 04 bc f9 51 23 bd
       -0.033129267 0.018381288 -0.008085666 -0.039873097
000100 3f ec af 3c da 57 52 bd 04 66 d9 bc f7 c6 17 bd
       0.021474956 -0.051353313 -0.026537903 -0.037054982
000110 74 04 e9 3d 37 e7 4d 3d 6d b0 33 3c 41 0c 87 bc
       0.113778025 0.05026933 0.010967356 -0.016485335
000120 db c6 ce bb 8b 0f e4 3c 9b 12 95 3b 2a 32 2f bd
       -0.0063103265 0.027839443 0.004549337 -0.04277245
000130 35 5a 57 bd f9 b4 77 bd f4 4c 06 3e 63 d1 d1 bd
       -0.052576263 -0.060475323 0.13115293 -0.102450155
000140 c9 00 d6 3c dc 9c 48 3c a2 3e 86 bc d4 ed 3f bc
       0.026123421 0.012244429 -0.016387288 -0.0117144175
000150 cc 68 ca b9 8b 15 5f 3d 5d 55 58 3d dc 6f f1 bc
       -0.00038606522 0.054463904 0.052815784 -0.029472284
000160 3f 47 8a 3c ad 46 18 bc 69 fe fc 3c c3 e2 64 bd
       0.016879676 -0.009294194 0.030883031 -0.05588032
000170 6e 84 7e bd 24 d7 29 3c 91 62 d4 3d 30 79 3a bd
       -0.062138014 0.010366235 0.103703626 -0.04552573
000180 54 fe 53 3d 37 f5 ad 3b bd 43 33 bc 63 09 11 3d
       0.051756218 0.005308773 -0.010941443 0.035409342
000190 91 79 b9 3e 85 64 87 bf 59 3a 00 bf a0 4d 34 3f
       0.3622556 -1.0577551 -0.5008903 0.70430946
0001a0 28 80 2a bf 0c 87 ab be 45 99 fe 3b 29 7e 9d 3f
       -0.666018 -0.3350147 0.007769736 1.2304126
0001b0 f8 07 c4 bf 6f 86 6a 3e be ad 0b 3f 94 09 3e bf
       -1.5314932 0.22902845 0.54561985 -0.74233365
0001c0 d3 4a 2b 3e c0 06 84 be 39 aa 3f bf ed ea 6d 3f
       0.16727762 -0.257864 -0.74869114 0.92936593
0001d0 47 95 d6 3e b5 db a1 bc 25 b9 ba bf 5e 8c 5a 3f
       0.41910765 -0.019758085 -1.4587752 0.85370433
0001e0 33 48 85 3e 1b 95 c9 be 36 53 ee be 7c da 36 3e
       0.26031646 -0.3937157 -0.4654786 0.17856783
0001f0 e4 29 39 3f 08 4c 52 3d 31 53 26 be c5 da ac 3e
       0.72329545 0.05134204 -0.16242673 0.33760658
000200 e2 64 27 3f c8 bf 89 3f 58 75 35 3f 2b 35 20 bf
       0.6538831 1.0761652 0.7088218 -0.6258113
000210 8e ad 19 3d fc 33 84 bf 07 0b 97 bf 1e c3 96 3f
       0.03751903 -1.0328364 -1.180024 1.1778295
000220 3a ff bc 3f ce ce 62 3f e3 02 07 bf 9e 2b 4b be
       1.4765389 0.8859681 -0.5273878 -0.19840857
000230 bf cd a3 bd cd 8c 9a bc ce 2b 80 3f 31 22 ee 3e
       -0.07998227 -0.018865967 1.0013368 0.4651046
000240 bf 0b a0 be a8 3f c6 3e 2f 3b dc 3e 1e 3a fc bd
       -0.31258962 0.3872044 0.43013903 -0.123157725
000250 27 c6 24 3d b0 8f 0d bf ad da a4 bb 42 52 96 be
       0.040228035 -0.55297375 -0.005030951 -0.29359633
000260 f8 04 62 be 68 a4 e4 3e 0c 34 87 bd 15 22 d6 ba
       -0.22072208 0.44656682 -0.06601724 -0.0016337062
000270 d8 80 50 3c 95 d0 bd 3d 20 11 21 bf bf d0 5d 3e
       0.012726031 0.092682995 -0.62916756 0.21661662
000280 b9 be 71 3a 57 a7 b6 3b b2 6e 09 3c 01 3f 68 be
       0.00092218403 0.0055741477 0.008388208 -0.22680284
000290 aa 32 04 bf b9 99 d4 bd 64 6c 4f 3e be 1f 6f 3e
       -0.5163981 -0.10380883 0.20256191 0.23351952
0002a0 95 3b 01 be 97 a1 3a bb 45 9f a5 3c 88 34 9e 3d
       -0.12620385 -0.0028477663 0.020217547 0.07724863
0002b0 5d f8 86 be 2f 30 09 3e 2e 73 82 3c 55 fb 55 be
       -0.2636136 0.13397287 0.015924063 -0.20896657
0002c0 1c 31 dd bc 85 06 39 bc 26 82 a2 bd b4 75 02 be
       -0.027000956 -0.011293058 -0.0793498 -0.12740213
0002d0 eb d6 77 3e 67 30 3c be 80 a7 90 bb ee a4 09 bf
       0.24203078 -0.18377839 -0.004414499 -0.5376729
0002e0 d3 2b c9 3d 5e 5a 52 bd a4 88 42 be 50 db 57 3f
       0.09822812 -0.051355712 -0.18997437 0.8431902
0002f0 76 3b cd be 76 5c 14 be 88 e1 b7 3c 9e 60 e6 3e
       -0.40084428 -0.14488396 0.022446409 0.44995588
000300 f3 54 2f 3e 98 a0 8a bc b0 86 b6 bc 6c 3f c7 be
       0.1712225 -0.01692228 -0.02228102 -0.38915575
000310 da 2e e9 3d 9c d9 cf 3b 13 07 22 3c 13 ca b6 3d
       0.11385889 0.0063430797 0.009889382 0.08925261
000320 b7 ab 8f bc a3 12 c1 3d 55 b2 e2 3d e7 90 a5 ba
       -0.017537935 0.09427383 0.110691704 -0.0012631685
000330 80 96 b1 bd 05 0c 9b bc 9a 71 3c 3d cf 32 0f 3e
       -0.08671284 -0.01892663 0.046006776 0.13984226
000340 20 32 cc bd a5 1f f0 bc fb c9 1f bc a5 b2 a6 3d
       -0.09970498 -0.029311964 -0.009752746 0.081395425
000350 36 83 60 3d 0c 9a 1e 3e 9b 0a 77 bd ef b2 27 be
       0.054812633 0.15488452 -0.06031285 -0.16376851
000360 51 be c5 3d 75 7f 39 bb 61 70 03 3e 95 f0 af 3c
       0.096554406 -0.002830473 0.12835838 0.021477023
000370 56 39 49 3c 14 e5 91 bc 69 73 93 3d 9b 83 10 bd
       0.012281736 -0.017809428 0.07199747 -0.03528176
000380 35 57 42 3d 8d 58 f3 3d 57 11 ff 3c 33 e3 16 be
       0.04744645 0.11882124 0.031136198 -0.14735107
000390 06 b2 07 3d b1 21 07 3e fb 91 7c 3d 5f 70 63 3e
       0.03312876 0.13196446 0.061662655 0.22210835
0003a0 a9 c4 95 3c 00 73 a4 bc 64 fb 0b 3b b5 18 0c be
       0.018282251 -0.020074368 0.0021359557 -0.136813
0003b0 86 dc 59 bd d1 fd 47 bd d0 50 86 3c a7 fe 45 3c
       -0.053188823 -0.048826043 0.016395956 0.01208464
0003c0 91 34 46 bd 1e 06 b0 bd 12 30 ef 3d 21 6d f1 ba
       -0.048389975 -0.08594917 0.116790906 -0.0018419364
0003d0 63 9c 3f bc 6f 56 82 bc 5c 0d 3f 3d f6 7a 42 bd
       -0.011695 -0.015910355 0.0466436 -0.047480546
0003e0 0c 3e 49 3d 42 14 85 3b ce 33 16 3d 78 be 86 3d
       0.049131438 0.004061253 0.0366705 0.06579298
0003f0 63 73 e6 bd 7b 7f f1 3d b2 0f 30 be 73 35 30 be
       -0.11252477 0.11791893 -0.17193487 -0.1720789

de3.bias f4 [50]
000000 39 c5 42 3e af 17 ea 3c b9 13 d5 bf b9 51 8c bc
       0.19020547 0.028575746 -1.6646644 -0.017128812
000010 90 d6 1c be be 31 ea ba 9a 35 bc bd 67 ac a0 be
       -0.15316224 -0.0017867608 -0.09189911 -0.31381533
000020 2f 99 10 3e 79 49 eb 3d dc 68 95 3e a9 da c3 bd
       0.14120935 0.11488623 0.29181564 -0.095631905
000030 81 3a 5f bd f3 a5 0d 3e 72 9c db 3d 41 81 33 3e
       -0.054499153 0.13832836 0.10723199 0.17529775
000040 fa 74 f3 bc ac 1e 7f be 8c 53 5e bf 80 91 2c be
       -0.029718865 -0.24914044 -0.8684623 -0.16852379
000050 b5 8a 9b bd 2c a2 9a 3e 8f 64 06 be 2a 73 86 be
       -0.07594816 0.30201852 -0.13124298 -0.26259738
000060 b5 93 a8 bc ce 10 0f be fb a3 e4 3e ed f7 63 3d
       -0.020578245 -0.13971254 0.44656357 0.055656362
000070 26 99 c6 be 4d 79 b4 bd ec cd 47 be cc 94 99 3f
       -0.38788718 -0.08812199 -0.19512147 1.1998534
000080 18 b1 0f 3e 66 72 73 3f de 09 c3 bc f6 c6 37 3e
       0.140324 0.95096433 -0.023808416 0.17946991
000090 6b 37 49 be 3a 6e 86 bd 72 4e 88 3f a8 fe 39 bd
       -0.19650047 -0.06563993 1.064894 -0.045408875
0000a0 b3 39 a4 be df e7 78 bd be 4f eb 3d 4f be 53 bf
       -0.3207527 -0.060768005 0.11489819 -0.8271226
0000b0 e1 72 a3 3e b9 e5 0b be 6d 36 5a bf f0 50 97 3f
       0.31923583 -0.13661851 -0.852393 1.1821575
0000c0 fb 67 9b be e4 ba 83 3c
       -0.30352768 0.016080327

de4.weight f4 [4, 50]
000000 85 5c cb bd fa c4 61 3b 31 8f a9 3e 1f 07 e8 be
       -0.09929756 0.0034449683 0.3311706 -0.45317933
000010 41 c7 c6 3c 0e 24 2b bd 54 b5 3f bf d4 ff 4f be
       0.024264934 -0.04178243 -0.7488606 -0.20312434
000020 f9 17 b9 3d a4 63 05 3e 8e 70 96 be 8b 7a 66 3e
       0.090377755 0.13026291 -0.29382747 0.22507684
000030 52 c4 d5 bc 85 0b 03 3f 0c f0 c1 bc 1a c9 10 be
       -0.02609459 0.5118945 -0.023674034 -0.14139214
000040 aa c1 05 3d 2f 61 9c 3c 09 e2 9a 3e 5d ee a5 ba
       0.032655396 0.01908931 0.30250576 -0.0012659539
000050 c4 ba bc 3b 6e 00 eb 3d 49 f2 00 3e 51 0c 11 be
       0.005759569 0.11474691 0.12592424 -0.14164855
000060 20 5a 29 3f d0 b1 71 be 3c b2 21 be ff 89 e5 bd
       0.66153145 -0.23602986 -0.15790647 -0.11207961
000070 22 d4 8e 3e 92 ca 1c be ac 2d 88 bb 62 9c c0 be
       0.2789622 -0.1531165 -0.004155835 -0.3761931
000080 e9 3b 9b bd 5c d9 85 be 93 60 1d be bc df ff bd
       -0.07579786 -0.26142395 -0.15368871 -0.12493846
000090 0c 9d 80 3c 2e 17 24 3c 2d c6 bf be fc cb a0 bd
       0.015699886 0.010015292 -0.37455884 -0.07851407
0000a0 29 ab bc bd 09 b0 92 3d 8b ea a7 3c 99 eb ad 3d
       -0.09212334 0.07162482 0.020497581 0.08492202
0000b0 c8 c0 21 3d 1e 2f 5e 3d f1 b1 0c bd f4 82 0d be
       0.03949049 0.054244153 -0.034349386 -0.13819486
0000c0 bc 25 25 3d 7c 92 ca 3a 71 99 1f 3e 3a c1 d2 3c
       0.04031919 0.0015455033 0.15585877 0.025726903
0000d0 f9 93 32 3d 65 d3 18 bd 7a 38 0a bd 87 da 3d bc
       0.04359815 -0.037310977 -0.033745266 -0.0115877455
0000e0 65 e1 86 3d 58 fb da be 22 31 1c be 96 0b 43 3d
       0.06585959 -0.42769885 -0.15253118 0.04761847
0000f0 3a 9f 6c bd 8d ed ae bd 85 4b 94 ba 6f 62 b0 bd
       -0.057769038 -0.08541403 -0.001131401 -0.08612525
000100 82 3e dc 3b 75 8a b7 be 17 0c 81 3e ca 00 9e 3c
       0.0067213187 -0.35847822 0.25204536 0.019287486
000110 2b 91 fb 3d fd 01 d8 3c a2 1f b0 3b 91 78 dd 3a
       0.12283548 0.026368136 0.0053748647 0.0016896894
000120 d3 ab 82 3e e0 1d 58 bd 56 ae 04 3d 05 64 5a 3d
       0.25521716 -0.052762866 0.032392822 0.053318042
000130 bd a1 6e 3e 8b cb 53 bd 7f bd 11 3d 20 75 41 bc
       0.23303886 -0.051707786 0.03558111 -0.01180771
000140 4f 8e 61 bc aa 12 a2 bc ed ef a2 3e c2 65 4e 3d
       -0.013766839 -0.01978429 0.31823674 0.050390013
000150 44 c9 a8 3e d1 d6 44 3e 3b 78 27 bc f3 f9 7c 3b
       0.32966053 0.19222571 -0.010221536 0.003860113
000160 76 a9 27 3d 0e 50 54 bb e0 38 d5 bd e2 ca 96 bb
       0.040933095 -0.003239635 -0.10411239 -0.0046018222
000170 12 98 f8 3b 24 03 11 bc 6e b4 14 be 63 ae be b9
       0.0075864876 -0.008850846 -0.14521953 -0.00036369552
000180 ee 16 c8 3d 15 18 f2 3c 45 1e b8 3b 04 2b eb 3c
       0.097699985 0.029552499 0.005618843 0.028707035
000190 b0 f6 09 bd 5e 5e 08 3b 7c 08 65 be 64 65 a5 bb
       -0.033682525 0.00208082 -0.22366518 -0.005047487
0001a0 01 4e 45 bb 4d 2b 8a 3d b6 8e 63 3d 60 63 b1 3c
       -0.0030106308 0.0674654 0.05555602 0.021653831
0001b0 50 aa 46 bb 0a db 0c 3d 70 83 85 3d 4c 9d 08 bc
       -0.0030313917 0.03438858 0.0651921 -0.008338284
0001c0 9b a2 97 be fb 1a c6 bb 08 43 ff b9 c2 e7 9a bb
       -0.29616246 -0.006045697 -0.00048687332 -0.0047273347
0001d0 7a 98 a5 3c f2 45 16 3e e9 4a 42 3e 8d 64 1a 3c
       0.020214308 0.1467512 0.18973888 0.009423387
0001e0 7a 2b 23 3c 12 a5 f1 3e 62 9b 09 3d b0 c5 3e 3c
       0.009959096 0.4719625 0.03359545 0.011643812
0001f0 f4 22 ec 39 86 87 2a 3c d3 c6 35 be b5 df 0e 3b
       0.0004503947 0.010408288 -0.17751627 0.002180082
000200 94 c7 3b 3c 85 a0 1a bb 0a f5 0e 3b fc ce a3 3e
       0.011461157 -0.0023594212 0.0021813535 0.31993854
000210 8d df d9 3c 93 8f 8d be bf 53 2d 3d bd c3 ba 3b
       0.026595855 -0.276486 0.042316195 0.0056996034
000220 66 32 c2 be a2 a0 ba bb 23 1d 16 be 2b 48 e8 3e
       -0.37929076 -0.0056954185 -0.14659552 0.4536756
000230 a1 92 59 be c8 3c 25 3e 24 8c 45 be bc 9e 96 be
       -0.2124734 0.16136467 -0.1929174 -0.2941798
000240 2b 42 d2 3d f8 69 aa bc 37 62 85 3e 86 a4 58 be
       0.10266527 -0.020802483 0.26051494 -0.2115651
000250 00 c4 b3 bd 3f 65 1f 3c 7a e6 3c 3f 9b ec 56 bc
       -0.087776184 0.009728729 0.7378918 -0.013117935
000260 8f d0 40 bf 6e 10 3c 3d bb 53 de bc 1a c9 b8 bc
       -0.75318235 0.045914106 -0.027139535 -0.02255683
000270 93 26 13 3e 1f a7 6a 3e 26 40 48 bf 49 39 07 3f
       0.14370184 0.22915314 -0.7822288 0.52821785
000280 81 1b 9a bc ae d0 5a 3b 09 79 6e 3c f7 08 94 bd
       -0.018811943 0.0033388543 0.014555224 -0.072282724
000290 6d 66 66 3c 63 4c e7 bd 09 69 1d bf 30 35 b4 bc
       0.014062506 -0.112938665 -0.61488396 -0.021998018
0002a0 f7 61 d0 be a6 7f 90 bb a3 99 13 bc c0 e6 35 3c
       -0.4069974 -0.004409748 -0.009008798 0.011102378
0002b0 66 d2 03 3f 8a 63 23 3e e8 d0 09 be 17 e7 cb bc
       0.5149292 0.1595594 -0.13458598 -0.024890466
0002c0 31 29 1d bf 75 40 92 bd e4 eb 54 3d c9 cf 4d bd
       -0.6139098 -0.071412005 0.051982775 -0.050246987
0002d0 39 27 11 bb 0b ce 39 3f 8c cb b8 be 31 38 0e 3f
       -0.0022148623 0.7258002 -0.36092794 0.5555449
0002e0 ce 94 68 bc 88 b9 74 3e 77 d3 76 bb ba 19 49 bc
       -0.014195634 0.238989 -0.0037662664 -0.0122742
0002f0 13 ad 2c 3f 0f 0f 48 bb ac df 9c be 88 63 1d 3c
       0.6745159 -0.0030526554 -0.30639398 0.00960625
000300 d4 55 55 3c 80 ec 38 bf 2f 0b 4e bf 16 0e 3b bf
       0.013020951 -0.7223587 -0.80485815 -0.7306837
000310 75 8f f8 be f6 90 05 3f 45 47 34 bd 9c 8d 1d 3c
       -0.4854695 0.5217432 -0.04401328 0.009616282

de4.bias f4 [4]
000000 6b 06 53 be a8 37 04 be 1c 17 65 3d 64 78 13 3f
       -0.20607917 -0.12911856 0.055930242 0.57605577
