jet_by_jet_compression/split_data_training/models/AE_3D_50_bn_drop_pp0_subtrain_5.pth (torch_old, 117006 bytes, 104 tensors)

en1.weight f4 [50, 4]
00000000: 74c9 c53e 5e01 0f3e a197 fb3f f6fa b1bd
00000010: 6042 973e 7e51 c7ba d41c 9a3f 2dbf a7bc
00000020: 5290 063f 53eb 6f3d 8778 1b40 8aef f4bc
00000030: 6b7b 1abd 2811 d13b 91b8 dbbf 6ba3 43bd
00000040: 657d 123f e932 b33d 0a8f 0d40 8f57 09bd
00000050: 1e95 9ebe 7484 85bb c20d 0bbf 0ef1 19be
00000060: 2ea7 01bf fc0f 24bd fd46 30c0 c96c 303d
00000070: 1c92 c1bd ee1c e13d ef82 0cbf 2e64 77bf
00000080: 3b06 a43e b456 9d3c f449 2d3f 5ce0 9abe
00000090: 70ee adbe 2de5 0fbd 4ae1 d4bf b01a b03d
000000a0: e275 d7bd 5a50 063d 89a2 2cbf b3a9 9dbe
000000b0: d58c 80be 6a68 a03c 5bbc 9dbf ac6c 59bd
000000c0: 63bd 17bf fab9 c6bd 6987 04c0 3c11 18bc
000000d0: c9f8 03bf 26cf 70bd 6cf5 f6bf f6e0 653d
000000e0: 395e a0be a43d 613d 331e 76bf 0f9c ad3e
000000f0: b6f9 a2be 9da1 95bc 9824 9cbf 2b39 68bb
00000100: fb6f a6be d785 e63b aed8 02c0 058c eb3d
00000110: b4c1 02bf d3a8 a83f fe88 853f 790a 073f
00000120: aa50 d8be fd10 953c c06e bebf 5fb8 9fbd
00000130: ea70 e4be e04f 21bd 4a16 203f be22 743e
00000140: 8907 5d3d 196c e33e 0e94 07bb 2c2c babd
00000150: f941 f9be 933e 7ebd c2d0 01c0 6512 0e3e
00000160: b723 7cbe c8ff 603c 1e6e c0bf 61f3 ddbc
00000170: c61c 18bf 1f0c c3bb a430 e6be 74fa 99be
00000180: f795 00bf ad99 51bd 9fcb 29c0 fd68 cf3c
00000190: 5d74 25bd b78f 033f 8a9f a43b c791 ba3d
000001a0: 723f 1e3f 6b5d 043e c517 3f40 d012 19be
000001b0: 7e0b 223d 797b f6be 0fe2 1b3d f92c 70be
000001c0: 0de4 3ebf fab9 9c3f 0740 d83e 15ed f6be
000001d0: 0f74 c4be 82dd 16bd 67a8 22c0 0e95 5a3e
000001e0: 8928 423f a89e 8dbd 5ccc 52be 50d0 e33e
000001f0: 1085 763e efd1 2cbd 5d4a 3240 4350 a3be
00000200: 76cd f0be b6cb 3fbe d29b 0cc0 6d9a c43c
00000210: ede3 4fbf fe71 833d 6815 043f eabc 963e
00000220: dd89 c93d 088b 42bf 501e 36bf 24a9 32be
00000230: bc26 83be bfd9 f5bc 8f92 1abf 1af0 b93e
00000240: 7759 93bf f487 0bbc c93c 2c3e 6699 dbbe
00000250: d234 9a3e e56f aa3c afa2 163f 7ff7 3cbe
00000260: 2098 2d3f cef9 5abd cb32 28be e3ad 143f
00000270: 8afb 883d 5917 d13d 5b1e 5dbf a033 23bf
00000280: 1ee5 d03e 32e6 283e d8e8 8940 b90b a9be
00000290: 43e8 dcbe 1544 12bd ed72 1ac0 5aa4 85bb
000002a0: 3d78 cbbe 5682 e4bc 54f3 09c0 ef80 6e3d
000002b0: ff7d 463f d530 4e3c 28cf 89bd 7f38 0d3e
000002c0: f9e8 0ebf f5c9 8c3b 0050 313f 63d3 0ebe
000002d0: 6c21 4cbf 1ace 593d a042 a6bf 5e31 543d
000002e0: b373 263e b448 bebb 1b92 933f b423 993c
000002f0: 3aa8 c9be 6bb9 87b9 e163 853f 5ded 90be
00000300: a28f d03d 37d5 153e 76c0 6940 2a37 9fbd
00000310: d9e6 17bf 0a53 01bc a3fa 9c3e ca3b 80be
0.3863026 0.13965365 1.9655648 -0.08690445 0.29542828 -0.0015206782 1.2040048 -0.020476902
0.52563965 0.058574032 2.4292314 -0.029899377 -0.037715357 0.006380219 -1.71657 -0.04776327
0.57222587 0.08749945 2.2118554 -0.033530768 -0.30973142 -0.0040746275 -0.5431787 -0.15033361
-0.5064572 -0.040054306 -2.7543328 0.043072496 -0.09451696 0.10991846 -0.5488729 -0.9663724
0.32036003 0.019206382 0.6769097 -0.30249298 -0.33970976 -0.03513067 -1.6631253 0.0859884
-0.10520531 0.032791473 -0.6743551 -0.30793533 -0.25107446 0.019581039 -1.2323107 -0.053082153
-0.59273356 -0.09703441 -2.0707648 -0.009281453 -0.5155149 -0.058791302 -1.9293647 0.056122743
-0.31321886 0.054990426 -0.9613983 0.33908126 -0.3183114 -0.01826554 -1.2198668 -0.0035434465
-0.3250731 0.007034998 -2.044475 0.11501316 -0.5107682 1.3176521 1.0432432 0.52750355
-0.42249042 0.018196577 -1.4877548 -0.07798838 -0.44617397 -0.039382815 0.6253401 0.23841378
0.053962264 0.4441841 -0.0020687613 -0.09090456 -0.48683146 -0.062071394 -2.0283666 0.13874204
-0.24622999 0.013732858 -1.5033605 -0.027093591 -0.59418905 -0.0059523727 -0.44958985 -0.30073893
-0.5022883 -0.051171947 -2.653053 0.025318617 -0.040394176 0.51391166 0.0050239014 0.09109836
0.6181556 0.12926261 2.9858258 -0.14948583 0.03956174 -0.48141077 0.038057383 -0.23454656
-0.7456673 1.2244256 0.4223635 -0.48227754 -0.38369796 -0.03683234 -2.5415285 0.21345922
0.758431 -0.06915027 -0.2058577 0.44494867 0.24074197 -0.042192396 2.7857888 -0.31897172
-0.47031754 -0.18730053 -2.1970105 0.023999417 -0.8120716 0.06418227 0.51595163 0.29441005
0.098407485 -0.75993395 -0.71140003 -0.17447335 -0.2561549 -0.030011056 -0.6037988 0.36315995
-1.1511678 -0.0085163005 0.16820063 -0.4289047 0.30118424 0.020805309 0.58841985 -0.18453787
0.6781025 -0.05346089 -0.16425626 0.5807783 0.06688602 0.10209531 -0.86374444 -0.6375065
0.40799803 0.16494063 4.3096733 -0.33016756 -0.43145952 -0.03570946 -2.4132645 -0.00407843
-0.39740172 -0.02789418 -2.1554766 0.05822843 0.77536005 0.012584885 -0.06728965 0.13791083
-0.5582424 0.004296536 0.69262695 -0.13947825 -0.797385 0.05317507 -1.2989082 0.051804893
0.16255073 -0.0058070067 1.1528963 0.018693782 -0.3938616 -0.00025887354 1.0421106 -0.28306094
0.10183646 0.14632116 3.652372 -0.077741936 -0.5933662 -0.007893333 0.3065997 -0.25045615

en1.bias f4 [50]
00000000: 4e1c e4bd 95a8 afbe 4006 81be 292f 03bf
00000010: 1a39 45be a8fc 9e3f a548 aebd 9dad 75bf
00000020: cc94 8f3e 96ae a33e ab7a 283f 1568 db3e
00000030: ff3a 6c3e 9361 ca3d 9e8c 273f a45c 1e3e
00000040: d7b1 703e bef1 a740 3990 8b3e 8d96 76bf
00000050: b4cb c13f 517c df3d e598 93be 9e48 903e
00000060: df9d 163e 1881 02c0 0475 e9be edb8 0b40
00000070: 13f1 953f c8b9 943d ffb4 7d3f 43d6 89bd
00000080: 1b1a 81be 1941 cb3e 3072 72bf 8edf 5a3f
00000090: a248 90be 106b c53f 975d 56bf 7660 ba3c
000000a0: dc3f 9b3e 7e18 453e 2b46 3e3e 9d05 02c0
000000b0: 07ff e13f a8dd f43e 8ec1 aa3e f4d4 06bf
000000c0: d743 aa3e 1711 2d3f
-0.11138211 -0.34308305 -0.2520008 -0.51243836 -0.19260064 1.2420855 -0.085099496 -0.9596804
0.2804321 0.31969136 0.65812176 0.42852846 0.2306938 0.09881892 0.6544894 0.15465027
0.2350534 5.2482595 0.2725847 -0.9632347 1.514029 0.10912383 -0.28827587 0.28180403
0.1470866 -2.0391293 -0.45597088 2.183162 1.1714195 0.072619975 0.99104303 -0.0673032
-0.2521523 0.39698103 -0.94705486 0.8549737 -0.28180414 1.5423298 -0.83736557 0.022751074
0.30322158 0.19247624 0.18581454 -2.0315926 1.7655953 0.4782536 0.33350796 -0.5266869
0.33254883 0.676042

bn1.weight f4 [50]
00000000: 3d4d d239 5a02 4fb9 8356 b7b9 17bd 2eba
00000010: ddd3 0e3a 8879 0b3e 84db 5138 1894 e13d
00000020: d1bf 883e 4390 a8b9 f5c8 2f3e 682c 23b9
00000030: 0120 d8b9 bbc5 a8b9 ec7f 933c 1b03 cb39
00000040: 5841 2bb9 adab 3e3b f13c 003a 3b89 1f3e
00000050: 2481 013f e713 a139 6475 5dba 545c 253e
00000060: 301c a8ba f694 d93e 0ac1 32ba b9f7 10bd
00000070: f63a 8fb9 d83a d539 a634 3a3e 94b8 66b8
00000080: 1621 763a 0b8d a03d 51e3 403a aa67 5a3e
00000090: fac3 0e3e 4da3 f43d 5d34 e63d 7402 103e
000000a0: fc1b b5b9 7ea1 05ba 8a76 0a3a 0338 af3d
000000b0: db40 cd3d 56de ec39 f45e bb3a fd64 5b3d
000000c0: 2788 fcba cda4 5b3e
0.00040111868 -0.00019741934 -0.00034968936 -0.000666575 0.000544844 0.13620579 5.0033923e-05 0.11014575
0.26708844 -0.0003215094 0.17166503 -0.00015561434 -0.00041222575 -0.00032190778 0.018005334 0.0003872149
-0.00016332173 0.0029094026 0.00048918935 0.15579693 0.5058768 0.0003072314 -0.00084479735 0.16148502
-0.0012825783 0.4249646 -0.0006818926 -0.035392497 -0.00027319015 0.00040670368 0.18184146 -5.5008175e-05
0.00093890855 0.07839402 0.00073580915 0.21328607 0.13941947 0.1194521 0.11240456 0.14063436
-0.0003454386 -0.00050976116 0.0005281946 0.08555605 0.10022136 0.0004517908 0.0014295266 0.053563107
-0.0019266651 0.21449585

bn1.bias f4 [50]
00000000: 4178 8638 c58e f4b8 0647 a739 35bc 86ba
00000010: a0c3 003a a604 e73d aeea c438 45ba 05be
00000020: b219 f73d 8db4 f039 605a 90be 389f ba3a
00000030: d92e 3fba 259d 33ba 7895 d53c 6254 deb9
00000040: 0372 9aba ed9a 6fba caa3 2aba 9948 d13b
00000050: c8da 413d 0934 483a 1e5f a7b8 8513 843e
00000060: 1565 2cba de3d 51be b31d 373a deae a63c
00000070: 414f 963a 9d68 4aba f5f8 b23e d8a6 d839
00000080: 6487 02ba 2abf 8e3e 9179 183a 1e91 a13d
00000090: c10b 0ebd 01c7 ba3c 9e9f a53e 1e85 c6bd
000000a0: 9e7b 9239 32a9 bc38 4673 a93a 5e4f eebd
000000b0: 685c f03d 8e2a c3b9 5b86 63ba c641 07be
000000c0: b09e fa3a 9949 6e3d
6.412017e-05 -0.000116614196 0.0003190564 -0.0010279479 0.0004911963 0.112801835 9.389721e-05 -0.13059337
0.12065448 0.00045910888 -0.2819395 0.0014238125 -0.00072930526 -0.00068517245 0.026072249 -0.0004240601
-0.0011783246 -0.0009140212 -0.0006509392 0.006386828 0.047327787 0.00076371484 -7.9808975e-05 0.25796142
-0.00065763417 -0.20433757 0.00069853215 0.020347055 0.0011467711 -0.0007721277 0.34955564 0.0004132304
-0.0004979281 0.27880222 0.00058164546 0.07889007 -0.03467918 0.02279997 0.3234834 -0.09693359
0.00027939392 8.996054e-05 0.0012928031 -0.11636232 0.11736375 -0.00037225004 -0.00086793833 -0.13208684
0.0019120779 0.058175657

bn1.running_mean f4 [50]
00000000: 7661 febc 194a 20be 3e18 6ebd 666e 30be
00000010: 605a 47bd 7c81 3f3f d4f8 9dbc 7b5a 04bf
00000020: a244 433e 44ca dd3d f0a7 dc3e 6f2a 443e
00000030: f766 803d f319 e53c 4120 af3e f925 8d3d
00000040: 99fc 833d 3363 7f3f e59b d13d 0285 14bf
00000050: ef7d 5e3f bf1a f23c df10 e3bd ef2a 483e
00000060: e82f f83c c008 71bf a630 b1bd fb8f 723f
00000070: bdd3 053f 2958 763c b16e 0e3f ad6a 53bc
00000080: 2c62 8abd 905b 703e 29e0 ffbe 9c79 0a3f
00000090: 372b efbd 3184 553f 4c00 05bf 15be 013d
000000a0: 63fb 2a3d ca14 353d 6954 443d 1f8d 69bf
000000b0: bcfb 553f 9c05 4d3e 65dc 253e 9f2d 84be
000000c0: 398e 563d 1bb6 e93e
-0.031052332 -0.15653266 -0.058128588 -0.17229614 -0.048670173 0.7480695 -0.01928369 -0.5170056
0.1906915 0.10829595 0.43096876 0.19156812 0.06269639 0.027966475 0.34204295 0.06892008
0.064446636 0.9976074 0.10234813 -0.58015454 0.8691091 0.02955377 -0.11087202 0.19547628
0.030296281 -0.94153976 -0.08651857 0.94750947 0.5227621 0.015035667 0.5563765 -0.012903851
-0.06757006 0.23472428 -0.49975708 0.5409181 -0.116781645 0.83404833 -0.5195358 0.031675417
0.041743647 0.04420928 0.047932062 -0.9123096 0.8358724 0.20021671 0.16197355 -0.25816056
0.052381728 0.45646748

bn1.running_var f4 [50]
00000000: 7021 353f 8079 043f c6a1 423f d668 233f
00000010: bdca 3c3f 11e3 893d 77ba 4a3f 7136 463e
00000020: 89b3 a23e 644b 253f f04d 683e b0f4 033f
00000030: bdd7 373f 1a94 333f cfce c13e 7c16 0a3f
00000040: 4a46 373f 11fb aa38 cec9 1b3f 18f1 373e
00000050: 9c2c 9e3c 583c 373f 013f 1c3f d080 9f3e
00000060: bb80 483f 4cf0 df3b 42b1 4c3f 9716 723c
00000070: 0347 d43e 1331 463f 2204 4a3e 367d 4b3f
00000080: 07d9 3b3f 2078 c43e 58c0 8e3e d225 2c3e
00000090: cc30 033f dc43 223d 6f87 7f3e 2493 dd3e
000000a0: 23d4 5d3f 85c9 423f b55e 3b3f a44f 733c
000000b0: 3b8d 7f3d c116 0c3f f37c fe3e 3175 e43e
000000c0: 5697 573f 0ac4 573e
0.70754147 0.51747894 0.76028097 0.6383184 0.73746854 0.067327626 0.7919077 0.19356705
0.317776 0.6456816 0.22685981 0.5154524 0.71813565 0.7014786 0.37853095 0.5394056
0.7159163 8.1529965e-05 0.60854805 0.17963064 0.01930838 0.7157645 0.61033636 0.31152964
0.7832143 0.0068340655 0.79957974 0.014775894 0.41460428 0.7741863 0.19728139 0.7948793
0.7337803 0.38372898 0.27881122 0.16811302 0.51246333 0.039615497 0.24954008 0.43276322
0.8665182 0.76088744 0.73191386 0.014850531 0.062390547 0.5472222 0.49704704 0.4462066
0.84215295 0.21070877

en2.weight f4 [50, 50]
00000000: 43b6 7bbd 5c78 433e 025e 4b3e 5217 e2be
00000010: ba0f ec3d 40b3 2c3e 52ab 6e3e 74de 20bf
00000020: c792 3e3f 760a 2dbe e8f6 f5be a70e d9be
00000030: 4b44 c43d 6211 14bd bb7f 06bf 332f 29be
00000040: fc1f cabe a116 08bd 84ed 14bf b7c6 3d3e
00000050: 84f8 08bd 8efa d7bd 1a9a df3d fdc2 9bbe
00000060: 374c 5a3e 7b57 74bd 63ad 04bf cfde 863e
00000070: 3e91 2dbe 2f56 133d 6af3 78be e450 163d
00000080: acf0 063e 2558 39bd 7373 0e3f d0cd 8abf
00000090: 9330 afbd 245c 063e 5073 223e 64ea 1fbf
000000a0: 90f0 493d 7889 21be 91e0 04be 1ac6 763e
000000b0: a01f f43d e89d 94be bb72 0abd 1e10 123f
000000c0: 6540 d23d 4d46 bb3c 4ea2 d03d 04d6 ba3d
000000d0: 07e7 86bd be20 4abf 434d 563e 5c3f c0bc
000000e0: 9fe9 93bd ea39 5dbf 0cf9 323f 39de ccbe
000000f0: a040 f5be 1cb3 1ebf 2557 2ebe 621f 173f
00000100: d4d4 acbf 5f1a 70be 87f3 bcbe 036f 533c
00000110: c7f7 3ebe beec 3c3f 20d2 8c3c dcb4 a3be
00000120: 0702 f9bd e1f4 00bf 7da5 34bc 4821 313d
00000130: f477 48bc 0104 1cbc 422e 69be ec22 0cbd
00000140: 77e1 bbbe 3138 853e 5bf0 b53e 8400 6dbe
00000150: 650f 813d e25c a2bf 5d9c 33be 0d00 e33d
00000160: ec84 9bbd 6468 21bf 3030 d33c d2e8 82be
00000170: 382d e3be 2962 89be bb88 97bb 3bf3 c0be
00000180: 1cf0 6d3c c0df 7c3f 701e 1d3f 676d 603d
00000190: 56cb b23c 6d52 c2be a1ef b23e f206 643f
000001a0: f0c0 5e3c 6e4b 88be 4e58 ffbd 289d 673f
000001b0: 3348 aebe a8d2 afbd 8021 8d3e cbe2 073f
000001c0: 3eea 1f3e 2a3c 123d d761 8f3f dfa8 453d
000001d0: 1af0 2d3f c59c 213e ac8c ddbe 7c15 46be
000001e0: c997 04bd 8b03 1a3e c7a4 eb3e d32c 693e
000001f0: f297 11be d124 923d d9a5 8f3e 68ed 0e3c
00000200: fb85 69be 8484 04bd 0002 8f3d 1dba b53d
00000210: dc73 e2bd 5368 d1bd 802e 0ebe 29b8 373f
00000220: d7b0 563d ff5c 7f3d 64f5 3ebe 4d49 573f
00000230: ecef 253c 3e10 103d 01b6 0c3f 8693 1ebe
00000240: a677 043e cca1 063e 80c8 ebbb 9560 83bf
00000250: d339 9c3c 296b 98be 8204 09bf ef69 76be
00000260: c83a f83e 5374 4e3f 5b11 23bf b286 953d
00000270: 87e4 b6be b63f bd3f dab5 31bf 1376 a13e
00000280: dc97 e33e 3e35 173f a882 cb3e ee74 bcbe
00000290: 098f 643f b323 353e d892 283e 089c 743f
000002a0: e5ff 333f 7b43 9fbe b75d 59bd 70e1 913e
000002b0: 19d0 9a3e 5090 7a3e c14d 03bf 78cb 133e
000002c0: 1014 ae3e b9f9 78be c51a 853f 6723 833e
000002d0: 0774 7f3e e2ea 25bf 1edb 3f3e eeee 603d
000002e0: 90fd 23bf 25de 883f dea1 493d e9fb 6cbd
000002f0: dc8f 80be 9120 253f 98dd 1f3e 510c 1ebe
00000300: dd42 023f c051 843d 22ba af3e 43f3 503e
00000310: 3af8 6fbe e69f 41bf 6ff0 2abf 6fef 99bd
00000320: c59c bdbb 3525 c4bc 3233 59bd 6f99 fcbd
00000330: 9be4 b3bd a6c2 103f 6e33 43be 63fd 853e
00000340: 63ed 8ebf 7ff1 63be 099e 503f 0802 b5be
00000350: 0a81 1c3e df85 b6bd 84cb 483f e837 253d
00000360: 8ba0 4bbe 4bac 56be 527a 293e b70a 2cbf
00000370: 90d3 c1be b6c3 0a3e b58d f7bd d5a7 173f
00000380: 3d57 513e b029 fcbe a9b7 e93d 24f3 983e
00000390: 8e31 2ebe a83e 30be ac7e 8bbc 6488 803d
000003a0: 1f01 f63c f1ee a0be 63eb c63d e543 583f
000003b0: 6db2 013e 8440 30bf e613 2cbd afad 483f
000003c0: 29d4 4fbe 49a8 2bbb 0334 82bb 0e4a f5bd
000003d0: 0c20 08bf a9ce f43d 230c e53d 7427 12bf
000003e0: 0a4c cbbe e9aa 3cbe 0b8f c33b 2c2f 6c3c
000003f0: 4bcc b2bc f121 a0bc 65be e93c d175 0bbf
-0.061453115 0.19088882 0.1986008 -0.44158417 0.11526437 0.16865253 0.23307541 -0.62839437
0.74442714 -0.16898522 -0.48039937 -0.4239399 0.09583338 -0.03614939 -0.5253865 -0.16521911
-0.39477527 -0.033224706 -0.5817492 0.18532835 -0.033440128 -0.105458364 0.109180644 -0.30422202
0.21318136 -0.05965374 -0.5182707 0.26341864 -0.16949937 0.035970863 -0.24311605 0.036698237
0.13177747 -0.045250077 0.5564491 -1.0844059 -0.08554187 0.13121086 0.158643 -0.62467027
0.049301684 -0.15775096 -0.1297629 0.24099007 0.119200945 -0.29026723 -0.03380082 0.5705584
0.102661885 0.02286067 0.10187207 0.091228515 -0.06587034 -0.7895621 0.2092791 -0.023467712
-0.07222294 -0.86416495 0.69911265 -0.40013292 -0.47900867 -0.6199205 -0.1702543 0.5903226
-1.350245 -0.2344756 -0.36904547 0.012904885 -0.18649207 0.7379874 0.01719004 -0.31973922
-0.1215859 -0.50373656 -0.011025784 0.04324463 -0.01223563 -0.009522439 -0.22771552 -0.03421299
-0.36695454 0.26019433 0.3553494 -0.23144728 0.063017644 -1.2684596 -0.17540117 0.11083994
-0.07593712 -0.6304991 0.025779814 -0.25568253 -0.44370437 -0.26832703 -0.004624454 -0.3768557
0.014522579 0.98778915 0.6137457 0.054791834 0.021825474 -0.3795351 0.34948447 0.890731
0.013595805 -0.26620048 -0.12468015 0.90474176 -0.3403946 -0.08585101 0.2756462 0.53080434
0.156167 0.03570191 1.1201733 0.04825675 0.6794449 0.15782459 -0.43271387 -0.19344133
-0.032371316 0.15040414 0.46024153 0.22771005 -0.14218119 0.071359284 0.2805622 0.008723594
-0.22805016 -0.03235294 0.06982803 0.08873389 -0.11057255 -0.102249764 -0.13884926 0.7176538
0.05241474 0.062344547 -0.18648297 0.84096223 0.010128003 0.03517174 0.54965216 -0.15485963
0.12936267 0.13147658 -0.0071955323 -1.026385 0.019070541 -0.29769257 -0.53522503 -0.24063848
0.48482347 0.80646247 -0.6369836 0.07301082 -0.35721228 1.4785068 -0.6941811 0.31535396
0.44451797 0.59065616 0.3974812 -0.3680796 0.89280754 0.176894 0.16462266 0.95550585
0.7031234 -0.3110617 -0.05306789 0.28492308 0.3023689 0.24469113 -0.5129052 0.14433086
0.3399968 -0.24314012 1.0398794 0.25612947 0.24946605 -0.6481153 0.1873593 0.05491536
-0.6405878 1.0692793 0.049226634 -0.057857428 -0.25109756 0.6450282 0.15611875 -0.15434386
0.50883275 0.06460905 0.34321696 0.20405297 -0.23434535 -0.7563461 -0.6677312 -0.075163715
-0.0057865107 -0.023943523 -0.05302734 -0.12333953 -0.087838374 0.5654701 -0.19062588 0.2616988
-1.1166195 -0.22260092 0.8149114 -0.35353112 0.152836 -0.08912253 0.7843554 0.04033652
-0.19885461 -0.20964162 0.16550568 -0.6720385 -0.37856722 0.1355122 -0.12087575 0.59240466
0.20443435 -0.49250555 0.114119835 0.29873002 -0.17011091 -0.17211401 -0.017028175 0.062760144
0.030029831 -0.31432298 0.09712865 0.844786 0.1266572 -0.68848443 -0.042011164 0.7839002
-0.20295776 -0.0026192835 -0.0039734854 -0.119770154 -0.531739 0.1195348 0.111839555 -0.5709145
-0.3970645 -0.18424572 0.00596798 0.0144155435 -0.02182593 -0.019547435 0.02853317 -0.5447665

en2.bias f4 [50]
00000000: 8f97 1cbd f8a6 86bd 632c 193e c703 723e
00000010: ac22 553e c892 59bf b47a a6be c604 dcbf
00000020: 6d44 173f 468f 2ebf 4bb5 cebf 85f1 d43e
00000030: ea5d 07c0 24a0 d13e 7e59 723e 586f ac3f
00000040: 912f 1cbf 60d6 fa3e 968a 52bf 61e3 663e
00000050: 0dd0 84bf 1f1a 6b3e 4197 e6be a890 643e
00000060: 959e 0bbf efef 06bf a808 053e c99b 3a3e
00000070: fbe7 aa3c 0b1b 0e3d 451a 46bc d555 30c0
00000080: a214 3dbf b236 83be d424 1ac0 758d 583d
00000090: 3239 973f d8e4 833e 64a9 923a e092 983f
000000a0: 1c1c 103f 3f13 f53e e75d 0d3e f5d6 adbd
000000b0: f148 403b 151a 9f3e 9755 36bf d1f3 babd
000000c0: 9e20 483e 2f69 ac3d
-0.038230475 -0.065748155 0.14958338 0.23634253 0.20814008 -0.84989595 -0.3251549 -1.7188957
0.59088784 -0.6818737 -1.6149076 0.41590515 -2.115107 0.4094249 0.23666951 1.347148
-0.6101008 0.4899168 -0.82242715 0.22547676 -1.0375992 0.22959183 -0.45037273 0.22320807
-0.5453885 -0.5270986 0.12991583 0.1822349 0.02086257 0.03469376 -0.012091224 -2.7552388
-0.7385961 -0.25627667 -2.4084978 0.05286928 1.181433 0.2576053 0.0011189398 1.1919823
0.5629289 0.47866246 0.13805352 -0.084882654 0.0029340351 0.31074587 -0.7122435 -0.091285355
0.19543692 0.084185

bn2.weight f4 [50]
00000000: 0c55 b138 6d1d 693a 55ca b639 1477 93b9
00000010: 0ab2 3038 05be a93d eb7b a13d 4707 bf3d
00000020: 3b6e 0c3a cf29 9f3d 0238 923d 7b50 2eb9
00000030: 34e0 833e 60bd 56bb 8161 0c3a 69fb 073e
00000040: f61e 143e 17d7 773d 1c41 f6b9 7ed7 d33a
00000050: 22a2 503e 402c 94b8 1fd4 3436 1a0e 14ba
00000060: 6841 fa3a 806c a639 0901 6d38 dbeb 1c3e
00000070: 090e a5b9 bc97 1d3a 6d5a cc39 600a 923d
00000080: babb 8eba 7a3c 133a e013 313e 5f5d 293a
00000090: f8ba f33d e78d 6e37 d18c 3fb9 583f 843e
000000a0: d4a4 eb3b bd85 edb9 ae02 043e 4c42 103e
000000b0: 3868 3839 bb97 31b8 8225 bab8 a005 613e
000000c0: 5457 0fba 019f ea3b
8.455859e-05 0.00088926294 0.00034864494 -0.00028126745 4.212748e-05 0.082881965 0.078849636 0.0932756
0.0005357002 0.07771646 0.07139589 -0.00016623914 0.2575699 -0.0032766685 0.00053551054 0.13279499
0.14464936 0.06050786 -0.00046969287 0.0016162244 0.20374349 -7.065432e-05 2.694556e-06 -0.0005647853
0.0019092979 0.00031742826 5.6506167e-05 0.15324347 -0.0003148171 0.0006011685 0.00038977285 0.07130885
-0.0010889687 0.00056166167 0.17292738 0.0006460752 0.11900896 1.4218945e-05 -0.00018267638 0.25829577
0.00719128 -0.00045303805 0.12891647 0.1408779 0.00017586432 -4.23414e-05 -8.8761575e-05 0.21974802
-0.000546803 0.007160068

bn2.bias f4 [50]
00000000: 5c60 a839 eea9 953a 674b 05ba 4555 70ba
00000010: 3e21 ee3a 9ad8 8d3e 310d 123e 9f88 56bb
00000020: 9074 82ba c5bf 113e 51e3 0a3e 13ee b5ba
00000030: 083f ce3d 1c7f 38bb 47c0 a6b9 32fb 913d
00000040: c442 a63d 495d 9e3d 752e 04b8 eefb 08bc
00000050: 72c5 913e 9bf7 8dba 6c84 a73a 72c2 5239
00000060: bc23 0a3e 96fe ccbb 6eec 1cba f56e 11be
00000070: 1358 a1b8 12c1 7339 1977 b03a 9004 f83b
00000080: 0e66 e03c 9280 033c 091f 3abe f6c9 ffba
00000090: 1fd8 b8be 3f13 99b8 e519 403a b34c 0a3e
000000a0: 31ce 63bd 2d0d c4b9 76df 3cbe 76ce bfbd
000000b0: 522a 18ba 71aa 6bba 4fd7 8d3a fc81 6d3c
000000c0: d250 f5b9 ae08 553d
0.0003211525 0.0011418441 -0.0005084783 -0.00091679796 0.0018167866 0.27704316 0.14262845 -0.003273524
-0.0009952951 0.1423331 0.13563277 -0.0013880156 0.10070616 -0.0028151935 -0.00031805245 0.0712799
0.08118203 0.077326365 -3.151452e-05 -0.008360846 0.2847095 -0.0010831238 0.0012780554 0.00020099597
0.13490194 -0.006255935 -0.00059861585 -0.14202483 -7.693483e-05 0.0002324621 0.0013463228 0.0075689033
0.027392413 0.008026259 -0.18175901 -0.0019515145 -0.36102387 -7.2991934e-05 0.00073280773 0.13505821
-0.05561656 -0.0003739385 -0.18444619 -0.09365551 -0.0005804646 -0.00089899363 0.0010821613 0.014496323
-0.00046790257 0.05201023

bn2.running_mean f4 [50]
00000000: d7e7 073d 871f 2fbe 74e3 8a3c 9265 463d
00000010: 1800 aa3c 3561 2abf 1208 a13e 139e 6fbf
00000020: 2e19 023f 179a 58bf 047f 7abf fff4 843e
00000030: d33e 71bf 3af1 043f 8f0d 3fbd 417b 6f3f
00000040: c704 2bbf cb56 2c3f 1d10 2bbf 3d30 063f
00000050: c33a 38bf 3dad a73e 5621 e0be e953 bf3c
00000060: 460d dcbe 48f9 20bf 0f66 103d 6392 7c3e
00000070: 35b5 44be d953 9f3d 57b3 253d c2e1 7fbf
00000080: 77c0 34bf 3cec 15bf 873e 7cbf 9065 f2bd
00000090: 25ef 5e3f 20be 863e 7f0e 153e 7372 4f3f
000000a0: b2db 1c3f e362 f53e 0243 653e 57a6 4dbe
000000b0: 78f0 7c3b 597c 953e 6d41 35bf 688a 0dbe
000000c0: 532c 84bd e0c9 4abe
0.033180084 -0.1710187 0.016954161 0.04843671 0.020751998 -0.66554576 0.3145147 -0.9360058
0.5081967 -0.8461012 -0.9785006 0.25968167 -0.9423649 0.5193058 -0.04664379 0.93547446
-0.66804165 0.67319936 -0.6682146 0.52417356 -0.71964663 0.32749358 -0.43775433 0.023355441
-0.42978877 -0.62880373 0.03525358 0.24665217 -0.1920975 0.077796645 0.040454235 -0.99953854
-0.7060618 -0.5856359 -0.9853291 -0.11835778 0.87083656 0.2631693 0.14556311 0.8103401
0.6127273 0.47927007 0.22388843 -0.20082985 0.003859548 0.29196432 -0.70802957 -0.13822329
-0.06453767 -0.19803572

bn2.running_var f4 [50]
00000000: f73c 943e 645e bf3e ee2f 543e 9de5 a83e
00000010: 8d10 f13e 2492 9d3d 7756 d63d 46bb d53b
00000020: f060 663e c16d f23c c5cc 783a 9568 953e
00000030: be0e 6c3b e810 153e 3041 9d3e 5eb7 923b
00000040: d081 b73d f4c8 9c3d 38f5 163e 4ee6 313e
00000050: 8056 173d cc27 753e e036 2a3e d100 db3e
00000060: 23c9 a33d 5224 fb3d 352b c53e 4abc 473e
00000070: acaf 963e ab65 7a3e f2cb b03e 3426 f434
00000080: da2b 923d 8694 9d3d be34 ae39 b5d4 863e
00000090: aa31 c13c e9ed 813e 716b 9e3e 566c cc3c
000000a0: 3656 a63d 1f1d 4b3e 093d 433e d5a1 523e
000000b0: a639 923e 2485 8c3e 3565 793d 3a1d 4d3e
000000c0: 5885 8d3e bfb6 843e
0.28952762 0.37376702 0.20721409 0.3298768 0.4708294 0.0769389 0.104657106 0.006522569
0.22497916 0.02959335 0.0009490962 0.29181352 0.003601953 0.1455723 0.30713797 0.0044774255
0.08960307 0.07655516 0.14741981 0.1737301 0.036947727 0.23940963 0.16622496 0.4277406
0.07997348 0.12262787 0.38509527 0.1950542 0.29430902 0.24452846 0.34530598 4.5476338e-07
0.0713727 0.07694344 0.00033227162 0.26334158 0.023583252 0.25376824 0.30941346 0.024954002
0.08121912 0.19835328 0.19066252 0.20569547 0.28559607 0.27445328 0.060887534 0.2003068
0.27640796 0.25920674

en3.weight f4 [20, 50]
00000000: 49d5 b7bd 9947 a2bc 8de5 5a3e 54db 943d
00000010: 1e89 a53e 4c82 f03c 709b 14bf cb43 3bbf
00000020: f478 4c3c 8491 c63e fb90 0a3f 4604 893d
00000030: b425 833e 489b 3f3b 7a64 7f3e 27a0 75bf
00000040: 3e26 c2be cd95 103f 47d7 a3be 4e39 cdbd
00000050: 6bc2 6e3c 9ec9 e5be 5b61 8a3e 3fb3 f23e
00000060: ada9 333d fe5c 3fbe 6030 693f 3c04 00be
00000070: 1d4f 8c3e befb bcbe 500c a1be 27df 8fbd
00000080: d185 333f 0292 253e b7c5 df3c 6614 c13e
00000090: 880e 223e 74ca 843e cf77 7abf 68d4 843f
000000a0: 20f3 12bf a2a2 fd3e d8a9 c0be 9278 91bd
000000b0: c538 1f3e 6a3c df3e 232f f23e fc04 f13d
000000c0: b0ce 373d b698 cf3d 798d 103b ea78 633b
000000d0: 413a 22ba 0247 153b a840 c83a 0e22 89be
000000e0: cc83 c93e 72a0 873e 8789 8aba 9d6a a7be
000000f0: bd24 b5bd d48b 88ba 20be 513d 6415 503c
00000100: e1e8 3f3b 1793 c23e 3c21 1d3e 7b55 4cbf
00000110: ced0 7eba 1623 813e ce9f d93d e704 243b
00000120: 751b a63b c438 2c3b 5599 37bc b7fd 1138
00000130: 6530 0eba da18 10c0 3663 263a 876e 843b
00000140: e359 653a a490 00bf f04d bd3c 7c91 323c
00000150: 97fb cd3e 43f8 4dbb 8564 223f 82f1 78bb
00000160: 65b1 b5bb 3aed 703e f970 37bd 198e 9eb9
00000170: e753 b4bd 4ec5 0fbe 9e31 8f3b b776 223a
00000180: 4ea6 eebb b721 923c eeb9 c23b 92a1 4cbf
00000190: 83d6 50be a417 92bc e6e0 41ba ca9d 7b3d
000001a0: d594 083e dd13 2fbf e6e5 b5be 6352 53be
000001b0: 3965 56bc f3af 7bbf 7911 7c3e 0619 273e
000001c0: 3de3 703e 54b3 6b3e bfcb fb3d 3be0 19bf
000001d0: c274 183e 87a1 51be 480a d6bc 2d07 bb3f
000001e0: 05c4 2cbe c525 823d 2b94 173d e2fe 3fbd
000001f0: aac6 3abe 3470 74bd e1aa 97bd b338 5ebe
00000200: 38f1 0ebe c4c1 533d e6b4 0e3c 2bac d93d
00000210: 31e5 bcbd 1ff9 473e f15c 263f 4721 943c
00000220: c5d5 443f 0a52 4e3d 7468 f63d 236a 293e
00000230: 2c09 45be c16c 9bbd 2280 29bf 0a2e ef3d
00000240: 59f5 023c 7c5e 31bd b566 2dbd 4dcc ce3e
00000250: 11d8 7fbd 54e0 65be 7c3b 113f b534 5dbc
00000260: f044 b33e bc9f a73c b1a5 473e 772b c93d
00000270: e119 c9be ccea 67bf 2fd5 a4be a5ff 563c
00000280: f087 873d 4e6f a0be fe39 f63d e6d7 b73e
00000290: 0f77 5e3d 0223 dcbe 811f 2a3e b2d8 363f
000002a0: 8568 7bbe 432e cbbd a07f 7fbe 2e47 95be
000002b0: daab 293e 217d b23b fb60 013e 28c8 bfbd
000002c0: ea18 2a3e 37b4 aebd 522e a63d 25d5 e3be
000002d0: f072 88be 3497 c7bd dd6d 0f3f aa18 0e3f
000002e0: 81ed 06be 6a61 a53d d69f 8e3e d8f9 5abe
000002f0: 7ff1 f4bc 0599 913f c2ec 64bf 2239 0fbd
00000300: 2f19 20bf 023f 60bc a6ea aabd d949 7cbd
00000310: e431 033d d3fe 923e c7d9 30be acdd 213e
00000320: 7e85 2abb 7f1a aa3b 64fd 313a f4f2 5b3c
00000330: 10d6 c83b 6c3e 39bc 173a 493e 2eed ecbe
00000340: 3ab7 b9b8 0439 21be 2596 a73f 5553 5f3c
00000350: 19ab 3cbe ee8d 843d 5fba 72bc 0be0 dbbe
00000360: be65 573f 7580 da3e 9593 a0ba 0374 72bc
00000370: b30f 30bd 3a9a 28bc f4d4 193d 5557 9a3c
00000380: c80a b9bd 3d9b 92bc b1c1 aaba 5685 b93d
00000390: ebab b7bc 60f3 053c 86d2 7c3c 7282 69be
000003a0: 4503 9a3f 28b0 45bd 838f 383c 5728 be3a
000003b0: c283 3fbe 6b7f d03c 10ba d63a b152 893f
000003c0: 3763 aabf 50ab 03bb f409 25bf 21db a9be
000003d0: 9e41 473c 16bf b53b cdee 90bd fb42 46bc
000003e0: 349b 2a3b fae8 c03c 57e9 2ebb 0b78 a93b
000003f0: aee5 643b 39aa ad39 69e4 83bb 2509 f2bf
-0.08976228 -0.019809531 0.21376629 0.07268396 0.32331175 0.029359005 -0.5804968 -0.7315032
0.012480009 0.38782895 0.5412747 0.06690268 0.25614703 0.0029236842 0.24940673 -0.959475
-0.379198 0.5647858 -0.3200018 -0.100206956 0.01457272 -0.44880384 0.270274 0.4740238
0.043862987 -0.18687817 0.9108944 -0.12501615 0.2740411 -0.36910814 -0.31454706 -0.07024985
0.7012606 0.16168979 0.027315957 0.37710875 0.15825856 0.2593571 -0.97839063 1.0377321
-0.5740223 0.4953814 -0.3762958 -0.07103075 0.15549 0.4360078 0.47301587 0.11768529
0.044874847 0.10136549 0.002205698 0.0034709522 -0.000618849 0.002277792 0.0015278058 -0.26783794
0.39358366 0.26489598 -0.0010569551 -0.32698527 -0.08844898 -0.0010417649 0.051206708 0.012700412
0.0029283094 0.38002846 0.15344709 -0.7981793 -0.00097204454 0.2522208 0.106261835 0.0025027336
0.005069191 0.0026278952 -0.011205991 3.4806984e-05 -0.00054240815 -2.2515168 0.0006347181 0.004041496
0.0008749051 -0.50220704 0.023108453 0.010898944 0.4023101 -0.0031428493 0.6343463 -0.0037985747
-0.0055448287 0.23527995 -0.044785473 -0.0003024198 -0.088050656 -0.1404011 0.0043699285 0.00061974995
-0.0072830087 0.017838342 0.0059425747 -0.79934037 -0.2039433 -0.017833538 -0.0007395878 0.061429776
0.13338025 -0.68389684 -0.3552696 -0.20636897 -0.013085657 -0.9831535 0.2461604 0.1631814
0.23524185 0.23017627 0.12294721 -0.60107774 0.1488829 -0.20471774 -0.02612795 1.4611565
-0.1687165 0.0635486 0.03700654 -0.046873935 -0.18239847 -0.059677318 -0.074056394 -0.21701317
-0.13959205 0.05169846 0.008710122 0.106285416 -0.09223402 0.19528626 0.6498557 0.018082274
0.76888686 0.050371207 0.120316416 0.16544394 -0.1924178 -0.075891025 -0.6621114 0.11678703
0.007993066 -0.043302998 -0.042334277 0.40390244 -0.062461916 -0.22448856 0.5673139 -0.013501336
0.35013533 0.02046191 0.194968 0.098227434 -0.39277557 -0.90592647 -0.32193896 0.013122474
0.06617725 -0.3133492 0.1202278 0.35906905 0.054312762 -0.4299546 0.1661358 0.714244
-0.2455159 -0.09920933 -0.24951029 -0.29155868 0.16569462 0.0054470454 0.12634651 -0.09364349
0.16611066 -0.08530467 0.08114304 -0.44498554 -0.2665019 -0.097456366 0.56027013 0.55506384
-0.13176538 0.08075221 0.2785632 -0.2138437 -0.02990031 1.1374823 -0.89423764 -0.034966595
-0.6253843 -0.013686897 -0.08345537 -0.061593864 0.03203 0.2871004 -0.17270575 0.15807217
-0.002601951 0.005191147 0.00067897723 0.013424624 0.006129034 -0.011306386 0.19651066 -0.46274704
-8.855616e-05 -0.15744406 1.3092695 0.013630708 -0.18424644 0.064723834 -0.014814942 -0.4294437
0.8413962 0.4267613 -0.0012251014 -0.014798167 -0.042983722 -0.010290677 0.037556604 0.018840471
-0.090352595 -0.017896289 -0.0013027695 0.09058635 -0.022420844 0.008175701 0.015431052 -0.22803667
1.2032248 -0.0482637 0.011264685 0.0014507872 -0.18702605 0.025451383 0.0016382355 1.072836
-1.3311528 -0.0020091124 -0.6446831 -0.33174995 0.01216164 0.005546461 -0.07076798 -0.01210093
0.002603245 0.023548592 -0.0026689374 0.005171781 0.0034926939 0.00033123957 -0.0040250313 -1.8909041

en3.bias f4 [20]
00000000: 5a90 553f 68db da3f 6da3 95bf 9351 543f
00000010: 1d8c e73f 79e5 d2bf 2884 d2be 5651 b13f
00000020: bbd7 193f 2606 013e cb6b 23bf a578 2cbd
00000030: dada 983e 85c6 8c3f 6dde 8c3f d113 a9bd
00000040: b678 eabc 1a21 d8be 0d1b 27bf c39c a1bf
0.8342339 1.7098207 -1.1690499 0.8293697 1.8089634 -1.647628 -0.41116452 1.3852947
0.60094804 0.12600002 -0.63836354 -0.042107243 0.2985447 1.0998083 1.1005379 -0.08255733
-0.028622013 -0.42212754 -0.6527565 -1.2625965

bn3.weight f4 [20]
00000000: 9b7c 0ab6 8a2f ac3d 4335 e639 587f 60b5
00000010: 5b3a 253e 1403 1f3e 05c6 d935 0669 833a
00000020: 3754 bf3d 2348 083e 55c8 ae3d 12c8 ae3b
00000030: 3de1 4d3e 9e40 d4b9 d82d b23d a5fe 873e
00000040: 60b8 113e 0751 ec3d 57c7 a73e a5fd 6fb8
-2.0636132e-06 0.08407505 0.00043908702 -8.363181e-07 0.16135542 0.15528518 1.6225391e-06 0.0010025806
0.093422346 0.13308768 0.08534304 0.005333909 0.20105453 -0.00040483935 0.0870015 0.26561466
0.1423049 0.11538892 0.32769272 -5.7218265e-05

bn3.bias f4 [20]
00000000: a591 0f3a 1437 cfbe 052a 31b7 7756 87b7
00000010: 8dd2 81bd ab3b 8dbc f3a3 9f35 a1fd 1fbe
00000020: 0d09 063e 0431 2d3c cb2a 663e 7228 59bd
00000030: 8eec b23e c82e a3b8 daa3 86be ad89 32bd
00000040: 12d3 233e ae01 053e 093d b4bd 6bd9 ceb7
0.000547672 -0.4047171 -1.0559806e-05 -1.6133517e-05 -0.063389875 -0.017240366 1.1894139e-06 -0.15624095
0.1308939 0.010570768 0.22477262 -0.053017087 0.34946102 -7.7811594e-05 -0.26296884 -0.04358833
0.15998486 0.12988922 -0.08800704 -2.4658357e-05

bn3.running_mean f4 [20]
00000000: 82be 3a3f 946b 643f 3a8b 6ebf 644e 353f
00000010: 2ab0 783f 93b2 7ebf 4833 9fbe 9cde 613f
00000020: c7eb 3a3f e478 363e f225 1fbf a878 68bd
00000030: 49a8 2f3f 405f 513f d8a0 403f d970 1cbe
00000040: c183 a1bd 3edc 1abf 0814 10bf 9860 69bf
0.7294694 0.8922665 -0.9318119 0.7082274 0.97143805 -0.9949123 -0.31093812 0.882303
0.7301602 0.17819554 -0.62167275 -0.05675569 0.6861616 0.81785965 0.7524543 -0.15277423
-0.07886458 -0.6049231 -0.56280565 -0.91163015

bn3.running_var f4 [20]
00000000: 27e2 563d 2aef 223c ec14 6b3b 3bb5 9e3d
00000010: 08f4 8a3a 6593 ec37 7289 ae3d ae69 0d3c
00000020: 862f 323d 1555 903d d112 173d 1928 fa3d
00000030: a5e6 333d 7450 133d 4cb9 cc3c 7b22 003e
00000040: 615f e43d 7bfb 603d 7d16 443d 296e 4b3c
0.05246177 0.0099447165 0.0035870625 0.07749411 0.0010601291 2.8202028e-05 0.08522309 0.008631153
0.043502353 0.07047478 0.03688318 0.12214679 0.04392113 0.035965398 0.0249907 0.12513153
0.111510046 0.05492733 0.04787301 0.012416401

en4.weight f4 [3, 20]
00000000: abcd 8c39 6f8b 31bd 423f 8839 ae96 c735
00000010: 5cf8 3b3e 3845 233d 2e2e 01b8 052f 223d
00000020: f658 213e 782a 21be f9a9 a73e a3f2 9ebd
00000030: d228 243d 3522 64ba dfb8 e4bc e139 453e
00000040: 3d07 8cbe 7cf5 423e 50aa a2be edab 7138
00000050: b9f1 bf37 d365 93bd 85f2 a5ba 51aa 50b8
00000060: cb5c 723e 0dbe d03b 2258 16b7 e6bc 103d
00000070: 5bbc 573e c0fd 643e 59a5 6e3d f94d 8b3d
00000080: 9f13 613d e477 9239 5d2f c5be f70f 633e
00000090: 2c54 173e 28f9 5abe b5f8 8f3e c106 2039
000000a0: 23f4 2738 1d00 503f a079 b53b 71d0 2439
000000b0: ac7e 67bc 53ef 2d3f 0cff bf35 c6ec 393e
000000c0: 6feb 19be bec6 82bd 65fb 21bd 9d79 293b
000000d0: 5a20 52bf 0f12 8d39 a5ca 4f3d c722 463e
000000e0: c18a 74bd 9c34 bdbc 252b 8d3d d463 94b7
0.00026856115 -0.043345865 0.00025987072 1.4870509e-06 0.1835646 0.039860934 -3.0799005e-05 0.039595623
0.15756592 -0.15738857 0.32746866 -0.07761123 0.04007799 -0.0008702607 -0.027920185 0.1926036
-0.27349272 0.19038957 -0.31770563 5.7618996e-05 2.2881535e-05 -0.07197156 -0.0012660777 -4.9749684e-05
0.2366821 0.006370312 -8.961217e-06 0.035336398 0.21067946 0.22362423 0.058263157 0.068019815
0.054950353 0.00027936616 -0.38512698 0.22174059 0.14778203 -0.21384108 0.28119436 0.00015261305
4.0043273e-05 0.8125017 0.0055381805 0.00015717909 -0.014129322 0.67943305 1.4304837e-06 0.18156728
-0.15031217 -0.06385563 -0.03954639 0.002585984 -0.82080615 0.0002690707 0.050730366 0.19349204
-0.05970264 -0.023096375 0.06892995 -1.7689461e-05

en4.bias f4 [3]
00000000: 6288 9b3e 9167 313e e173 c9be
0.3037749 0.17324664 -0.3934622

bn5.weight f4 [3]
00000000: 5739 2f3f 7c0d 393f 422e 073f
0.6844687 0.722862 0.5280496

bn5.bias f4 [3]
00000000: ed1d 1bbe a2ff 9cbd bb23 95be
-0.15148135 -0.076659456 -0.29128823

bn5.running_mean f4 [3]
00000000: 782c c33e 7dc5 8f3e ffcf 46bf
0.38119864 0.2808036 -0.77661127

bn5.running_var f4 [3]
00000000: 1416 193d a11b 253d 8b45 963c
0.03737457 0.040309552 0.018343708

de1.weight f4 [20, 3]
00000000: 6dfd eebe 33a2 02bf 51bf e3be 1c3e f6be
00000010: 2dd6 05bf f67d 013f f7c4 a3bd c8ef 89bd
00000020: 618f d53f 0376 fb3e 8e85 debe 5827 b83d
00000030: b616 e1be 9c10 eabe 562f 04bf 94ea 59be
00000040: 925e 81be 6c33 2f3f a812 123f 9ec3 243f
00000050: 4365 1bbf 5222 1ebf 322b 33bf 35f9 0d3e
00000060: 22da 293f c7ee ecbe 94bb 2f3e c237 4e3f
00000070: ac20 76bd 6a13 4c3e ab13 fcbc e0be 373f
00000080: 45bf 923e 01ba 53be 3f89 a73e bec2 78bf
00000090: 5649 053d f331 ab3d 952c 06c0 549d 27bf
000000a0: af65 21bf e690 0d3e ee67 d93e 6014 dc3e
000000b0: c3e1 42bf 0647 e13e dad0 eb3e 0415 483f
000000c0: 9035 dcbe a8ab b33e f6e9 393e 560e 87bd
000000d0: 5e63 833e d7d4 43bf 7bdf 2dbf c1ec 56be
000000e0: c1a1 8e3e c683 44bf 872f 403f 3cac ac3e
-0.46677724 -0.51028746 -0.444819 -0.4809426 -0.5227993 0.50582826 -0.079965524 -0.06735188
1.6684381 0.49113473 -0.4346127 0.08991879 -0.4396264 -0.45715797 -0.5163473 -0.2128089
-0.25267464 0.6843784 0.5705972 0.6436099 -0.6070139 -0.6177112 -0.69987786 0.13864596
0.6634847 -0.46275923 0.17161399 0.8055383 -0.060089752 0.19929281 -0.030771097 0.7177563
0.28661552 -0.20676424 0.32721898 -0.97172153 0.03254064 0.083591364 -2.096471 -0.6547444
-0.6304578 0.13824806 0.42462105 0.42984295 -0.76125735 0.439995 0.4605778 0.7815707
-0.43009615 0.350919 0.18155655 -0.06594531 0.2566175 -0.7649664 -0.6791913 -0.20988752
0.27857783 -0.7676357 0.7507252 0.33725154

de1.bias f4 [20]
00000000: fb12 85bf c8d3 40bd 8c20 e73f 1fc6 81bf
00000010: 562b 973f 4b49 a9bf 1069 e03f 7e1a 1a40
00000020: b5d0 053f dffa a8bf 3d49 dfbf 2d5d 22bf
00000030: af01 5a40 7167 30c0 c2ae a13f 88ab e0bf
00000040: b173 98bf 89c9 563f 30ff 413f 6035 d63e
-1.0396417 -0.04707697 1.8056808 -1.0138587 1.18101 -1.3225492 1.7532063 2.407867
0.52271587 -1.320156 -1.7444226 -0.63423425 3.4063528 -2.7563136 1.2631457 -1.7552347
-1.1910306 0.8390127 0.7578001 0.41837597

bn6.weight f4 [20]
00000000: c262 b83e e1cc 7aba 3fa9 023f 1148 cf3e
00000010: 4164 863e 7916 423e 08aa 093e b153 1e3f
00000020: aef0 5b3e e143 c33e 67b1 903e a219 7d3e
00000030: 7c12 263d 5f41 8e3e 2a77 8d3d 4bbb 193e
00000040: 72e9 e23e 0882 013e c846 223e 1235 e73e
0.36012846 -0.00095672725 0.510395 0.4048467 0.26248363 0.18953885 0.13443768 0.6184645
0.21478531 0.38137725 0.28260347 0.2471681 0.04054497 0.2778425 0.06907494 0.15012853
0.4431873 0.12647259 0.15847313 0.45157677

bn6.bias f4 [20]
00000000: 1006 e8be e7df 953b 6d8c 283e df38 febd
00000010: bcd6 00be a500 b7bd a511 393e bac6 1b3e
00000020: 6b51 153f 59a1 6fbe 9326 86be c39d 93be
00000030: 8219 71bb e76b abbd ac55 303e dc2a 48be
00000040: f26f 35be 5ea0 e23e 6823 113f ddcf b23d
-0.45317125 0.0045738104 0.16459818 -0.12413191 -0.12581915 -0.0893567 0.18073137 0.15212527
0.5832736 -0.23401393 -0.26201305 -0.288313 -0.0036788885 -0.0837019 0.17220181 -0.195476
-0.17718485 0.44262975 0.5669465 0.08731053

bn6.running_mean f4 [20]
00000000: 3de8 18bf 10f5 9fbd 4b7c 3f3f 072b 37bf
00000010: e1b3 5a3f b648 5dbf 32d5 663f c8c3 7a3f
00000020: 2ca7 9c3e 79ab 59bf af29 6dbf 12af 79be
00000030: 801a 7c3f 99b5 7bbf 19cf 513f 6e40 72bf
00000040: ebf0 47bf d20e 383f fceb 173f d461 6e3e
-0.5972937 -0.07810414 0.7479903 -0.7155003 0.85430723 -0.86439073 0.9016906 0.9795499
0.30596292 -0.8502727 -0.9264173 -0.2438319 0.98477936 -0.9832397 0.8195663 -0.9462956
-0.78101987 0.71897614 0.5934446 0.23279506

bn6.running_var f4 [20]
00000000: 5a51 9b3d 3ce1 323e db2f 2d3d 71fc 643d
00000010: 9050 7d3c 1de9 993c d1ad 843c 6ded 9c39
00000020: 51ab 6c3e 100b 9b3c 908c ba3b 4100 3d3e
00000030: ccc7 813b a7d6 b339 7768 333d e09e a33b
00000040: aa72 113d 03e0 853d 90cf 7f3d 27eb a43e
0.07583876 0.17468733 0.042281967 0.05590481 0.015461102 0.018787915 0.016196163 0.00029931535
0.23112227 0.018926173 0.005693026 0.18457128 0.003960585 0.0003430147 0.043800797 0.0049933046
0.035509743 0.065368675 0.062453806 0.32210657

de2.weight f4 [50, 20]
00000000: fb87 e0be 2dcc 883f f6ea 213f fd5f 0f3d
00000010: 6a4d 2dbe 1229 87be 23a2 223e 02a7 b33f
00000020: 9ddb 253f f1b6 8d3e fc7e 833e 36d1 11bf
00000030: eab8 42be 6ec6 f4bd 6a85 9f3e b52c cebe
00000040: 2348 bd3e 396d fa3e ea52 ab3f 82c7 8d3c
00000050: 6c60 763e c739 f0bc 9150 5ebf f417 4bbe
00000060: ba8c 4a3f 624f 1ebf 23bd 2d3e 547a fe3d
00000070: c8cd 993d 4dfb 78be 10e8 6a3e e427 7e3f
00000080: d083 a5bc e37a 2b3c 3d0e 9d3e 1cf3 3ebf
00000090: 1809 413e dcfa 493f aa78 c73d f874 2ebe
000000a0: 006a 96bf b423 aa3f 04eb 363e decc c83d
000000b0: 67e6 4dbf 677a 28bf effc af3f f864 903f
000000c0: cc51 0d3f 8a28 ff3c 86f1 82be b43f a1bf
000000d0: c8f8 b83d fac8 22bf 5aa4 ba3f 885b 46bf
000000e0: 3fe1 993d 9d0a 9c3f 9b6d 923f 011c a03e
000000f0: 5b24 bf3d f509 fcbc f77c 9bbf c13a bc3c
00000100: 1171 843e a3ba 68be 7165 933e ac2d 36be
00000110: 7656 3cbe b338 fa3d 71e7 cd3d 09d1 7a3d
00000120: 054c 583b 88d5 403c 6767 533e d383 d7bc
00000130: cd52 563e 6fc2 3cbe e999 5abe a083 ddbd
00000140: 00fc 3d3e f65b 233e 0d10 913e 0bbd c4be
00000150: af7b af3e 684b 14bf eeff d23e afa1 a93d
00000160: 8757 89be 1802 03c0 0c3e 163e 93d8 7f3e
00000170: dc43 283d f77b 83be a1b1 743d 6620 0bbf
00000180: 6c65 a5bd ad59 113f f4e6 463e 34a0 c23d
00000190: 65c1 3b3d 634a d2bd 8fd9 793d 9a49 f3be
000001a0: 5ea8 60bd 9345 56be f7f9 efbc 4352 763d
000001b0: ca3c 43bf dc4d b7be 11f2 a73e e50f d03e
000001c0: 9ef4 8bbc cf54 14be 3f92 eabc 077d b13d
000001d0: 6c97 a63f 2cd3 bdbd c3ed 563e abad 7e3f
000001e0: 6ed0 6a3d d8f0 b0bc ee28 073e 4888 163f
000001f0: 1d71 fbbc e3c9 11be 4c4e ab3c 3028 183e
00000200: e95e 73be 08f3 fa3d 8564 353e 5e41 a93d
00000210: 8af5 98bb 9b3e e339 3f6d 86ba 0b9c a53d
00000220: 8179 363e 5d7e 62bd 4e8e 0bbe c1ce 26bf
00000230: d078 853f 6652 e6bd f9d5 64be 91a6 09bd
00000240: aa68 8d3f 2407 cbbd 6ad9 76bd bc45 223f
00000250: f80a 0b3e 8c17 83be aaa5 d7be a858 743e
00000260: 80d0 973d b3fc c53e 408c 683e e5d2 5bbf
00000270: 5b99 7c3d c9ef c93d 229c b03e ff02 df3d
00000280: fac0 a3be 9f2d e0be 5bf4 28be 1108 96be
00000290: c23f 3b3e 6c18 b3be 2db5 93be 0b51 9fbf
000002a0: 52d3 63be e247 00be ac90 e2be 32dd 103f
000002b0: 021b 713c c07f 993d a60d 78be d997 233e
000002c0: 4005 08bf 4364 d53c a7aa 1abf 32bf 473c
000002d0: 0a11 cfbd b1d6 313e 9c43 4f3e d559 ddbe
000002e0: 5d7f a3be 7b44 113f a595 3bbf 5595 983e
000002f0: f876 0cbe 1e73 5abe 00f3 c23d 1f38 a6be
00000300: 4435 0bbe f3bf 3f3e 44b7 c2bf 523f 013f
00000310: e6a6 343e c862 a9be 1a10 31bf f606 583e
00000320: 8f83 86bf e2fc c23f 949e b93e ee4e 3b3d
00000330: c105 d6be 66a9 a9be 2044 aa3f 7398 593f
00000340: 4c24 913f 0724 91be 9080 0abf 3a7c 8bbf
00000350: ae1b 093e a2a1 25bf 0931 c43f 7a61 89bf
00000360: aa7f b53e dd75 783f 5d70 e43f 7dd4 853c
00000370: e595 acbc 969f 153e 1f6a 45be b647 123f
00000380: b4be a03e 37b1 51be 20eb b0bd 939c 023f
00000390: 08e1 91bd ec2d 3fbe dba7 bcbd eee7 f4bd
000003a0: 9885 57bc 4323 0a3e e5cd eb3d 0aa8 6cbe
000003b0: a783 e43e a86d 4f3d a14f ef3e 80de 3fbe
000003c0: 08fd 04c0 ccc8 393f 0ba3 7a3e 57e5 653e
000003d0: f418 54bf 7138 e43c 0957 4b3f c86a 3a3f
000003e0: 07c1 e43e 3613 813e bdf0 6e3e 9978 6cbf
000003f0: 4bf2 28bd ecea 78bf b587 123f a787 1fbf
-0.43853745 1.068731 0.63249147 0.03500365 -0.16924062 -0.26398522 0.15882163 1.4035342
0.6478823 0.27678636 0.2568282 -0.56959856 -0.19015852 -0.1195191 0.31156474 -0.40268484
0.36969098 0.48911455 1.3384678 0.017307047 0.2406022 -0.029324425 -0.86841685 -0.19833356
0.7912098 -0.6183988 0.16966681 0.12425676 0.07509953 -0.24314614 0.22940087 0.9927962
-0.020204455 0.01046631 0.30674925 -0.74589705 0.18851125 0.78898406 0.09739812 -0.17036808
-1.1751099 1.3292146 0.17863089 0.098047 -0.8042969 -0.6581177 1.3749064 1.1280813
0.5520294 0.03114726 -0.25574893 -1.2597566 0.09031826 -0.63587916 1.4581406 -0.77483416
0.075136654 1.2190739 1.1439699 0.31271365 0.09333106 -0.030766467 -1.2147511 0.022977235
0.25867513 -0.22727446 0.2878833 -0.1779086 -0.18392357 0.12217846 0.100539096 0.061234508
0.0033004296 0.01176966 0.20644914 -0.026307976 0.20930023 -0.18433546 -0.21347775 -0.10816121
0.18553162 0.15953049 0.28332558 -0.38425478 0.3427405 -0.5792756 0.41210884 0.08282792
-0.2682459 -2.0470028 0.14672107 0.2498496 0.04108034 -0.25680515 0.059739713 -0.5434631
-0.08075985 0.5677746 0.19424039 0.095032126 0.045838732 -0.102680944 0.060998496 -0.4751709
-0.054848067 -0.20924978 -0.029293997 0.060137045 -0.7626463 -0.3580159 0.3280187 0.40637127
-0.017084416 -0.14485477 -0.028634189 0.08666425 1.301496 -0.092687935 0.20989136 0.99483746
0.05732768 -0.021599218 0.13199207 0.588017 -0.030693585 -0.1423717 0.020911358 0.1485908
-0.23766674 0.12253386 0.17714126 0.08264421 -0.0046679424 0.0004334346 -0.0010255947 0.080864035
0.17819788 -0.05529629 -0.13628504 -0.6515923 1.0427494 -0.11246185 -0.22347249 -0.033606116
1.1047566 -0.09913471 -0.060265936 0.63387656 0.13578403 -0.25603902 -0.4211858 0.23861945
0.07412815 0.38669357 0.22709751 -0.85868675 0.06166969 0.098601885 0.3449412 0.10889243
-0.31983167 -0.43784806 -0.16499464 -0.2930303 0.1828604 -0.3497957 -0.28849164 -1.2446607
-0.22248581 -0.12527421 -0.44251 0.5658752 0.014715912 0.074950695 -0.24223956 0.15975894
-0.5313301 0.026048785 -0.60416645 0.012191581 -0.10110672 0.17367055 0.20240635 -0.432326
-0.31933108 0.5674512 -0.73275214 0.2980143 -0.13717258 -0.21332976 0.09519005 -0.32464692
-0.13594538 0.18725567 -1.5212178 0.50487244 0.17641792 -0.33083177 -0.69165194 0.21096405
-1.0508898 1.5233424 0.36253798 0.04572957 -0.41801265 -0.33137053 1.330204 0.84998244
1.1339202 -0.283478 -0.5410242 -1.0897286 0.13389465 -0.6469976 1.5327464 -1.0732872
0.35448962 0.97054845 1.784679 0.016336674 -0.021067569 0.14611658 -0.19278763 0.5714067
0.31395495 -0.20477758 -0.086385965 0.51020163 -0.071229994 -0.18669862 -0.092117034 -0.119582996
-0.01315441 0.13490014 0.11513881 -0.23110977 0.44631693 0.050641686 0.4674044 -0.18737221
-2.0779438 0.72572017 0.24476258 0.22450767 -0.82850575 0.027858945 0.7942968 0.72819185
0.44678518 0.2520997 0.23334022 -0.9237152 -0.041246694 -0.9723346 0.5723832 -0.62316364

de2.bias f4 [50]
00000000: 5fd6 9a3f 07ce be3e 3669 3b40 bed1 7bbf
00000010: 671b 5d3d e87b 50be 6efa 22bf 12df 7a3e
00000020: a85d 2dbf 8a22 22c0 27b9 7440 57d0 913f
00000030: 126b d73f d115 10bf 4e7f 16c0 3112 b1be
00000040: b920 28c0 91e5 11c0 9927 713e ef92 bc3d
00000050: 79ad 043f 7abe 10bf 4458 e2bf f698 8abe
00000060: 729e 2c40 3391 c13f 0170 25bf 04ed 1040
00000070: 9787 2440 698a 37bf 0ca6 ddbf 91e8 f93f
00000080: 74e2 55bf b883 b23d 0cf8 3240 e2d1 13bf
00000090: 2335 aebf 5aff a43f e8bf 08bb 09db e43d
000000a0: fdc1 d73f d2c5 bc3d 6300 61bf f9bf 47c0
000000b0: 521d 08c0 0a06 3ac0 2a2c cc3f d107 02bf
000000c0: 3639 303f 9a22 b23e
1.2096671 0.3726656 2.9282966 -0.98366916 0.05398121 -0.20359766 -0.63663375 0.24499157
-0.67721033 -2.533358 3.8238008 1.1391705 1.682955 -0.5628329 -2.35152 -0.3458419
-2.6269972 -2.2796366 0.23550262 0.09207713 0.518272 -0.56540644 -1.7683187 -0.27069825
2.6971707 1.5122436 -0.6462403 2.2644663 2.5707757 -0.7169557 -1.7316298 1.9524099
-0.83548665 0.087165296 2.7963896 -0.5774213 -1.3609966 1.2890427 -0.0020866338 0.1117459
1.6856076 0.09217419 -0.87891215 -3.121092 -2.1267896 -2.9066186 1.5950978 -0.50793177
0.68837297 0.34792024

bn7.weight f4 [50]
00000000: 06f5 b3bb c380 043d 3141 f33d 3b39 b93e
00000010: 2855 d13d 2077 e63e a2da 8b3e e885 383e
00000020: d3f6 9239 8eae e93d 663a 123c d633 fc3e
00000030: a6f2 e63c 28ed fd3d 33ed 8b3e 0844 bd3d
00000040: 4d13 bf3e 8cb0 8d3e cf18 3e3e 4e3c 3a3e
00000050: 8d84 6c3e 5140 a93b d162 1c3e 11df a43d
00000060: 9a3a bc3e d676 d13c 90b4 a73e 21d2 8d3c
00000070: 8a1d 963e af48 b43e 9eed 243e 3854 153e
00000080: 6820 c13e ccb0 623e 5d4b 173e 2583 023e
00000090: f8f6 af3e e9a4 743e 0e0d 013f b17e a73d
000000a0: e39d 38bd d50d 8e3e 37f3 1a3e 2033 283e
000000b0: d26f 983e 302c 473e 7f96 e43d 3d69 4b3e
000000c0: a815 ff3e d843 bc3e
-0.0054918556 0.03234936 0.11877669 0.36176476 0.102213204 0.4501276 0.2731524 0.18019831
0.00028031188 0.11410247 0.008925056 0.49258298 0.028191876 0.123987496 0.27329406 0.092414916
0.37319413 0.27673757 0.18564151 0.18187067 0.23097439 0.005165138 0.1527207 0.08050359
0.3676346 0.02556936 0.32754946 0.017312111 0.29319412 0.35211703 0.16106269 0.14582908
0.37720037 0.22137755 0.14774843 0.1274534 0.3436811 0.23891033 0.50410545 0.08178461
-0.045072448 0.27744928 0.15131842 0.16425753 0.29772812 0.1945045 0.11161517 0.19864364
0.4982121 0.3677051

bn7.bias f4 [50]
00000000: 2620 a8b8 38f0 a0bd 8280 acba b771 b53d
00000010: 5656 81bc b5f8 1abf c2ab d2be e887 29bc
00000020: a30c 5d3b 0efa 5f3c eb32 2e3a b52e adbe
00000030: fdcc d53a da49 5a3c 6e30 7f3d dc24 273c
00000040: 24c3 0d3e 2eba 183e aa94 0dbd 3936 153e
00000050: b45f 083c 3433 35bb 83b9 613c 82ac 86bb
00000060: 7084 9d3e 4325 273a 172c 7f3e 7628 be3a
00000070: b8d9 97bd e19e 7a3e 803b b93c 6f7c 5bbd
00000080: 4a23 153e 5421 00bf d8cc 06bd 6859 9abc
00000090: 864f 3cbe 01b5 533e e04a 213f 690a 8f3d
000000a0: f0d3 b93a 8225 b2be 9fda 043d cbd3 a73a
000000b0: 02a0 953d 6e26 01ba b974 2fbb 4267 2238
000000c0: b4ec 2ebf 7c40 6a3f
-8.0168524e-05 -0.07858318 -0.0013160857 0.0885958 -0.015788238 -0.60535747 -0.41146666 -0.010347344
0.0033729456 0.0136704575 0.00066451606 -0.33824697 0.0016311702 0.013323272 0.062302046 0.010201659
0.13843971 0.14914772 -0.034565605 0.14571466 0.008323599 -0.0027648928 0.01377714 -0.00410992
0.30765104 0.0006376097 0.24919163 0.0014507908 -0.074145734 0.2447467 0.02261138 -0.053585466
0.14564243 -0.50050855 -0.032910198 -0.01884146 -0.18389711 0.20674516 0.63004875 0.069844075
0.0014177542 -0.3479424 0.032435056 0.0012804208 0.0730591 -0.0004926686 -0.0026772453 3.8719976e-05
-0.6832993 0.91504645

bn7.running_mean f4 [50]
00000000: 981c 7a3f 2620 953e 4eff 7f3f 725a 54bf
00000010: 5ee7 023f de20 b9be ce35 3ebf 783b 2a3e
00000020: d229 24bf 5fdd 7dbf f4ff 7f3f 2d5f 513f
00000030: c023 7f3f bbdb d8be ddda 7ebf bb46 87be
00000040: 3251 7ebf 027b 7cbf fa4f a53e 6cb2 2b3e
00000050: 807d 2b3f 8125 34bf fcd7 7ebf b8d2 c5be
00000060: 83f9 7d3f f165 7f3f ba35 14bf a0fe 7f3f
00000070: f254 7e3f 932b 57bf 2b11 7ebf b65c 7d3f
00000080: a4f6 95be ba21 2abd c118 7f3f 1cab 41bf
00000090: 39b9 69bf 9036 753f e5cf b1bd fdd8 a73e
000000a0: ccf2 7f3f e462 023d a716 1dbf ebff 7fbf
000000b0: 2e7e 7cbf dfff 7fbf d2b3 7d3f c07a 90be
000000c0: 80a1 183f 9673 893e
0.9769988 0.2912609 0.9999894 -0.8295051 0.5113429 -0.36157888 -0.7430085 0.16624248
-0.6412631 -0.9916591 0.9999993 0.8178585 0.99663925 -0.4235514 -0.9955271 -0.2642115
-0.99342644 -0.98625195 0.3228758 0.16767281 0.6698837 -0.70369726 -0.99548316 -0.38637328
0.9920885 0.99764925 -0.5789448 0.999979 0.99348366 -0.84050864 -0.99244946 0.9896959
-0.29289734 -0.04153607 0.99647146 -0.7565172 -0.9129825 0.9578638 -0.08682231 0.32782736
0.99979854 0.03183259 -0.6136269 -0.99999875 -0.98630035 -0.99999803 0.9910251 -0.2821865
0.5962143 0.26845998

bn7.running_var f4 [50]
00000000: c09b 883b 5bec e03e 5146 982f c81a 493d
00000010: bf85 ba3e 2327 f73e 12ae 853d d36d ed3e
00000020: d8ec 6e3e d7c1 653a 7d7d 4d2b b731 2c3d
00000030: 8c51 9239 6cb7 063f 37fa 6a39 499b d13e
00000040: 81a9 8f39 8a89 303a dcb9 e33e 7a4d e43e
00000050: fa36 953e 156e 963e 5cb9 8f3a 5875 c13e
00000060: a0db db39 576a b939 8baf 453e 7e32 0331
00000070: 90ad d139 3a5c 513d c997 ee39 7fa3 373a
00000080: 71ab 743e f6f1 c53e 706a 2739 63da e33d
00000090: 4712 943c 7b7c 813b cbe2 163f 3ebc b63e
000000a0: 7cf5 a436 503f 0c3f 18db c03e 274f 212d
000000b0: 89e5 323a 1db6 242e 86ea 453a 4923 073f
000000c0: 7301 b83d 8c45 bb3e
0.0041689575 0.43930325 2.7698602e-10 0.049097806 0.36430165 0.48272046 0.06527342 0.46372852
0.23332536 0.0008764541 7.300478e-13 0.0420396 0.00027908047 0.5262363 0.00022409191 0.40938786
0.00027401376 0.0006734362 0.44477737 0.4459036 0.29143506 0.2938086 0.0010965276 0.3778484
0.00041934568 0.0003536518 0.19305246 1.909171e-09 0.000399929 0.051113345 0.00045507986 0.0007005259
0.23893525 0.38661164 0.00015966012 0.11125638 0.018075122 0.003951607 0.5893981 0.35690492
4.916159e-06 0.5478411 0.37667155 9.169366e-12 0.00068243645 3.7451032e-11 0.00075499003 0.52788216
0.089846514 0.36576498
