jet_by_jet_compression/split_data_training/models/AE_big_subtrain_9.pth (torch_old, 10121 bytes, 48 tensors)

en1.weight f4 [8, 4]
0	0x3c8ed3f6	0.017435055
1	0xbce5496c	-0.027989112
2	0xbef3fde6	-0.47654647
3	0xbd51d814	-0.05123146
4	0x3d37f7f1	0.04491419
5	0x3c0a752f	0.00845079
6	0xbe4b5770	-0.19857574
7	0xbb982047	-0.0046425196
8	0x3dbeb071	0.09310997
9	0x3e934478	0.28763175
10	0x3d2b0927	0.041756775
11	0x3c72ac03	0.014811519
12	0x3dcba869	0.09944231
13	0xbeb1a86d	-0.3469881
14	0x3d2499bc	0.040185675
15	0x3d236130	0.039887607
16	0xbda7402a	-0.08166535
17	0x3e36dcb6	0.17857632
18	0xbe948974	-0.29011118
19	0x3dd53809	0.104110785
20	0xbc9e7e9b	-0.01934748
21	0xbe332f20	-0.17498446
22	0x3dc5f8e9	0.096666165
23	0xbe816588	-0.25272775
24	0xbd24359a	-0.04009018
25	0xbf016787	-0.50548595
26	0x3d00d43b	0.0314524
27	0xbd53aba4	-0.05167736
28	0xbed0974c	-0.4074043
29	0x3c30a8d5	0.01078244
30	0x3d88d919	0.06682033
31	0x3da121fc	0.0786781

en1.bias f4 [8]
0	0x3fb8ffc3	1.4453052
1	0xbefa51f5	-0.48890653
2	0xbd7305cc	-0.0593317
3	0xbeb4e46c	-0.35330522
4	0xbf6c4069	-0.9228578
5	0x3d4e3288	0.05034116
6	0xbf0be92b	-0.5465266
7	0xbf8783bc	-1.0587077

en2.weight f4 [6, 8]
0	0x3e7ddaf0	0.2479055
1	0x3e90cd71	0.2828174
2	0x3eb26df1	0.34849504
3	0x3e5cfcaf	0.21580766
4	0x3e5b004c	0.21386832
5	0xbdb48dd6	-0.088161156
6	0xbd2fc310	-0.042910635
7	0xbe9dd973	-0.30829963
8	0x3e093b78	0.13401592
9	0x3e85aac5	0.2610685
10	0x3eb7c0c8	0.35889268
11	0x3f42dd21	0.76118666
12	0xbe87ccd6	-0.26523465
13	0x3e8b4426	0.2720043
14	0x3e2035a7	0.15645467
15	0xbefe4adf	-0.49666497
16	0xbd4ea6cb	-0.050452035
17	0x3eb8c04b	0.36084208
18	0xbea01d5c	-0.312724
19	0x3f00434e	0.501027
20	0x3ef06ec5	0.4695951
21	0xbd458766	-0.04822483
22	0x3efe7c75	0.49704328
23	0x3eaaf566	0.3339035
24	0xbec91de2	-0.3928061
25	0x3defe833	0.1171421
26	0x3f5852bb	0.84501237
27	0x3f01a624	0.50644135
28	0x3f086da6	0.5329231
29	0xbea09f03	-0.31371316
30	0x3e36f9ea	0.17868772
31	0x3efd5993	0.49482402
32	0xbe9e2e2d	-0.30894604
33	0xbeca51d8	-0.39515567
34	0x3e85da78	0.2614324
35	0x3e242d92	0.16033009
36	0xbd8cc039	-0.06872601
37	0xbe65a704	-0.22426993
38	0xbeb0f1ab	-0.34559378
39	0xbdb89a16	-0.090137646
40	0xbe9dc017	-0.30810615
41	0xbe1cdffb	-0.15319817
42	0xbeb31056	-0.349734
43	0x3f054212	0.5205394
44	0xbedbd45a	-0.4293545
45	0x3df9912c	0.121858925
46	0x3e8ca96a	0.27473003
47	0x3e50f8e5	0.20407446

en2.bias f4 [6]
0	0x3df47d57	0.11937969
1	0x3ea8d937	0.32978222
2	0x3ebb6389	0.36599377
3	0xbf04d525	-0.5188773
4	0xbe87e63c	-0.26542842
5	0xbe010338	-0.12598884

en3.weight f4 [4, 6]
0	0x3f1bd1ac	0.6086681
1	0x3df80f6f	0.12112319
2	0x3e22fd78	0.15917003
3	0x3cfb3079	0.030662762
4	0xbecc40bb	-0.39893135
5	0xbe971f73	-0.2951618
6	0xbe056c0c	-0.13029498
7	0xbf06495a	-0.52455676
8	0x3ed5c545	0.41752067
9	0xbe5cc9ea	-0.21561399
10	0xbebb10c6	-0.36536235
11	0xbdfe21e2	-0.124088064
12	0xbe8fcce5	-0.2808601
13	0x3e9e3803	0.3090211
14	0x3e4874d4	0.19575816
15	0xbf4e331a	-0.80546725
16	0xbedfc919	-0.43708113
17	0x3ef2b782	0.4740563
18	0x3dc48f3e	0.09597634
19	0x3ee268ed	0.44220677
20	0x3f219264	0.63114
21	0x3f2efdf1	0.68356234
22	0x3ea8ee4e	0.32994312
23	0x3edbd22f	0.42933795

en3.bias f4 [4]
0	0xbe3f1a14	-0.18662292
1	0xbd23ba2c	-0.03997247
2	0x3e118e50	0.14214444
3	0xbe84074d	-0.2578682

en4.weight f4 [3, 4]
0	0x3f337e4a	0.70114577
1	0x3f18734b	0.59550923
2	0x3eedfbed	0.46481267
3	0xbe964740	-0.29351234
4	0xbefe01b7	-0.49610683
5	0x3eef9478	0.4679296
6	0x3eace0b4	0.33765185
7	0xbf4afea3	-0.79294795
8	0xbc3bdc6d	-0.011466128
9	0x3dd0e7b4	0.10200444
10	0x3f69faaa	0.9139811
11	0x3eebfca4	0.46091187

en4.bias f4 [3]
0	0xbddc35f8	-0.10752481
1	0x3d00565e	0.031332366
2	0x3d86bdef	0.06579196

de1.weight f4 [4, 3]
0	0x3e90c1e0	0.28272915
1	0x3f5ec980	0.87026215
2	0x3e9dc714	0.30815947
3	0x3f399e9c	0.72507644
4	0x3e63e341	0.22254659
5	0xbf6c5066	-0.9231018
6	0xbe8eaf16	-0.27867955
7	0xbf630cb7	-0.88691276
8	0xbf5ee618	-0.87069845
9	0x3f455baa	0.77092993
10	0xbf75baf5	-0.959884
11	0x3f4641dc	0.77444243

de1.bias f4 [4]
0	0xbeae8127	-0.3408291
1	0xbca6a91a	-0.020344306
2	0xbec48e4a	-0.38389808
3	0x3e01fe02	0.12694553

de2.weight f4 [6, 4]
0	0x3fb3f79f	1.4059943
1	0x3f539e21	0.8266316
2	0xbf2597fc	-0.64685035
3	0xbf8a6fe1	-1.0815393
4	0xbe9ee0b2	-0.31030804
5	0x3f923c12	1.1424582
6	0x3f3d1ea5	0.73874885
7	0x3f648e6b	0.8927981
8	0xbee8a6cf	-0.45439765
9	0xbf7e18b3	-0.9925644
10	0xbf4450d7	-0.7668585
11	0x3f8d25c6	1.1027153
12	0xbf4ea354	-0.8071797
13	0x3d0bd9e6	0.03414335
14	0x3fbbb700	1.4665222
15	0x3c8fb174	0.017540671
16	0x3d71ef0c	0.059065863
17	0x3fec3eed	1.8456703
18	0xbe115a8d	-0.14194699
19	0xbfd97783	-1.6989597
20	0xbe6d4991	-0.23172595
21	0xbf682264	-0.90677476
22	0x3a572fe9	0.0008208738
23	0xbf43730f	-0.7634744

de2.bias f4 [6]
0	0xbf293003	-0.66088885
1	0xbe0cac82	-0.13737682
2	0x3e712739	0.23550119
3	0xbe783043	-0.2423716
4	0x3f6c2fb3	0.92260283
5	0x3d36a0c5	0.044586916

de3.weight f4 [8, 6]
0	0x3f89c740	1.0763931
1	0x3ecb067a	0.3965338
2	0xbf30809f	-0.6894626
3	0xbe5feabe	-0.21866891
4	0xbed90b6a	-0.4239152
5	0xbe6b395f	-0.22971104
6	0x3f291ecc	0.6606262
7	0xbf5809c7	-0.8438992
8	0xbd4f6692	-0.050634928
9	0xbbfa4d70	-0.007638626
10	0xbcc951ce	-0.02457514
11	0x3ed3718d	0.4129757
12	0x3f3af7ec	0.7303455
13	0x3fd162ed	1.6358315
14	0xbf74cb1e	-0.9562243
15	0x3fc611c0	1.5474167
16	0x3f07a089	0.5297933
17	0x3fb20be2	1.3909876
18	0x3ef82de6	0.48472518
19	0x3efd499e	0.49470228
20	0xbddcd9ad	-0.10783706
21	0xbf3c4345	-0.73540145
22	0xbe0bfc5b	-0.13670485
23	0xbf636972	-0.8883277
24	0xbf1d2fb9	-0.61400944
25	0x3f070991	0.5274897
26	0x3f098d71	0.5373145
27	0xbf43bb47	-0.7645764
28	0x3f864302	1.0489199
29	0x3d504d01	0.050854687
30	0xbfe33425	-1.7750288
31	0xbe942249	-0.28932407
32	0xbf3b185b	-0.7308404
33	0x3f550099	0.83204037
34	0x3fda1b59	1.7039596
35	0xbeda1402	-0.4259339
36	0xbf6306e4	-0.8868239
37	0x3e73881b	0.23782389
38	0xbfc71408	-1.5552988
39	0xbf4afc36	-0.79291093
40	0x3f945f93	1.1591667
41	0x3e9f6038	0.31128097
42	0xbf06602c	-0.52490497
43	0x3f29056b	0.6602389
44	0x3db230d3	0.08700719
45	0x3f839851	1.0280858
46	0xc000eda1	-2.0145037
47	0x3bb22bbc	0.0054373425

de3.bias f4 [8]
0	0x3ef28bde	0.47372335
1	0xbf315eba	-0.69285166
2	0x3e77604f	0.24157833
3	0xbf0e5980	-0.55605316
4	0xbfbc9c56	-1.473521
5	0x3ee9785a	0.45599633
6	0xbbf69237	-0.0075247544
7	0x3f13d068	0.5773988

de4.weight f4 [4, 8]
0	0xc02e46d7	-2.7230737
1	0xc0088cf7	-2.1336038
2	0xbfc562af	-1.5420741
3	0xc022e3fb	-2.5451648
4	0x3fe6c14d	1.8027741
5	0x40883b04	4.257204
6	0x3f4760af	0.778819
7	0xbdd72fda	-0.10507174
8	0x3e7128cc	0.23550719
9	0x3dd87647	0.105694346
10	0x3f31178f	0.6917657
11	0x3e5e1f0b	0.2169153
12	0xbf3bc089	-0.7334066
13	0x3eb02737	0.3440492
14	0x3ffbebb3	1.9681305
15	0xbe6cb613	-0.23116331
16	0xbf756c76	-0.95868623
17	0x40460630	3.0941277
18	0x3e83879f	0.25689408
19	0xc031e714	-2.779729
20	0xbf744db8	-0.9543109
21	0xbe502904	-0.20328146
22	0x3dc33353	0.09531274
23	0xbdc633e6	-0.096778676
24	0x3f69d84d	0.91345674
25	0xc0878b97	-4.23579
26	0x400f90eb	2.24322
27	0xc03cce1a	-2.9500794
28	0xc09b9d28	-4.862934
29	0x3fdb3b9a	1.7127564
30	0xbfc9f368	-1.5777407
31	0x402b158c	2.67319

de4.bias f4 [4]
0	0xbf6f5bc3	-0.9349939
1	0xbf1f0502	-0.62117016
2	0xbe8426e6	-0.25810927
3	0x4064dd2b	3.575999

exp_avg f4 [8, 4]
0	0xb98d3743	-0.0002693479
1	0x3884fcb8	6.341323e-05
2	0xb822fc60	-3.8858852e-05
3	0xb94a768a	-0.0001930838
4	0xba8646af	-0.0010244454
5	0x39b5eab3	0.00034697875
6	0xb8ca8832	-9.657479e-05
7	0xb9212699	-0.00015368535
8	0x3a82fe0b	0.0009993924
9	0xb99c1ade	-0.00029774656
10	0x3a154b46	0.00056951155
11	0x3a01cbbc	0.0004951318
12	0x37dbe5b0	2.6213791e-05
13	0xb9c71e8e	-0.00037979003
14	0x36e0c4f7	6.69865e-06
15	0x3aca24eb	0.0015422379
16	0xb972abab	-0.0002314287
17	0xb927c254	-0.00015998754
18	0x38f58761	0.00011707727
19	0xb99d6207	-0.0003001841
20	0xba31e961	-0.00067867903
21	0x397a0afd	0.00023845951
22	0xb91542c2	-0.00014234617
23	0xb7c6a8f8	-2.3682122e-05
24	0xba761e63	-0.0009388683
25	0xb8407afc	-4.5890905e-05
26	0xb9443730	-0.00018712576
27	0x398da078	0.00027013174
28	0xb7a2d011	-1.9408793e-05
29	0xb92e8f50	-0.00016647321
30	0xb89addb6	-7.384589e-05
31	0xb93bcdf3	-0.00017910432

exp_avg_sq f4 [8, 4]
0	0x36aa8722	5.0821263e-06
1	0x34326335	1.6613633e-07
2	0x33eca949	1.1020399e-07
3	0x3561028a	8.3822727e-07
4	0x37a98600	2.0208769e-05
5	0x35ed7369	1.7691465e-06
6	0x3550a0ed	7.7720216e-07
7	0x36c75b3b	5.941283e-06
8	0x38475228	4.752181e-05
9	0x36b0f442	5.273644e-06
10	0x36038ecd	1.9603642e-06
11	0x3764efa0	1.3645651e-05
12	0x38096dee	3.2765725e-05
13	0x3711c149	8.687676e-06
14	0x3631a7ff	2.6472842e-06
15	0x380282eb	3.1116342e-05
16	0x36b379fe	5.3488175e-06
17	0x353f83d8	7.13449e-07
18	0x3468607f	2.1641789e-07
19	0x367e820a	3.7924642e-06
20	0x37bef893	2.2765516e-05
21	0x34d7ab4a	4.01715e-07
22	0x343384c1	1.671897e-07
23	0x359e5060	1.179531e-06
24	0x3738f180	1.1023483e-05
25	0x36260211	2.473713e-06
26	0x351e3950	5.894299e-07
27	0x3716c3dd	8.9863e-06
28	0x33b76173	8.5393275e-08
29	0x34c5e684	3.6861832e-07
30	0x34019458	1.2068028e-07
31	0x352e8f8c	6.502894e-07

exp_avg f4 [6, 8]
0	0xb9647fdd	-0.00021791407
1	0x37f31d7c	2.8981587e-05
2	0xb80f656f	-3.4188324e-05
3	0x390d0f08	0.00013452407
4	0x38e1eabd	0.000107725595
5	0x37a919c7	2.0158373e-05
6	0x393ea10b	0.00018179805
7	0x392cfb47	0.00016496806
8	0x398ce1d8	0.00026871148
9	0xb900ec0c	-0.00012294966
10	0x38c3d241	9.3374874e-05
11	0xb8e0416a	-0.00010693337
12	0xb887842e	-6.461922e-05
13	0xb9b4c482	-0.00034478685
14	0xb9165751	-0.00014337643
15	0xb8ca39eb	-9.642899e-05
16	0x38cfe2fe	9.91281e-05
17	0xb891f12f	-6.959063e-05
18	0xb9132464	-0.00014032569
19	0xb8db0125	-0.00010442947
20	0x36fa844b	7.4659815e-06
21	0xb8732c64	-5.7977057e-05
22	0x388ee094	6.8129186e-05
23	0x38039fec	3.1381773e-05
24	0x37ae9f2d	2.0816538e-05
25	0xb84b4fb2	-4.8473194e-05
26	0xb6b65b9f	-5.434689e-06
27	0x39254564	0.00015761476
28	0xb8da39b6	-0.000104057995
29	0xb88dc9b5	-6.760975e-05
30	0x381c9759	3.7334252e-05
31	0xb8d5b254	-0.00010189848
32	0x38ce37db	9.833249e-05
33	0xb7930a90	-1.7528684e-05
34	0x37c45be7	2.3407816e-05
35	0x3a0fb36e	0.0005481754
36	0xb98b8bc1	-0.0002661627
37	0xb98fa255	-0.00027396032
38	0x3924654d	0.00015677996
39	0xb9739190	-0.00023228512
40	0x39a1a8e6	0.00030834152
41	0xb859c32a	-5.1918592e-05
42	0xb927f234	-0.00016016589
43	0x37aed8a0	2.084329e-05
44	0xb8b94570	-8.834421e-05
45	0xb937e27d	-0.00017536613
46	0x3889b87a	6.5670305e-05
47	0xb8bacc6d	-8.9072484e-05

exp_avg_sq f4 [6, 8]
0	0x36cfcd67	6.1929927e-06
1	0x35d24f7b	1.5669351e-06
2	0x353af1fb	6.964253e-07
3	0x35a49aaf	1.2263971e-06
4	0x368f9834	4.279451e-06
5	0x35267b02	6.201882e-07
6	0x36095b37	2.0467685e-06
7	0x36b13b8e	5.281944e-06
8	0x3673b73a	3.6316474e-06
9	0x357d2d15	9.431545e-07
10	0x34e4a9b0	4.2591773e-07
11	0x3566eb38	8.6023965e-07
12	0x3614eb68	2.2190743e-06
13	0x352324b9	6.077567e-07
14	0x35bb5408	1.3957042e-06
15	0x363d6fe5	2.8228326e-06
16	0x360920de	2.0433722e-06
17	0x356987b0	8.6996715e-07
18	0x35941ac4	1.1034649e-06
19	0x358adb6b	1.034566e-06
20	0x35f30af0	1.8108094e-06
21	0x3588f779	1.0204814e-06
22	0x3580a78b	9.585505e-07
23	0x35f34efc	1.8127898e-06
24	0x360866c9	2.0325408e-06
25	0x341bac15	1.4498103e-07
26	0x360531aa	1.9847453e-06
27	0x35d33ffd	1.5739348e-06
28	0x360d3c37	2.1045687e-06
29	0x35e37531	1.6946925e-06
30	0x3615e161	2.2333918e-06
31	0x362b26a1	2.550347e-06
32	0x36de7966	6.630248e-06
33	0x35e13978	1.6780532e-06
34	0x35dcc2af	1.6447938e-06
35	0x362d0c90	2.5786321e-06
36	0x369fba65	4.7602684e-06
37	0x35ed871e	1.76972e-06
38	0x366a7250	3.4935256e-06
39	0x36cc502f	6.0890084e-06
40	0x3623079c	2.4293322e-06
41	0x3532bff5	6.65895e-07
42	0x35bd5f46	1.4109326e-06
43	0x35a6886e	1.240767e-06
44	0x361440c4	2.2091417e-06
45	0x35a73c57	1.2460031e-06
46	0x35ca1227	1.5055456e-06
47	0x36238480	2.4366018e-06

exp_avg f4 [4, 6]
0	0xb979c6bf	-0.00023820529
1	0xb9944e0f	-0.00028286918
2	0x389ff4b3	7.6272896e-05
3	0x398865c4	0.00026015763
4	0x38036efe	3.1336203e-05
5	0x389858dd	7.264477e-05
6	0xb94fe51d	-0.0001982641
7	0xb900fdd6	-0.00012301593
8	0x386ffc34	5.7216923e-05
9	0x390dc30b	0.00013519467
10	0xb955eed2	-0.0002040223
11	0xb84aec47	-4.8380603e-05
12	0x39305b88	0.00016818766
13	0xb984abb8	-0.00025304942
14	0xb9c4fb2e	-0.00037571177
15	0xb9d0c652	-0.00039820612
16	0xb8af379a	-8.355007e-05
17	0xba1eefcb	-0.00060629536
18	0x39141aaf	0.0001412432
19	0x3957eb98	0.00020591763
20	0x37c6aa28	2.3682675e-05
21	0xb9d80798	-0.00041204388
22	0xb8a0bf8e	-7.6650744e-05
23	0xb7d89894	-2.5820256e-05

exp_avg_sq f4 [4, 6]
0	0x35fffcb4	1.9072527e-06
1	0x36d0566d	6.2089443e-06
2	0x36c5d2bc	5.89559e-06
3	0x377a5f7d	1.4923394e-05
4	0x355d6234	8.247182e-07
5	0x364d19cb	3.0562394e-06
6	0x35fdea88	1.8918226e-06
7	0x36e9580f	6.9541925e-06
8	0x36ff3b00	7.6064607e-06
9	0x379e36ee	1.8860646e-05
10	0x3594f3f6	1.1097861e-06
11	0x3680c2b0	3.837362e-06
12	0x36eaebe5	7.001205e-06
13	0x371a5e4c	9.2010705e-06
14	0x37049831	7.903248e-06
15	0x37328144	1.0639724e-05
16	0x3613a485	2.200047e-06
17	0x36cef27f	6.1675087e-06
18	0x36037f30	1.9594554e-06
19	0x36bda08b	5.6513286e-06
20	0x362f3efa	2.611369e-06
21	0x371c2d37	9.308852e-06
22	0x358e92b3	1.062252e-06
23	0x35eb938c	1.7551806e-06

exp_avg f4 [3, 4]
0	0xb94c9bd6	-0.0001951301
1	0x39a89cca	0.00032160274
2	0xb98c88f8	-0.0002680493
3	0x39c85e3e	0.0003821719
4	0x38a32232	7.778815e-05
5	0x390514dd	0.0001269164
6	0x3835f4a8	4.3381617e-05
7	0x3982b4e0	0.00024930295
8	0x38c1c7bc	9.2401606e-05
9	0xb75d9449	-1.3207152e-05
10	0x38de5676	0.000106018895
11	0xba57360d	-0.00082096533

exp_avg_sq f4 [3, 4]
0	0x351427bd	5.5192123e-07
1	0x361ec41e	2.365799e-06
2	0x37004b87	7.64698e-06
3	0x37585a03	1.2895561e-05
4	0x3598b1c0	1.1376615e-06
5	0x36f8d8fc	7.4162363e-06
6	0x37e15f60	2.6866503e-05
7	0x3833272a	4.27134e-05
8	0x36b5a74e	5.413697e-06
9	0x373e15a2	1.1329919e-05
10	0x37a8c14d	2.0117173e-05
11	0x37ded796	2.6564852e-05

exp_avg f4 [4, 3]
0	0x3903630c	0.00012530031
1	0xb979c534	-0.00023819954
2	0xb7389900	-1.1002878e-05
3	0xb98665d9	-0.00025634354
4	0xb9fa3d35	-0.0004772932
5	0x376ee66c	1.4239555e-05
6	0xb91aba4e	-0.00014755988
7	0xb951b0bd	-0.00019997633
8	0x38a757f8	7.979566e-05
9	0xb7521a54	-1.2523105e-05
10	0x398ae65a	0.00026493036
11	0xb8f0fcc8	-0.00011491176

exp_avg_sq f4 [4, 3]
0	0x36f3ffbb	7.2717353e-06
1	0x37f510ac	2.921404e-05
2	0x370412eb	7.872218e-06
3	0x36d791bc	6.424465e-06
4	0x3794dddb	1.7746284e-05
5	0x3681a1ca	3.8633343e-06
6	0x35cc28b9	1.5211036e-06
7	0x368cf76c	4.201129e-06
8	0x352c3cd9	6.416354e-07
9	0x36ae7193	5.198826e-06
10	0x377c9a05	1.5056231e-05
11	0x366cb05a	3.526939e-06

exp_avg f4 [6, 4]
0	0xb88af8ba	-6.626682e-05
1	0x37e1b9b6	2.6908569e-05
2	0x396e9673	0.00022753495
3	0x397e2c46	0.00024239821
4	0x35bc6f96	1.4039567e-06
5	0xb900b54b	-0.00012274568
6	0x398f56aa	0.00027339655
7	0x3890e60e	6.909306e-05
8	0x388db57c	6.757208e-05
9	0x394bbf19	0.00019430778
10	0xb9713ed6	-0.00023006959
11	0xb95911b1	-0.00020701323
12	0xb8888603	-6.509947e-05
13	0xb9118477	-0.00013877625
14	0x38858e10	6.3683954e-05
15	0x38f2d565	0.00011579207
16	0x37c912c1	2.39698e-05
17	0xb8894887	-6.546178e-05
18	0xb6c2da80	-5.8070873e-06
19	0xb86054ec	-5.348485e-05
20	0xb6b4ca56	-5.387973e-06
21	0xb879677a	-5.9462596e-05
22	0xb8901d08	-6.8718626e-05
23	0x3916124f	0.00014311935

exp_avg_sq f4 [6, 4]
0	0x36e848d1	6.9226157e-06
1	0x3592889b	1.0917605e-06
2	0x381ba774	3.7110833e-05
3	0x35b2391b	1.3278653e-06
4	0x34b61d60	3.3921515e-07
5	0x342651dc	1.5489735e-07
6	0x35d5ca05	1.5928532e-06
7	0x341b6cc8	1.4475074e-07
8	0x34ff88ae	4.75969e-07
9	0x346974b1	2.1742268e-07
10	0x3605ff6f	1.9967226e-06
11	0x3474d7c4	2.2802766e-07
12	0x36929181	4.368078e-06
13	0x3547044b	7.4139524e-07
14	0x365d1974	3.2946382e-06
15	0x34fa2eb8	4.660012e-07
16	0x365324c2	3.1462846e-06
17	0x34f3a125	4.5379525e-07
18	0x3706aa34	8.026651e-06
19	0x3531f55d	6.629469e-07
20	0x3511e67e	5.435212e-07
21	0x341c3eb8	1.4551449e-07
22	0x3638edcd	2.7556555e-06
23	0x342d4466	1.6136764e-07

exp_avg f4 [8, 6]
0	0xb929a2a0	-0.00016177678
1	0x3931a1b9	0.00016940282
2	0x389c0cfa	7.441077e-05
3	0x3995748b	0.00028506326
4	0xb96c692e	-0.00022545896
5	0xb7935509	-1.7563363e-05
6	0x39cb71c4	0.0003880394
7	0xb98cd744	-0.00026863266
8	0xb85cba9f	-5.2625892e-05
9	0xba094797	-0.0005236803
10	0x3a2cbe5d	0.00065896456
11	0xb9187361	-0.00014538832
12	0xb93f98f2	-0.00018272156
13	0x38e98406	0.00011134897
14	0x3857132a	5.1277842e-05
15	0x3951ff13	0.00020026816
16	0xb977ffa2	-0.00023650986
17	0x37d11735	2.4925548e-05
18	0x39d83ba6	0.00041243172
19	0xb87a5b45	-5.9689646e-05
20	0xb92cab04	-0.00016466907
21	0xb8791674	-5.9387137e-05
22	0x39a99ce3	0.00032351082
23	0xb82b11a7	-4.0786017e-05
24	0x3a3e7b8a	0.00072663336
25	0xb9c47b05	-0.0003747569
26	0xb96cc7c8	-0.00022581138
27	0xba27b3c9	-0.00063973345
28	0x3a481dc7	0.00076338317
29	0xb86094bb	-5.3544278e-05
30	0xb88ca792	-6.7069326e-05
31	0xb7c9c1f7	-2.405139e-05
32	0xb73968a3	-1.1051222e-05
33	0x380d67ab	3.3713568e-05
34	0xb8f53572	-0.00011692465
35	0x38dae0b5	0.00010436905
36	0x39b94266	0.0003533542
37	0xb937d9f6	-0.00017533437
38	0xb709df4e	-8.2178285e-06
39	0xb956086f	-0.00020411772
40	0x398d95dd	0.00027005273
41	0xb87927f2	-5.9403428e-05
42	0xb78ebb05	-1.7014807e-05
43	0xb658a3cc	-3.228185e-06
44	0x375cd20b	1.3161926e-05
45	0xb6fd57e6	-7.5502203e-06
46	0xb754dd8c	-1.2687768e-05
47	0xb6bf1537	-5.6947133e-06

exp_avg_sq f4 [8, 6]
0	0x37051b22	7.933735e-06
1	0x362e01da	2.5929098e-06
2	0x367df55e	3.784276e-06
3	0x3708e8c9	8.160431e-06
4	0x36277c16	2.4957167e-06
5	0x358290d3	9.727904e-07
6	0x37c71664	2.3733075e-05
7	0x37153fdf	8.895963e-06
8	0x371cfcb4	9.357162e-06
9	0x37ea075b	2.7898399e-05
10	0x3722d991	9.706609e-06
11	0x363e9039	2.8396155e-06
12	0x35bc5fc1	1.403496e-06
13	0x34a97438	3.1563263e-07
14	0x350d4d96	5.2639496e-07
15	0x35a27d29	1.2106367e-06
16	0x34b46abf	3.360528e-07
17	0x34362826	1.6964677e-07
18	0x3716fc82	8.999488e-06
19	0x369f3afd	4.7454364e-06
20	0x369582be	4.4557664e-06
21	0x375362be	1.259957e-05
22	0x36df3d05	6.6530215e-06
23	0x357ba37a	9.3742676e-07
24	0x37ccf4b9	2.4432653e-05
25	0x3707cf72	8.094927e-06
26	0x3728746c	1.0040687e-05
27	0x37e035d2	2.6727943e-05
28	0x3704799e	7.896129e-06
29	0x3644cff7	2.9327327e-06
30	0x373858d2	1.0987935e-05
31	0x36b673a8	5.437487e-06
32	0x36b3770d	5.348475e-06
33	0x3779f8e2	1.4899504e-05
34	0x36deb729	6.637438e-06
35	0x35a60726	1.2370044e-06
36	0x36afea4a	5.2426813e-06
37	0x35cf003b	1.5422769e-06
38	0x360b791a	2.0783104e-06
39	0x36b2b254	5.3255735e-06
40	0x358bebee	1.0424972e-06
41	0x353067a8	6.571595e-07
42	0x33069b76	3.1340697e-08
43	0x330cd8f5	3.279361e-08
44	0x33683a50	5.4069744e-08
45	0x33a1f7b7	7.542206e-08
46	0x324a41b4	1.1772887e-08
47	0x319ec0d3	4.620327e-09

exp_avg f4 [4, 8]
0	0x39161af1	0.00014315151
1	0x38d9676c	0.0001036663
2	0xb8bb5e42	-8.934412e-05
3	0x38764a80	5.8720354e-05
4	0xb7ec2ff7	-2.8155728e-05
5	0xb860df38	-5.361365e-05
6	0x38d94fd3	0.00010362235
7	0xb91530e1	-0.00014227956
8	0x37f498c5	2.9158206e-05
9	0xb776fab3	-1.4721113e-05
10	0xb866af6f	-5.499966e-05
11	0xb7723230	-1.4436009e-05
12	0xb5139a4b	-5.4986293e-07
13	0xb7a710cd	-1.9915775e-05
14	0xb842207b	-4.6283454e-05
15	0xb8cc1870	-9.73203e-05
16	0xb812a8c3	-3.4966284e-05
17	0xb896f26e	-7.1977134e-05
18	0xb8d5d6f7	-0.00010196672
19	0xb6c27978	-5.7957914e-06
20	0xb77643a2	-1.467849e-05
21	0x3856af0f	5.1184612e-05
22	0x36dccd33	6.5803993e-06
23	0xb899d0f4	-7.334529e-05
24	0xb90281e1	-0.0001244615
25	0x3810cd6a	3.4523582e-05
26	0x3864150d	5.437904e-05
27	0x3803ce85	3.142517e-05
28	0x393e1f31	0.00018131432
29	0xb918e069	-0.00014579449
30	0xb8f27547	-0.00011561304
31	0x38e2ea34	0.000108201435

exp_avg_sq f4 [4, 8]
0	0x3727f4ba	1.00109555e-05
1	0x376de02f	1.4178498e-05
2	0x3756ef9c	1.2811182e-05
3	0x377e6d65	1.516505e-05
4	0x3742b15d	1.1604597e-05
5	0x377c54af	1.5040087e-05
6	0x370a8cb4	8.258201e-06
7	0x37895d9c	1.6375263e-05
8	0x3351d773	4.8857554e-08
9	0x32cf4c77	2.4132744e-08
10	0x3480ed72	2.4014622e-07
11	0x32c4b399	2.2899075e-08
12	0x3342e665	4.5378687e-08
13	0x332f3b6f	4.0799417e-08
14	0x33a9404b	7.8813706e-08
15	0x34926e00	2.7274655e-07
16	0x3323e1de	3.815682e-08
17	0x329f6ba6	1.8558989e-08
18	0x348abab8	2.584036e-07
19	0x325761f4	1.2536919e-08
20	0x32fc1f8f	2.9351012e-08
21	0x3316db97	3.5124312e-08
22	0x33810b28	6.00906e-08
23	0x34987246	2.839535e-07
24	0x3776fd7b	1.4721761e-05
25	0x37b49c9e	2.1530603e-05
26	0x37abfa81	2.0501438e-05
27	0x37bea1d1	2.2725117e-05
28	0x3799ccaa	1.8334325e-05
29	0x37bb8f70	2.235893e-05
30	0x375d5579	1.3192527e-05
31	0x37d9e077	2.597294e-05

exp_avg f4 [8]
0	0xb7c34e39	-2.3282237e-05
1	0xb78e7648	-1.6982798e-05
2	0xb8fc8447	-0.00012040935
3	0x39b616fb	0.00034730867
4	0xb92a2c06	-0.00016228863
5	0x37f033ec	2.8634407e-05
6	0x37d50d6c	2.5397829e-05
7	0xb80974fd	-3.27723e-05

exp_avg_sq f4 [8]
0	0x3402f6a6	1.2196924e-07
1	0x35fd9834	1.8894266e-06
2	0x36ac596d	5.13641e-06
3	0x36d99501	6.4844503e-06
4	0x3505ef1a	4.98943e-07
5	0x34d233f2	3.9153343e-07
6	0x358f9ba9	1.0699633e-06
7	0x34fa3e6c	4.6611547e-07

exp_avg f4 [6]
0	0xb9495fcb	-0.0001920454
1	0x39b48584	0.00034431752
2	0x390077e8	0.000122517
3	0x389cd82a	7.478923e-05
4	0x390fea90	0.00013724924
5	0x399f994d	0.0003044106

exp_avg_sq f4 [6]
0	0x370fadc6	8.563924e-06
1	0x36a2d454	4.8526945e-06
2	0x363ab514	2.7821561e-06
3	0x363e05d4	2.8315599e-06
4	0x371a0f33	9.182654e-06
5	0x364ffd19	3.0992726e-06

exp_avg f4 [4]
0	0xb99c232a	-0.00029780838
1	0xb99095f2	-0.00027577538
2	0x39e60978	0.00043876073
3	0x39f8ec24	0.00047478185

exp_avg_sq f4 [4]
0	0x3791b838	1.737113e-05
1	0x37b0e042	2.1085263e-05
2	0x37921a20	1.7416722e-05
3	0x3735cb30	1.0835749e-05

exp_avg f4 [3]
0	0xba32d742	-0.0006822237
1	0xb9df03be	-0.00042536663
2	0x3a7d0663	0.0009652136

exp_avg_sq f4 [3]
0	0x37ab0076	2.0385003e-05
1	0x388b9214	6.655246e-05
2	0x3841c407	4.619735e-05

exp_avg f4 [4]
0	0xb9ed576c	-0.00045269297
1	0xba9070bb	-0.0011019924
2	0xb9822b35	-0.00024827724
3	0x3956983e	0.00020465345

exp_avg_sq f4 [4]
0	0x38a222a0	7.7312114e-05
1	0x3818c5f4	3.6423982e-05
2	0x371eaaef	9.457332e-06
3	0x380295a9	3.1133797e-05

exp_avg f4 [6]
0	0xb9cb0fda	-0.00038730988
1	0xb9f6a688	-0.00047044852
2	0x39a5144c	0.00031486375
3	0xb907cab5	-0.00012950118
4	0xb807f50e	-3.2414733e-05
5	0x388feff0	6.863463e-05

exp_avg_sq f4 [6]
0	0x385d7d53	5.2807223e-05
1	0x363e2d2b	2.8338497e-06
2	0x36817f86	3.8593453e-06
3	0x36dcbd4e	6.578549e-06
4	0x3743ee4d	1.16783895e-05
5	0x36945f08	4.421807e-06

exp_avg f4 [8]
0	0xb977a428	-0.00023616909
1	0x3a464161	0.0007562843
2	0xb98823b4	-0.00025966542
3	0x3909d3bc	0.00013144215
4	0x3a56f723	0.00082002784
5	0xb8e04081	-0.00010693167
6	0x3996742e	0.0002869679
7	0x36f71a1b	7.3642127e-06

exp_avg_sq f4 [8]
0	0x372f9f01	1.0467834e-05
1	0x37eda3bc	2.8328846e-05
2	0x35d07294	1.5530554e-06
3	0x37737578	1.4511279e-05
4	0x37f4d430	2.9185874e-05
5	0x378a67c8	1.6499209e-05
6	0x36bbe80c	5.600048e-06
7	0x33b57fa6	8.4516884e-08

exp_avg f4 [4]
0	0x37ed4faa	2.8289698e-05
1	0x389aacac	7.375455e-05
2	0x38d5ec8a	0.0001020069
3	0xb99082dd	-0.0002756332

exp_avg_sq f4 [4]
0	0x378fccc5	1.7142282e-05
1	0x349df847	2.9424174e-07
2	0x349a37cc	2.8725333e-07
3	0x37d3c7bd	2.524617e-05
