jet_by_jet_compression/split_data_training/models/AE_big_subtrain_3.pth (torch_old, 10121 bytes, 48 tensors)

en1.weight f4 [8, 4]
000000 9c ee d9 3c 3b 63 02 be 8f be a5 be 8c 92 a3 bd
       0.026603036 -0.12733166 -0.32371947 -0.07986936
000010 a5 b8 35 3d 1d 85 b9 bc b0 92 13 be 17 34 11 3b
       0.044365544 -0.022646481 -0.14411426 0.0022156292
000020 b7 de 70 3e 14 2f d4 3d 26 fd be 3a eb 02 00 3e
       0.23522459 0.10360542 0.0014571294 0.12501113
000030 2b 4c 6a 3e 49 a4 d7 be ae 9e 8d 3c 65 11 e2 3d
       0.22880618 -0.42117527 0.017287578 0.11038474
000040 2a 98 b3 bd 55 fa 0c 3e b3 4d ff bd b7 62 0a 3d
       -0.08769257 0.13767369 -0.12465992 0.033785548
000050 7d 70 82 bb 2b b7 fb be 66 c0 5c 3c 8c 39 0f be
       -0.003980695 -0.49163184 0.013473606 -0.13986796
000060 30 e6 96 bd b3 f7 94 be 53 48 b0 3d 5b 88 8e 3a
       -0.073681235 -0.2909523 0.08607545 0.0010874377
000070 6d d6 dc be b9 a6 20 3d cd de 3c 3b f5 d1 1d bd
       -0.43132344 0.0392215 0.0028819323 -0.03853031

en1.bias f4 [8]
000000 37 fa 99 3f f4 0c ca be 8f 09 4c 3c 22 f7 34 be
       1.2029485 -0.39463007 0.012453451 -0.17672399
000010 6c 26 30 bf da 14 76 bc 80 dc 4e bf ef 1e 94 bf
       -0.6880863 -0.01501962 -0.80805206 -1.157194

en2.weight f4 [6, 8]
000000 ab 73 77 3e 1e 51 ef 3e f4 18 10 3d 37 b9 da 3d
       0.24165218 0.46741575 0.035180047 0.10679858
000010 86 27 90 3e 77 f8 cd bd 0a 87 f3 bd 4e c0 a4 be
       0.28155154 -0.100571565 -0.11890991 -0.32177967
000020 0b 70 c9 3e 93 e0 9e 3b 3e 9b d5 3b 61 bf 09 3f
       0.39343295 0.0048485487 0.0065187505 0.53807646
000030 23 a4 ca be 87 7f a7 3e 4d c6 d5 3d f0 ca fb be
       -0.3957835 0.32714483 0.104382135 -0.49178267
000040 1f 43 32 3e 12 5c 14 3f 78 97 dc be e6 af e1 3e
       0.17408417 0.5795299 -0.4308431 0.44079512
000050 12 3c e0 3e c8 b6 50 bc a7 cd 52 3f bc e9 a5 3e
       0.4379583 -0.012738891 0.8234505 0.32404888
000060 c6 5a 9c be f1 66 6b 3d 47 10 3d 3f 3c 9f 29 3f
       -0.30538005 0.05747122 0.7385296 0.662586
000070 96 3e 26 3f de 66 a6 be 06 a1 8a 3e 67 84 16 3e
       0.6493925 -0.32500356 0.27075976 0.14698945
000080 25 b5 e2 bd 1d 92 dc be c4 9d 31 3e 2c 56 1a 3e
       -0.11069707 -0.43080226 0.17345339 0.15071934
000090 ff dd ec bd 9c cb 51 be c5 82 46 be a2 9a 58 be
       -0.1156578 -0.20487827 -0.19385822 -0.21152738
0000a0 d3 71 5b be 24 4b 5e be fc 47 3f be b7 e0 a8 3e
       -0.21430139 -0.21708351 -0.18679804 0.32983944
0000b0 5f 75 bf be 53 69 48 bd 17 b6 df 3e 39 80 32 3e
       -0.37394235 -0.04892857 0.4369361 0.17431726

en2.bias f4 [6]
000000 89 84 26 3e 75 69 c1 3e b4 52 b0 3e c4 1b c8 be
       0.16261496 0.3777577 0.34438097 -0.39083683
000010 b5 ee 76 be ba f3 27 be
       -0.24114497 -0.16401568

en3.weight f4 [4, 6]
000000 90 af 24 3f 7f 19 ef 3d e8 ad 3f 3e 58 df 89 3d
       0.6433039 0.11674785 0.18718684 0.067320526
000010 a9 ae 9a be 92 0e 8e be db 67 89 3d b5 04 d0 be
       -0.3021138 -0.2774549 0.06709262 -0.4062859
000020 d1 70 c9 3e eb 43 77 be be 8d b1 be 3e 2d da bd
       0.39343885 -0.24147002 -0.34678453 -0.106531605
000030 3f 89 bc bd fc 7b a5 3e 0d 0b 51 3e 5c 72 48 bf
       -0.09205865 0.32321155 0.20414372 -0.782995
000040 e5 49 f8 be 85 4a aa 3e 09 ef f0 3d ac b9 d2 3e
       -0.48493877 0.3325998 0.11764342 0.4115728
000050 a0 a5 09 3f 0e 14 08 3f c1 a5 5e 3e 71 f4 90 3e
       0.5376835 0.531556 0.21742918 0.28311494

en3.bias f4 [4]
000000 2b ac 3b be 9e 82 cb bc 13 71 28 3e 58 36 3e be
       -0.18327396 -0.024842557 0.16449384 -0.18575418

en4.weight f4 [3, 4]
000000 2a e2 05 3f 1d 32 23 3f 28 ae e2 3e 0e 92 96 be
       0.52298224 0.6374834 0.44273496 -0.29408306
000010 e4 d0 df be e9 e6 ff 3e 4f 2c a2 3e 9a 9b 50 bf
       -0.43714058 0.49980858 0.3167443 -0.8148743
000020 3a fe 59 be b1 67 e1 3d 76 4f 70 3f d3 f1 ef 3e
       -0.21288386 0.11006106 0.9387125 0.46864185

en4.bias f4 [3]
000000 8a 01 eb bc dc d8 7f 3c 93 64 96 3c
       -0.028687257 0.015615668 0.018358504

de1.weight f4 [4, 3]
000000 58 fc c7 3e 95 26 5b 3f a1 8a 28 3e 95 a2 1f 3f
       0.3905971 0.85605747 0.16459133 0.62357455
000010 52 82 c3 3d ad 90 81 bf ad ed 83 be 58 80 3a bf
       0.09546341 -1.0122277 -0.2576727 -0.7285209
000020 65 5e 4e bf 07 e7 46 3f d1 bc 87 bf 9c 7a 4f 3f
       -0.80612785 0.7769627 -1.0604497 0.8104646

de1.bias f4 [4]
000000 ba c7 a0 be ef d9 4f bc 6d 6d 7a be cc 29 f5 3d
       -0.3140238 -0.012686237 -0.24455805 0.11970863

de2.weight f4 [6, 4]
000000 e6 5b be 3f 23 08 56 3f df 48 26 bf ab 5c 8a bf
       1.4871795 0.83606166 -0.6495494 -1.080953
000010 9a c0 a4 bd 8c 8d 9d 3f 53 2f 38 3f 69 df 4a 3f
       -0.08044548 1.2308822 0.7194721 0.79247147
000020 f1 59 ba be 19 07 8e bf a3 7e 52 bf 7a 06 93 3f
       -0.36396745 -1.1095916 -0.8222448 1.1486351
000030 1c 1c 04 bf a0 8c 58 3e c6 05 8c 3f 19 65 95 bc
       -0.5160539 0.21147394 1.0939262 -0.018236684
000040 b3 34 30 3e 98 34 bc 3f 4f 2c 14 be ae 35 bc bf
       0.17207603 1.470355 -0.14470027 -1.4703882
000050 5a 2c 1b 3e ff 77 68 bf ab ba bb bd 3a da 4a bf
       0.15153638 -0.908081 -0.091664635 -0.7923924

de2.bias f4 [6]
000000 c2 c7 21 bf 16 16 3a be 7e a5 87 3e b1 82 72 be
       -0.6319543 -0.18172488 0.26493448 -0.23682667
000010 b6 c0 5c 3f 01 7c 4c be
       0.86231554 -0.19969179

de3.weight f4 [8, 6]
000000 7a dc 1e 3f fc 9d dd 3e f8 75 b7 be 2d fb 2e bd
       0.6205517 0.43284595 -0.3583219 -0.04272001
000010 77 95 e3 bd cb f9 40 bf a2 08 9a 3e 96 d4 54 bf
       -0.111124925 -0.75381154 0.3008471 -0.8313688
000020 3c b4 64 3d 73 d1 54 3d a9 65 f4 3c 2e c6 5b 3f
       0.055835947 0.05195756 0.029833632 0.85849273
000030 27 18 9a 3f db 47 7d 3f 9b 67 99 bf 61 14 55 3f
       1.2038621 0.9893777 -1.1984743 0.8323422
000040 78 5b d9 3e 0d d2 19 3f d2 33 a7 3e c6 32 db 3e
       0.42452598 0.6008614 0.32656723 0.42812175
000050 8b 7d ad 3d c1 c9 3d bf 79 a4 04 3d 0e 55 a3 bf
       0.08471211 -0.7413598 0.032383416 -1.2760332
000060 67 53 0b bf 1c c8 45 3f a0 98 25 3f c0 ef 35 bf
       -0.54424137 0.7725847 0.6468601 -0.71068954
000070 78 c7 6c 3f d2 8e 9e be da c4 cc bf b3 d2 3d be
       0.92491865 -0.30968338 -1.5997574 -0.18537407
000080 cc 8c 4c bf 59 bb 4a 3f ca e9 d2 3f 72 d7 d1 be
       -0.7990234 0.7919212 1.6477597 -0.40984684
000090 d4 10 61 be d9 99 cb 3e 65 a0 cc bf e3 9a 34 bf
       -0.21979076 0.39765814 -1.5986449 -0.7054884
0000a0 9a 39 90 3f fc ca 88 3e 1e be 4c bf b9 bf 0c 3f
       1.1267579 0.26717365 -0.79977596 0.54980046
0000b0 c1 34 bb bc de 64 73 3f c8 49 b0 bf 1c 5d db 3e
       -0.022852303 0.95075786 -1.3772516 0.42844474

de3.bias f4 [8]
000000 c4 f8 2c 3f 27 85 ed be 73 0c 96 be ad f6 93 be
       0.67567086 -0.4639065 -0.29306373 -0.28899136
000010 94 9e a2 bf 52 d8 cc 3e 51 a8 8e 3d 12 16 37 3e
       -1.2704644 0.4000879 0.069656976 0.17879513

de4.weight f4 [4, 8]
000000 c3 9b cd bf 8d 78 24 bf a7 64 a7 bf ab 40 70 bf
       -1.606316 -0.64246446 -1.3077592 -0.93848675
000010 e5 06 e8 3f 89 1a 47 40 52 3c 12 3f ba a9 5a bd
       1.8127104 3.1109946 0.5712329 -0.05338452
000020 68 a7 80 3e 84 7c e2 be 8a c6 57 3e 13 b5 c2 be
       0.2512772 -0.44235623 0.2107183 -0.38028774
000030 a7 61 93 be 13 8c 41 be 75 b2 02 40 66 75 d1 be
       -0.2878544 -0.1890109 2.0421422 -0.4090988
000040 f8 ad 6d bf d6 66 1f 40 df 5e 91 3d c1 2f 29 c0
       -0.9284358 2.4906516 0.07098173 -2.6435397
000050 ac c5 9c bf f1 08 30 bd 77 95 c1 3c de 85 ac bd
       -1.2247825 -0.042977277 0.02363084 -0.08423971
000060 2e b8 dc 3f df e0 38 c0 30 c3 f6 3f 55 45 db bf
       1.7243707 -2.888725 1.9278316 -1.7130533
000070 c1 19 8b c0 af c4 19 3f 6d 2e 9d bf 2f b9 12 40
       -4.346894 0.6006574 -1.2279793 2.2925527

de4.bias f4 [4]
000000 0e 0a ad bf 60 5e a9 be a5 2e 65 be fe 40 3b 40
       -1.3518693 -0.33079815 -0.22381075 2.9258418

exp_avg f4 [8, 4]
000000 91 b2 05 39 3d 89 02 39 0e ba 73 38 66 17 ce 39
       0.0001275039 0.00012448891 5.810899e-05 0.00039308815
000010 67 e1 3f 3a 28 aa 17 39 5e 84 bf 39 cf 5a 42 3a
       0.00073196593 0.0001446387 0.0003652898 0.0007414044
000020 c9 29 1f 39 74 71 15 39 67 5a 82 b9 06 0c 28 ba
       0.00015178988 0.00014252012 -0.00024862887 -0.0006410483
000030 d0 7d fb 38 7d 96 12 b9 4c 35 cb 39 7d bc 98 b9
       0.00011992047 -0.00013979706 0.00038758887 -0.00029132134
000040 47 e0 8d 39 3b 52 db 38 e1 0f 9a b6 1b 87 2c ba
       0.00027060715 0.000104580504 -4.591406e-06 -0.00065814116
000050 d4 c1 90 b9 61 d8 21 b8 38 18 99 38 eb b5 70 39
       -0.00027610234 -3.858691e-05 7.3001196e-05 0.00022955953
000060 92 1f 29 3a bf ee 69 b9 d3 b0 a6 39 cb 95 80 38
       0.0006451543 -0.00022309551 0.00031793732 6.131417e-05
000070 af 57 40 b8 98 c9 8c 36 50 56 20 b8 45 c2 03 b9
       -4.585803e-05 4.1957937e-06 -3.8227357e-05 -0.00012565505

exp_avg_sq f4 [8, 4]
000000 5d c3 86 34 b1 63 87 35 2a 88 54 34 9e 28 cc 36
       2.510159e-07 1.0087298e-06 1.9793575e-07 6.0844022e-06
000010 15 20 05 36 b6 1b 94 36 92 66 3c 36 7a aa 8a 37
       1.9837219e-06 4.4139697e-06 2.8073887e-06 1.6530266e-05
000020 dd ab 27 35 5b d5 08 36 c8 9f 03 35 fc 95 ec 36
       6.246244e-07 2.0389768e-06 4.9033815e-07 7.0508086e-06
000030 1c b8 1c 35 80 73 e2 35 67 0c e3 34 91 ea 96 36
       5.8382443e-07 1.6871927e-06 4.229107e-07 4.4976555e-06
000040 3d 1a ea 35 b0 f8 ea 36 2d 82 c5 35 ee 6b 22 38
       1.7441995e-06 7.0026945e-06 1.471553e-06 3.8724327e-05
000050 72 b5 9e 34 1e a0 29 35 91 41 ef 33 34 98 8b 36
       2.9561812e-07 6.319041e-07 1.1141231e-07 4.1602416e-06
000060 b5 af 20 36 60 9f 0a 37 f0 df d5 35 a0 d9 4e 38
       2.3944133e-06 8.262548e-06 1.5934911e-06 4.9316906e-05
000070 e9 91 f7 33 01 12 44 34 54 31 6a 33 85 b4 f3 34
       1.1528375e-07 1.8260472e-07 5.4527234e-08 4.5393622e-07

exp_avg f4 [6, 8]
000000 f5 09 89 39 02 dc e0 b8 17 78 86 39 b4 b2 a4 b6
       0.00026138095 -0.00010722132 0.00025647946 -4.9083847e-06
000010 32 40 4c b9 33 b5 32 b9 0c 69 ae b9 c3 11 d9 b9
       -0.0001947887 -0.00017042905 -0.00033266132 -0.000414027
000020 35 b8 51 b8 b8 cb 4a b8 5f ba a3 38 88 b4 92 36
       -5.000104e-05 -4.835028e-05 7.80716e-05 4.3721557e-06
000030 9d ac c8 b7 2e 5f 1b b7 11 df 32 37 5f 75 01 b7
       -2.3922237e-05 -9.260881e-06 1.06615635e-05 -7.716327e-06
000040 bb f0 a1 38 c9 9d 60 b8 2f a6 2d 39 2e 09 24 39
       7.721918e-05 -5.355271e-05 0.00016560474 0.00015643678
000050 17 69 f8 b8 53 09 96 38 34 da 55 b8 03 7c 32 b9
       -0.00011845136 7.154294e-05 -5.0986375e-05 -0.00017021601
000060 a4 b0 98 38 4d 09 78 37 9a 9f 2a b8 f0 37 3d 38
       7.280827e-05 1.4784117e-05 -4.06798e-05 4.5113207e-05
000070 3c 33 87 b8 04 97 1f 39 bc 7a 3c b6 bd 84 3d b8
       -6.446845e-05 0.0001521968 -2.8085624e-06 -4.5184734e-05
000080 a9 e9 2a b8 8c f9 be 38 41 e7 0d b9 ae 46 04 38
       -4.074877e-05 9.106388e-05 -0.00013532957 3.1537078e-05
000090 72 8b 88 38 8b aa 3e 39 14 01 f4 38 10 0f e4 38
       6.510959e-05 0.00018183344 0.000116350275 0.00010874693
0000a0 20 2e bf 36 da f6 10 b8 06 27 cd 37 af c9 09 39
       5.6976132e-06 -3.4562174e-05 2.4456076e-05 0.00013140471
0000b0 bf 47 3d b8 b0 b4 14 39 69 f7 89 38 ef be 51 37
       -4.512793e-05 0.00014181691 6.578753e-05 1.2501826e-05

exp_avg_sq f4 [6, 8]
000000 9f 32 9c 36 fe 4a 88 35 32 34 c2 34 8a e0 64 35
       4.6550554e-06 1.0154615e-06 3.6173293e-07 8.5263366e-07
000010 2a 5c 26 36 8f d0 50 35 48 70 4e 36 1f 2e 96 36
       2.4789574e-06 7.778953e-07 3.0761748e-06 4.4757176e-06
000020 46 99 64 35 ea 91 b0 34 f5 f6 f3 34 10 fd 0d 35
       8.515966e-07 3.288872e-07 4.5441962e-07 5.289485e-07
000030 09 51 b2 34 55 f1 8b 35 4b 5f bf 35 fc d6 ab 35
       3.3214044e-07 1.0426544e-06 1.4258343e-06 1.2803062e-06
000040 25 84 10 36 26 76 ca 34 8a b8 ae 34 cf 35 7e 35
       2.153459e-06 3.7711396e-07 3.2544295e-07 9.4700675e-07
000050 0c d2 b7 35 9d 43 0a 35 00 5b 34 35 f0 11 14 36
       1.3695694e-06 5.1507396e-07 6.718765e-07 2.206416e-06
000060 a1 d9 16 35 1a 5f 5f 34 a7 a6 17 35 d2 d9 12 35
       5.6196046e-07 2.0803091e-07 5.6494395e-07 5.470621e-07
000070 a9 05 cf 34 d2 7a 49 35 13 82 4b 35 40 9d 94 35
       3.8560873e-07 7.505706e-07 7.5812676e-07 1.1072625e-06
000080 d5 08 1c 36 ad 64 06 35 ff 69 87 34 63 6c 06 35
       2.3250952e-06 5.006539e-07 2.5222832e-07 5.0076613e-07
000090 11 2b a0 35 6a 85 1d 35 68 fb dc 35 42 13 14 36
       1.1933463e-06 5.86812e-07 1.6464446e-06 2.2064928e-06
0000a0 f2 bc 27 36 56 4c 16 35 0b ba b8 34 ad 0a 20 35
       2.499492e-06 5.599044e-07 3.4408035e-07 5.962018e-07
0000b0 ed bb c6 35 69 de 2d 35 1c c0 d9 35 4c 01 3c 36
       1.4806843e-06 6.477117e-07 1.6223671e-06 2.8014938e-06

exp_avg f4 [4, 6]
000000 98 32 87 39 c3 7e c1 39 53 97 16 ba 3c f7 be b9
       0.00025786902 0.00036906273 -0.0005744595 -0.00036423828
000010 c3 2a a7 39 7e 12 b5 b9 02 58 93 38 55 ee 40 38
       0.00031884582 -0.00034536788 7.025899e-05 4.599833e-05
000020 6c 0d 90 b8 7b 67 a6 b8 fc 02 83 38 cd 6a c4 b8
       -6.868955e-05 -7.9347716e-05 6.247123e-05 -9.3659015e-05
000030 c0 e4 72 b8 bc 4e 51 b7 9d 04 03 b6 5a a4 35 39
       -5.7910336e-05 -1.24757025e-05 -1.9523206e-06 0.00017322731
000040 60 e1 98 38 f1 be 8c 38 aa 1b 60 38 22 e3 14 39
       7.289904e-05 6.711286e-05 5.3431526e-05 0.00014198993
000050 08 87 7e b9 c0 39 ca b7 78 a3 1e 39 36 a3 98 b7
       -0.0002427363 -2.4107168e-05 0.00015128951 -1.8195813e-05

exp_avg_sq f4 [4, 6]
000000 97 69 22 36 7a f4 48 37 82 d5 13 37 7b 91 77 37
       2.4201343e-06 1.1977851e-05 8.811594e-06 1.475622e-05
000010 d5 db 51 35 02 41 a0 36 69 72 05 35 4b 0b 3e 36
       7.8178465e-07 4.7759395e-06 4.971285e-07 2.831878e-06
000020 d8 30 05 36 37 7c 63 36 ed 51 45 34 f7 b9 86 35
       1.9846975e-06 3.3897938e-06 1.8376859e-07 1.0037901e-06
000030 fa c2 1f 36 60 d6 ef 36 25 cb 11 37 ca 3d 1d 37
       2.3806338e-06 7.1477116e-06 8.689972e-06 9.372316e-06
000040 b9 61 c6 35 e3 5b a5 36 ac ec 09 36 b9 83 36 37
       1.4780591e-06 4.92808e-06 2.0552352e-06 1.0878714e-05
000050 03 29 ac 36 9a bd 1c 37 29 78 74 35 d8 3d 2e 36
       5.130774e-06 9.34247e-06 9.107194e-07 2.5964018e-06

exp_avg f4 [3, 4]
000000 38 04 2b b8 ed fa b8 b9 d4 ca bd 38 73 c7 ba b9
       -4.0773506e-05 -0.0003528217 9.050002e-05 -0.00035625286
000010 6d 3b 0f 39 79 a8 af 39 20 63 25 b8 49 e9 8a 39
       0.0001365968 0.00033504123 -3.9431383e-05 0.00026495222
000020 75 5c 00 b9 a8 a2 ce b7 76 f3 5f b9 60 10 47 39
       -0.00012241474 -2.4632856e-05 -0.00021357634 0.00018984219

exp_avg_sq f4 [3, 4]
000000 14 f8 30 34 2b 19 50 36 df 09 12 37 5c b2 22 37
       1.6481528e-07 3.1009065e-06 8.704576e-06 9.69748e-06
000010 b3 af 3c 34 92 f9 7c 36 71 ca 1e 37 2b 07 24 37
       1.7572783e-07 3.7696195e-06 9.464668e-06 9.776831e-06
000020 e4 a5 78 34 8c 38 e3 36 88 ad 77 37 54 2f 98 37
       2.315715e-07 6.77171e-06 1.4762751e-05 1.814185e-05

exp_avg f4 [4, 3]
000000 73 cf 1c 37 13 e9 dd b8 14 c1 20 b8 94 eb e2 37
       9.346625e-06 -0.00010581515 -3.832679e-05 2.7050999e-05
000010 ac 6e 49 39 ea 68 54 38 47 4f 84 37 38 a1 fe 36
       0.00019210082 5.0642448e-05 1.5772543e-05 7.588558e-06
000020 e0 22 0d 37 d6 56 61 b9 7f 67 a8 38 e4 57 04 b9
       8.412375e-06 -0.00021490021 8.030142e-05 -0.00012621243

exp_avg_sq f4 [4, 3]
000000 80 1b fa 34 f9 b2 1b 36 6a c5 7f 35 60 42 d4 35
       4.6586138e-07 2.3200976e-06 9.528218e-07 1.5814549e-06
000010 4f 0f 05 37 d2 89 4b 36 3f 6d 3d 34 4f 6b 0b 35
       7.930982e-06 3.032958e-06 1.764174e-07 5.193769e-07
000020 e5 68 da 34 39 66 a9 35 c9 67 b1 36 eb 45 05 36
       4.0681985e-07 1.2621232e-06 5.2870932e-06 1.9859242e-06

exp_avg f4 [6, 4]
000000 b9 c4 cc b7 44 c8 c9 37 a6 b5 c8 38 37 ce c1 37
       -2.4410301e-05 2.4054323e-05 9.570578e-05 2.310342e-05
000010 20 8f 23 37 63 88 83 b7 2d 40 a1 b8 02 81 73 b8
       9.748881e-06 -1.5679927e-05 -7.689032e-05 -5.8055863e-05
000020 6b 96 16 37 f1 0b 9f b7 b8 34 80 b8 91 e5 21 b8
       8.975719e-06 -1.8959838e-05 -6.113335e-05 -3.859919e-05
000030 b4 70 51 38 67 ba 01 38 3d 20 c0 38 0f 51 8f 36
       4.9934446e-05 3.0929597e-05 9.161278e-05 4.2711686e-06
000040 18 59 9b 38 c6 aa a4 b8 c2 d2 67 b9 99 11 b9 38
       7.407571e-05 -7.8519384e-05 -0.0002210839 8.824765e-05
000050 40 77 b1 38 18 b7 9e b6 ab d7 fd 38 22 c3 55 39
       8.46223e-05 -4.730082e-06 0.000121041514 0.00020385956

exp_avg_sq f4 [6, 4]
000000 2a 12 ab 34 92 b8 72 34 80 6f 3c 36 1b 1e b5 34
       3.1864448e-07 2.2605153e-07 2.8079085e-06 3.3735782e-07
000010 e7 da d2 33 f4 4d 3e 33 ab 75 67 35 ac 1b cc 33
       9.818705e-08 4.430872e-08 8.6225435e-07 9.504524e-08
000020 ff 44 0d 34 4a ee 68 33 8c b8 4f 35 b2 f4 56 34
       1.3156749e-07 5.4233432e-08 7.738206e-07 2.0019323e-07
000030 e7 48 32 34 95 03 2d 34 76 7e 0f 35 68 36 9e 34
       1.6604064e-07 1.6113184e-07 5.3455676e-07 2.946938e-07
000040 b6 14 d8 34 c8 1d 1f 35 7f 05 82 36 de 79 eb 34
       4.0248204e-07 5.9275453e-07 3.8749417e-06 4.386083e-07
000050 4b a7 22 35 85 c7 86 34 0f 1c b3 36 fd 4a ab 34
       6.0593146e-07 2.5104615e-07 5.337882e-06 3.1905793e-07

exp_avg f4 [8, 6]
000000 16 55 62 38 f5 ca d9 38 fa b2 23 b9 e1 e0 0d 39
       5.396184e-05 0.0001038517 -0.00015611565 0.00013530582
000010 fa 60 41 38 c9 2a a9 37 81 a8 fe b8 d6 b2 44 b8
       4.6105102e-05 2.0166293e-05 -0.0001214305 -4.6896595e-05
000020 73 e8 3d 39 cd a2 97 b8 1b 28 a7 b8 20 52 47 b8
       0.00018111039 -7.230565e-05 -7.970651e-05 -4.7521782e-05
000030 da d5 fd 37 ae 5d 9f b7 3e c2 fe 37 5f d0 fd b7
       3.0259533e-05 -1.89979e-05 3.036961e-05 -3.025698e-05
000040 eb 93 a1 b5 5d cb 16 35 b3 31 94 b8 45 c2 7b b9
       -1.2038485e-06 5.6175287e-07 -7.066447e-05 -0.00024009596
000050 fa 84 2b 39 ec 1d 5f b9 e4 f8 2d 39 24 77 e9 37
       0.00016357368 -0.00021278084 0.00016591285 2.7831244e-05
000060 49 dc d9 b8 d9 28 88 b9 97 62 9d 39 24 51 90 b9
       -0.00010388398 -0.00025970375 0.0003001883 -0.00027526275
000070 4f eb 93 38 0f 77 15 37 74 18 b8 37 29 12 db b7
       7.053336e-05 8.908813e-06 2.1945896e-05 -2.611529e-05
000080 d9 f7 b6 37 9b ba e3 b7 60 a5 76 b7 e1 9a 48 37
       2.1811504e-05 -2.7147404e-05 -1.4701247e-05 1.19569895e-05
000090 41 60 a2 b8 49 35 eb 37 03 d2 6d 38 d7 28 84 36
       -7.742691e-05 2.8038996e-05 5.6700792e-05 3.938661e-06
0000a0 c2 13 38 b8 bf 24 26 b8 8d 09 87 37 62 85 49 37
       -4.388742e-05 -3.9611707e-05 1.6097702e-05 1.2011589e-05
0000b0 a5 7e 96 b6 8f f4 6f 37 55 5d 12 37 94 03 90 37
       -4.4850917e-06 1.4302451e-05 8.724009e-06 1.7167804e-05

exp_avg_sq f4 [8, 6]
000000 d9 9d 81 34 02 d5 15 35 64 57 49 35 44 73 46 35
       2.4142972e-07 5.581679e-07 7.5005505e-07 7.392848e-07
000010 1e 3c 15 35 04 2f 5a 32 68 52 cb 34 7e 40 e1 35
       5.559431e-07 1.269996e-08 3.7871655e-07 1.6782576e-06
000020 48 06 f0 35 dd 04 1d 36 ee 9a f3 35 19 9c de 32
       1.7883222e-06 2.3397654e-06 1.8150001e-06 2.5915186e-08
000030 b5 a7 32 33 c0 b7 49 33 cb 36 25 33 8c 81 82 33
       4.1596383e-08 4.696608e-08 3.846689e-08 6.077161e-08
000040 90 49 52 34 c6 e5 83 31 2a 0c 5f 34 f6 1a 95 35
       1.9584536e-07 3.838724e-09 2.0772919e-07 1.1109212e-06
000050 d5 aa 89 35 44 9f cc 35 74 13 a3 35 72 59 97 32
       1.0257014e-06 1.5245537e-06 1.2150108e-06 1.7619389e-08
000060 0a c8 5c 35 74 87 09 36 66 14 33 36 22 a9 3e 36
       8.224748e-07 2.0493435e-06 2.6684952e-06 2.8410655e-06
000070 88 70 11 36 16 c0 2f 33 75 79 d9 33 cf 56 0b 35
       2.1672186e-06 4.0920064e-08 1.0126943e-07 5.190786e-07
000080 09 0a 1a 35 d7 1b 43 35 e2 59 df 34 ad 53 b9 31
       5.7384074e-07 7.2683673e-07 4.1602385e-07 5.3937215e-09
000090 f4 11 05 33 15 a7 f8 34 6c 1b 07 35 14 d6 2f 35
       3.0982804e-08 4.6315168e-07 5.0331323e-07 6.5504105e-07
0000a0 c9 40 d2 34 61 65 30 31 c5 0e c0 33 44 e9 82 33
       3.9162686e-07 2.5668998e-09 8.943383e-08 6.0960275e-08
0000b0 bf 64 08 34 9c aa b0 33 92 cb 63 33 d5 ea b2 31
       1.2702638e-07 8.226672e-08 5.3037702e-08 5.207179e-09

exp_avg f4 [4, 8]
000000 f5 7a 5f 37 4e af 60 37 40 f6 87 b7 7d 47 f6 35
       1.3320464e-05 1.3392257e-05 -1.6207923e-05 1.8349234e-06
000010 c8 e2 35 b8 83 85 0c b8 de 0f ef b6 9d 5e 1f 37
       -4.336497e-05 -3.3502944e-05 -7.1246022e-06 9.499167e-06
000020 1e c9 0f b7 a9 27 6c b8 16 85 e2 37 e0 98 2e 37
       -8.57029e-06 -5.630372e-05 2.7003272e-05 1.0406802e-05
000030 a9 87 0b 38 ca 44 ae b6 f2 78 2c b8 8a bc ba 38
       3.3266526e-05 -5.193612e-06 -4.1120635e-05 8.904289e-05
000040 b0 5b 89 37 18 d7 29 b8 76 22 1a 38 23 af 2f 38
       1.6374368e-05 -4.049306e-05 3.6748555e-05 4.188636e-05
000050 9b 99 5e 38 46 d7 69 b8 77 30 f0 b7 f9 1b e1 37
       5.307198e-05 -5.5752018e-05 -2.8632798e-05 2.6835116e-05
000060 2d da 08 37 0f c8 e2 37 d5 40 88 38 3d cd 90 37
       8.15703e-06 2.7034459e-05 6.497061e-05 1.726171e-05
000070 b8 4b 30 38 1f c8 64 b7 41 3a 8e 38 78 6b aa 37
       4.203219e-05 -1.3636453e-05 6.781938e-05 2.0315623e-05

exp_avg_sq f4 [4, 8]
000000 eb 96 74 32 12 d7 09 32 a5 09 17 34 82 46 ff 31
       1.4236984e-08 8.023351e-09 1.406648e-07 7.4294926e-09
000010 52 6e d1 32 4c 43 26 33 db 94 68 33 a0 02 0b 34
       2.438097e-08 3.8711093e-08 5.4152093e-08 1.2946339e-07
000020 14 db 28 32 76 a2 0e 32 be 9f 56 34 68 9e a1 31
       9.8287e-09 8.302427e-09 1.9988417e-07 4.7037254e-09
000030 d9 cb 83 32 37 c2 e1 32 93 9e a0 32 af b3 65 34
       1.5343106e-08 2.6281766e-08 1.8698563e-08 2.1392655e-07
000040 d6 e9 b3 32 da 14 4d 32 80 fd 87 34 4d ac 37 32
       2.0944679e-08 1.1937312e-08 2.5330155e-07 1.0691179e-08
000050 4e f4 e5 32 cd 90 41 33 97 d5 3e 33 e7 1c 91 34
       2.6770206e-08 4.506801e-08 4.443208e-08 2.7029384e-07
000060 c2 9d fa 32 06 77 9e 32 5a 22 70 34 58 44 4d 32
       2.917557e-08 1.8447746e-08 2.2364239e-07 1.194811e-08
000070 f1 b3 2b 33 41 34 8d 33 f4 90 f7 33 6d c3 49 34
       3.9977696e-08 6.575329e-08 1.15282006e-07 1.8790679e-07

exp_avg f4 [8]
000000 45 75 c5 38 62 7e 92 39 da e6 03 38 e8 e5 c5 b8
       9.415535e-05 0.00027941453 3.144783e-05 -9.4365154e-05
000010 b6 2a 68 38 5d ce 53 b8 f2 ba c0 38 a2 c3 0b 37
       5.5352888e-05 -5.049851e-05 9.190095e-05 8.330595e-06

exp_avg_sq f4 [8]
000000 1b 66 94 34 36 84 ab 36 72 b2 c4 35 4b 45 c6 35
       2.764144e-07 5.1115885e-06 1.4655072e-06 1.4772316e-06
000010 d9 5e 33 36 4b 17 89 34 28 b7 40 36 68 85 03 34
       2.6728287e-06 2.5535186e-07 2.871684e-06 1.2248859e-07

exp_avg f4 [6]
000000 46 e3 ab 39 d8 49 dc b7 de 38 8d 38 30 a5 fb b7
       0.00032784994 -2.626043e-05 6.733996e-05 -2.9998453e-05
000010 54 ac 10 b9 80 59 29 b7
       -0.00013797107 -1.0094023e-05

exp_avg_sq f4 [6]
000000 2c 40 f6 36 8f 23 0a 36 62 ec 59 36 dc 7f c5 35
       7.338842e-06 2.05843e-06 3.2473113e-06 1.4714856e-06
000010 c8 35 76 36 b2 dd 8c 36
       3.6688161e-06 4.198134e-06

exp_avg f4 [4]
000000 85 a6 0c 3a 8d e4 0d 39 20 e1 b0 b6 f2 b6 16 39
       0.00053653895 0.0001353195 -5.2714167e-06 0.00014373267

exp_avg_sq f4 [4]
000000 0d 90 aa 37 94 45 9c 36 ad d4 87 37 93 f3 84 37
       2.0332658e-05 4.6572623e-06 1.6192289e-05 1.584905e-05

exp_avg f4 [3]
000000 7c b7 1e 3a a8 1f c0 b9 99 17 5b b9
       0.0006054563 -0.0003664468 -0.00020894258

exp_avg_sq f4 [3]
000000 df 41 d3 37 95 65 e9 37 9c 37 55 38
       2.5183834e-05 2.7823067e-05 5.0834948e-05

exp_avg f4 [4]
000000 6c 55 36 b9 5e 8b fe 39 af 9c 02 b9 22 21 bb 39
       -0.00017388695 0.00048550492 -0.00012456135 0.00035692105

exp_avg_sq f4 [4]
000000 22 9c 24 37 0a c1 22 38 57 94 69 36 23 fe cc 37
       9.811514e-06 3.880359e-05 3.480605e-06 2.4437037e-05

exp_avg f4 [6]
000000 4e d4 1f b9 07 ae 04 39 c4 15 e7 38 d0 45 95 b9
       -0.00015242511 0.00012653331 0.000110189925 -0.0002847151
000010 2e f0 82 39 44 1b d5 b9
       0.0002497448 -0.0004064684

exp_avg_sq f4 [6]
000000 cc 63 c5 36 2e 19 11 36 e4 2f 1a 36 7f 78 f8 35
       5.8826754e-06 2.162134e-06 2.2975664e-06 1.8512509e-06
000010 e8 f2 01 37 0d c4 42 37
       7.745555e-06 1.1608948e-05

exp_avg f4 [8]
000000 f1 62 3a b9 5f 95 df 38 00 ff 5a 34 2b 2b ba 39
       -0.00017775201 0.00010661291 2.03956e-07 0.00035508847
000010 12 e3 d2 39 cf 75 3c 38 20 78 4f b6 6a 47 5d b8
       0.00040223502 4.493241e-05 -3.0915326e-06 -5.2757016e-05

exp_avg_sq f4 [8]
000000 6a 81 ba 35 b8 a5 85 36 1e 93 6a 34 dd 97 25 36
       1.3895744e-06 3.983001e-06 2.1846469e-07 2.4675312e-06
000010 11 72 a1 36 c1 86 93 35 31 34 84 35 fd ad 40 34
       4.811453e-06 1.0991572e-06 9.849956e-07 1.794469e-07

exp_avg f4 [4]
000000 c6 c2 24 38 b4 a0 2e b8 0d 84 81 b8 62 ec e1 b8
       3.9282044e-05 -4.16345e-05 -6.175796e-05 -0.00010772866

exp_avg_sq f4 [4]
000000 71 fa 34 34 0a cd 7f 34 b2 a8 a9 34 bc 95 90 34
       1.6854916e-07 2.3823318e-07 3.1601445e-07 2.6931036e-07
