jet_by_jet_compression/split_data_training/models/AE_big_subtrain_4.pth (torch_old, 10121 bytes, 48 tensors)

en1.weight f4 [8, 4]
0	0x3cea49f3	0.028599715
1	0xbdf74669	-0.120739765
2	0xbedaf06a	-0.42761546
3	0xbd980145	-0.07422117
4	0x3d47573c	0.048667178
5	0xbc73c7f2	-0.014879214
6	0xbe320f80	-0.17388725
7	0xbb2e2f48	-0.0026578475
8	0x3e82e4a4	0.25565064
9	0x3dfc0c6b	0.12307056
10	0xbc6b8afb	-0.014376397
11	0x3e02207d	0.12707706
12	0x3e817f4f	0.2529244
13	0xbec32ed6	-0.3812167
14	0x3c2c3c1a	0.010512376
15	0x3ddd1434	0.10794869
16	0xbde40f29	-0.11135704
17	0x3e188b74	0.14896947
18	0xbdff35b5	-0.12461416
19	0x3d1dfc94	0.038570955
20	0x3c01ff39	0.007934385
21	0xbee497b5	-0.44646993
22	0x3cace038	0.02110301
23	0xbe14fedb	-0.14550345
24	0xbd73bc74	-0.059505895
25	0xbeadbee8	-0.33934712
26	0x3d9827d8	0.074294746
27	0xbb802046	-0.0039100973
28	0xbef3b292	-0.47597176
29	0x3c8e8960	0.01739949
30	0x3cf53648	0.02993311
31	0xbc182a3e	-0.009287415

en1.bias f4 [8]
0	0x3fad62c0	1.3545761
1	0xbee03f32	-0.43798214
2	0x3b86e845	0.004117044
3	0xbe338031	-0.1752937
4	0xbf3b7bb8	-0.73235655
5	0x3c6bde2f	0.014396234
6	0xbf45dc72	-0.772895
7	0xbf99a447	-1.2003258

en2.weight f4 [6, 8]
0	0x3e832363	0.25612935
1	0x3ed982c4	0.4248258
2	0x3d9cb1d5	0.07651106
3	0x3df81df2	0.121150866
4	0x3e8bf4de	0.27335256
5	0xbdc7afed	-0.09750352
6	0xbd99e310	-0.07514012
7	0xbe986d4d	-0.2977089
8	0x3ea4af1e	0.32164854
9	0x3d48ce12	0.04902465
10	0xbcf58a74	-0.029973246
11	0x3f0cf3db	0.55059594
12	0xbec75020	-0.38928318
13	0x3eb03708	0.34416986
14	0x3dfd7adb	0.123769484
15	0xbeed631f	-0.46364686
16	0x3e0f26d8	0.13979661
17	0x3f13af88	0.57689714
18	0xbed821c7	-0.4221327
19	0x3edcb782	0.43108755
20	0x3ee2e838	0.44317794
21	0xbc492793	-0.012277502
22	0x3f53ee36	0.82785356
23	0x3eb770c1	0.35828212
24	0xbea01b54	-0.3127085
25	0x3d0a263c	0.03372787
26	0x3f4b9983	0.79531115
27	0x3f2bd550	0.67122364
28	0x3f203e7d	0.6259535
29	0xbe9c0d3d	-0.3047885
30	0x3e8ac151	0.27100614
31	0x3e70029d	0.23438497
32	0xbe0785e2	-0.13234666
33	0xbeea65f7	-0.45780918
34	0x3e70e15b	0.23523466
35	0x3e2a0697	0.16604076
36	0xbe067570	-0.13130736
37	0xbe72d54b	-0.23714177
38	0xbe565e94	-0.20934516
39	0xbe2639e6	-0.16233024
40	0xbe806d33	-0.25083312
41	0xbe2d57f6	-0.16928086
42	0xbe84a55f	-0.25907418
43	0x3ead22ba	0.33815557
44	0xbec8169c	-0.3907975
45	0xbcd1bf10	-0.025603801
46	0x3ed27a62	0.41108996
47	0x3e472a71	0.19449784

en2.bias f4 [6]
0	0x3e1d88fa	0.15384284
1	0x3ec8e963	0.3924056
2	0x3eb52e93	0.35387096
3	0xbec90f41	-0.3926945
4	0xbe80e6be	-0.25176042
5	0xbe1d4bc6	-0.15360937

en3.weight f4 [4, 6]
0	0x3f2508e9	0.6446672
1	0x3dfe910c	0.12430009
2	0x3e45e327	0.19324933
3	0x3d8e77be	0.06956433
4	0xbe92dd5c	-0.2868451
5	0xbe8b796e	-0.2724108
6	0x3da3fc74	0.08007136
7	0xbec8c19d	-0.39210215
8	0x3ed1470f	0.40874526
9	0xbe6de124	-0.23230416
10	0xbec9f205	-0.3944246
11	0xbe027fac	-0.12744015
12	0xbdae56b4	-0.08512631
13	0x3ea5ad91	0.32358983
14	0x3e5cf4aa	0.21577707
15	0xbf4616b0	-0.7737837
16	0xbedbc7f4	-0.4292599
17	0x3eb29f0c	0.34886968
18	0x3dd745a5	0.105113305
19	0x3ed3e23e	0.41383547
20	0x3f0a100c	0.53930736
21	0x3f077146	0.52907217
22	0x3e633166	0.22186813
23	0x3e9b0e0f	0.30284163

en3.bias f4 [4]
0	0xbe367663	-0.17818598
1	0xbcf62ba2	-0.030050103
2	0x3e23505a	0.1594862
3	0xbe3ce35c	-0.18446106

en4.weight f4 [3, 4]
0	0x3f099b78	0.5375285
1	0x3f20cca4	0.62812257
2	0x3ee17aaf	0.44038913
3	0xbe8bfcfb	-0.27341446
4	0xbeffeb23	-0.49984083
5	0x3ef6d087	0.4820597
6	0x3ea4545c	0.3209561
7	0xbf4cec51	-0.8004809
8	0xbe58b57e	-0.21162984
9	0x3df07b78	0.117423
10	0x3f6ccdf0	0.92501736
11	0x3eede0d5	0.46460596

en4.bias f4 [3]
0	0xbd19fbf7	-0.037593808
1	0x3bfa9337	0.007646944
2	0x3c95f2fc	0.01830434

de1.weight f4 [4, 3]
0	0x3ebead0c	0.372414
1	0x3f57700a	0.84155333
2	0x3e3da6ea	0.18520704
3	0x3f24906a	0.6428286
4	0x3dbf5730	0.093428016
5	0xbf7eb679	-0.9949718
6	0xbe76024d	-0.24024315
7	0xbf3a5397	-0.727838
8	0xbf583ca5	-0.84467536
9	0x3f43ab55	0.76433307
10	0xbf8439c9	-1.0330135
11	0x3f4f5c46	0.81000173

de1.bias f4 [4]
0	0xbea6d5b5	-0.3258492
1	0xbb4919fc	-0.0030685654
2	0xbe8abf1e	-0.27098936
3	0x3e0593ce	0.13044664

de2.weight f4 [6, 4]
0	0x3fb98518	1.4493742
1	0x3f5fe309	0.87455803
2	0xbf2309ce	-0.63686836
3	0xbf84a501	-1.0362855
4	0xbddd3df8	-0.10802835
5	0x3fa2b846	1.2712486
6	0x3f3ddf97	0.74169296
7	0x3f5837fb	0.8446042
8	0xbec4563c	-0.38347042
9	0xbf87db55	-1.061381
10	0xbf4db34f	-0.8035173
11	0x3f8be0a8	1.0927935
12	0xbf035769	-0.5130525
13	0x3e67bdb2	0.22630957
14	0x3f90e7b5	1.1320711
15	0xbc42a1d7	-0.011879406
16	0x3e224b48	0.1584903
17	0x3fbe43ed	1.4864479
18	0xbe079e84	-0.13244063
19	0xbfb986cd	-1.4494263
20	0x3e0f7165	0.140081
21	0xbf5ecb4b	-0.8702895
22	0xbdae127c	-0.08499619
23	0xbf4476f3	-0.76744

de2.bias f4 [6]
0	0xbf245332	-0.64189446
1	0xbe48cedd	-0.19610162
2	0x3e8dd0f0	0.2769847
3	0xbe843d25	-0.258279
4	0x3f5e69ab	0.86879987
5	0xbe4a7b46	-0.19773588

de3.weight f4 [8, 6]
0	0x3f1a5117	0.60279983
1	0x3edfa2ec	0.43678987
2	0xbebe7236	-0.3719651
3	0xbd7a9dc5	-0.061185617
4	0xbe0e4c0f	-0.13896202
5	0xbf214d10	-0.63008213
6	0x3e9dd3a4	0.3082553
7	0xbf56361c	-0.83676314
8	0x3d702d0b	0.058636706
9	0x3d4fe268	0.050753027
10	0x3d7186ef	0.058966573
11	0x3f36026d	0.7109745
12	0x3f926fb9	1.1440345
13	0x3f8462eb	1.0342687
14	0xbf965601	-1.1744996
15	0x3f6963f4	0.9116814
16	0x3ed8c7b8	0.42339873
17	0x3f66dbaa	0.9017893
18	0x3ea65d19	0.32492903
19	0x3ee277c6	0.44232005
20	0x3db1c025	0.08679227
21	0xbf3b503e	-0.73169315
22	0x3d59db6e	0.05318778
23	0xbf8e2aab	-1.1106771
24	0xbf12a46d	-0.57282144
25	0x3f4402ce	0.7656678
26	0x3f221e7e	0.6332778
27	0xbf3009c9	-0.6876493
28	0x3f6f4195	0.93459445
29	0xbe3f0fb0	-0.18658328
30	0xbfd1ac16	-1.6380641
31	0xbe4f15cc	-0.20223159
32	0xbf4d0891	-0.80091196
33	0x3f4b9ccd	0.79536134
34	0x3fd28d3a	1.6449349
35	0xbed5d595	-0.41764513
36	0xbe370db3	-0.1787632
37	0x3ec98a1a	0.39363176
38	0xbfd1ccf8	-1.6390676
39	0xbf2cc21c	-0.6748369
40	0x3f901206	1.12555
41	0x3e91f927	0.285104
42	0xbf36c221	-0.7138997
43	0x3f00ca68	0.5030885
44	0xbd03c0b5	-0.0321662
45	0x3f6826e4	0.9068434
46	0xbfb4e09f	-1.4131049
47	0x3ee720ac	0.45142114

de3.bias f4 [8]
0	0x3f30ed05	0.69111663
1	0xbeeef1f0	-0.4666896
2	0xbe9d4b46	-0.30721492
3	0xbe98fd59	-0.2988079
4	0xbfa3ce36	-1.2797306
5	0x3ecd4279	0.40089777
6	0x3d433bdb	0.047664504
7	0x3e6217bc	0.22079366

de4.weight f4 [4, 8]
0	0xbfd3274a	-1.6496365
1	0xbf26cab7	-0.6515307
2	0xbfa7649a	-1.3077576
3	0xbf7579ca	-0.9588896
4	0x3fe967bc	1.8234782
5	0x40443ba5	3.0661404
6	0x3ef00a8c	0.46883047
7	0xbd3c876f	-0.046027597
8	0x3e6668af	0.22500871
9	0xbee865f8	-0.45390296
10	0x3e84a5fb	0.25907883
11	0xbecd900f	-0.4014897
12	0xbe93cac3	-0.28865632
13	0xbdd964cf	-0.10614931
14	0x400035f6	2.0032935
15	0xbef9692e	-0.48713058
16	0xbf7e8244	-0.9941752
17	0x4021a123	2.52546
18	0x3dd15c89	0.10222728
19	0xc0292a25	-2.6431973
20	0xbf9d1d4c	-1.2274566
21	0xbcfc0e77	-0.030768616
22	0xbd803af9	-0.06261248
23	0xbd9e5bf8	-0.077323854
24	0x3fdb2a18	1.7122221
25	0xc0404c34	-3.004651
26	0x3ff9d7c3	1.951897
27	0xbff1fe0c	-1.8905654
28	0xc08dc85b	-4.4307075
29	0x3f2482cf	0.642621
30	0xbf9be242	-1.2178423
31	0x4011bfd3	2.277333

de4.bias f4 [4]
0	0xbfb1d1ba	-1.3892128
1	0xbebf809b	-0.37402806
2	0xbe6208c3	-0.22073655
3	0x403e7337	2.9757822

exp_avg f4 [8, 4]
0	0xb81aa164	-3.6866768e-05
1	0x374eea48	1.2333105e-05
2	0x369e10fa	4.7107433e-06
3	0x3918e834	0.00014582352
4	0xb80dc3c6	-3.3799348e-05
5	0xb9ec6352	-0.00045087427
6	0x3979059e	0.00023748583
7	0x3a32b123	0.00068165566
8	0xb9086234	-0.00013006554
9	0x3937a02d	0.0001751191
10	0x38b36f66	8.556135e-05
11	0xb8cb0be8	-9.682012e-05
12	0xb980fcbd	-0.00024602367
13	0xba1250c4	-0.0005581493
14	0xb9212453	-0.00015367688
15	0x39d54ea0	0.00040685106
16	0xb95e497d	-0.00021198946
17	0xb98d1fba	-0.00026917254
18	0x3974ff0a	0.00023364663
19	0xb8eb8a60	-0.000112314476
20	0x38dcc6d8	0.00010527455
21	0x38e314c6	0.00010828073
22	0xb8964efc	-7.167269e-05
23	0xb9b6095b	-0.00034720715
24	0xb8a16477	-7.695791e-05
25	0xba749d71	-0.0009331322
26	0x37ab7286	2.0438118e-05
27	0x3ad3aa6d	0.0016148813
28	0x38357660	4.3264008e-05
29	0xb924ff96	-0.00015735472
30	0xb85fd360	-5.33642e-05
31	0x38496329	4.8014484e-05

exp_avg_sq f4 [8, 4]
0	0x33b68db2	8.50081e-08
1	0x34a106ec	2.9993623e-07
2	0x33c70bdc	9.268817e-08
3	0x35cb4f12	1.5147691e-06
4	0x35a79382	1.24854e-06
5	0x362d442d	2.5818692e-06
6	0x35a24277	1.2089284e-06
7	0x37010de3	7.692232e-06
8	0x350fd101	5.357579e-07
9	0x3602bf00	1.9482686e-06
10	0x35080ce6	5.068272e-07
11	0x36db8fa1	6.543429e-06
12	0x34efb0c1	4.4645824e-07
13	0x35d95c21	1.6194573e-06
14	0x34af87b8	3.2695038e-07
15	0x366ae16b	3.4999928e-06
16	0x35947a7e	1.1062509e-06
17	0x368f144e	4.264096e-06
18	0x358642e7	1.0003249e-06
19	0x37c449f6	2.3399461e-05
20	0x33fb08ca	1.1689697e-07
21	0x34de4d6b	4.140705e-07
22	0x33c8bfd9	9.3481226e-08
23	0x35fdcc08	1.890935e-06
24	0x35ba2702	1.3869433e-06
25	0x36f6ae08	7.351631e-06
26	0x359b14f6	1.15545e-06
27	0x37f86b33	2.9613822e-05
28	0x33cb6798	9.471768e-08
29	0x346883ab	2.1654584e-07
30	0x3389ffef	6.426114e-08
31	0x3542c7cb	7.256137e-07

exp_avg f4 [6, 8]
0	0x397ff4ff	0.00024409963
1	0xb92d1c34	-0.00016509072
2	0xb82b4796	-4.0836247e-05
3	0x385baa3d	5.2372216e-05
4	0xb9362fc8	-0.00017374672
5	0x387bded1	6.0050577e-05
6	0xb899e19b	-7.337631e-05
7	0xb9615187	-0.00021488043
8	0x391563e7	0.00014246964
9	0xb83938e9	-4.416044e-05
10	0x37a7914a	1.9975607e-05
11	0x372794b6	9.9886e-06
12	0xb883b668	-6.2805426e-05
13	0x37313e73	1.0564562e-05
14	0xb864a4d6	-5.451295e-05
15	0xb874307f	-5.82193e-05
16	0x39e8215e	0.0004427535
17	0xb9543643	-0.0002023811
18	0x38794029	5.942598e-05
19	0x39935b5f	0.00028106102
20	0xb9ba081d	-0.0003548273
21	0x3942bb6b	0.000185711
22	0xb8d8f52e	-0.00010345351
23	0xb9d71fee	-0.00041031785
24	0x386e288f	5.6781395e-05
25	0xb80da3b5	-3.3769484e-05
26	0xb89f592f	-7.5983226e-05
27	0x38de07f2	0.00010587265
28	0xb8ad421e	-8.261598e-05
29	0x38f149b9	0.000115055074
30	0x38d33c1b	0.000100724596
31	0xb85475ee	-5.065457e-05
32	0xb80f4855	-3.416122e-05
33	0x384cd0eb	4.883196e-05
34	0xb7ca2889	-2.4099152e-05
35	0x3571d1bd	9.0084706e-07
36	0x38666f4f	5.4939937e-05
37	0xb75016a0	-1.2403034e-05
38	0x38ddb7ce	0.000105723375
39	0x386cf80e	5.6497804e-05
40	0x39a5ef42	0.00031649513
41	0xb8ab53b0	-8.1695034e-05
42	0x38a55b97	7.884873e-05
43	0x395f1e58	0.00021278241
44	0xb943ffb6	-0.00018691909
45	0x38f7360b	0.00011787944
46	0xb885ab0f	-6.373796e-05
47	0xb9819c88	-0.00024721422

exp_avg_sq f4 [6, 8]
0	0x368bcb76	4.166209e-06
1	0x358490e8	9.87694e-07
2	0x349cbd2d	2.9194908e-07
3	0x350c8dc4	5.236036e-07
4	0x36147a28	2.2124823e-06
5	0x34dca763	4.1099983e-07
6	0x3619e8d2	2.2934296e-06
7	0x367b4279	3.7440607e-06
8	0x353e56a5	7.09066e-07
9	0x348a2e52	2.5738206e-07
10	0x34a91b11	3.1498396e-07
11	0x34cac231	3.7766725e-07
12	0x34757697	2.2860546e-07
13	0x354007da	7.1537e-07
14	0x3586035c	9.984756e-07
15	0x35580294	8.047002e-07
16	0x35ccf455	1.5270294e-06
17	0x34a0597d	2.9867434e-07
18	0x3449ca52	1.8793187e-07
19	0x3543a0f1	7.287736e-07
20	0x35858d73	9.950439e-07
21	0x34bc3ba9	3.5061137e-07
22	0x34a12126	3.0012706e-07
23	0x35bc14aa	1.4013106e-06
24	0x3521f4ea	6.033357e-07
25	0x3457b3e1	2.0088875e-07
26	0x34d6a19c	3.9978192e-07
27	0x34ace5f2	3.2204804e-07
28	0x34a1dc8b	3.0149053e-07
29	0x34ffc8f8	4.7643675e-07
30	0x35136ebe	5.492292e-07
31	0x355f44d0	8.317411e-07
32	0x361e6a41	2.3605683e-06
33	0x350e6aa4	5.3054305e-07
34	0x342f2f61	1.6315381e-07
35	0x34c59dd1	3.6808936e-07
36	0x35a4a335	1.2266452e-06
37	0x34bdb4db	3.5335583e-07
38	0x35b230f4	1.3276281e-06
39	0x360b1255	2.0723285e-06
40	0x360830c9	2.0293976e-06
41	0x34fa1950	4.6584546e-07
42	0x3477ce04	2.3078616e-07
43	0x351250cd	5.450682e-07
44	0x35a3e902	1.2212261e-06
45	0x34fd8385	4.7220615e-07
46	0x3575ca0e	9.156364e-07
47	0x36071ef6	2.013459e-06

exp_avg f4 [4, 6]
0	0xb78b6245	-1.6615852e-05
1	0x395b8dfa	0.00020938358
2	0xb8d9674d	-0.000103666076
3	0xb99a6af2	-0.0002945285
4	0x3844de78	4.693723e-05
5	0x378c5933	1.6730837e-05
6	0xb7c4cbf9	-2.3460003e-05
7	0xb8c79e2a	-9.51852e-05
8	0xb78457d6	-1.5776528e-05
9	0x38474e89	4.751844e-05
10	0x383c853e	4.4946784e-05
11	0x3646edd9	2.9642745e-06
12	0x3972dcea	0.00023161215
13	0x39ee75b5	0.00045482596
14	0xb97bd15e	-0.0002401522
15	0xb98d964a	-0.0002700559
16	0x3853fc09	5.0541046e-05
17	0xb947fb98	-0.00019071845
18	0x3991556c	0.000277202
19	0x3a47f37f	0.00076275313
20	0xb96d226a	-0.00022614902
21	0xba14e7d3	-0.00056802965
22	0x3824fdf7	3.933717e-05
23	0xb8f3131e	-0.00011590704

exp_avg_sq f4 [4, 6]
0	0x35d11188	1.5576816e-06
1	0x3717ed53	9.055558e-06
2	0x36f72fc6	7.366735e-06
3	0x374e826a	1.2308921e-05
4	0x3508c37e	5.0948427e-07
5	0x36792572	3.7125687e-06
6	0x34be0ee9	3.5401106e-07
7	0x3628030e	2.503573e-06
8	0x35ec38a2	1.7599853e-06
9	0x3653674a	3.1501572e-06
10	0x33ebfe50	1.09892994e-07
11	0x35632073	8.461131e-07
12	0x35c808b1	1.4903691e-06
13	0x36906b55	4.3040295e-06
14	0x36d4d847	6.3432703e-06
15	0x36d826c4	6.4418145e-06
16	0x3590c505	1.0786176e-06
17	0x3681e042	3.8706066e-06
18	0x35954302	1.1120867e-06
19	0x36e53bea	6.8317067e-06
20	0x3633c5ab	2.6788136e-06
21	0x36adffd1	5.1855827e-06
22	0x34e26091	4.2166042e-07
23	0x35bae9cc	1.3926124e-06

exp_avg f4 [3, 4]
0	0xb8e698e3	-0.00010995732
1	0xb8ea6582	-0.00011176897
2	0x39371872	0.00017461347
3	0xb913b8ae	-0.00014087811
4	0x3887c88f	6.4746586e-05
5	0x393a4d4b	0.00017767136
6	0xba0e2ece	-0.00054238446
7	0x397c5978	0.00024065922
8	0x393cce8a	0.00018006019
9	0xb9bb976e	-0.00035780243
10	0x3a1db78c	0.00060164253
11	0xb9ee2ae6	-0.0004542686

exp_avg_sq f4 [3, 4]
0	0x33bfb78b	8.927517e-08
1	0x361c04e6	2.3248663e-06
2	0x36e6d9fe	6.879912e-06
3	0x3709a87f	8.205067e-06
4	0x33c12fd6	8.995964e-08
5	0x36128560	2.183333e-06
6	0x36c84bef	5.9693043e-06
7	0x36d7c4bd	6.4304027e-06
8	0x3491cef4	2.7158933e-07
9	0x368e3339	4.237893e-06
10	0x372332e1	9.727403e-06
11	0x3758d3e2	1.2923936e-05

exp_avg f4 [4, 3]
0	0xb83732c4	-4.367788e-05
1	0xb8950e2c	-7.1075134e-05
2	0xb6a79cc8	-4.9952396e-06
3	0xb938a1c3	-0.00017607868
4	0xb90ad1eb	-0.00013238906
5	0xb8ea2135	-0.00011164175
6	0x37d94e15	2.5904776e-05
7	0x37fa643c	2.9848998e-05
8	0x38feaffe	0.00012144445
9	0x38f50172	0.000116827796
10	0x39b1ecf1	0.00033936606
11	0x39a08cca	0.00030622474

exp_avg_sq f4 [4, 3]
0	0x34d03d8a	3.8787795e-07
1	0x361455ad	2.2103588e-06
2	0x3560cf1a	8.3747875e-07
3	0x358cefb2	1.0500573e-06
4	0x36caf8bd	6.049026e-06
5	0x361b2bb3	2.3122236e-06
6	0x33db262a	1.0204924e-07
7	0x35179b17	5.647757e-07
8	0x3493a8f2	2.7503808e-07
9	0x352b9322	6.391657e-07
10	0x366fd928	3.5740177e-06
11	0x35ade7ce	1.2956968e-06

exp_avg f4 [6, 4]
0	0xb7b75233	-2.1853577e-05
1	0xb8b0519a	-8.4075335e-05
2	0xb8998adb	-7.3214724e-05
3	0x38a59524	7.895593e-05
4	0x37f550df	2.9243934e-05
5	0xb813d31a	-3.5244135e-05
6	0x3781b752	1.5463364e-05
7	0xb7858842	-1.5918285e-05
8	0xb76053fe	-1.3370996e-05
9	0x387d8061	6.0439463e-05
10	0x382168fb	3.8483162e-05
11	0xb68ba1ba	-4.1613503e-06
12	0x3873026f	5.793798e-05
13	0xb8b778fc	-8.748655e-05
14	0xb92aba06	-0.00016281763
15	0x38ce71da	9.844052e-05
16	0xb791a319	-1.7361295e-05
17	0x39225aaa	0.00015483299
18	0x39dada82	0.00041743
19	0xb9198b62	-0.00014643141
20	0xb8738e6d	-5.806836e-05
21	0x389373c8	7.031072e-05
22	0x3969a99a	0.00022283793
23	0x38833314	6.256081e-05

exp_avg_sq f4 [6, 4]
0	0x349c06f5	2.9062326e-07
1	0x3443bb48	1.8228923e-07
2	0x363e099b	2.8317797e-06
3	0x348a53d6	2.5765502e-07
4	0x33bb3d2d	8.718994e-08
5	0x331c07ff	3.6328853e-08
6	0x356013ff	8.34756e-07
7	0x33d018f0	9.690291e-08
8	0x33ac8329	8.033232e-08
9	0x3354122c	4.9376624e-08
10	0x354ca02a	7.622899e-07
11	0x34621dd7	2.1058746e-07
12	0x33b9f88f	8.6599464e-08
13	0x33b58b1d	8.453774e-08
14	0x3523d812	6.1036656e-07
15	0x346b1449	2.189346e-07
16	0x3494648f	2.7640314e-07
17	0x34d7951c	4.0155362e-07
18	0x366ae9a3	3.5004712e-06
19	0x34b6a5d9	3.4020812e-07
20	0x34c9f31f	3.761606e-07
21	0x3402bd48	1.2176054e-07
22	0x3683bdf1	3.9262163e-06
23	0x3452368b	1.9577617e-07

exp_avg f4 [8, 6]
0	0xb8fe8666	-0.000121366975
1	0xb95a4b18	-0.00020818075
2	0x3988f1d0	0.00026120106
3	0xb9541bd6	-0.00020228265
4	0x38a1d160	7.7160774e-05
5	0x37f5be11	2.9294783e-05
6	0x38851369	6.3455496e-05
7	0x39b93a9a	0.0003532961
8	0xb9be9664	-0.00036351674
9	0x39c74f45	0.00038015298
10	0xb893621e	-7.027782e-05
11	0xb888f880	-6.531272e-05
12	0xb6c5024e	-5.871326e-06
13	0xb686217e	-3.99741e-06
14	0x37cd507c	2.4475383e-05
15	0xb6e88844	-6.930002e-06
16	0xb80a7df4	-3.3019067e-05
17	0x37068330	8.017567e-06
18	0x3884f0eb	6.339125e-05
19	0x3811d93a	3.4773002e-05
20	0xb8f0ce06	-0.00011482467
21	0x38a68b71	7.94147e-05
22	0x37793268	1.4853293e-05
23	0x380a5afb	3.2986496e-05
24	0x397d4d66	0.00024156793
25	0x39b68d8e	0.00034819212
26	0xb9ede86d	-0.00045377333
27	0x39cb2249	0.00038744722
28	0xb8c802c2	-9.537257e-05
29	0x36dbde70	6.5526037e-06
30	0x38929772	6.9900314e-05
31	0xb8aa9e5a	-8.135727e-05
32	0x388d083d	6.7249384e-05
33	0xb8e3e93a	-0.00010867645
34	0x383024c3	4.1995907e-05
35	0x372eb763	1.0413906e-05
36	0x372be2ee	1.024523e-05
37	0x38f5d079	0.000117213414
38	0xb8f51dba	-0.000116880474
39	0x39113676	0.00013848566
40	0xb8c03058	-9.164278e-05
41	0x37788606	1.4813157e-05
42	0xb89c6502	-7.457474e-05
43	0xb8b5820d	-8.6549764e-05
44	0x39083f07	0.0001299345
45	0xb8d8ea02	-0.0001034327
46	0xb8005270	-3.0594354e-05
47	0xb6846a66	-3.946293e-06

exp_avg_sq f4 [8, 6]
0	0x34131e88	1.3701549e-07
1	0x353436df	6.7135073e-07
2	0x352c877f	6.4272166e-07
3	0x35720cc7	9.017062e-07
4	0x3538a7ce	6.878953e-07
5	0x32327279	1.0386992e-08
6	0x349889be	2.8412427e-07
7	0x360be794	2.084741e-06
8	0x35da8b97	1.6282892e-06
9	0x363fe8e0	2.859677e-06
10	0x361a04ac	2.2950508e-06
11	0x32c43f5b	2.2846214e-08
12	0x32db0d26	2.5500935e-08
13	0x33219cf7	3.7628492e-08
14	0x3302cbd9	3.0453382e-08
15	0x333af92e	4.3533127e-08
16	0x342b99dc	1.598159e-07
17	0x311df909	2.2988067e-09
18	0x34416c7a	1.8013989e-07
19	0x35bb3bfd	1.3950045e-06
20	0x358f05ca	1.0656015e-06
21	0x360149ef	1.9265533e-06
22	0x35ce7f6c	1.5385281e-06
23	0x327cb2b4	1.4708963e-08
24	0x35043ac4	4.925935e-07
25	0x363e908f	2.839635e-06
26	0x36320d02	2.6531638e-06
27	0x368448b7	3.9423717e-06
28	0x3644b6c1	2.9312653e-06
29	0x33069ff4	3.1344783e-08
30	0x33e6f964	1.07555735e-07
31	0x3504f49c	4.9529785e-07
32	0x350230f0	4.849999e-07
33	0x353965dd	6.90661e-07
34	0x34dd4915	4.1217632e-07
35	0x3204ec87	7.737191e-09
36	0x32b31b8d	2.0850871e-08
37	0x34e5b000	4.278263e-07
38	0x34d21da1	3.9137106e-07
39	0x351fa8ba	5.9477645e-07
40	0x34d2d5bf	3.927107e-07
41	0x314082df	2.8014069e-09
42	0x33789f41	5.788684e-08
43	0x335c9e48	5.1366698e-08
44	0x33c2bcea	9.068192e-08
45	0x33922b5f	6.806544e-08
46	0x32c0a69a	2.2427503e-08
47	0x31328603	2.5978586e-09

exp_avg f4 [4, 8]
0	0x384c435a	4.8700116e-05
1	0x378e4862	1.6961425e-05
2	0x37fc8ad4	3.0105388e-05
3	0x37819e57	1.5451731e-05
4	0xb84032e9	-4.582378e-05
5	0xb8236aca	-3.8961683e-05
6	0x3835c79c	4.3339664e-05
7	0xb737556b	-1.0927538e-05
8	0xb7839f5b	-1.5690623e-05
9	0x372065d6	9.560454e-06
10	0x38334665	4.2742486e-05
11	0xb7f84e48	-2.9600356e-05
12	0x3614dfa0	2.2183885e-06
13	0xb71510cc	-8.885003e-06
14	0x36e4245a	6.7991614e-06
15	0x381a3250	3.676332e-05
16	0x37cb5134	2.4237299e-05
17	0xb857668d	-5.1355502e-05
18	0x375bb331	1.30951385e-05
19	0x37d4604b	2.531721e-05
20	0x38166c26	3.5863508e-05
21	0x368bc8e6	4.1659105e-06
22	0x37a6be68	1.9877407e-05
23	0x3809d5c6	3.2862437e-05
24	0xb8198995	-3.6606176e-05
25	0x380b7057	3.3244807e-05
26	0xb92112aa	-0.0001536111
27	0x37066014	8.009392e-06
28	0xb73617e3	-1.0853607e-05
29	0xb72b65d6	-1.0216105e-05
30	0xb8af0975	-8.346412e-05
31	0xb886ba4e	-6.42432e-05

exp_avg_sq f4 [4, 8]
0	0x3261d5c3	1.31453275e-08
1	0x31fc5ea3	7.3449242e-09
2	0x340ce8e9	1.3123248e-07
3	0x31cff8bd	6.052771e-09
4	0x32aff603	2.0484554e-08
5	0x330e9cbe	3.3204508e-08
6	0x3331c207	4.138749e-08
7	0x3402c11d	1.2177448e-07
8	0x3212b05b	8.538417e-09
9	0x32038ca9	7.657186e-09
10	0x341a788f	1.4386227e-07
11	0x318779fe	3.942886e-09
12	0x326b254b	1.368728e-08
13	0x32e30366	2.6427823e-08
14	0x329db60d	1.8359993e-08
15	0x341deba1	1.4707486e-07
16	0x3290a0b1	1.683688e-08
17	0x326121a3	1.3104372e-08
18	0x348bbf7d	2.6030094e-07
19	0x3211bff0	8.483752e-09
20	0x32ee5203	2.7744141e-08
21	0x33589ab1	5.043211e-08
22	0x3304b958	3.0902214e-08
23	0x3490233e	2.6847732e-07
24	0x32d67a1f	2.4968413e-08
25	0x326f0687	1.3913115e-08
26	0x34920702	2.7199718e-07
27	0x3208bf0a	7.959679e-09
28	0x3328c36e	3.929329e-08
29	0x338deb14	6.6085846e-08
30	0x339ab1f0	7.2035505e-08
31	0x349923b5	2.852445e-07

exp_avg f4 [8]
0	0x382b0bf9	4.0780727e-05
1	0x39bec07c	0.00036383036
2	0xb937778e	-0.00017496778
3	0x39664ee0	0.00021963893
4	0x38960a87	7.154518e-05
5	0xb82eab3d	-4.164431e-05
6	0x3a041e5d	0.0005039925
7	0x376fc6d8	1.4291807e-05

exp_avg_sq f4 [8]
0	0x34127656	1.364036e-07
1	0x3666ed46	3.4410782e-06
2	0x35aaf235	1.2736479e-06
3	0x35854776	9.93007e-07
4	0x35f46dc5	1.8211364e-06
5	0x3485f7a6	2.4953368e-07
6	0x36156588	2.226183e-06
7	0x33df2ff3	1.03929686e-07

exp_avg f4 [6]
0	0x399587e5	0.00028520744
1	0x38ff00a9	0.000121594705
2	0x3a06eed9	0.00051472854
3	0x382ab0e0	4.0695886e-05
4	0xb8825a1b	-6.2156665e-05
5	0x39a7bdfd	0.00031994274

exp_avg_sq f4 [6]
0	0x36cac29c	6.0427246e-06
1	0x35b88340	1.3747267e-06
2	0x360c7853	2.0931664e-06
3	0x359cc310	1.1679676e-06
4	0x36622c48	3.37024e-06
5	0x36486a65	2.9864252e-06

exp_avg f4 [4]
0	0x39a3bf3a	0.00031232258
1	0xb9057778	-0.00012728374
2	0x3a07f7ff	0.00051867956
3	0x3a6a37a2	0.00089346815

exp_avg_sq f4 [4]
0	0x3788515e	1.6250353e-05
1	0x368c5bef	4.1830276e-06
2	0x3737f108	1.09637695e-05
3	0x371bcd69	9.286546e-06

exp_avg f4 [3]
0	0x398cd766	0.00026863365
1	0xba50ff6e	-0.00079726323
2	0x3a951667	0.0011374474

exp_avg_sq f4 [3]
0	0x37a55bc8	1.9712272e-05
1	0x37903bf8	1.7194063e-05
2	0x380c8738	3.3504533e-05

exp_avg f4 [4]
0	0xb8757a9c	-5.852674e-05
1	0xba3888f3	-0.000703945
2	0xb7be0880	-2.2653723e-05
3	0x3a72b853	0.0009259034

exp_avg_sq f4 [4]
0	0x37130b35	8.764492e-06
1	0x37eeb6ee	2.8456994e-05
2	0x365970ae	3.2401108e-06
3	0x378200d5	1.5497595e-05

exp_avg f4 [6]
0	0x3897f7bb	7.2463845e-05
1	0xb8e665cb	-0.00010986215
2	0xb7b3cd48	-2.1434054e-05
3	0x38dfcbe3	0.000106714455
4	0xba2d1177	-0.0006602029
5	0xb9aae1a4	-0.00032593042

exp_avg_sq f4 [6]
0	0x36bccb40	5.626498e-06
1	0x3605f44e	1.9960748e-06
2	0x3617477d	2.2542365e-06
3	0x3601b87c	1.9329882e-06
4	0x36df8f38	6.6625907e-06
5	0x37095b0b	8.187034e-06

exp_avg f4 [8]
0	0x395f9bee	0.00021325026
1	0xb9b73b6a	-0.00034948747
2	0xb803529a	-3.1309763e-05
3	0xb8829dc8	-6.228272e-05
4	0xb9dadcad	-0.00041744616
5	0x38ed2ea6	0.000113097296
6	0xb92ebb5e	-0.00016663733
7	0x38c87aa7	9.559589e-05

exp_avg_sq f4 [8]
0	0x35c22872	1.4465897e-06
1	0x369a2afc	4.5945617e-06
2	0x343bb701	1.7482309e-07
3	0x36481d4c	2.9819375e-06
4	0x36d0bec3	6.2210906e-06
5	0x3585c58d	9.966767e-07
6	0x35677891	8.6229653e-07
7	0x340bee96	1.3032181e-07

exp_avg f4 [4]
0	0x37b48e1d	2.1523849e-05
1	0xb80079eb	-3.0631123e-05
2	0xb8063fb2	-3.200741e-05
3	0x38b8aee2	8.806378e-05

exp_avg_sq f4 [4]
0	0x34244ec1	1.5302341e-07
1	0x343503b6	1.6858289e-07
2	0x34a7a2df	3.1224678e-07
3	0x34b87bfa	3.4362876e-07
