jet_by_jet_compression/split_data_training/models/AE_big_subtrain_1.pth (torch_old, 10121 bytes, 48 tensors)

en1.weight f4 [8, 4]
0	0x3d19fd91	0.037595335
1	0xbe0f3b90	-0.13987565
2	0xbe762ec3	-0.24041276
3	0xbde4cc4d	-0.1117178
4	0x3cecaadc	0.028890066
5	0x3c114e57	0.008868775
6	0xbdfa43a0	-0.1221993
7	0x3cb5dc4a	0.022199769
8	0x3e58a8b1	0.211581
9	0x3c99c183	0.018769031
10	0x3d082cb1	0.033245746
11	0x3e294f4e	0.16534159
12	0x3e4c527c	0.1995334
13	0xbf118571	-0.5684424
14	0x3cb1c17d	0.021698708
15	0x3e2bab3a	0.16764536
16	0xbc88f80f	-0.016719846
17	0x3e151543	0.14558892
18	0xbdcaabb2	-0.098960295
19	0x3d058a76	0.03260275
20	0x3a2fc563	0.0006705133
21	0xbf128e59	-0.57248455
22	0xbced45d1	-0.028963955
23	0xbe60c143	-0.21948723
24	0xbd704795	-0.058662016
25	0xbe69ee7c	-0.22844881
26	0x3d8ede1e	0.06975959
27	0x3d5c6829	0.053810272
28	0xbea40cf0	-0.3204112
29	0x3e04b59a	0.129599
30	0xbcdfce67	-0.0273201
31	0xbd179167	-0.0370039

en1.bias f4 [8]
0	0x3f882a5c	1.0637927
1	0xbeaaaeaa	-0.33336383
2	0x3e3124da	0.17299214
3	0xbe2883f5	-0.16456588
4	0xbf11b686	-0.56919134
5	0xbe3325bf	-0.17494868
6	0xbf59a4ce	-0.85017097
7	0xbf903397	-1.1265744

en2.weight f4 [6, 8]
0	0x3e2dfe66	0.16991577
1	0x3f020c24	0.50799775
2	0xbd935ee6	-0.07195835
3	0x3dc4c858	0.09608525
4	0x3e89dc2a	0.26925784
5	0xbccdc43b	-0.025117984
6	0xbe594c75	-0.21220572
7	0xbeba7d1a	-0.3642357
8	0x3ef111f6	0.47084016
9	0xbe055d4a	-0.13023868
10	0xbc9dc24a	-0.019257683
11	0x3ebe46f0	0.37163496
12	0xbecb96fb	-0.39763626
13	0x3ed2e878	0.41192985
14	0x3dcb6fef	0.09933459
15	0xbf0aac82	-0.54169476
16	0x3e50c09f	0.20385979
17	0x3f0ee087	0.5581135
18	0xbed7cddd	-0.4214925
19	0x3e9a40c4	0.30127537
20	0x3eda3055	0.42615
21	0x3c9a1159	0.0188071
22	0x3f49cc2e	0.7882718
23	0x3e6533c5	0.2238303
24	0xbe8e7c34	-0.27829134
25	0xbd1ddc92	-0.03854043
26	0x3ec26308	0.3796618
27	0x3f0bab59	0.5455833
28	0x3f2c9418	0.67413473
29	0xbe8dd0f2	-0.27698475
30	0x3e8228cf	0.2542176
31	0x3c899a1e	0.016797122
32	0xbd32e2ca	-0.043673314
33	0xbeaf9c59	-0.3429897
34	0x3d39e9d5	0.045389015
35	0x3e04c87d	0.12967105
36	0xbd651c8d	-0.05593543
37	0xbe0c2993	-0.13687734
38	0xbe6303a9	-0.22169365
39	0xbe87e700	-0.26543427
40	0xbe0ffd21	-0.14061405
41	0xbe887fe9	-0.26660088
42	0xbdbf0d42	-0.093287006
43	0x3e73f78e	0.23824903
44	0xbeb54b45	-0.3540899
45	0xbd44a53f	-0.048009153
46	0x3f018a37	0.50601524
47	0x3e3f64e5	0.18690832

en2.bias f4 [6]
0	0x3e45c850	0.19314694
1	0x3eb3e645	0.3513662
2	0x3ea0ed51	0.31431058
3	0xbebe9453	-0.37222537
4	0xbe608022	-0.21923879
5	0xbe5a12b3	-0.21296196

en3.weight f4 [4, 6]
0	0x3f218407	0.6309208
1	0x3dd95517	0.10611933
2	0x3e3c6dab	0.1840121
3	0x3d7c5624	0.061605588
4	0xbe9ac6f3	-0.3022991
5	0xbe9a93b5	-0.30190817
6	0x3d2fa9ae	0.04288643
7	0xbee60e7f	-0.44932935
8	0x3eb90178	0.36133933
9	0xbe68cb80	-0.22733879
10	0xbeab1641	-0.33415416
11	0xbd864503	-0.06556132
12	0xbe052dfe	-0.13005826
13	0x3e9dcdfc	0.30821216
14	0x3e25f97a	0.16208449
15	0xbf4c738c	-0.7986381
16	0xbf148381	-0.5801316
17	0x3eadeede	0.33971304
18	0x3e11a0d8	0.14221513
19	0x3ecb3cae	0.39694732
20	0x3f005a79	0.5013805
21	0x3f04753a	0.51741374
22	0x3e86c784	0.26324093
23	0x3e57f977	0.21091257

en3.bias f4 [4]
0	0xbe43b430	-0.19111705
1	0xbc8ae2c7	-0.016953839
2	0x3e27d0f0	0.16388297
3	0xbe4e2335	-0.20130618

en4.weight f4 [3, 4]
0	0x3f0a20bf	0.53956217
1	0x3f27f16d	0.6560276
2	0x3ed79ffb	0.42114243
3	0xbea75b9f	-0.3268709
4	0xbec06dd3	-0.3758379
5	0x3f0b94b8	0.545238
6	0x3e9845cf	0.2974076
7	0xbf54bcbc	-0.83100486
8	0xbe849f39	-0.25902727
9	0x3d1ff438	0.039051265
10	0x3f7da1a1	0.9907475
11	0x3ee29be3	0.44259557

en4.bias f4 [3]
0	0xbcc02a18	-0.023457572
1	0x3d3e19e3	0.046411406
2	0x3ca8bba4	0.020597287

de1.weight f4 [4, 3]
0	0x3ecdfa81	0.40230182
1	0x3f6086e8	0.8770585
2	0x3dfe446a	0.12415393
3	0x3f2480ec	0.6425922
4	0x3dcad62f	0.099041335
5	0xbf867673	-1.0504898
6	0xbe5906ec	-0.21194047
7	0xbf2f5e15	-0.6850293
8	0xbf36506a	-0.7121645
9	0x3f53574d	0.82555085
10	0xbf8c1c68	-1.0946169
11	0x3f52e382	0.823784

de1.bias f4 [4]
0	0xbe83c025	-0.25732532
1	0xbcd44f8b	-0.025916835
2	0xbe742142	-0.23840812
3	0x3dbda10f	0.09259235

de2.weight f4 [6, 4]
0	0x3fbefc97	1.4920834
1	0x3f51ccfa	0.81953394
2	0xbf2cf011	-0.6755381
3	0xbf89a103	-1.0752262
4	0x3cd859ae	0.02640995
5	0x3f84e05f	1.0380973
6	0x3f2af17c	0.66774726
7	0x3f3a3b3b	0.7274663
8	0xbe8784cc	-0.26468503
9	0xbf9484d7	-1.160304
10	0xbf4c35f3	-0.7976982
11	0x3fa30613	1.2736229
12	0xbf0b18ec	-0.543349
13	0x3e9cba8f	0.30611083
14	0x3f881501	1.063141
15	0xbccbbee7	-0.024871303
16	0x3e52f089	0.2059957
17	0x3fbaf908	1.4607248
18	0xbdedbb70	-0.116080165
19	0xbfb7dedc	-1.4364886
20	0x3e1e5555	0.15462239
21	0xbf7fe5bd	-0.9995993
22	0xbdcb4df4	-0.09926978
23	0xbf73ed2e	-0.9528378

de2.bias f4 [6]
0	0xbf1429e7	-0.5787644
1	0xbe3d05d4	-0.18459255
2	0x3e2ccdb3	0.16875343
3	0xbe88c336	-0.26711434
4	0x3f501ba3	0.8129217
5	0xbe53d46e	-0.20686504

de3.weight f4 [8, 6]
0	0x3f45f8be	0.77332675
1	0x3ee3cf44	0.4449407
2	0xbebec65f	-0.3726072
3	0xbcd41638	-0.025889501
4	0x3e0772d9	0.13227405
5	0xbf3910cb	-0.7229125
6	0x3e97c1a2	0.29639918
7	0xbf59c622	-0.8506795
8	0x3d816e4e	0.06319867
9	0x3d2b2a89	0.04178861
10	0xbd8eb8e2	-0.06968857
11	0x3f82d250	1.0220432
12	0x3f765d94	0.9623654
13	0x3f57e126	0.84327924
14	0xbfb0678d	-1.3781601
15	0x3f3fb0d4	0.74879193
16	0x3eecfac3	0.46285066
17	0x3e11ef3f	0.14251421
18	0x3e97752c	0.29581583
19	0x3ead76cd	0.338797
20	0x3d6bbb67	0.057551768
21	0xbf4e251e	-0.80525386
22	0x3c134981	0.008989693
23	0xbfce0555	-1.6095377
24	0xbed448a6	-0.41461676
25	0x3f4c67da	0.79845965
26	0x3f1fb9c5	0.62392837
27	0xbf372257	-0.71536773
28	0x3f414a06	0.75503576
29	0xbf1c88b2	-0.6114608
30	0xbfbd58f6	-1.4792774
31	0xbded3cf7	-0.11583894
32	0xbf4e22db	-0.80521935
33	0x3f595835	0.8490022
34	0x3fcacbe2	1.584347
35	0xbe9fd571	-0.3121753
36	0xbecc7c59	-0.3993862
37	0x3eb6d77f	0.35711285
38	0xbfbba5b3	-1.4659942
39	0xbf44af1f	-0.76829714
40	0x3f95cd48	1.1703272
41	0x3e0db678	0.13839138
42	0xbf76e5ec	-0.9644458
43	0x3f24e063	0.64404887
44	0xbc5ae6b8	-0.013360672
45	0x3f82198b	1.0164045
46	0xbfba465b	-1.4552721
47	0x3f2a604e	0.665532

de3.bias f4 [8]
0	0x3f15655f	0.58357805
1	0xbed30b5b	-0.412196
2	0xbe6fbfce	-0.23413011
3	0xbe5418c2	-0.2071257
4	0xbf9f3578	-1.2438192
5	0x3ebdc881	0.37067035
6	0x3e307c9b	0.17235033
7	0xbd5699b0	-0.05239266

de4.weight f4 [4, 8]
0	0xbfa38532	-1.2775023
1	0xbf19e91a	-0.6012131
2	0xbf9d17fd	-1.2272946
3	0xbf682a91	-0.9068995
4	0x3fb1f6bf	1.3903426
5	0x40472b45	3.112016
6	0x3f4ce21c	0.80032516
7	0xbdc1d76c	-0.094649166
8	0x3f3103f8	0.6914668
9	0xbe136130	-0.14392543
10	0x3e263613	0.16231565
11	0xbe110827	-0.14163266
12	0xbeb47ab7	-0.35249874
13	0xbe699dca	-0.22814098
14	0x3fdaa562	1.7081721
15	0x3d10e1f5	0.03537174
16	0xbf45d68d	-0.77280504
17	0x400b6d73	2.1785553
18	0x3d0fa70b	0.035071414
19	0xc02390d0	-2.5557137
20	0xbf877192	-1.0581534
21	0xbd857bb1	-0.06517733
22	0x3ea6e9f5	0.3260037
23	0xbddeaca4	-0.10872772
24	0x3fca3fa4	1.5800672
25	0xc01422ad	-2.3146164
26	0x3fe404a8	1.7813921
27	0xbf8cc604	-1.099793
28	0xc058673b	-3.3813007
29	0x3f0b7f65	0.54491264
30	0xbf943ed1	-1.158167
31	0x400cadfb	2.198119

de4.bias f4 [4]
0	0xbf978958	-1.1838789
1	0xbe825995	-0.2545897
2	0xbe88a112	-0.26685387
3	0x40240044	2.5625162

exp_avg f4 [8, 4]
0	0x389f839d	7.606226e-05
1	0x382de53b	4.14599e-05
2	0xb942fa2c	-0.00018594478
3	0xb9257ce0	-0.00015782146
4	0x39121f71	0.00013935358
5	0x39b1691d	0.00033838386
6	0xb8801cda	-6.10889e-05
7	0xb97513b7	-0.00023372365
8	0x37bdd38b	2.2629063e-05
9	0xb9504531	-0.00019862202
10	0x38ab3f82	8.165745e-05
11	0xb6943a10	-4.417503e-06
12	0x3948d03f	0.00019151064
13	0x38ee9ed1	0.00011378306
14	0xb74e023c	-1.2279077e-05
15	0xb90147e7	-0.00012329184
16	0x38f51694	0.00011686716
17	0x38881fc0	6.490899e-05
18	0x39918a9c	0.00027759827
19	0x38051f82	3.1739015e-05
20	0xb8a06778	-7.648667e-05
21	0x3871ee07	5.7680558e-05
22	0xb90371bb	-0.00012535501
23	0x368341df	3.9117726e-06
24	0x378bcf8a	1.6666734e-05
25	0x393a2c57	0.0001775486
26	0x397ee202	0.00024307522
27	0xb96d6b8a	-0.00022642143
28	0xb8d12181	-9.972137e-05
29	0x383b7e3a	4.4701832e-05
30	0x38bc9acc	8.993372e-05
31	0x38db63db	0.00010461333

exp_avg_sq f4 [8, 4]
0	0x34a496eb	3.0657188e-07
1	0x35f21f24	1.8039468e-06
2	0x34e07299	4.1806632e-07
3	0x36bbf1ee	5.6011986e-06
4	0x363f43ed	2.8500756e-06
5	0x3693c3ee	4.4037506e-06
6	0x36588cc0	3.2268435e-06
7	0x36e2081e	6.73627e-06
8	0x350155ed	4.8181283e-07
9	0x35ca32cf	1.506496e-06
10	0x34ea7a17	4.3674729e-07
11	0x360c8567	2.0939276e-06
12	0x350bcd45	5.208024e-07
13	0x35899ccd	1.025293e-06
14	0x34aff2ea	3.2773033e-07
15	0x35aba355	1.2788029e-06
16	0x361758bd	2.2552406e-06
17	0x370f1b9f	8.529895e-06
18	0x362a6cb8	2.5395257e-06
19	0x37cb1db2	2.4213314e-05
20	0x347ed1f4	2.3731974e-07
21	0x34f90fd8	4.6391392e-07
22	0x343a85a9	1.7371225e-07
23	0x35934a44	1.0973968e-06
24	0x35bb4327	1.395213e-06
25	0x37006dc7	7.654954e-06
26	0x35cb85d6	1.516363e-06
27	0x37967e2a	1.7940143e-05
28	0x346277d7	2.1091488e-07
29	0x34c54fdf	3.6752223e-07
30	0x3411798c	1.3548396e-07
31	0x34dbb480	4.092326e-07

exp_avg f4 [6, 8]
0	0xb96a9b43	-0.00022373819
1	0x3908cad7	0.00013045534
2	0xb828b591	-4.022342e-05
3	0x37f2552d	2.8888311e-05
4	0x3933f9b6	0.00017163795
5	0x37bc6591	2.2458642e-05
6	0x38d2602f	0.00010031496
7	0x3922a379	0.00015510422
8	0x386832d0	5.5360433e-05
9	0x37d614f4	2.5520545e-05
10	0x34770744	2.3006311e-07
11	0xb7a1c88e	-1.9286086e-05
12	0x37f91b90	2.9695948e-05
13	0x381e9978	3.7813064e-05
14	0xb7027ddd	-7.777909e-06
15	0x36edebb6	7.0905908e-06
16	0xb96cb950	-0.00022575748
17	0x38953db9	7.1163704e-05
18	0xb7a6e2d3	-1.9894365e-05
19	0xb91056ca	-0.00013765242
20	0x393a60f1	0.00017774456
21	0xb8a9022c	-8.0589525e-05
22	0x38e8f1a9	0.00011107635
23	0x396315d6	0.00021656542
24	0x37ad00df	2.0623613e-05
25	0xb7af13b4	-2.08708e-05
26	0x37e4023d	2.718076e-05
27	0xb7e0eb93	-2.6812579e-05
28	0xb81e6b9a	-3.7770347e-05
29	0xb804e40a	-3.168363e-05
30	0x3687e1ca	4.049599e-06
31	0xb8857870	-6.3643674e-05
32	0x396b0426	0.00022412892
33	0xb8a6bbbb	-7.950464e-05
34	0x3898b7c3	7.282153e-05
35	0x37d3702f	2.52054e-05
36	0xb9303cb3	-0.0001680728
37	0x38051c82	3.173622e-05
38	0xb929c808	-0.00016191613
39	0xb93df0aa	-0.00018114099
40	0x37ad3434	2.0647516e-05
41	0xb7dc20cd	-2.6241318e-05
42	0x38056182	3.1800482e-05
43	0xb7213ac5	-9.610031e-06
44	0x367625cf	3.6678864e-06
45	0xb7cd82b2	-2.4498764e-05
46	0x3734899b	1.0760875e-05
47	0x3878c2f5	5.9309376e-05

exp_avg_sq f4 [6, 8]
0	0x36fbacaa	7.5004837e-06
1	0x35b80bf5	1.3712548e-06
2	0x35252ff9	6.15371e-07
3	0x35d0c2c7	1.5553895e-06
4	0x36633091	3.3853905e-06
5	0x358f9c47	1.0699813e-06
6	0x36c6c5da	5.923893e-06
7	0x370410c8	7.87172e-06
8	0x35cd9d78	1.531952e-06
9	0x34cec68b	3.851495e-07
10	0x357931a8	9.283199e-07
11	0x35d6940f	1.5987333e-06
12	0x34f796de	4.6117106e-07
13	0x3645294a	2.937932e-06
14	0x3640bcc3	2.8720103e-06
15	0x36268079	2.4810709e-06
16	0x363b4d4e	2.7910169e-06
17	0x34e57d3b	4.274569e-07
18	0x351fa2fa	5.946928e-07
19	0x35d7bd82	1.6073902e-06
20	0x35cf007c	1.5422843e-06
21	0x3515a0fb	5.5741083e-07
22	0x35ac2046	1.2824391e-06
23	0x3658b993	3.2294527e-06
24	0x36004e38	1.9119016e-06
25	0x34ae7c90	3.2500657e-07
26	0x352532ef	6.154141e-07
27	0x3586b27e	1.0035726e-06
28	0x357f6754	9.5145265e-07
29	0x35497e78	7.506237e-07
30	0x35c47ab5	1.463885e-06
31	0x3623ad32	2.4389706e-06
32	0x36c1085c	5.7528214e-06
33	0x358bb3a1	1.0408586e-06
34	0x35163714	5.5959504e-07
35	0x35ab0cf5	1.2744264e-06
36	0x362c1b8b	2.564603e-06
37	0x35900bd8	1.0732283e-06
38	0x369d70e0	4.692105e-06
39	0x36cba4fe	6.069079e-06
40	0x368daa18	4.221929e-06
41	0x355434e1	7.9053103e-07
42	0x3550eab1	7.782756e-07
43	0x35a9cf2b	1.2651775e-06
44	0x361160c4	2.1663009e-06
45	0x358731c2	1.0072765e-06
46	0x3647a46d	2.974902e-06
47	0x36a8f6ba	5.035513e-06

exp_avg f4 [4, 6]
0	0xb9264f15	-0.00015860454
1	0xb9e9081e	-0.0004444727
2	0x395d5740	0.00021108706
3	0x39b56f3f	0.00034605895
4	0xb8a8dc31	-8.051878e-05
5	0x39359d46	0.00017320094
6	0xb88b9584	-6.655886e-05
7	0xb95fa1cc	-0.00021327211
8	0x38f3c715	0.00011624225
9	0x391da58b	0.00015034356
10	0xb7d7a302	-2.5705904e-05
11	0x38f74f62	0.00011792664
12	0xb8a8ed61	-8.0550795e-05
13	0xb9b97e01	-0.0003537983
14	0x38607496	5.351434e-05
15	0x39329c15	0.00017033548
16	0xb8515ea0	-4.991761e-05
17	0x383a5490	4.442461e-05
18	0xb899b994	-7.330175e-05
19	0xb9727a5f	-0.00023124505
20	0xb806f70e	-3.2178177e-05
21	0x3919bc64	0.00014661398
22	0xb7991ed6	-1.825338e-05
23	0xb7501188	-1.2401848e-05

exp_avg_sq f4 [4, 6]
0	0x36e498ed	6.8127324e-06
1	0x37d0385b	2.4821775e-05
2	0x377eadc9	1.5180042e-05
3	0x37ccf531	2.4432871e-05
4	0x36172aa1	2.2525567e-06
5	0x373cbf91	1.1250276e-05
6	0x36189d44	2.2741306e-06
7	0x370758a2	8.0672635e-06
8	0x36b8ab3f	5.503563e-06
9	0x3706fa0a	8.045239e-06
10	0x35669ae6	8.5907084e-07
11	0x3683898f	3.920118e-06
12	0x36b9a264	5.5323344e-06
13	0x378d1f76	1.682316e-05
14	0x375f30b1	1.3303173e-05
15	0x378ac9de	1.6544884e-05
16	0x3613b5f7	2.2010624e-06
17	0x371fd3d7	9.526461e-06
18	0x36bd4a5f	5.641297e-06
19	0x37baab22	2.2252618e-05
20	0x372ac261	1.0178047e-05
21	0x377681bf	1.46929515e-05
22	0x361abd24	2.3057883e-06
23	0x36df3b41	6.652816e-06

exp_avg f4 [3, 4]
0	0xb864e15e	-5.4569326e-05
1	0x39acfb23	0.00032993508
2	0xb9eb74a1	-0.00044909588
3	0x39a3fded	0.00031278972
4	0x37d65323	2.5549502e-05
5	0xb917c243	-0.0001447285
6	0x39981740	0.00029009022
7	0xb8b9e164	-8.86347e-05
8	0x37dcf410	2.6339694e-05
9	0x38df9d8f	0.00010662816
10	0xb9663112	-0.0002195279
11	0x34ef5c00	4.4584158e-07

exp_avg_sq f4 [3, 4]
0	0x34e7f0e1	4.3202365e-07
1	0x3711dd54	8.6942055e-06
2	0x37616658	1.3434874e-05
3	0x3775c675	1.4649345e-05
4	0x34f86cfd	4.62729e-07
5	0x3724d24c	9.824125e-06
6	0x375c04b5	1.3114118e-05
7	0x376b9b63	1.404327e-05
8	0x3505e88e	4.988477e-07
9	0x374509a9	1.1744364e-05
10	0x377aa7b2	1.4940206e-05
11	0x379c45de	1.8629184e-05

exp_avg f4 [4, 3]
0	0xb8ded442	-0.00010625321
1	0xb92fcfb2	-0.00016766673
2	0xb8ddf6da	-0.00010584081
3	0xb7b98ba1	-2.2118738e-05
4	0xb87d6633	-6.041508e-05
5	0x380b4be5	3.3210865e-05
6	0xb8ab316b	-8.16312e-05
7	0xb84aec08	-4.8380374e-05
8	0xb7e798d2	-2.7608508e-05
9	0xb8936630	-7.02854e-05
10	0xb92c1224	-0.00016409956
11	0xb9a0be37	-0.000306593

exp_avg_sq f4 [4, 3]
0	0x34c385bf	3.6418894e-07
1	0x3632cfa6	2.6644934e-06
2	0x35a39407	1.2187528e-06
3	0x358e1378	1.0585491e-06
4	0x36fb834b	7.4956674e-06
5	0x3690f744	4.32032e-06
6	0x33e70a75	1.0758678e-07
7	0x353148be	6.604349e-07
8	0x34b95b57	3.4525394e-07
9	0x3526f217	6.2192106e-07
10	0x36865cc1	4.004309e-06
11	0x361f1103	2.3702748e-06

exp_avg f4 [6, 4]
0	0xb9090416	-0.0001306686
1	0x3829db6c	4.0497092e-05
2	0x398e2f01	0.0002711937
3	0xb823f0b1	-3.908639e-05
4	0x3800c362	3.0699543e-05
5	0x36e312a8	6.767299e-06
6	0x38617714	5.375508e-05
7	0xb7c9b784	-2.4046523e-05
8	0x383fe95f	4.5755292e-05
9	0x37a58ff0	1.9736559e-05
10	0xb8916374	-6.9326634e-05
11	0xb72c39aa	-1.0265425e-05
12	0xb8a8756c	-8.032736e-05
13	0xb719629c	-9.14247e-06
14	0x38ef3805	0.000114068425
15	0xb83fa92d	-4.5695506e-05
16	0x390804f2	0.00012971813
17	0xb914510a	-0.0001414457
18	0xb9c87d60	-0.00038240384
19	0x390db994	0.00013515941
20	0x383254de	4.2517546e-05
21	0xb8c4a26a	-9.37626e-05
22	0xb983bc14	-0.00025126396
23	0x387caa01	6.023981e-05

exp_avg_sq f4 [6, 4]
0	0x34968dfa	2.804298e-07
1	0x34cf665b	3.8631228e-07
2	0x367376eb	3.627904e-06
3	0x347b949a	2.3430258e-07
4	0x3382efba	6.097203e-08
5	0x33a6d554	7.7687815e-08
6	0x354e6c3e	7.6898493e-07
7	0x336c3f4b	5.5005597e-08
8	0x33aa397d	7.926699e-08
9	0x3332267b	4.1478852e-08
10	0x3536d9b5	6.811709e-07
11	0x3414f57e	1.3872884e-07
12	0x3386b2e6	6.272403e-08
13	0x34250702	1.5369372e-07
14	0x35254d3d	6.1579686e-07
15	0x3402983b	1.2162575e-07
16	0x346dc5f5	2.2144361e-07
17	0x359b5df4	1.1575744e-06
18	0x36850486	3.9642355e-06
19	0x34f6032e	4.5823384e-07
20	0x35009a23	4.7908014e-07
21	0x3546821e	7.3950093e-07
22	0x36f00e40	7.1542163e-06
23	0x3473a9c1	2.2692895e-07

exp_avg f4 [8, 6]
0	0x3821ea45	3.860357e-05
1	0x392efa5e	0.00016687202
2	0xb98818d0	-0.00025958428
3	0x3984a1a7	0.00025297442
4	0xb881b4b7	-6.18486e-05
5	0x382bebc3	4.0989147e-05
6	0xb8dd3807	-0.00010548537
7	0xb9779a1c	-0.00023613166
8	0x399e0cd2	0.0003014566
9	0xb9bce4bd	-0.00036028578
10	0x3932054f	0.0001697738
11	0xb894dccb	-7.098316e-05
12	0x37c9617a	2.4006458e-05
13	0xb7746cad	-1.4568836e-05
14	0x35bb68a7	1.3963044e-06
15	0xb73d30ee	-1.127667e-05
16	0xb458716c	-2.015783e-07
17	0x377dc422	1.5125641e-05
18	0x382a3a43	4.058542e-05
19	0x3789012a	1.6332215e-05
20	0xb8763350	-5.869876e-05
21	0x37c13a80	2.3034634e-05
22	0x38181ce0	3.6266516e-05
23	0x36e007f3	6.6766456e-06
24	0xb79f3b31	-1.898184e-05
25	0xb97a8d9a	-0.00023894609
26	0x39b12076	0.00033784256
27	0xb9c2a327	-0.0003712412
28	0x38fe2413	0.00012118383
29	0xb88f8930	-6.8443245e-05
30	0x36824cff	3.8832654e-06
31	0xb7f1d15d	-2.8826931e-05
32	0x38ae34ad	8.306778e-05
33	0xb82681a6	-3.969823e-05
34	0xb8770d73	-5.8901915e-05
35	0xb7a6783b	-1.9844729e-05
36	0xb8137b1a	-3.516218e-05
37	0xb8f07d67	-0.0001146745
38	0x3948f337	0.00019164091
39	0xb93be53c	-0.00017919106
40	0x387c4542	6.0145983e-05
41	0xb7700a8c	-1.430757e-05
42	0x3838eec3	4.4091383e-05
43	0x3829edf4	4.051435e-05
44	0xb89043f8	-6.879115e-05
45	0x386b6640	5.6123594e-05
46	0x36b2f041	5.3327826e-06
47	0x37815c01	1.5420841e-05

exp_avg_sq f4 [8, 6]
0	0x34720d2b	2.2542797e-07
1	0x35192158	5.7045463e-07
2	0x3534ebbf	6.739828e-07
3	0x356203f3	8.419731e-07
4	0x350a788a	5.1584414e-07
5	0x32446fa3	1.1434085e-08
6	0x350ea3b8	5.3137364e-07
7	0x35cacc86	1.5109697e-06
8	0x35e1a69b	1.6812295e-06
9	0x3618bc72	2.2759455e-06
10	0x35b58cfa	1.352658e-06
11	0x32dfc2af	2.6049149e-08
12	0x337da980	5.9060312e-08
13	0x33bdd9a4	8.840587e-08
14	0x32d6363f	2.4937547e-08
15	0x340cdd31	1.3118985e-07
16	0x348dc845	2.6409012e-07
17	0x315f7355	3.251633e-09
18	0x3432092b	1.6580877e-07
19	0x3593311c	1.0966646e-06
20	0x3594f894	1.1099205e-06
21	0x35d8d9bc	1.6156623e-06
22	0x355932ed	8.0912906e-07
23	0x3299e43d	1.7915335e-08
24	0x354947f4	7.498304e-07
25	0x35dea6cb	1.6588832e-06
26	0x3611cb45	2.1725002e-06
27	0x3626b5ea	2.4841816e-06
28	0x35acf329	1.2885768e-06
29	0x32cd6180	2.3909479e-08
30	0x34c447d8	3.6560118e-07
31	0x358d1fe2	1.0514598e-06
32	0x35a9035a	1.2592457e-06
33	0x35cf9018	1.5464639e-06
34	0x35401c9b	7.15672e-07
35	0x32777933	1.440485e-08
36	0x33f4f9c0	1.1407565e-07
37	0x34c40cf5	3.6517272e-07
38	0x350cad26	5.240603e-07
39	0x350f752c	5.344216e-07
40	0x34124ad7	1.3624536e-07
41	0x313848a1	2.6816809e-09
42	0x3425d53b	1.5444395e-07
43	0x33eee11d	1.11236865e-07
44	0x346da2b8	2.2131542e-07
45	0x3416b798	1.403663e-07
46	0x329f2210	1.8525526e-08
47	0x314b245a	2.9561051e-09

exp_avg f4 [4, 8]
0	0x378b5bf3	1.6612908e-05
1	0xb65759ef	-3.2089845e-06
2	0xb81506e3	-3.5530782e-05
3	0x37e4e84b	2.7287888e-05
4	0xb88a30b6	-6.589426e-05
5	0xb887a91f	-6.468803e-05
6	0xb8320e7d	-4.2452e-05
7	0x377b234b	1.4968983e-05
8	0xb796f70f	-1.7996439e-05
9	0xb6b36a21	-5.3469707e-06
10	0xb7cce605	-2.4425806e-05
11	0xb7762751	-1.4671897e-05
12	0xb6dd29df	-6.5911877e-06
13	0x37323016	1.0620823e-05
14	0xb78b7d13	-1.6628333e-05
15	0xb731c366	-1.0595517e-05
16	0x36bf9711	5.70983e-06
17	0xb847c51e	-4.7628877e-05
18	0xb897680a	-7.21962e-05
19	0x385acd85	5.2166655e-05
20	0x363d3271	2.8192555e-06
21	0x377ce958	1.50747e-05
22	0xb79de7c1	-1.8823777e-05
23	0xb8765d8e	-5.87381e-05
24	0xb794be4a	-1.7731585e-05
25	0x380a75ad	3.3011358e-05
26	0x38e098a8	0.00010709587
27	0xb889835b	-6.557136e-05
28	0x38638644	5.4246062e-05
29	0xb7c49af0	-2.343717e-05
30	0x37a451ec	1.9588471e-05
31	0x38f53b84	0.00011693596

exp_avg_sq f4 [4, 8]
0	0x33522ac9	4.8933348e-08
1	0x32095e0c	7.995833e-09
2	0x349e9ab5	2.9542358e-07
3	0x326b5325	1.3697705e-08
4	0x33930c6c	6.8474804e-08
5	0x3334756f	4.201632e-08
6	0x33bc35bd	8.764207e-08
7	0x3492acec	2.7320436e-07
8	0x327760dd	1.4399316e-08
9	0x319666da	4.3772674e-09
10	0x345544d8	1.9862216e-07
11	0x32201fb6	9.320436e-09
12	0x331b41ca	3.6148585e-08
13	0x32811fc8	1.5032029e-08
14	0x3304f73d	3.0958507e-08
15	0x34407521	1.7924005e-07
16	0x32bc1a01	2.1897906e-08
17	0x324986d8	1.17304e-08
18	0x34b90eaa	3.4469605e-07
19	0x32b0bd51	2.0575188e-08
20	0x3390bdeb	6.7400684e-08
21	0x33077de4	3.1546634e-08
22	0x334cf278	4.7717975e-08
23	0x34b628b2	3.3929751e-07
24	0x33b25052	8.303381e-08
25	0x32415889	1.1254209e-08
26	0x34b163da	3.304147e-07
27	0x32a60201	1.9325855e-08
28	0x33bafa9f	8.706888e-08
29	0x3370de93	5.6081785e-08
30	0x34186f45	1.4196583e-07
31	0x34aa737e	3.1749e-07

exp_avg f4 [8]
0	0xb8e7d04e	-0.00011053738
1	0xb9994252	-0.00029231847
2	0x38e0f84e	0.00010727403
3	0x384f6bc4	4.945301e-05
4	0xb8c7f32e	-9.534355e-05
5	0xb906070e	-0.00012781864
6	0xb92fb148	-0.00016755343
7	0x3873dac2	5.813945e-05

exp_avg_sq f4 [8]
0	0x353b9c1d	6.9890103e-07
1	0x371486fc	8.852916e-06
2	0x35bfe067	1.4295919e-06
3	0x35d631f0	1.5958776e-06
4	0x36b77d7b	5.468433e-06
5	0x34ebe1e7	4.3936527e-07
6	0x368682e4	4.008749e-06
7	0x34e28706	4.2194023e-07

exp_avg f4 [6]
0	0xb99c7eff	-0.00029849258
1	0xb7896f68	-1.638355e-05
2	0xb99ee1d8	-0.00030304375
3	0x37a37404	1.9485138e-05
4	0x399150d4	0.00027716777
5	0xb7573e08	-1.2829441e-05

exp_avg_sq f4 [6]
0	0x375794a7	1.2849609e-05
1	0x369dd3c0	4.7036156e-06
2	0x369c0f20	4.650923e-06
3	0x367517a6	3.652161e-06
4	0x37291f51	1.0080476e-05
5	0x3702052f	7.749811e-06

exp_avg f4 [4]
0	0xba0bef1f	-0.0005338061
1	0xb93d97d5	-0.00018081006
2	0xb98238a1	-0.00024837724
3	0xb98027d5	-0.0002444374

exp_avg_sq f4 [4]
0	0x3827bd50	3.9992214e-05
1	0x376e149c	1.4190704e-05
2	0x3808b202	3.259071e-05
3	0x380c087c	3.3386503e-05

exp_avg f4 [3]
0	0xba4f3784	-0.0007904696
1	0x39fcb12a	0.00048197183
2	0xb97b831c	-0.00023986067

exp_avg_sq f4 [3]
0	0x385b2e8d	5.2257023e-05
1	0x386b0b4d	5.603889e-05
2	0x38969fc9	7.18232e-05

exp_avg f4 [4]
0	0xb9a47b84	-0.00031372544
1	0xb977c8bc	-0.00023630535
2	0xb8c2723a	-9.271917e-05
3	0xba313d1e	-0.00067611213

exp_avg_sq f4 [4]
0	0x379c2a3c	1.8616316e-05
1	0x38831f98	6.2524516e-05
2	0x36a9e5ef	5.0633603e-06
3	0x3809f32b	3.2889813e-05

exp_avg f4 [6]
0	0xb9ba8f4c	-0.0003558345
1	0xb9263698	-0.00015851331
2	0x38acb5a4	8.235432e-05
3	0xb8f122dc	-0.000114982686
4	0x3a08efd3	0.0005223725
5	0x39d9ea54	0.00041564053

exp_avg_sq f4 [6]
0	0x372b58ba	1.02130525e-05
1	0x361a5404	2.2996692e-06
2	0x361ddc64	2.3523107e-06
3	0x360f8dae	2.139113e-06
4	0x3743d883	1.1673316e-05
5	0x37aa3477	2.029001e-05

exp_avg f4 [8]
0	0xb9a8cb5b	-0.0003219497
1	0x39fd46c6	0.0004830865
2	0xb6a19cf0	-4.816444e-06
3	0xb7dea2ee	-2.6540332e-05
4	0x39f6ab23	0.00047048283
5	0x38b14064	8.4520114e-05
6	0x393c058f	0.00017931148
7	0xb8ac26e2	-8.2088416e-05

exp_avg_sq f4 [8]
0	0x35c85015	1.4924468e-06
1	0x368616b3	3.9961537e-06
2	0x34aabd0d	3.180252e-07
3	0x363a2670	2.7738533e-06
4	0x36940e03	4.412375e-06
5	0x3630e20e	2.6357625e-06
6	0x35701c69	8.944831e-07
7	0x34993deb	2.8543522e-07

exp_avg f4 [4]
0	0x38bfb043	9.140421e-05
1	0x36c6a571	5.9201197e-06
2	0x38a32ffc	7.7813835e-05
3	0xb93dbdda	-0.0001809517

exp_avg_sq f4 [4]
0	0x34c62106	3.6904402e-07
1	0x34820009	2.4214413e-07
2	0x34e8d072	4.336503e-07
3	0x34e3e5cf	4.2449253e-07
