jet_by_jet_compression/grid_search/models/AE_basic_lr1e-03_pNA_wd1e-02.pth (torch_old, 10506 bytes, 48 tensors)

encoder.0.weight f4 [8, 4]
000000 27 11 ae 3c 2f 05 66 3e 05 55 cc 3d 5e 3e 75 bd
       0.021248413 0.22462915 0.09977154 -0.05987393
000010 a0 07 44 be 13 21 c4 3e a9 17 5f 3e 56 90 87 bc
       -0.19143534 0.38306484 0.2178637 -0.016548317
000020 a6 f4 7b be e9 31 ac bd 3e 9e 6c 3e 85 ca 15 3c
       -0.24605045 -0.08407957 0.2310724 0.009142523
000030 62 61 8e 3d ab 9b c6 3e b9 c3 af bd 0f ff 8f 3e
       0.06952168 0.3879064 -0.08582253 0.28124282
000040 69 3a 82 bd 2f 69 1c 3e ef e1 92 bc d7 7b 94 be
       -0.06358797 0.152745 -0.01793 -0.29000732
000050 6c 4d 6c 3e 9c 2e d0 bd cd 73 87 be be 56 48 3e
       0.23076409 -0.1016514 -0.26455536 0.1956434
000060 7a 0d 5e 3d 04 36 0a bf 45 e1 33 be 9c 70 a1 be
       0.05421207 -0.5398867 -0.17566402 -0.31531227
000070 32 d1 df bd b4 13 03 be 24 1e 0e bf 81 1f 58 be
       -0.10928573 -0.12800485 -0.5551474 -0.21105768

encoder.0.bias f4 [8]
000000 67 5c da 3d c8 e5 50 be 11 3d e3 be 52 57 19 bf
       0.106621556 -0.20400155 -0.44382527 -0.59898865
000010 78 e6 c8 3e 62 0e 26 3f 36 29 b0 be 45 06 6e 3d
       0.39238334 0.64865696 -0.3440644 0.058111448

encoder.2.weight f4 [6, 8]
000000 4a 30 67 3e a0 0b a6 3e 42 80 dd be ce eb f6 3e
       0.22577015 0.32430744 -0.43261915 0.4822678
000010 7f b7 67 3e 8f cc fa 3e 96 ff f8 3e 3b a3 3d 3e
       0.22628592 0.4898419 0.48632497 0.18519299
000020 92 da 85 3d 74 7c 26 3f b7 ae 7b 3e 6b 0c d4 3e
       0.065358296 0.6503365 0.24578367 0.41415724
000030 16 67 06 be 71 d2 88 be 12 73 08 be e0 20 e6 bc
       -0.13125262 -0.26723054 -0.13325146 -0.028091848
000040 db 71 a0 be 29 ba 88 3d dd 56 b1 3e 3e 37 4c bd
       -0.31336865 0.06676132 0.34636584 -0.04985737
000050 7f 2c 1e bf 1e 7d d8 bd fa cf ab 3d 01 54 43 be
       -0.61786646 -0.10570739 0.08389278 -0.19075014
000060 05 2c 42 be 6a 22 5c 3e 6b 71 1a 3e 21 48 16 be
       -0.18962105 0.21497503 0.15082328 -0.14675952
000070 2b 4e 05 3f dc b5 9c be 1c b8 a3 3e 95 77 0a 3e
       0.520724 -0.30607498 0.31976402 0.1352218
000080 08 23 5b 3b 5b 20 22 be d6 49 f5 3d f3 30 05 bf
       0.0033437628 -0.15832655 0.11976974 -0.52027816
000090 fb f2 1f 3f 0b 24 28 3e a5 35 6e be 10 00 1a 3e
       0.62480134 0.1642 -0.23262651 0.15039086
0000a0 65 45 8d 3e ea 34 5e 3e c9 64 7a 3e ea a7 05 3d
       0.27592006 0.21699873 0.24452509 0.03263084
0000b0 08 40 8b 3e de e8 2c be 45 2e 69 3d db 90 83 be
       0.2719729 -0.16885707 0.05692889 -0.25696453

encoder.2.bias f4 [6]
000000 a5 df 48 3e f9 57 c7 be b7 aa 62 bc ba f0 23 3e
       0.19616564 -0.38934305 -0.013834647 0.16009799
000010 84 da 0e bd c0 c8 81 bd
       -0.03487636 -0.06337118

encoder.4.weight f4 [4, 6]
000000 76 3f b8 be 17 3b bc 3e 36 9b 98 3c 1c 72 26 3f
       -0.35985917 0.36763832 0.018628698 0.6501787
000010 d8 14 92 3e ab e1 e3 3e 79 76 48 3f b8 eb e9 3e
       0.28531528 0.44508108 0.78305775 0.45687652
000020 67 08 e1 be 49 4b 51 3c 77 0c 14 be 7c 63 8b 3e
       -0.43951723 0.012774297 -0.1445788 0.27224338
000030 81 6b 83 be 79 4c 49 be 46 dc 02 bf e1 37 dd 3e
       -0.25667956 -0.19658078 -0.5111736 0.43206695
000040 f9 b1 5c 3f e0 53 82 3d 93 59 e4 be aa fe 03 bf
       0.86209065 0.06363654 -0.4459959 -0.5156046
000050 8e f7 ec 3e 0b 69 fd 3c 65 f4 8d 3e ed 83 19 bf
       0.4628262 0.030933877 0.2772552 -0.5996693

encoder.4.bias f4 [4]
000000 cf c7 4e be 9f 9f 1a 3e a3 10 c3 3e d2 8b 2d be
       -0.20193408 0.15099953 0.3809863 -0.16947868

encoder.6.weight f4 [3, 4]
000000 11 78 2a bf d5 9e c3 3e b7 25 55 bf b5 3a 02 bf
       -0.66589457 0.38207117 -0.83260673 -0.5087083
000010 16 75 43 bf 7d 70 06 bf 23 73 b0 be 4c bc 35 3f
       -0.76350534 -0.52515393 -0.34462842 0.70990443
000020 d0 05 87 3e 17 cd 77 bf 06 76 18 be bd eb 32 3f
       0.26371622 -0.9679732 -0.14888772 0.6989096

encoder.6.bias f4 [3]
000000 e0 29 aa be 4e aa 6c 3e 60 e0 1c be
       -0.33235073 0.23111841 -0.15319967

decoder.0.weight f4 [4, 3]
000000 00 44 5f bf 81 6a 22 bf 50 ec 3a 3f 8e 6b 42 bf
       -0.87213135 -0.6344376 0.73016834 -0.75945365
000010 4d 70 3c 3f f4 65 28 3f 13 5b 85 bf cb 3f 43 bf
       0.7360886 0.6578057 -1.0418419 -0.76269215
000020 07 93 9a be 2d c3 82 3a 36 7e 24 bf 37 29 50 bf
       -0.30190298 0.000997638 -0.6425508 -0.8131289

decoder.0.bias f4 [4]
000000 58 e5 85 be 20 42 e0 3e d5 ff 27 3e e3 f7 a4 3c
       -0.26151538 0.4380045 0.16406186 0.020137733

decoder.2.weight f4 [6, 4]
000000 5a 76 51 3e e1 5b e7 be fc d6 e9 3e 53 cf 6c 3f
       0.20455304 -0.45187286 0.45671833 0.9250385
000010 c0 a1 39 3f 1a 4f 2c 3e 7f 3f 28 3f 78 d7 04 bf
       0.72512436 0.1682705 0.6572189 -0.5189128
000020 c2 ce 6f be a5 74 13 bd cf e9 87 3f f5 3a 97 3f
       -0.23418716 -0.035999913 1.0618228 1.1814867
000030 ed f5 39 3e b9 93 1f bf 96 55 33 be 46 c3 31 3f
       0.1816022 -0.6233478 -0.17513117 0.6943859
000040 2e 22 8e 3f 6e d8 e0 bd d4 dc 0f 3f 57 b8 13 3e
       1.1104181 -0.10978781 0.5619633 0.14425789
000050 91 97 00 bf 46 71 50 bf 9e 74 34 bf 7f 10 6a 3f
       -0.5023127 -0.8142284 -0.70490444 0.9143142

decoder.2.bias f4 [6]
000000 30 94 26 3e a6 f4 4c be 72 5c 96 3d 35 b7 b7 be
       0.16267467 -0.20015201 0.07341851 -0.35881963
000010 03 c7 0c be 19 73 a3 be
       -0.13747792 -0.3192375

decoder.4.weight f4 [8, 6]
000000 92 9c 07 bf 1d b5 b7 bd 60 e1 04 be d6 ae 28 bf
       -0.5297328 -0.089700915 -0.12976599 -0.6589178
000010 30 9c 58 be 52 9e 99 be 32 ec b4 3e 42 6c cc 3e
       -0.21153331 -0.300036 0.35336453 0.39926344
000020 21 85 9e 3e 8d c3 0d 3f 1e 0d a6 3e b6 da ab 3e
       0.30960944 0.5537651 0.32431883 0.335653
000030 4c 39 5c bf ce d1 2f bf d7 aa 56 bf 1b ce 14 3e
       -0.8602493 -0.6867951 -0.8385443 0.14531748
000040 39 bc 64 bf 4b be b4 3e ce c8 b4 3e d7 5d b7 be
       -0.89349705 0.35301432 0.35309452 -0.35813782
000050 c7 60 0f bf 3a 2a 4b be a6 a4 8d 3d ee 05 dc bd
       -0.56007046 -0.19840327 0.0691617 -0.107433185
000060 dd 88 5f bf a4 7e 0c 3f c4 c2 40 3e fd 8e 54 bf
       -0.8731821 0.5488074 0.18824297 -0.8303068
000070 8e 8c 0e bf a4 09 6b bf af 04 b0 3e 81 9d 23 3f
       -0.5568322 -0.91811585 0.34378573 0.63912207
000080 10 5e 19 3f 77 a7 50 3c 99 06 53 3f 28 cc 2d bf
       0.59909153 0.012735239 0.8243194 -0.6788964
000090 84 05 2e 3f a4 81 3d bf ef 63 12 3f b4 2f fb bd
       0.67977166 -0.7402594 0.57183737 -0.12264958
0000a0 85 cd 31 bf e6 6f f7 3e c5 28 a0 3e e8 36 1e 3f
       -0.6945422 0.4832756 0.31281105 0.6180253
0000b0 34 2d 93 be 82 3b 29 3d 77 be 20 3f b9 6d cd 3e
       -0.28745425 0.041316517 0.62790626 0.40122774

decoder.4.bias f4 [8]
000000 39 7e 13 3d c6 b5 be 3e d3 c7 d7 bd 17 b8 11 3f
       0.036009047 0.37248057 -0.1053616 0.56921524
000010 16 b2 e3 bd 54 5d 28 bd 17 47 b3 3e 5b 71 c1 3e
       -0.111179516 -0.04110463 0.35015175 0.37781796

decoder.6.weight f4 [4, 8]
000000 4f b9 f4 3e fa f5 0f bf 42 f8 89 3e 1e 3d 1a be
       0.4779763 -0.56234705 0.26947218 -0.15062377
000010 91 9c 2c 3e 58 ba a3 be 9f 53 3a 3f ae 4a e3 be
       0.168566 -0.31978106 0.72783846 -0.44392914
000020 fd e6 9b be 6e a0 0f 3f ab 41 33 be a4 d7 bf bd
       -0.30449668 0.5610417 -0.17505519 -0.09367302
000030 be 91 e5 be b1 04 8a be a1 f1 47 3f d2 38 e4 3d
       -0.44837755 -0.26956704 0.7810307 0.1114365
000040 fa 6d 34 bd b9 02 3d 3f e0 32 81 3d 6f 77 52 3d
       -0.044050194 0.7383228 0.06308532 0.051383432
000050 01 ee 73 bd 19 e0 4c bd 55 2a 50 bf 92 6a 3e 3f
       -0.05955315 -0.050018404 -0.81314594 0.74381363
000060 53 52 15 3e b8 0c f6 be fb 1b 33 3f 38 31 5c 3f
       0.14582185 -0.4805658 0.6996457 0.860126
000070 e1 f8 f7 be e8 aa 1b bf 88 44 c2 3d b5 09 85 3e
       -0.48432067 -0.6080766 0.094857275 0.25983968

decoder.6.bias f4 [4]
000000 41 af 4a 3d 25 0f 9a 3d 26 a5 3a 3e 88 5e 0d 3f
       0.04948354 0.0752242 0.18227062 0.5522237

exp_avg f4 [8, 4]
000000 86 5a 22 3a 5c 75 eb 39 5e 56 e8 b9 2b aa 1b 39
       0.00061932986 0.00044910132 -0.00044314837 0.00014845344
000010 a1 36 0c bb c5 43 0e 3a cc 58 05 ba 60 25 20 3b
       -0.0021394866 0.00054269686 -0.0005086779 0.002443634
000020 4c fe 2d ba 2c 29 da 39 0c 4d 1b 3a 6d 89 aa 3a
       -0.00066373195 0.00041610876 0.00059242616 0.0013010927
000030 c0 56 39 bb 5d 75 cd b9 8d 3d 97 3a 03 d0 67 3a
       -0.0028280467 -0.0003918809 0.0011538729 0.0008842947
000040 c5 f7 bb 3a 82 9f 9e 3a 15 18 81 3a 0b 20 ae b8
       0.0014340809 0.001210198 0.0009849096 -8.302935e-05
000050 c1 c2 ca 3a c9 40 8f ba 1a a8 f1 b9 b0 3a 8d ba
       0.0015469418 -0.0010929342 -0.00046092347 -0.0010774937
000060 e1 31 e4 3a 1f 33 4a 3a 65 b4 30 3a 63 ff 9b ba
       0.0017409885 0.0007713306 0.0006740748 -0.0011901673
000070 55 54 e1 b9 83 4d b1 38 88 e1 24 3a 0b 35 29 ba
       -0.00042978176 8.4544554e-05 0.000628971 -0.00064547424

exp_avg_sq f4 [8, 4]
000000 eb dc 07 38 6b 37 99 36 8d b9 c0 36 f0 45 0f 37
       3.2392254e-05 4.566207e-06 5.743647e-06 8.539748e-06
000010 f0 44 76 37 9b 90 ad 36 47 a0 d5 36 ce d9 8f 37
       1.4678793e-05 5.172636e-06 6.3665534e-06 1.7148352e-05
000020 c1 ac 92 36 01 3c 93 36 b4 5f 88 36 75 98 c1 36
       4.3712503e-06 4.3879268e-06 4.064257e-06 5.7695966e-06
000030 a3 d3 56 38 b2 b2 60 37 c8 58 5b 37 9c 67 0f 38
       5.1218678e-05 1.3393046e-05 1.3074088e-05 3.419035e-05
000040 22 3a 28 38 ee c0 5a 37 b0 82 40 37 77 fd 28 37
       4.010846e-05 1.30387325e-05 1.147452e-05 1.0072595e-05
000050 8a 83 99 36 a9 e4 3f 36 0a a8 22 36 b5 93 c9 35
       4.5750685e-06 2.8594316e-06 2.4237693e-06 1.5018655e-06
000060 9e 12 8d 37 57 21 0a 36 d3 e7 31 36 5d c0 76 36
       1.681718e-05 2.0583009e-06 2.6509995e-06 3.6768827e-06
000070 a2 7d 33 35 67 f4 95 34 6d f7 09 35 ce e2 29 35
       6.6865516e-07 2.793124e-07 5.139653e-07 6.328745e-07

exp_avg f4 [6, 8]
000000 00 2f 84 37 ab f9 b8 b9 62 bf 77 3a 3e d7 ae b9
       1.5757512e-05 -0.00035281232 0.00094508205 -0.00033348234
000010 eb 66 6d 3a e2 fd a9 ba fa c4 1a 3a fd 9c 83 39
       0.00090561685 -0.001296934 0.00059039856 0.00025103232
000020 d1 ea 3b 39 4c 8e 14 3a 37 57 3c b9 32 b6 25 39
       0.00017921186 0.0005666956 -0.00017961567 0.00015803499
000030 ba 5c 63 39 dc 21 e9 38 2c 82 ce ba 25 52 9a 39
       0.0002168295 0.000111166126 -0.0015755347 0.0002943437
000040 fa 0e f3 b9 3a 0b 1c ba 38 a5 2e ba 05 5a 1b ba
       -0.0004635973 -0.00059526006 -0.0006662193 -0.0005926195
000050 e2 79 6b b9 b4 af c0 39 06 be 03 3a 93 15 07 3a
       -0.00022456751 0.00036752003 0.0005025569 0.0005153056
000060 6b f9 64 b7 f6 59 0b b9 b7 6f a9 b9 ef c1 1d 39
       -1.3647931e-05 -0.00013289586 -0.00032317426 0.00015044933
000070 2f a5 ff b9 1e 98 38 3a a7 f5 94 b9 7a 39 85 b9
       -0.00048760462 0.000704171 -0.00028411785 -0.0002541056
000080 52 22 aa 38 20 07 5a 3a 7e 52 de 39 52 dc 61 ba
       8.112624e-05 0.0008317102 0.000424046 -0.0008615899
000090 c6 72 2a ba c5 f6 1d 39 91 37 a0 39 a6 d0 a3 ba
       -0.0006502088 0.00015064616 0.00030558978 -0.0012498095
0000a0 f8 cd f9 b9 ea ba f9 b9 2a 30 42 39 97 3a 05 3a
       -0.0004764644 -0.00047632243 0.00018519224 0.0005082278
0000b0 a7 26 3c ba 1d 1d 6f 39 1d 51 c2 39 81 af e9 39
       -0.00071773905 0.00022803662 0.00037062998 0.00044571984

exp_avg_sq f4 [6, 8]
000000 b7 5d 01 37 8c a7 3c 37 2a 62 58 37 3c 15 60 37
       7.710819e-06 1.1244683e-05 1.2897459e-05 1.3356384e-05
000010 75 c4 2e 37 75 48 86 37 21 fd 38 37 28 df 44 37
       1.0416949e-05 1.6007785e-05 1.1026191e-05 1.1734468e-05
000020 9e 45 93 35 98 2b d3 35 d4 27 e4 35 c5 5f c5 35
       1.0972615e-06 1.5733413e-06 1.6998915e-06 1.4705516e-06
000030 4c 1f c7 35 18 21 05 36 00 6d 9d 36 f9 a0 01 36
       1.4835764e-06 1.9837807e-06 4.691654e-06 1.9316196e-06
000040 4e f6 d0 35 71 a4 85 36 d5 04 96 36 11 7c 89 36
       1.5568892e-06 3.9828524e-06 4.470911e-06 4.0973614e-06
000050 95 a1 0b 36 71 3a b4 36 44 2b 32 36 1d cf 64 36
       2.0806667e-06 5.3712215e-06 2.654925e-06 3.4095203e-06
000060 18 05 0b 35 ab 26 e4 35 9a a1 23 36 4b c4 12 36
       5.178895e-07 1.6998578e-06 2.4382957e-06 2.1869953e-06
000070 e1 aa d6 35 20 d0 61 36 33 89 df 35 91 be 04 36
       1.5993975e-06 3.3648757e-06 1.6654725e-06 1.9780457e-06
000080 43 b1 b7 35 a4 d4 5a 36 3a 4b 7c 36 97 15 28 36
       1.3686152e-06 3.2608305e-06 3.7594714e-06 2.5046518e-06
000090 bf 7c 22 36 ee 3e 9b 36 ae 12 83 36 3a 7b 67 36
       2.4212493e-06 4.626686e-06 3.906279e-06 3.449341e-06
0000a0 de 1d 9a 35 84 56 1f 36 90 d0 68 36 52 fe 2e 36
       1.1482587e-06 2.3743205e-06 3.4692093e-06 2.6076054e-06
0000b0 b6 23 23 36 9e c3 8f 36 bd 12 44 36 aa 3d 58 36
       2.430968e-06 4.284505e-06 2.9217183e-06 3.2222401e-06

exp_avg f4 [4, 6]
000000 8a 4e 41 3a 8a f6 03 3a 2c ea 16 b7 e0 32 53 ba
       0.0007374069 0.00050339906 -8.995219e-06 -0.0008056592
000010 b7 a9 27 ba d5 d0 71 b9 b6 8c 8a ba fb 62 10 3a
       -0.0006395834 -0.00023061347 -0.00105705 0.00055079133
000020 1c 52 13 b8 51 ad 85 3a bb ff 54 39 50 46 08 3a
       -3.5124e-05 0.0010198747 0.00020313163 0.00051984657
000030 8d cd 54 b9 ef c2 1b 3a b2 e0 59 3a 2c 27 d8 b9
       -0.00020294469 0.0005941828 0.0008311375 -0.00041227916
000040 d5 8d eb b9 e7 00 05 3a d2 85 2a ba 58 35 8f 3a
       -0.00044928366 0.0005073682 -0.0006504926 0.0010925932
000050 87 47 37 3a 92 8d e3 b9 48 91 ea b9 5b dd c5 3a
       0.00069915544 -0.00043402292 -0.000447402 0.0015095876

exp_avg_sq f4 [4, 6]
000000 4d 19 2f 36 d1 37 01 37 a2 f7 4d 36 c2 31 ab 35
       2.609176e-06 7.701995e-06 3.0691522e-06 1.2754974e-06
000010 59 1a 88 36 b4 44 b8 35 16 33 8a 36 8a b4 5f 37
       4.056183e-06 1.3729064e-06 4.1186677e-06 1.3333871e-05
000020 34 16 85 36 08 df ce 36 31 f6 d5 36 67 83 ab 36
       3.9662937e-06 6.1652427e-06 6.376555e-06 5.1114944e-06
000030 9b 67 c8 35 e9 e8 66 36 c5 2b 1c 36 9f ae c3 35
       1.4931314e-06 3.4408242e-06 2.3271289e-06 1.4579454e-06
000040 b0 fe a1 35 ca db c3 35 77 40 6f 36 c5 76 37 37
       1.2069559e-06 1.4592599e-06 3.5651299e-06 1.0935303e-05
000050 ad 5b 90 36 1e 8e 81 36 a4 4d a2 36 bb 66 c2 36
       4.302207e-06 3.861044e-06 4.837015e-06 5.79361e-06

exp_avg f4 [3, 4]
000000 26 b4 db 39 32 af 99 ba 78 b6 d1 3a 7a aa 03 3b
       0.00041905156 -0.0011725186 0.0015999814 0.0020090626
000010 7a cf 42 3b 80 3d 9b ba 1c 00 14 ba e7 7e a2 ba
       0.0029725716 -0.001184389 -0.0005645768 -0.0012397439
000020 71 5c dc ba d5 c8 08 3b 44 3b 8a 3a e1 74 eb b8
       -0.0016812218 0.0020871658 0.0010546227 -0.000112274436

exp_avg_sq f4 [3, 4]
000000 30 2e 24 37 fb 69 91 36 3b 00 6d 37 08 83 eb 36
       9.785916e-06 4.3336745e-06 1.41263545e-05 7.0188e-06
000010 01 a5 63 37 5b e3 4d 36 2f 52 15 37 e6 39 4a 36
       1.3568672e-05 3.0679719e-06 8.900227e-06 3.0134047e-06
000020 b2 42 14 37 3d 39 d2 36 33 35 20 37 71 40 28 36
       8.837016e-06 6.265151e-06 9.54913e-06 2.507146e-06

exp_avg f4 [4, 3]
000000 f7 a6 7f 3a fe 0f 90 3a 05 a8 a2 bb 25 50 8f 3b
       0.0009752358 0.0010991094 -0.004963877 0.0043735676
000010 04 bd 2f bb 81 a3 86 ba c9 cd 17 3b 57 47 fc 3a
       -0.0026815543 -0.0010272117 0.002316343 0.0019247335
000020 0f 05 14 3b c2 87 cf 39 2a f6 bb 3a 73 59 41 3a
       0.0022586023 0.00039583264 0.001434033 0.00073756947

exp_avg_sq f4 [4, 3]
000000 f3 31 0e 37 fe 7b e5 36 36 5c f1 37 09 e2 aa 37
       8.475489e-06 6.8391664e-06 2.8772378e-05 2.0370835e-05
000010 c6 3e 0c 37 0b de 60 36 fb 12 12 37 af b5 05 37
       8.359266e-06 3.3507847e-06 8.706697e-06 7.969719e-06
000020 ba e9 53 37 be 72 77 36 c7 4e c9 36 d3 21 75 36
       1.2630999e-05 3.6872657e-06 5.9994377e-06 3.6527533e-06

exp_avg f4 [6, 4]
000000 9c 46 98 ba fe 5e 55 3b ee f0 09 3a d2 a4 33 ba
       -0.0011617723 0.003255784 0.00052620366 -0.0006852868
000010 63 a3 f8 ba 6f 66 e1 3a 3f 18 4d 3a ac ae 30 ba
       -0.0018969591 0.0017196665 0.00078237423 -0.00067398953
000020 c0 0a c1 3a 55 69 5a bb a0 f7 a1 bb 16 35 10 bb
       0.0014727935 -0.0033326943 -0.0049428493 -0.0022004298
000030 79 d0 97 3a 92 9d 61 3b 01 93 1b 3b ec e7 56 ba
       0.0011582515 0.0034426195 0.0023738744 -0.0008198011
000040 60 0a ee ba 27 0b 24 3b c6 7b 81 b9 46 4b 02 ba
       -0.0018161051 0.0025031061 -0.00024697016 -0.0004970323
000050 63 2f 23 3a 31 3d 9b 3b 3c 61 99 3a 9c df eb ba
       0.0006225018 0.004737519 0.0011701952 -0.0017995718

exp_avg_sq f4 [6, 4]
000000 d1 83 7f 36 ac 4b 2b 37 8d 73 b2 35 09 ba 8b 35
       3.8074688e-06 1.0210013e-05 1.3295663e-06 1.041045e-06
000010 31 b3 03 37 c7 92 29 37 fd 55 eb 36 47 3c 9e 36
       7.84993e-06 1.0107359e-05 7.013556e-06 4.715784e-06
000020 7c a1 0b 37 8a 0a 4c 37 e2 a7 dc 37 9c b1 33 37
       8.322644e-06 1.2161801e-05 2.630422e-05 1.0710584e-05
000030 55 5c 1f 36 d0 e8 4b 37 22 ef de 36 26 8a ae 35
       2.374659e-06 1.2153949e-05 6.6439543e-06 1.3004217e-06
000040 96 28 a1 36 8b d9 1b 37 5e 3a 40 36 00 3e f3 35
       4.8028987e-06 9.289371e-06 2.8644204e-06 1.8122955e-06
000050 7f f9 2b 36 89 2d da 37 cf 75 b4 36 14 d2 a4 36
       2.5626211e-06 2.6008829e-05 5.3781328e-06 4.912037e-06

exp_avg f4 [8, 6]
000000 ba e1 2b ba 5a e8 5c ba 80 80 db ba 14 0e f1 3a
       -0.0006556768 -0.0008426957 -0.001674667 0.0018391036
000010 71 69 0d bb e7 ff 2c 3b 5d 6b 04 bb 8c df 1f 3a
       -0.002157774 0.0026397647 -0.0020205595 0.000609868
000020 2c f6 ad 39 5f 0b 37 bb 9c bf 84 ba 9f 08 90 bb
       0.00033180544 -0.0027930362 -0.0010127905 -0.004395559
000030 49 8a 90 3a 71 a3 e3 39 7b 5f 61 3b 1c ac 89 b9
       0.001102754 0.00043418587 0.0034389186 -0.00026258908
000040 63 8e 8a 3a 60 b5 02 bb cd 53 e5 ba 5c a1 c4 b9
       0.0010570999 -0.0019944534 -0.0017496288 -0.00037504255
000050 99 da 45 3b 72 08 04 ba ef 2f 67 b9 a5 87 67 bb
       0.0030190109 -0.0005036659 -0.00022047733 -0.0035328653
000060 fa 1b 8e 3a 77 69 83 37 05 da 35 b9 5a 39 a8 3a
       0.0010842078 1.5665528e-05 -0.00017342724 0.0012834475
000070 12 45 34 3a fc 05 d1 3a 58 07 02 bb 7e 2d 39 ba
       0.00068767474 0.0015947218 -0.0019840803 -0.0007063969
000080 67 8c 81 bb 54 3a 7a ba 08 2d a9 ba 61 20 4d 39
       -0.003953505 -0.0009545435 -0.0012907097 0.00019562386
000090 97 74 52 b9 c1 32 e8 3a 10 9c 1c bb ae d9 53 3a
       -0.00020070594 0.0017715321 -0.0023896731 0.0008081448
0000a0 8d 82 e0 3a 01 6b 74 ba 36 e1 28 bb b6 a5 16 3b
       0.0017128751 -0.0009323806 -0.0025769002 0.0022986955
0000b0 b6 dc 80 3b a1 96 1a bb 11 63 c2 3a 3f 61 ef bb
       0.003932561 -0.0023588317 0.001483055 -0.007305294

exp_avg_sq f4 [8, 6]
000000 cb 53 67 36 fb ec 24 36 5e 1a 1c 37 df 8b aa 36
       3.4470456e-06 2.4575845e-06 9.304464e-06 5.082678e-06
000010 39 43 e9 36 3a c9 2a 37 94 fe d3 36 fb fd 84 36
       6.951767e-06 1.0179641e-05 6.317927e-06 3.963474e-06
000020 b7 cc 01 37 bb cd 7b 37 36 61 bd 36 1a 63 e4 37
       7.736663e-06 1.5008666e-05 5.643956e-06 2.7225866e-05
000030 cf 48 4b 36 cc 66 a8 35 8d cc 83 37 61 a5 d1 35
       3.0291737e-06 1.2546893e-06 1.5711668e-05 1.5619845e-06
000040 17 c3 f0 35 32 9d c1 36 47 a5 01 37 2d 6c c5 36
       1.7938172e-06 5.770148e-06 7.727481e-06 5.883651e-06
000050 a6 3e 9d 37 3b 4b ca 36 82 fe 00 37 03 8c 7a 37
       1.8745031e-05 6.028827e-06 7.688652e-06 1.493376e-05
000060 6f 18 bb 35 dc 63 11 35 e5 d9 05 35 ce d8 07 36
       1.3939697e-06 5.4162024e-07 4.986344e-07 2.0242765e-06
000070 d4 ee b8 35 99 2c 4c 36 32 44 07 37 3b 7b ba 35
       1.3778576e-06 3.0424328e-06 8.062505e-06 1.3893945e-06
000080 5a 6c cb 37 4a 0a 9e 36 71 42 39 36 ac 6d 8a 36
       2.424994e-05 4.7099647e-06 2.7605822e-06 4.125488e-06
000090 6c 7d 31 37 b6 cf 13 37 23 b3 9f 37 f8 dc 54 37
       1.0579224e-05 8.810244e-06 1.9037694e-05 1.2687633e-05
0000a0 de f6 64 37 1c 91 29 37 23 67 77 37 c1 e3 4d 37
       1.3647337e-05 1.0106971e-05 1.4746361e-05 1.227198e-05
0000b0 60 a7 31 38 e7 9c 85 37 f9 82 34 37 ea 64 82 38
       4.235597e-05 1.5927899e-05 1.07593305e-05 6.21768e-05

exp_avg f4 [4, 8]
000000 31 5b db ba 58 d8 99 b8 cb 53 b7 3a f6 dc 82 3b
       -0.0016735551 -7.335906e-05 0.0013986764 0.0039936258
000010 34 30 ca bb 77 f7 71 3a df 4d 74 bc 77 b9 a1 3b
       -0.006170297 0.00092302955 -0.014911144 0.004935439
000020 e2 eb 06 bb 87 0e 0f ba ca f3 a0 ba 85 cc 3b bb
       -0.0020587374 -0.0005457182 -0.0012279686 -0.0028655839
000030 05 72 58 bb 2a d9 be 3a 97 cf 57 b8 d8 3a 1c b9
       -0.0033026945 0.001456057 -5.1453328e-05 -0.0001489924
000040 da d6 1e 3c 42 2a 4b bc 27 ec 76 bb 0f 74 08 bc
       0.009694779 -0.012400212 -0.003767738 -0.008328452
000050 4e 24 65 3c 93 03 e6 3b 80 c8 76 bb 89 a6 22 bc
       0.0139857065 0.007019469 -0.0037656128 -0.0099274
000060 f8 f6 22 ba ec cb 5c bb e7 2e 18 bc a2 30 96 bc
       -0.0006216611 -0.0033690883 -0.009288526 -0.018333737
000070 f4 a7 ef 3b 68 95 da 3b 6e 65 3d 3c f5 fd 21 bc
       0.0073137227 0.0066706426 0.011559827 -0.009887208

exp_avg_sq f4 [4, 8]
000000 69 c9 45 38 bc b0 15 38 d1 6d bb 38 7d d1 68 38
       4.7156038e-05 3.5688965e-05 8.93731e-05 5.550821e-05
000010 cf 51 d4 38 ef 59 9c 38 53 38 87 39 d5 b1 36 38
       0.00010124186 7.455411e-05 0.0002579117 4.35578e-05
000020 ad f8 47 37 04 3d 3e 36 78 83 0d 37 25 44 54 37
       1.1919224e-05 2.8347722e-06 8.434865e-06 1.2652051e-05
000030 87 a8 cf 37 72 a0 14 37 06 88 0d 37 1e 08 07 36
       2.47548e-05 8.858844e-06 8.435925e-06 2.0121292e-06
000040 31 2c 07 39 4b 04 30 39 73 e3 d6 38 96 62 c1 38
       0.00012891066 0.00016786267 0.00010246681 9.22132e-05
000050 f1 1a 90 39 e5 bc fa 38 bc cc af 38 05 0b f9 38
       0.00027485893 0.00011956113 8.382785e-05 0.00011875298
000060 ea d7 54 38 12 f3 4d 38 8f 13 24 39 ef 61 ce 39
       5.0745824e-05 4.9102186e-05 0.00015647545 0.00039364348
000070 b2 69 c7 38 37 51 d1 38 7e 0d 39 39 a5 ff f9 38
       9.508747e-05 9.981024e-05 0.00017648001 0.00011920863

exp_avg f4 [8]
000000 2a 81 85 b9 6c 73 4b ba e3 89 88 3a f9 c0 d6 ba
       -0.00025463972 -0.00077610346 0.001041707 -0.0016384415
000010 0e dc 17 ba 93 16 00 ba bd 08 9e ba e1 8d 16 ba
       -0.00057929836 -0.00048861763 -0.0012057048 -0.00057431875

exp_avg_sq f4 [8]
000000 dd f4 da 36 fc 4a e8 36 9e 46 a6 36 9b e0 4f 37
       6.525412e-06 6.922868e-06 4.9554064e-06 1.23904565e-05
000010 ca 71 3b 37 66 41 2b 36 45 da 7e 36 c4 d3 06 35
       1.1172562e-05 2.5519053e-06 3.7976e-06 5.022705e-07

exp_avg f4 [6]
000000 c1 32 a0 ba 69 4f 82 3a 80 e3 63 b5 c6 a4 73 3a
       -0.0012222157 0.0009941879 -8.4895146e-07 0.00092942675
000010 36 d1 38 3a 28 88 92 39
       0.0007050218 0.00027948734

exp_avg_sq f4 [6]
000000 0c ad f7 37 f7 b5 aa 36 87 da 1b 37 ef 28 06 37
       2.9525276e-05 5.0875783e-06 9.2896e-06 7.996553e-06
000010 0b 61 0b 37 2a 76 14 37
       8.30764e-06 8.849e-06

exp_avg f4 [4]
000000 52 1e 62 39 ce c9 2e b9 61 ed 98 3a 88 d2 aa ba
       0.00021564335 -0.00016669111 0.0011667424 -0.0013032714

exp_avg_sq f4 [4]
000000 0d de 5b 37 a4 d2 b8 37 70 5d bf 36 23 1c a1 37
       1.3105117e-05 2.2032596e-05 5.703121e-06 1.9205798e-05

exp_avg f4 [3]
000000 65 f0 78 ba b5 a5 dc ba 22 c8 0e ba
       -0.0009496271 -0.0016834053 -0.0005446692

exp_avg_sq f4 [3]
000000 d5 dd ab 37 32 78 93 37 e3 a2 92 37
       2.0488087e-05 1.7579736e-05 1.7480406e-05

exp_avg f4 [4]
000000 0a 4f 95 ba 0d cb ad b7 45 a6 82 3b f9 33 45 3a
       -0.0011391353 -2.071776e-05 0.003987106 0.0007522698

exp_avg_sq f4 [4]
000000 f6 74 be 37 bd 43 b5 36 c3 66 c2 37 02 d7 42 37
       2.270423e-05 5.402106e-06 2.3174454e-05 1.16133615e-05

exp_avg f4 [6]
000000 22 1f 15 bb b3 2f 99 3a a2 8e b3 3b 3d e7 0a 3a
       -0.0022754152 0.0011687189 0.0054796496 0.00052987394
000010 0f 7c 32 bb df 4b fd b9
       -0.002723459 -0.0004831245

exp_avg_sq f4 [6]
000000 56 0b 35 37 98 5b 86 37 f0 0b 24 38 b8 75 57 36
       1.079108e-05 1.6016696e-05 3.9111765e-05 3.2106018e-06
000010 ea a9 8e 37 a6 aa 06 37
       1.7006842e-05 8.026755e-06

exp_avg f4 [8]
000000 b0 0e f2 ba 8f be c7 ba f2 7a 97 bb 1d 08 85 bc
       -0.0018467512 -0.0015239286 -0.0046228105 -0.01623922
000010 67 58 4d 3a 5e 4c 8e 3b aa d4 f0 39 e3 6e 98 bc
       0.00078333024 0.0043426 0.00045934814 -0.018607562

exp_avg_sq f4 [8]
000000 98 e4 4d 37 04 f1 ae 37 bc 9a c8 37 9c b8 96 39
       1.2272176e-05 2.0854648e-05 2.3913912e-05 0.00028747774
000010 d7 18 de 35 fc 13 d2 37 ec 78 9c 37 54 0f c1 39
       1.6547518e-06 2.5043257e-05 1.8652958e-05 0.0003682325

exp_avg f4 [4]
000000 f9 3e ae 3b 15 3f b5 bb 82 ba 88 bc ab b1 f6 bc
       0.0053175655 -0.0055312016 -0.016690496 -0.030114016

exp_avg_sq f4 [4]
000000 33 36 2d 39 9c a1 50 38 37 d0 ce 39 b2 e9 86 3a
       0.00016518756 4.9741575e-05 0.00039446514 0.0010293035
