jet_by_jet_compression/grid_search/models/AE_basic_lr1e-03_pNA_wd0e+00.pth (torch_old, 10506 bytes, 48 tensors)

encoder.0.weight f4 [8, 4]
000000 d0 3c 3a bd 64 8b b6 3e c4 b9 54 3d 4f 5f ef 3d
       -0.04546815 0.35653222 0.051934972 0.116881005
000010 3d c0 67 be d2 60 fc 3d b8 0c fa be 5e c3 a6 3e
       -0.22631927 0.123231545 -0.4883783 0.32570928
000020 36 81 55 3d b2 ef 00 be fd 16 81 3d 6f 44 98 3e
       0.05212518 -0.12591437 0.06303213 0.2973971
000030 62 13 e8 be c0 2a e3 3b ed f9 2e bd cd df 50 3d
       -0.45327288 0.0069325864 -0.042718817 0.050994683
000040 c4 25 3d be b6 e0 bb 3d 8c e7 2e 3e be 11 0a 3e
       -0.18471438 0.091737196 0.17080516 0.1348333
000050 91 62 8c 3d 9c d4 e6 be 41 ac c1 3e 29 cb 09 3f
       0.068547376 -0.45084083 0.37826732 0.5382562
000060 f6 75 1a bd ad 88 df 3d b1 3b 1b 3e db fc 8e be
       -0.037710153 0.10914741 0.15159489 -0.27927288
000070 9a de a4 bc f0 33 b0 be 58 8b 0d 3e 15 b1 0d be
       -0.020125676 -0.34414625 0.13822687 -0.13837083

encoder.0.bias f4 [8]
000000 b2 2e da be 2b b5 9c 3e 0b dc 04 bf 05 1f dd be
       -0.4261375 0.3060697 -0.5189826 -0.4318773
000010 8b 4a 8b 3e 10 ce 49 3e 15 7d 4d 3f 14 69 f7 3e
       0.2720531 0.19707513 0.80268985 0.48322356

encoder.2.weight f4 [6, 8]
000000 a1 f9 13 3e ad e5 cd 3d 85 5f b7 be 2c 14 3a 3e
       0.14450695 0.10053573 -0.35815063 0.18171757
000010 18 81 a9 3c 94 fa 1b be 81 13 b3 3e 21 3f 7a be
       0.02069144 -0.15232307 0.34975818 -0.24438144
000020 b2 3b 81 3e 16 b7 ba 3b 6e a0 8d 3d 05 44 c2 3d
       0.25240856 0.005698095 0.06915365 0.0948563
000030 1a 2d f4 bd ce bd b7 be d6 c8 d8 be 9c fd 16 bf
       -0.11922665 -0.35886997 -0.42340726 -0.5898073
000040 94 e0 2e bb 17 4e 3d 3d 8a 6c 3b 3e ce fd dd 3e
       -0.0026684152 0.04621705 0.18303123 0.433577
000050 75 30 e8 3d fa 11 07 bf f3 c2 16 3d c8 7a a7 3e
       0.113373674 -0.52761805 0.03680701 0.32710862
000060 3c 11 c2 3d 1a b0 07 3c 23 44 ac 3d a4 83 01 3f
       0.094759434 0.008281732 0.084114335 0.5059149
000070 f9 39 24 3e 9f 83 2d 3e 36 37 19 be fe 9e ff 3e
       0.1603774 0.1694474 -0.14962468 0.4992599
000080 69 b1 80 be e5 e6 5e bd 79 2f 5d 3e 62 da 62 bd
       -0.25135353 -0.054419417 0.2160014 -0.055384047
000090 84 ea 1a 3e 85 f2 1a 3f 07 29 33 3e cd fb 5f 3e
       0.15128523 0.60526305 0.1749612 0.21873398
0000a0 3c f4 3a 3e 79 b0 8c be 15 1b 83 3e 4d 34 2b be
       0.1825723 -0.27478388 0.256066 -0.1671917
0000b0 72 44 30 be e9 c9 69 3d f6 21 1a bf 9a 4c ed be
       -0.1721361 0.057077322 -0.6020807 -0.46347505

encoder.2.bias f4 [6]
000000 eb 05 b8 3d e9 3c cf 3d 0d 5b 72 be 97 75 36 be
       0.08985504 0.101190396 -0.23667546 -0.17818294
000010 f7 fc a9 be c1 8a a1 bd
       -0.3320081 -0.07887793

encoder.4.weight f4 [4, 6]
000000 29 88 03 be 6f 4e d9 be 54 25 27 3e 44 6b 04 3f
       -0.1284491 -0.42442653 0.16322833 0.51726174
000010 3d 56 14 3f b2 3c 14 3e 3f 03 15 bf 11 5e d8 3e
       0.5794409 0.14476278 -0.5820808 0.42259267
000020 35 75 c0 be 42 c5 88 3e 46 b8 c2 3e 19 59 01 3f
       -0.37589422 0.26712996 0.38031214 0.5052658
000030 1b 2a ea 3e aa fa e2 3b 4b ce 04 3f 5e 3e 32 3e
       0.4573525 0.006926854 0.5187728 0.17406604
000040 c9 04 f0 bd 36 3b 3b be e1 ef dd 3d 08 37 2c 3f
       -0.11719663 -0.18284306 0.10836769 0.6727147
000050 8b d8 03 bd 21 f3 8b be 90 dd c2 be 17 2a 95 3d
       -0.032188933 -0.2733393 -0.38059664 0.072834186

encoder.4.bias f4 [4]
000000 82 25 d1 bd f2 4d e8 bd 00 e0 b7 be a5 54 ad bc
       -0.10212232 -0.11342992 -0.35913086 -0.021158526

encoder.6.weight f4 [3, 4]
000000 df 0f c0 bc 5e 92 1f bf 8f 41 54 3e a7 dc 8f be
       -0.023445068 -0.62332714 0.20728134 -0.28098032
000010 04 7c 56 3f 5b 86 64 3d 97 d9 fa 3d f3 04 5e bf
       0.8378298 0.055792194 0.12248533 -0.867263
000020 15 ec dc bd c9 40 1a 3f 66 f4 0c bf 9f de a6 be
       -0.107872166 0.60255104 -0.5506042 -0.3259172

encoder.6.bias f4 [3]
000000 4a ec 17 3e d7 72 14 be 0a b3 d1 3e
       0.14836231 -0.14496933 0.40956908

decoder.0.weight f4 [4, 3]
000000 4d ce c3 3e 0e 1a 4b 3f 6d 10 01 be 5a e7 d8 3e
       0.38243333 0.7933663 -0.12603922 0.42364007
000010 a5 d7 c1 3c 6f d2 76 bf 5c ac ef be 7d bb 35 be
       0.023662398 -0.96414846 -0.46811187 -0.17747302
000020 d5 9b 3a 3f 2e 80 25 be c4 a4 7f bf b3 1c 75 3d
       0.7289403 -0.16162178 -0.9986079 0.059841823

decoder.0.bias f4 [4]
000000 b1 8c d0 bb 5a a5 ad 3e fd b9 48 be d5 0e 55 3d
       -0.006364428 0.33915216 -0.19602199 0.052016098

decoder.2.weight f4 [6, 4]
000000 be 04 6d 3e 5b a6 1e bf 80 da 14 3f 51 80 3a be
       0.2314634 -0.6197259 0.58145905 -0.18213011
000010 64 59 31 bd ac 51 50 3f f3 1e 3a bf dd 12 26 be
       -0.04329814 0.8137462 -0.72703475 -0.16218133
000020 3e 66 d1 3e 13 fb 96 3e 87 ba c1 be 3e 02 5a bf
       0.40898317 0.2948843 -0.37837622 -0.8515967
000030 bb f9 de be 12 4d c1 be cf 54 2c 3f 51 b1 d8 be
       -0.43549904 -0.37754112 0.6731691 -0.42322782
000040 6d 54 84 3f ca 19 12 3e 57 d8 8c be b5 81 76 be
       1.0338265 0.1426765 -0.27508804 -0.24072917
000050 f1 cc b4 be 7d ae 1e bf da da 16 3f 0f 35 c0 3e
       -0.35312608 -0.61985 0.5892769 0.3754048

decoder.2.bias f4 [6]
000000 ad b2 d4 3e c5 ec 2e 3c 4c 91 a4 be fe 7a d4 be
       0.4154257 0.010676567 -0.32142103 -0.41500086
000010 e0 a1 1e be 44 49 09 be
       -0.15491438 -0.13406855

decoder.4.weight f4 [8, 6]
000000 6c 34 0c be 36 d7 30 3f 94 45 95 3e c8 ef 1e bf
       -0.13691872 0.69078386 0.29154646 -0.6208463
000010 b0 10 dd 3e 2d 23 b5 be 6a f5 30 bf db da 04 3f
       0.43176794 -0.353784 -0.6912447 0.51896447
000020 32 00 78 3e f0 b5 9a be 89 ed ea 3d 10 e1 35 3c
       0.24218825 -0.30216932 0.114710875 0.011101022
000030 76 1b 32 bf d4 53 ca 3e af 85 be bd 83 5a 54 be
       -0.6957315 0.3951708 -0.09302842 -0.20737652
000040 47 05 8e 3d e0 a4 92 be 32 89 d4 3d 42 d9 07 3f
       0.069346 -0.28641415 0.103777304 0.53065884
000050 4d 98 09 3f 98 d1 c7 3e 28 fe 68 3f b3 72 da be
       0.5374802 0.39027095 0.9101281 -0.42665634
000060 81 d4 98 3d 35 37 9b be c1 8a a6 3e ef b5 6f 3d
       0.07462407 -0.30315557 0.32527736 0.058523115
000070 0b 56 d3 bd 78 7b d0 3e 57 4b 42 bf c2 bf 69 3e
       -0.10319146 0.407192 -0.7589621 0.22827056
000080 dd ef 8a 3e 21 ed 6f be 25 c1 ce bd 18 81 95 3d
       0.27136126 -0.23430301 -0.10095433 0.07300013
000090 15 45 67 be 90 10 00 be a7 b5 41 3f d5 8b 9f 3d
       -0.22584946 -0.12506318 0.75667804 0.07790343
0000a0 48 07 2b 3f 5f 49 20 bf 06 d4 7c bf 69 ba 11 3f
       0.66807985 -0.62611955 -0.9876102 0.56925064
0000b0 16 08 0a be 02 2f e1 bd e0 0d 90 bd b2 1d eb be
       -0.13479647 -0.10995294 -0.070338964 -0.45921093

decoder.4.bias f4 [8]
000000 70 78 d2 3d 1e 43 5d bc 24 43 7b be 18 da 82 be
       0.10276878 -0.0135047715 -0.24537331 -0.25557017
000010 02 80 8a be ef d1 08 bf 9d 8b a3 be 81 d4 cc bd
       -0.27050787 -0.53445333 -0.31942454 -0.100014694

decoder.6.weight f4 [4, 8]
000000 d2 f8 03 be be 16 aa be 03 91 1f bf dc a2 f2 be
       -0.12887886 -0.33220476 -0.62330645 -0.47389877
000010 c5 35 6d be 97 11 b2 be e9 4a 0a bf 30 27 c7 be
       -0.23165043 -0.34779045 -0.54020554 -0.38897085
000020 a2 da 03 be c8 8a fc 3d d3 fe cc 3e b0 64 fd be
       -0.1287637 0.12331158 0.40038165 -0.4949088
000030 f5 c8 31 bd a0 91 e8 bd 72 f9 19 bf 83 b9 26 3e
       -0.04340454 -0.11355901 -0.6014625 0.16281705
000040 4c 7f 1a 3e cd 21 0d be d8 d7 82 3c f8 08 f8 3e
       0.15087622 -0.13782425 0.015972063 0.48444343
000050 fd f1 e6 3e 11 ea 86 be 68 90 22 3e 2a cf 63 be
       0.45106497 -0.26350453 0.15875399 -0.22246996
000060 fa ac 3c bf fb 6a a5 be 38 73 37 be a8 70 6c be
       -0.7370144 -0.32308182 -0.17915046 -0.2308985
000070 a9 1a 3a 3e 9c b8 b7 be d8 8a 4b be 5e 8c 04 bf
       0.18174233 -0.35883033 -0.19877183 -0.51776683

decoder.6.bias f4 [4]
000000 85 2a 91 be 7d 91 aa be ef 22 77 3e fb 7e cc 3e
       -0.28352752 -0.33314124 0.2413442 0.39940628

exp_avg f4 [8, 4]
000000 4a 11 6d 39 a8 f7 2c 3b ab af 60 b9 22 4a 09 ba
       0.00022608522 0.0026392732 -0.00021427746 -0.0005237182
000010 05 fd 16 ba 1a c7 00 ba ad e1 ed b8 e9 72 76 3a
       -0.0005759749 -0.0004912481 -0.00011343076 0.0009401278
000020 2b 9c 42 b8 22 9b 20 3b 1a c0 8b ba 81 8b 5e 3b
       -4.6398647e-05 0.002450653 -0.0010662109 0.0033957663
000030 24 86 76 ba 07 59 87 3b 79 56 14 bb 05 02 28 3a
       -0.0009404144 0.004130486 -0.002263455 0.00064089923
000040 15 01 c5 b9 e9 37 10 bb ea b7 8e 3a 25 c4 3c b9
       -0.00037575574 -0.0022005981 0.0010888551 -0.00018002147
000050 74 4b e4 b9 12 c1 84 bc 7f e1 d4 39 c3 bd 56 3b
       -0.00043543766 -0.016205344 0.000406038 0.0032766915
000060 fb 06 5d ba ab 61 94 bb 14 bc df 3a 09 2e 57 ba
       -0.0008431521 -0.0045282445 0.0017069601 -0.0008208459
000070 c8 c9 80 b9 6d 83 93 bb fa 6d cc 3a a4 28 a3 3b
       -0.000245644 -0.004501751 0.001559674 0.00497921

exp_avg_sq f4 [8, 4]
000000 bd 5a 4e 36 19 91 02 37 ed 85 69 35 4c 61 bc 35
       3.0749209e-06 7.782387e-06 8.699415e-07 1.4035409e-06
000010 8e 6d d5 35 ea 4f 0d 36 2a 6d 4e 35 d8 bf f4 35
       1.5901621e-06 2.1057153e-06 7.6899835e-07 1.823525e-06
000020 c9 94 9f 36 81 5f 8f 37 78 59 83 36 83 69 cc 37
       4.75589e-06 1.70914e-05 3.9145198e-06 2.4367828e-05
000030 de 56 ef 36 b9 d5 07 38 22 d0 a1 37 11 9b 46 37
       7.1328677e-06 3.2385553e-05 1.9289615e-05 1.1837824e-05
000040 b6 44 cf 36 cb 5e f6 36 63 e0 93 36 bb 26 4d 36
       6.1770797e-06 7.3424067e-06 4.4070634e-06 3.0569925e-06
000050 16 6d d6 36 2a f6 7b 39 09 ae c1 36 b6 f9 b1 37
       6.3903963e-06 0.00024028929 5.7721086e-06 2.1216325e-05
000060 9c e6 0a 38 17 84 2b 38 45 5c 81 37 8c 70 10 38
       3.3116536e-05 4.0892595e-05 1.5420965e-05 3.4437093e-05
000070 7f 35 68 38 41 52 29 38 2a e4 9a 37 07 44 3a 38
       5.5362932e-05 4.0369345e-05 1.8464478e-05 4.440921e-05

exp_avg f4 [6, 8]
000000 f1 8b 99 39 02 4c c0 b8 73 10 cc 39 58 68 b4 39
       0.000292867 -9.169431e-05 0.00038922168 0.00034410018
000010 03 6c 2c 39 5c ab 8d bb 48 71 95 ba 59 19 20 39
       0.00016443436 -0.004323406 -0.0011401558 0.00015268232
000020 9f c6 70 ba 24 dd 1a 3b 8f 8d 1a bb 3f ed 8f bb
       -0.000918487 0.0023630345 -0.002358291 -0.0043922956
000030 49 7c 8c 3a fa b5 09 bb d9 6d 5f 3b 8f f0 b0 3a
       0.0010718192 -0.0021013007 0.0034092574 0.0013499426
000040 24 ff cc 3a 55 9e 41 3b e0 f4 0a bb a1 8e ed ba
       0.0015640003 0.0029543836 -0.0021203086 -0.0018124172
000050 04 de 42 3b 54 c0 e5 b7 e9 55 06 3b 66 c3 a8 ba
       0.0029734382 -2.7388487e-05 0.0020497984 -0.0012875616
000060 b8 ce b9 ba b6 ef 25 bb ec 1a 5f bb 0c 45 cd b8
       -0.0014175987 -0.002531988 -0.0034043146 -9.788023e-05
000070 01 7b 90 b9 01 b3 8d 3b 8c eb 48 3b 6e 57 f0 3a
       -0.00027557465 0.0043243174 0.0030657975 0.0018336603
000080 f7 b5 2f bb bb 0d 01 bb 01 81 1b bb 8f 8b 1d 3a
       -0.002681134 -0.0019692022 -0.0023728015 0.00060098706
000090 35 16 37 39 84 e9 e2 3b a6 f5 3c 3b e3 11 46 3b
       0.00017460513 0.00692481 0.0028832941 0.0030223064
0000a0 f5 95 cd 3a e4 04 a1 b8 94 ce 27 ba ba cf f4 b9
       0.001568495 -7.677989e-05 -0.0006401327 -0.00046694075
0000b0 f0 cb 64 b9 5f 60 ff 3a 2c e3 f6 39 67 78 cc ba
       -0.00021819747 0.0019483677 0.00047090033 -0.0015599848

exp_avg_sq f4 [6, 8]
000000 fd ad ca 36 f1 9f ec 36 b2 7e 60 36 ec cd b8 36
       6.040324e-06 7.0519677e-06 3.3452347e-06 5.5076e-06
000010 60 ed 68 36 88 cf f3 37 b4 09 07 37 dc 7d eb 36
       3.4708864e-06 2.9064497e-05 8.048886e-06 7.0181977e-06
000020 61 fe 95 36 92 6e 42 37 5c 03 24 37 c4 26 b4 37
       4.4701596e-06 1.1589045e-05 9.775944e-06 2.1475724e-05
000030 2f a4 65 36 78 c2 2e 37 f8 a5 8f 37 a0 d0 ac 36
       3.4219227e-06 1.04164865e-05 1.7124214e-05 5.1502866e-06
000040 68 a8 03 37 9d 4b 83 37 1e ba 24 37 75 f4 f3 36
       7.847419e-06 1.5651627e-05 9.8184955e-06 7.270423e-06
000050 3b f1 2b 37 38 75 d2 36 a7 86 49 37 b1 67 06 37
       1.024856e-05 6.2721338e-06 1.2011885e-05 8.011165e-06
000060 e2 7c c1 36 53 e6 1f 37 00 03 75 37 8d 53 13 36
       5.7663865e-06 9.530765e-06 1.46038365e-05 2.195334e-06
000070 3b 29 c9 35 ce 71 bd 37 85 4d 5d 37 7c 7e f3 36
       1.4987667e-06 2.258355e-05 1.3190675e-05 7.256689e-06
000080 69 22 16 37 0a 3b d6 36 21 5d 1e 37 c4 e8 0d 36
       8.9487085e-06 6.38457e-06 9.439217e-06 2.1146125e-06
000090 fc 03 bb 35 9d 37 5b 38 eb 24 59 37 17 42 3a 37
       1.3933745e-06 5.2265463e-05 1.2942804e-05 1.1101852e-05
0000a0 9b b3 8a 36 4a f1 53 36 1e 23 a8 35 80 c3 18 36
       4.1336293e-06 3.1581899e-06 1.2527196e-06 2.276356e-06
0000b0 e4 dc b7 35 ae e1 e9 36 77 32 e5 35 17 22 87 36
       1.369885e-06 6.9702137e-06 1.7076517e-06 4.027282e-06

exp_avg f4 [4, 6]
000000 4f 5c 40 3a 53 19 82 bb cd b1 0a bb a2 86 35 3a
       0.0007337974 -0.003970304 -0.0021163106 0.0006924664
000010 ea e0 87 3b ed b9 11 bb 2e 70 81 3a ab 12 5c b9
       0.004146685 -0.0022236065 0.0009875351 -0.0002098779
000020 03 02 1b bb a3 0c ad b9 5d 4f 93 3a c4 1d 70 3a
       -0.0023652322 -0.00033006546 0.0011238862 0.0009159709
000030 a4 24 01 3b bb b1 15 3b a5 52 6d bb 1e a6 06 bb
       0.0019705677 0.0022841531 -0.003621259 -0.002054579
000040 ab 3f 5b ba ab db c7 ba 10 19 38 3a 09 65 ae ba
       -0.0008363674 -0.0015247961 0.00070227776 -0.0013305257
000050 ab 49 91 b9 7d 52 f4 ba b6 12 40 bb 3d f9 37 bb
       -0.00027711442 -0.0018640306 -0.0029308028 -0.0028072142

exp_avg_sq f4 [4, 6]
000000 b7 94 a1 36 93 a3 db 37 d0 52 27 37 29 50 4b 36
       4.8154866e-06 2.6183005e-05 9.973257e-06 3.0296017e-06
000010 cd ae ac 37 3e 38 89 37 28 81 97 36 15 50 3e 37
       2.0585396e-05 1.6357862e-05 4.5151864e-06 1.1343528e-05
000020 c4 04 86 37 50 29 98 36 ba 71 ee 36 34 ac 30 37
       1.5976264e-05 4.5347624e-06 7.1061922e-06 1.0530512e-05
000030 46 f6 1a 37 7b f1 72 37 84 3a 90 37 62 07 11 37
       9.236455e-06 1.4480548e-05 1.7193386e-05 8.644392e-06
000040 13 ae 26 37 e0 1e 8c 37 5d 01 dd 36 71 de 1f 37
       9.934901e-06 1.6703678e-05 6.586472e-06 9.52893e-06
000050 93 7d ad 36 d1 5f b6 36 53 a4 94 37 5f d0 5c 37
       5.1704205e-06 5.435177e-06 1.7719494e-05 1.3161537e-05

exp_avg f4 [3, 4]
000000 96 79 32 ba 8f 9a de 39 7e 88 85 ba 54 5d 27 3b
       -0.0006808279 0.00042458295 -0.0010187773 0.0025537806
000010 00 d5 14 3a 44 62 bc ba ed 2d d8 3a 95 b6 80 3a
       0.00056774914 -0.0014372547 0.0016493179 0.0009820039
000020 bc cd 20 bb 0b ce 60 3a 4c 23 83 3b e6 3e 2f ba
       -0.002453669 0.00085756247 0.0040020104 -0.0006685093

exp_avg_sq f4 [3, 4]
000000 48 96 ef 36 68 ea 33 37 4e f3 16 37 70 e5 74 37
       7.14025e-06 1.0723808e-05 8.9973455e-06 1.4596953e-05
000010 5e 0b 77 37 84 9b 84 37 63 f0 9b 37 a6 9c bb 37
       1.4724994e-05 1.5808044e-05 1.8589379e-05 2.2365082e-05
000020 6a 6b 3d 38 22 c0 1b 38 b4 66 0a 38 92 fd c3 37
       4.516115e-05 3.7133817e-05 3.2997414e-05 2.336389e-05

exp_avg f4 [4, 3]
000000 02 b6 cd ba 8c 8c 3e bc a7 c7 12 bc 50 1e ef b9
       -0.0015694501 -0.011630189 -0.008958734 -0.00045608217
000010 44 78 35 3c 41 e7 9f 3b a3 ba ff 3a b2 92 31 bc
       0.011076037 0.0048798625 0.0019510578 -0.010838198
000020 87 d2 c9 bb 4a 4b 03 bb 92 55 22 3c 20 33 e7 3b
       -0.00615913 -0.002003389 0.009908097 0.007055655

exp_avg_sq f4 [4, 3]
000000 16 ad ee 36 43 94 4f 39 d5 ee dc 38 91 bf e5 36
       7.1131026e-06 0.0001979629 0.000105349034 6.847033e-06
000010 21 8f 36 39 ac 18 2c 38 d8 99 73 37 de 5e 31 39
       0.00017410192 4.1030973e-05 1.4519748e-05 0.00016915376
000020 3c f3 69 38 46 98 bf 36 e1 05 14 39 90 36 9a 38
       5.577806e-05 5.7099705e-06 0.0001411657 7.353455e-05

exp_avg f4 [6, 4]
000000 36 f8 53 bc be 91 08 3c d4 a7 91 bb 61 4a 87 3c
       -0.012937596 0.008335529 -0.0044450555 0.016514959
000010 a8 c8 8a 3b b7 a5 67 bb 4c f6 0f 3b 21 02 e6 bb
       0.004235346 -0.0035346576 0.0021966873 -0.0070192968
000020 26 a8 d7 bb d8 02 b4 3b dd 76 36 bb c4 a4 08 3c
       -0.006581324 0.005493503 -0.0027841844 0.008340064
000030 64 66 bc bb dc ef a1 3b 44 37 42 bb f2 44 07 3c
       -0.0057495106 0.0049419235 -0.0029634992 0.008256184
000040 91 93 f5 bb fa 2a b0 3b e0 fc 28 bb 7a ff 0d 3c
       -0.007494398 0.005376217 -0.002578549 0.008666867
000050 15 96 27 3b 8d 94 03 bb 38 49 5f 3a 74 51 31 bb
       0.0025571634 -0.0020077557 0.00085176853 -0.0027056606

exp_avg_sq f4 [6, 4]
000000 20 1a 65 39 a4 af ca 38 63 4f e4 37 5c d7 c2 39
       0.00021848874 9.664826e-05 2.7216685e-05 0.0003716302
000010 f7 3a d9 37 ee 23 84 37 a6 c5 c0 36 77 7c 86 38
       2.5895873e-05 1.5752357e-05 5.745055e-06 6.412801e-05
000020 be e6 7d 38 1c 2b 11 38 36 b6 0d 37 98 bf c7 38
       6.0534796e-05 3.4610843e-05 8.446679e-06 9.5247466e-05
000030 3b eb 2a 38 09 98 e4 37 7a 19 1d 37 f7 8f aa 38
       4.0750234e-05 2.7250515e-05 9.363861e-06 8.133047e-05
000040 cd 70 9c 38 4d 01 17 38 4d da 08 37 85 5f db 38
       7.4596705e-05 3.6002417e-05 8.157059e-06 0.00010460526
000050 d9 9e fe 36 2e 2d a1 36 e1 63 99 35 50 b7 14 37
       7.588282e-06 4.8034335e-06 1.1428457e-06 8.864168e-06

exp_avg f4 [8, 6]
000000 dc b4 68 bb a3 e2 f1 b9 6c f2 58 bb c8 da bc 3a
       -0.0035508191 -0.0004613596 -0.003310348 0.0014408464
000010 fc 27 a9 bb de 81 35 3b ad e3 cb 3b 89 65 45 bb
       -0.005162237 0.0027695815 0.0062222094 -0.0030120334
000020 63 e9 88 3b 76 92 90 3a ba ca a3 3b be ec 9d ba
       0.0041782125 0.0011029977 0.004998532 -0.0012048704
000030 19 84 48 3c a3 44 e4 bb 24 7b 03 3c cd 45 6c 3b
       0.012238526 -0.00696619 0.0080249645 0.0036052347
000040 3f 4d 23 3c 9a 0a b5 ba 1a 97 fe bb 4a 15 88 3b
       0.009967147 -0.0013812364 -0.0077694776 0.0041529285
000050 68 ba c7 bb 3f 53 ec ba eb ae e8 bb 62 7b 0c 3b
       -0.0060952194 -0.001803018 -0.00710093 0.0021435847
000060 26 9f 52 bb a1 fa 0e 3b b3 eb 9b bb cf 21 1c bb
       -0.0032138317 0.0021816867 -0.004758322 -0.0023823862
000070 cf 42 8a bb 20 b1 1c 3a a4 e2 9f 3b 89 a4 29 bb
       -0.00421939 0.00059773214 0.0048793126 -0.0025885424
000080 8d 9a 0e 3b 07 c7 85 3a 7a 72 23 3b 3f 2d 33 3a
       0.00217596 0.001020641 0.002494006 0.00068350503
000090 20 68 d3 bb 17 52 ce 3b eb 40 c0 bb 15 9c a5 bb
       -0.0064516217 0.006296407 -0.005867114 -0.005054007
0000a0 26 ac ba bb b6 e5 5a b8 e8 b8 8e 3b 4a e6 d8 ba
       -0.005696791 -5.2189185e-05 0.0043555386 -0.0016548124
0000b0 25 53 a8 3b d9 a3 8a 3a e3 8f b1 3b eb 88 07 bb
       0.0051368647 0.0010577395 0.005418764 -0.0020680975

exp_avg_sq f4 [8, 6]
000000 76 f6 8f 37 fc f1 54 36 cc d5 7d 37 3d 87 e1 36
       1.7161696e-05 3.1731315e-06 1.5129754e-05 6.7212663e-06
000010 f7 55 eb 37 b0 82 04 37 ba ef 40 38 1d 04 34 37
       2.8054214e-05 7.898241e-06 4.599963e-05 1.0729794e-05
000020 57 45 c2 37 99 e0 0f 36 5e d3 01 38 5d 7b 02 36
       2.3158891e-05 2.1439394e-06 3.0952848e-05 1.9443316e-06
000030 4a 5b 38 39 42 04 65 38 db c5 b6 38 26 bd c2 37
       0.00017581615 5.460182e-05 8.71529e-05 2.3214681e-05
000040 3a 6a 00 39 5d 4a de 36 0c c2 a5 38 59 63 b2 37
       0.00012246604 6.6247726e-06 7.903957e-05 2.1265516e-05
000050 1a 89 59 38 27 9c df 36 78 9a 8b 38 d5 2c f6 36
       5.1864517e-05 6.6640964e-06 6.6568085e-05 7.3365904e-06
000060 fd 52 91 37 09 98 22 37 24 cc 0d 38 e7 17 5a 37
       1.7323991e-05 9.691351e-06 3.380714e-05 1.2999378e-05
000070 a8 70 d6 37 16 a5 64 36 8d b3 d1 37 a3 59 37 37
       2.5563248e-05 3.407074e-06 2.4998351e-05 1.092852e-05
000080 95 ce 17 37 be 74 f3 36 d3 69 16 37 20 ff 49 36
       9.0484e-06 7.255555e-06 8.965336e-06 3.0099836e-06
000090 84 88 79 38 a4 6d 27 38 87 93 33 38 a8 22 c0 37
       5.9493366e-05 3.9918013e-05 4.281432e-05 2.2904322e-05
0000a0 88 80 39 38 04 a3 4d 36 e8 a9 f2 37 cf 5b 80 36
       4.422714e-05 3.0642268e-06 2.8927767e-05 3.825385e-06
0000b0 b3 6f 1a 38 80 d0 07 36 df 62 29 38 15 da c8 36
       3.682049e-05 2.023793e-06 4.038482e-05 5.9858526e-06

exp_avg f4 [4, 8]
000000 7c 94 75 bb 2f 87 1d 3c 4a b3 50 3c a7 19 d1 ba
       -0.0037472537 0.00961475 0.012738058 -0.001595308
000010 56 93 ca 3a ed c7 72 3c 74 13 68 3a e3 45 5f 3c
       0.0015455286 0.014818174 0.00088529964 0.013627502
000020 0d 29 03 bb e8 06 86 bc b0 fe 95 bc 5d 22 f7 3c
       -0.0020013482 -0.016360715 -0.018309921 0.030167753
000030 c5 1d 60 3c ef 47 c0 bb d1 a0 f2 3c 61 ae e3 bc
       0.013678973 -0.00586795 0.029617699 -0.027793111
000040 32 47 a3 bb 99 48 ee 3b b4 8c 39 3c ea 27 a0 bc
       -0.0049828524 0.007271838 0.01132505 -0.019550283
000050 cd 98 47 bb 39 72 20 3c cf 29 8d bc b4 32 71 3c
       -0.0030456067 0.009792858 -0.01723185 0.014721561
000060 c9 21 18 3c ab 49 00 3b 86 c2 2b 3a ed 80 6a 3b
       0.009285399 0.001957516 0.00065521186 0.0035782412
000070 8d d9 18 bb e0 22 62 ba 8c 8e 03 3b 15 59 9f 39
       -0.002332303 -0.00086264126 0.0020073978 0.00030393215

exp_avg_sq f4 [4, 8]
000000 09 8b 2f 38 ef a6 f6 38 a0 61 46 39 f2 2e 52 38
       4.1852738e-05 0.00011761288 0.0001891912 5.0111623e-05
000010 4e 3d 90 37 d2 3f 81 39 5e cc 4d 38 f3 dd 6b 39
       1.7194685e-05 0.00024652347 4.906614e-05 0.00022494029
000020 0f 31 28 38 c9 af a0 39 de 9f d8 39 0d 7f 86 3a
       4.010001e-05 0.00030648548 0.0004131784 0.0010261253
000030 9a bd 44 39 f1 63 ce 38 18 36 7c 3a 66 0e 71 3a
       0.00018762649 9.841461e-05 0.00096210977 0.0009195566
000040 3f ea 9f 38 e8 05 c2 38 c2 8e 35 39 cf 93 07 3a
       7.6253426e-05 9.251741e-05 0.00017314687 0.00051718665
000050 45 ab 85 38 9f d5 f5 38 0f 70 de 39 a1 28 a8 39
       6.373836e-05 0.000117223004 0.0004242663 0.00032073728
000060 b7 c8 d1 38 c0 ea ed 37 31 4c ff 37 81 5b 33 38
       0.00010003283 2.8361916e-05 3.0433848e-05 4.2762145e-05
000070 d7 fc a9 37 29 4e 33 38 e9 1d 1f 38 e0 cd 2b 38
       2.0264108e-05 4.2749718e-05 3.793641e-05 4.0961313e-05

exp_avg f4 [8]
000000 01 3c bf 3a b1 b5 1b ba 9b ff 78 3b 6d 0b 9a 3b
       0.0014590026 -0.0005939855 0.003799415 0.004701069
000010 2b be 84 3a 2d 59 06 bb de 72 a4 ba 32 e5 84 bb
       0.0010127475 -0.002049993 -0.001254644 -0.0040556425

exp_avg_sq f4 [8]
000000 8a 9a 22 36 06 e6 9c 35 32 2b 98 37 ed 93 f6 37
       2.4229835e-06 1.1689851e-06 1.8139926e-05 2.9394369e-05
000010 63 cd 8c 36 0d a8 f7 36 4d 0a 4d 37 b3 ad 02 38
       4.1962353e-06 7.3807373e-06 1.22213505e-05 3.1156185e-05

exp_avg f4 [6]
000000 43 a9 b6 ba b3 fe b2 3b 5e 45 a0 3b 5b 5a 10 3b
       -0.0013935942 0.0054624914 0.0048910817 0.0022026512
000010 22 65 4f 3b 78 9b 1d ba
       0.0031645973 -0.00060122414

exp_avg_sq f4 [6]
000000 29 34 ca 37 52 73 39 38 20 2e 31 38 b6 d6 85 37
       2.4104565e-05 4.4214838e-05 4.2243046e-05 1.5954818e-05
000010 ad c9 a8 37 18 27 da 36
       2.0121073e-05 6.5014574e-06

exp_avg f4 [4]
000000 b6 34 e9 3a 70 de e8 b9 0e 4b 67 3b 0f 69 71 3b
       0.0017792198 -0.00044416217 0.0035292539 0.0036836301

exp_avg_sq f4 [4]
000000 25 15 06 38 2c 12 11 38 a3 08 2e 38 60 f0 d1 37
       3.1967782e-05 3.4587618e-05 4.1492876e-05 2.5026675e-05

exp_avg f4 [3]
000000 46 f3 0e 3b 63 70 88 bb f6 f7 44 bb
       0.0021812483 -0.004163788 -0.0030055023

exp_avg_sq f4 [3]
000000 29 63 21 38 a4 2c 8f 38 c8 05 b8 38
       3.847774e-05 6.827086e-05 8.7748806e-05

exp_avg f4 [4]
000000 20 16 b7 bb d1 01 9c 3b af eb ab bb 75 cc 83 3b
       -0.0055873543 0.0047609587 -0.0052466015 0.004022176

exp_avg_sq f4 [4]
000000 3c a9 7b 38 ff cc 7c 38 b4 d3 98 38 ec 4a 43 38
       6.0000675e-05 6.02724e-05 7.2873576e-05 4.65614e-05

exp_avg f4 [6]
000000 78 61 27 bb 6d 5c f1 3a 60 85 87 bb 62 ab cf bb
       -0.0025540274 0.0018414386 -0.0041357726 -0.006337569
000010 70 fd ac bb a7 cc 06 3a
       -0.0052792355 0.000514219

exp_avg_sq f4 [6]
000000 bf db d0 37 29 21 ae 37 46 07 41 38 2e c4 6f 38
       2.489786e-05 2.0757858e-05 4.602156e-05 5.7164747e-05
000010 d7 e9 50 38 bb fe fa 36
       4.9808845e-05 7.480235e-06

exp_avg f4 [8]
000000 d8 1f 9c 3a 58 87 4b 3b 71 85 0a 3b 2b b7 5e bb
       0.0011911346 0.0031056013 0.0021136666 -0.0033983688
000010 03 58 2d 3a b4 ec af 3a a6 83 72 b9 1b 16 e2 3a
       0.0006612541 0.0013421983 -0.00023127961 0.001724902

exp_avg_sq f4 [8]
000000 02 0b df 37 f0 5e 52 37 98 40 2f 38 2e 41 cc 37
       2.6588797e-05 1.253908e-05 4.178341e-05 2.4349047e-05
000010 59 f9 c5 37 ca 64 2f 37 f0 2c 99 37 45 49 13 37
       2.3600342e-05 1.045428e-05 1.8259947e-05 8.778942e-06

exp_avg f4 [4]
000000 b0 1c b4 bb 62 6d 73 bc 5b 31 5d 3b 26 41 e5 bb
       -0.005496584 -0.014857622 0.0033751342 -0.0069962917

exp_avg_sq f4 [4]
000000 45 87 f4 38 ea b4 8c 39 35 17 43 39 ca 06 25 39
       0.000116600226 0.00026837672 0.00018605294 0.00015738155
