jet_by_jet_compression/grid_search/models/AE_basic_lr1e-03_pNA_wd1e-01.pth (torch_old, 10506 bytes, 48 tensors)

encoder.0.weight f4 [8, 4]
0.047532886 -0.2613947 0.041973095 0.17028993 0.7816377 -0.052427787 -0.073152825 -0.32292876
-0.15010771 0.056028273 -0.1577885 -0.47027862 0.29040962 -0.32834753 0.2628173 0.40644562
-0.09464447 -0.2860253 -0.040431306 -0.1811815 -0.361937 -0.24606436 -0.18164718 0.1816381
-0.19598879 0.22625205 0.034116816 -0.07257306 -0.3279801 -0.5049238 0.17969522 -0.03901896
00000000: d8b1 423d 87d5 85be fbeb 2b3d 7c60 2e3e
00000010: 6919 483f 85be 56bd 26d1 95bd eb56 a5be
00000020: d6b5 19be e77d 653d 4f93 21be 5cc8 f0be
00000030: 92b0 943e 2b1d a8be fd8f 863e a419 d03e
00000040: f6d4 c1bd e871 92be 4c9b 25bd a587 39be
00000050: ce4f b9be 4cf8 7bbe b801 3abe 57ff 393e
00000060: 49b1 48be 9eae 673e 13be 0b3d 2fa1 94bd
00000070: 02ed a7be b042 01bf 0602 383e 58d2 1fbd

encoder.0.bias f4 [8]
-0.41207942 0.61703616 0.7477834 0.30939847 0.56122553 -0.41720843 0.20051317 0.4575129
00000000: 13fc d2be 15f6 1d3f bc6e 3f3f 7a69 9e3e
00000010: 7aac 0f3f 589c d5be 5353 4d3e 213f ea3e

encoder.2.weight f4 [6, 8]
-0.2812137 -0.29543886 0.10394685 -0.18817112 -0.17499484 -0.10707166 0.11377648 0.09011538
0.27582076 -0.13193518 -0.31653392 0.1611346 -0.3722929 0.38426313 0.2184231 -0.23027365
0.414719 0.18966591 0.19966246 0.08292161 0.17438711 0.27480307 -0.22127838 -0.047097538
-0.25169176 0.45728886 0.3629029 0.12457231 -0.28231904 -0.48870742 -0.09301666 0.12076696
-0.3482221 0.3902866 0.3133197 0.107155666 0.34420946 -0.15200664 0.40700287 0.27301797
0.2866061 0.39711422 0.39891112 -0.1206524 0.5310611 -0.11539122 -0.42662138 0.41763
00000000: 3efb 8fbe c343 97be 16e2 d43d eeaf 40be
00000010: d931 33be 6348 dbbd a503 e93d 6a8e b83d
00000020: 6138 8d3e 041a 07be bc10 a2be 7800 253e
00000030: 2d9d bebe 23be c43e 4eaa 5f3e dbcc 6bbe
00000040: 0c56 d43e c837 423e 5174 4c3e ced2 a93d
00000050: 8992 323e fdb2 8c3e cd96 62be 59e9 40bd
00000060: bedd 80be c421 ea3e 69ce b93e c41f ff3d
00000070: 1f8c 90be dc37 fabe 857f bebd ab54 f73d
00000080: 2b4a b2be a5d3 c73e 716b a03e 6e74 db3d
00000090: 393c b03e a1a7 1bbe ae62 d03e 03c9 8b3e
000000a0: 09be 923e 8e52 cb3e 143e cc3e 9b18 f7bd
000000b0: 9ff3 073f 3b52 ecbd 1e6e dabe 99d3 d53e

encoder.2.bias f4 [6]
-0.119321816 -0.02118811 -0.052638046 0.1942207 0.035189424 0.37959817
00000000: ff5e f4bd b092 adbc fe9a 57bd cbe1 463e
00000010: c922 103d b15a c23e

encoder.4.weight f4 [4, 6]
0.5324116 0.39228916 -0.7656879 -0.39700463 0.1318711 -0.81632495 -0.05547867 0.04299536
-0.39426538 0.7027909 -0.05761041 -0.5698239 0.30441996 -0.22350575 -0.51872885 0.20975949
0.5658401 -0.27714628 0.49763533 -0.3365178 -0.22223902 -0.23984991 0.5591648 0.01840552
00000000: 204c 083f 20da c83e 1f04 44bf 3144 cbbe
00000010: 3809 073e acfa 50bf 9a3d 63bd e71b 303d
00000020: 27dd c9be 1bea 333f e5f8 6bbd fbdf 11bf
00000030: efdc 9b3e b1de 64be 6acb 04bf 31cb 563e
00000040: e6da 103f 1ee6 8dbe 0fca fe3e 104c acbe
00000050: a092 63be 379b 75be 6d25 0f3f 2cc7 963c

encoder.4.bias f4 [4]
-0.15085392 0.36077392 0.2094585 0.26398957
00000000: 7379 1abe 5cb7 b83e 4a7c 563e a429 873e

encoder.6.weight f4 [3, 4]
0.16511448 -0.63581747 -0.010462603 0.25684026 0.07453953 0.38211188 -0.38995147 -0.5110075
-0.6471156 -0.9109568 -0.41714692 -0.1994362
00000000: c513 293e efc4 22bf 566b 2bbc 9180 833e
00000010: 2ea8 983d 2ba4 c33e b8a7 c7be 63d1 02bf
00000020: 5ea9 25bf 7734 69bf 4894 d5be 0139 4cbe

encoder.6.bias f4 [3]
0.13342276 0.03517575 0.16796114
00000000: fa9f 083e 7214 103d 01fe 2b3e

decoder.0.weight f4 [4, 3]
-1.0220615 0.7841504 -0.56650156 -0.06376522 -0.6793827 -0.8877852 -0.40940356 -0.32833087
0.8276508 0.4472154 -0.6725816 -0.7129621
00000000: e9d2 82bf 15be 483f 3f06 11bf 5797 82bd
00000010: 06ec 2dbf e445 63bf 589d d1be fc1a a8be
00000020: ece0 533f 6bf9 e43e 4f2e 2cbf af84 36bf

decoder.0.bias f4 [4]
0.094387054 0.29786414 0.06717936 -0.13961913
00000000: 004e c13d a681 983e 5595 893d 51f8 0ebe

decoder.2.weight f4 [6, 4]
-1.0309274 0.09568296 0.6289212 0.47155008 -0.16179399 0.18120636 -0.6673159 0.55176574
-0.86245745 0.20066342 -0.50052017 0.53419673 -0.78796405 -0.4872914 0.36218238 -0.8547517
0.6876263 -0.36631593 0.42145556 -0.42292947 0.905881 1.0894641 -0.4298817 0.5873808
00000000: 6ef5 83bf 6df5 c33d fb00 213f 036f f13e
00000010: 53ad 25be 298e 393e 37d5 2abf 8540 0d3f
00000020: 03ca 5cbf b67a 4d3e 1722 00bf 1ec1 083f
00000030: 03b8 49bf 427e f9be f86f b93e 02d1 5abf
00000040: 4708 303f c38d bbbe 06c9 d73e 368a d8be
00000050: d1e7 673f 8f73 8b3f 7419 dcbe 975e 163f

decoder.2.bias f4 [6]
0.2049776 0.29980636 -0.183144 0.5554683 0.5482867 0.3803925
00000000: a6e5 513e 3880 993e 1a8a 3bbe 2c33 0e3f
00000010: 845c 0c3f cec2 c23e

decoder.4.weight f4 [8, 6]
0.791692 0.06809516 0.7906636 0.1722615 -0.21959297 -0.9924766 0.5065067 -0.4023881
-0.5071621 0.8947177 0.28745002 -0.108456224 -0.37303585 -0.57428443 -0.45779705 -0.05357808
0.36527672 -0.57094026 0.7985338 -0.48938578 0.4681021 0.0874124 -0.64481735 -0.55542964
0.7668722 0.007126069 0.840357 0.19008464 -0.51688516 0.36143535 0.35655475 0.6533045
0.67880297 -0.14201285 0.06954462 -0.4169034 -0.38168216 0.6084821 0.3775358 -0.56618136
-0.66329014 0.6778945 -0.6330207 0.20479357 -0.603104 0.052076697 0.75229275 -0.3549352
00000000: 54ac 4a3f 7a75 8b3d ee68 4a3f 5265 303e
00000010: fbdc 60be f212 7ebf 6caa 013f d005 cebe
00000020: 60d5 01bf 380c 653f a62c 933e 4c1e debd
00000030: 8efe bebe 4e04 13bf 6064 eabe b074 5bbd
00000040: 8d05 bb3e 2429 12bf b66c 4c3f c690 fabe
00000050: 14ab ef3e 4605 b33d c012 25bf a330 0ebf
00000060: bd51 443f cd81 e93b a321 573f 8ca5 423e
00000070: 9652 04bf 0e0e b93e 588e b63e f73e 273f
00000080: 08c6 2d3f d16b 11be 696d 8e3d 5d74 d5be
00000090: d86b c3be 7cc5 1b3f 5f4c c13e 43f1 10bf
000000a0: 62cd 29bf 7e8a 2d3f a50d 22bf 68b5 513e
000000b0: 0665 1abf 604e 553d 4296 403f 11ba b5be

decoder.4.bias f4 [8]
-0.24958906 -0.012402511 0.057927303 -0.00038037682 -0.19956136 0.3998287 -0.40219125 0.3189029
00000000: 4694 7fbe e733 4bbc 2e45 6d3d 506d c7b9
00000010: d059 4cbe 59b6 cc3e 03ec cdbe 3e47 a33e

decoder.6.weight f4 [4, 8]
-0.87573606 0.50765294 0.46955436 -0.6046799 -0.43915877 -0.7636682 -0.53290117 0.29239398
-0.50369865 -0.5887057 -0.5341592 -0.3207113 -0.12165854 -0.069990195 0.4742187 -0.013910653
-0.22957823 -0.1548438 0.16231428 -0.23668374 0.2477728 0.016298357 -0.016634582 0.21760944
-0.15818474 -0.21576455 0.80032104 -0.068833284 -0.8904279 0.13037169 0.08479284 0.73155373
00000000: 3d30 60bf 8bf5 013f 6e69 f03e 4dcc 1abf
00000010: 6bd9 e0be c27f 43bf 366c 08bf aab4 953e
00000020: 65f2 00bf 6bb5 16bf a8be 08bf 4634 a4be
00000030: 1d28 f9bd 0557 8fbd cbcc f23e 82e9 63bc
00000040: 8e16 6bbe 608f 1ebe b735 263e 395d 72be
00000050: 27b8 7d3e 2284 853c 3f45 88bc 02d5 5e3e
00000060: 2efb 21be 62f1 5cbe d7e1 4c3f 77f8 8cbd
00000070: 15f3 63bf 2880 053e dea7 ad3d 1b47 3b3f

decoder.6.bias f4 [4]
-0.06434352 0.013117179 -0.07735845 0.28389168
00000000: 89c6 83bd 70e9 563c 1b6e 9ebd 405a 913e

exp_avg f4 [8, 4]
0.0017287785 0.00049425324 -0.00011676469 -0.00016800956 0.00026168497 0.0007331384 0.00017602305 -0.0002533913
-0.000537248 0.00034516322 -0.00054907345 0.00015156374 -0.0005642825 -0.0004783074 0.0009382069 -0.00049374194
0.0013720053 -0.0009399201 -0.00075040193 0.0015143561 -0.00041431544 0.0015266711 -0.000813246 -0.0006959993
0.0007268116 -7.0334405e-05 0.000293109 0.0003905585 -0.00045429866 -0.0007449454 -4.493729e-05 0.00057456485
00000000: 2e98 e23a c690 013a 91df f4b8 b92b 30b9
00000010: c332 8939 1630 403a d492 3839 9bd9 84b9
00000020: 1ad6 0cba 06f7 b439 b2ef 0fba 15ed 1e39
00000030: 5cec 13ba 55c5 fab9 00f2 753a 766e 01ba
00000040: dcd4 b33a f864 76ba 9fb6 44ba 5c7d c63a
00000050: 7a38 d9b9 951a c83a 0430 55ba b973 36ba
00000060: 8087 3e3a 7f80 93b8 6dac 9939 e0c3 cc39
00000070: ef2e eeb9 7148 43ba 0c7b 3cb8 659e 163a

exp_avg_sq f4 [8, 4]
2.5356527e-05 5.5955024e-06 3.8062785e-06 1.2626491e-05 5.95945e-07 1.1911969e-06 3.874139e-07 6.4974836e-07
2.436928e-06 1.1554671e-06 8.2260226e-07 7.013713e-07 6.139688e-07 7.1844454e-07 9.323357e-07 3.1146405e-07
1.2578694e-05 7.266167e-06 3.1109448e-06 8.023307e-06 2.106013e-06 4.263432e-06 1.1098448e-06 3.9444776e-06
7.643913e-06 2.9742582e-06 2.1365584e-06 5.951697e-06 1.5974122e-06 1.3770413e-06 4.924833e-07 8.1501315e-07
00000000: bab4 d437 00c1 bb36 5e6f 7f36 5ed6 5337
00000010: 07f9 1f35 37e1 9f35 c3fd cf34 5e6a 2e35
00000020: 1b8a 2336 8c15 9b35 ccd0 5c35 de45 3c35
00000030: 9dcf 2435 22db 4035 9f45 7a35 4b37 a734
00000040: 1409 5337 e6cf f336 a0c5 5036 d79b 0637
00000050: 0755 0d36 9a0e 8f36 faf5 9435 ce5a 8436
00000060: 5b3e 0037 5e99 4736 cb61 0f36 b0b4 c736
00000070: aa66 d635 c7d2 b835 3233 0435 47c7 5a35

exp_avg f4 [6, 8]
0.00042409074 0.0012676674 -0.0007877863 0.0011050646 -0.0005469081 -0.00037115416 -0.001335308 -0.0011115484
7.603017e-05 0.00075426005 0.00046157127 -6.224659e-05 0.0005002528 -0.0005779394 -0.000114134105 2.8246579e-05
-0.0007945399 -2.3106862e-05 0.00014922442 0.00076901354 -0.00038657142 -0.0018842424 -9.1642665e-05 -0.0011016743
0.00079279003 -0.00028123835 0.00026547594 -0.00064290117 0.0005458862 0.0003559932 0.0001707432 0.0007877251
0.00025066416 0.00012985336 -0.0010169786 0.0004394293 -0.0006798874 0.0006028668 -0.00036697218 6.707321e-05
-0.00010177308 -0.00080961845 -0.00043710208 -0.00024893685 -0.0008031404 4.279516e-05 -2.7333058e-06 -0.0005391215
00000000: 7f58 de39 dc27 a63a 7283 4eba d1d7 903a
00000010: 625e 0fba 7897 c2b9 8005 afba 60b1 91ba
00000020: 6372 9f38 89b9 453a 0cff f139 628a 82b8
00000030: 6623 033a db80 17ba 485b efb8 11f3 ec37
00000040: ac48 50ba 9cd5 c1b7 2079 1c39 a097 493a
00000050: bdac cab9 aff8 f6ba 4830 c0b8 0e66 90ba
00000060: 3dd3 4f3a 2c73 93b9 942f 8b39 5e88 28ba
00000070: ce19 0f3a 99a4 ba39 8709 3339 567f 4e3a
00000080: 936b 8339 3f29 0839 244c 85ba 3463 e639
00000090: 793a 32ba b509 1e3a 2c66 c0b9 a8a9 8c38
000000a0: 026f d5b8 933c 54ba d92a e5b9 bd83 82b9
000000b0: d789 52ba f47e 3338 d66d 37b6 d553 0dba

exp_avg_sq f4 [6, 8]
1.2301689e-06 5.316288e-06 2.3160637e-06 3.2872445e-06 1.7013531e-06 2.725732e-06 2.0965542e-06 3.139736e-06
2.6138042e-07 1.1553917e-06 4.4836514e-07 6.7901874e-07 6.0937856e-07 7.2706763e-07 1.99504e-07 6.12192e-07
1.2447607e-06 3.6827616e-06 1.7836757e-06 3.3173867e-06 1.3357852e-06 5.079525e-06 7.675879e-07 2.5929862e-06
3.2183211e-06 2.849035e-06 3.3172785e-06 3.5840192e-06 2.2110676e-06 2.0208977e-06 1.8530638e-06 3.1206005e-06
8.4823455e-07 2.3383673e-06 1.8213761e-06 2.6296555e-06 1.5876101e-06 1.9359795e-06 7.849168e-07 2.1812239e-06
6.9398436e-07 2.7200115e-06 1.2024118e-06 1.737049e-06 1.1700212e-06 1.1704639e-06 7.066204e-07 1.1247511e-06
00000000: 481c a535 9162 b236 ac6d 1b36 6e9a 5c36
00000010: 0c5a e435 b8eb 3636 87b2 0c36 41b4 5236
00000020: da53 8c34 f512 9b35 d6b6 f034 d045 3635
00000030: 2d94 2335 b52b 4335 3e37 5634 8455 2435
00000040: a711 a735 5d25 7736 a166 ef35 45a0 5e36
00000050: 3b49 b335 ca70 aa36 3d0c 4e35 2a03 2e36
00000060: 56fa 5736 0c32 3f36 699e 5e36 fb84 7036
00000070: da61 1436 c29e 0736 cab6 f835 826b 5136
00000080: 3cb2 6335 d8ec 1c36 0276 f435 2379 3036
00000090: de15 d535 e0eb 0136 12b3 5235 2461 1236
000000a0: 3e4a 3a35 7189 3636 8e62 a135 8d24 e935
000000b0: 9f09 9d35 d518 9d35 96ae 3d35 27f6 9635

exp_avg f4 [4, 6]
-0.0010490593 -0.00044567705 0.00087017915 0.00064999034 0.00025399833 0.0012834456 0.0012890286 0.00041837787
4.94962e-05 -0.0019236752 -2.3028602e-05 0.00076468504 -3.6670666e-05 0.0010736408 0.0005472514 -0.0014010916
-0.0009793801 -0.0002703799 -0.0006882294 0.0010862742 0.00027817386 -7.855846e-05 -0.0010386831 -0.0009503764
00000000: 9780 89ba c3a9 e9b9 bc1c 643a 1d64 2a3a
00000010: 142b 8539 4a39 a83a 9ff4 a83a ba59 db39
00000020: 249a 4f38 d423 fcba 8c2d c1b7 2575 483a
00000030: d4ce 19b8 68b9 8c3a 6b75 0f3a d5a4 b7ba
00000040: 8b5e 80ba c7c1 8db9 4b6a 34ba 5061 8e3a
00000050: ddd7 9139 c1bf a4b8 6c24 88ba ae22 79ba

exp_avg_sq f4 [4, 6]
1.2704778e-06 6.1662246e-07 8.463955e-07 1.1023717e-06 5.3361157e-07 2.5089594e-06 5.690292e-06 1.0713574e-05
2.3057764e-06 2.00736e-05 1.4180739e-05 1.662152e-05 5.573716e-07 1.6805074e-06 5.4140213e-07 2.9481464e-06
1.9321292e-06 2.1482954e-06 1.8634177e-06 3.3175304e-06 9.44982e-07 5.4401376e-06 4.5561073e-06 5.846899e-06
00000000: 4985 aa35 f985 2535 db33 6335 34f5 9335
00000010: 823d 0f35 985f 2836 3cef be36 73be 3337
00000020: f0bc 1a36 ba63 a837 cfe9 6d37 716e 8b37
00000030: 499e 1535 cb8d e135 df54 1135 c5d8 4536
00000040: baa9 0136 6f2b 1036 8b1a fa35 bda2 5e36
00000050: abaa 7d35 6d8a b636 aae0 9836 7b30 c436

exp_avg f4 [3, 4]
-0.0051366254 0.0041150544 0.0023302652 -0.0011711152 -0.006222042 0.003096608 0.004825745 0.0047570253
0.006044501 0.001832638 0.0010588026 -0.00032120763
00000000: 2351 a8bb 94d7 863b 5db7 183b 1b80 99ba
00000010: 45e2 cbbb 76f0 4a3b 4821 9e3b d2e0 9b3b
00000020: f310 c63b 2135 f03a 85c7 8a3a c267 a8b9

exp_avg_sq f4 [3, 4]
6.085298e-05 3.413321e-05 3.241105e-05 1.8631907e-05 4.6497193e-05 1.4686361e-05 2.7675342e-05 2.5897429e-05
5.2326268e-05 5.606298e-06 3.3831873e-06 2.6208577e-06
00000000: 643c 7f38 412a 0f38 1af1 0738 b74b 9c37
00000010: fb05 4338 7165 7637 5828 e837 4e3e d937
00000020: e778 5b38 bc1d bc36 b70a 6336 fee1 2f36

exp_avg f4 [4, 3]
0.0022344233 -0.0018052605 0.0047370438 0.0044702073 0.002012928 0.0059512043 0.0023607034 0.00196144
-0.0053150603 -0.0010228899 0.00047210947 0.004405599
00000000: 676f 123b 7e9e ecba 3439 9b3b d17a 923b
00000010: 54eb 033b 5202 c33b 08b6 1a3b 818b 003b
00000020: f529 aebb 7d12 86ba 7685 f739 d85c 903b

exp_avg_sq f4 [4, 3]
6.4398923e-06 5.8692717e-06 3.5260353e-05 1.9165756e-05 3.7700818e-06 3.790083e-05 5.7908283e-06 5.0513886e-06
3.0154633e-05 1.6639675e-06 1.7340376e-06 2.2567658e-05
00000000: 4116 d836 a9f0 c436 84e4 1338 26c6 a037
00000010: 8301 7d36 b5f7 1e38 d64e c236 197f a936
00000020: 95f4 fc37 7d55 df35 14bd e835 ad4f bd37

exp_avg f4 [6, 4]
0.0025122284 -0.00060663 -0.0047380785 0.0011559557 0.0029810022 0.00149523 0.0020379536 -0.0010443145
0.0021046605 -0.0003260772 0.0012735089 -0.001970125 0.002270106 0.00019928304 -0.007103574 0.0035492713
-0.00029645872 -0.0010119824 0.00091807824 0.00013731862 -0.0073156897 -0.009927927 -0.0004733902 -0.0014619759
00000000: 33a4 243b 4006 1fba e241 9bbb 7083 973a
00000010: eb5c 433b 98fb c33a 308f 053b 61e1 88ba
00000020: 58ee 093b 57f5 aab9 deeb a63a 361d 01bb
00000030: 0fc6 143b a2f6 5039 19c5 e8bb e49a 683b
00000040: 046e 9bb9 7fa4 84ba 30ab 703a 30fd 0f39
00000050: 74b8 efbb bea8 22bc 5b31 f8b9 c59f bfba

exp_avg_sq f4 [6, 4]
8.293396e-06 2.6072769e-06 2.3310336e-05 2.5378547e-06 1.0144737e-05 3.4118104e-06 4.7392864e-06 1.4773385e-06
7.2704297e-06 4.1514336e-06 3.896318e-06 4.6793098e-06 7.709251e-06 1.6712761e-06 5.062167e-05 1.2471328e-05
1.2615534e-06 3.6726847e-06 1.5957413e-06 7.2740966e-07 5.3625765e-05 9.733717e-05 1.1440874e-06 3.2976038e-06
00000000: dd23 0b37 adf8 2e36 918a c337 0350 2a36
00000010: 5033 2a37 75f6 6436 2906 9f36 f748 c635
00000020: 84f4 f336 8b4c 8b36 1ebd 8236 f702 9d36
00000030: fb56 0137 9c50 e035 9b52 5438 f23b 5137
00000040: a552 a935 3e78 7636 412d d635 3643 4335
00000050: 3aec 6038 7f21 cc38 8b8e 9935 674c 5d36

exp_avg f4 [8, 6]
-0.0014766684 -0.0001381693 -0.0018001437 0.00035876466 0.000466008 0.0060333507 -0.0016763028 0.0034365584
0.0031800966 -0.004620224 -0.0022130178 -0.0012547359 0.0037175957 -0.0020161138 -6.821703e-05 0.004528368
-0.0007452287 0.0038847239 -0.00093385665 -0.00038586752 -0.0023638788 0.0012098731 0.0012243489 0.0061886967
-0.0027369445 0.0023436947 0.0012871382 -0.0040289257 0.00056716724 -0.0067976704 0.00027936627 -0.0050143064
-0.0016941096 0.0047136974 -0.0028992195 0.008214312 0.0037603115 -0.0035481812 -0.00236114 0.005991283
0.0020991263 -0.00067226414 -0.0021035413 -0.0025475519 -0.0018673176 0.00017771387 -0.00090256176 0.004016155
00000000: c58c c1ba 8ae1 10b9 cdf2 ebba 9418 bc39
00000010: 8952 f439 6ab3 c53b 63b7 dbba e237 613b
00000020: 2b69 503b 3f65 97bb 4708 11bb f375 a4ba
00000030: e8a2 733b c720 04bb bd0f 8fb8 b462 943b
00000040: 745b 43ba da96 7e3b 0fce 74ba 434e cab9
00000050: 4eeb 1abb 9b94 9e3a 557a a03a 8dca ca3b
00000060: 4f5e 33bb ac98 193b 31b5 a83a 1405 84bb
00000070: f3ad 143a febe debb e877 9239 0d4f a4bb
00000080: e30c deba 5c75 9a3b d500 3ebb 5295 063c
00000090: 8f6f 763b 9a88 68bb 5bbd 1abb 8652 c43b
000000a0: 7f91 093b e23a 30ba 91db 09bb d4f4 26bb
000000b0: c8c0 f4ba b458 3a39 e599 6cba f399 833b

exp_avg_sq f4 [8, 6]
3.312749e-06 5.470608e-07 3.2241062e-06 1.7051303e-06 1.0110773e-06 3.9600523e-05 4.652685e-06 1.2029743e-05
1.0234208e-05 2.2871953e-05 5.766962e-06 4.5302336e-06 1.7626484e-05 5.926717e-06 1.7508772e-06 2.4347783e-05
3.5076234e-06 2.0867348e-05 2.441663e-06 9.0180095e-07 5.465376e-06 3.0862057e-06 2.1776489e-06 3.971862e-05
1.3449091e-05 1.088773e-05 2.7105211e-06 2.336688e-05 5.136255e-06 5.202734e-05 5.7374414e-06 2.8557073e-05
5.2927276e-06 2.9240742e-05 1.4117452e-05 7.659199e-05 1.5236146e-05 1.3131728e-05 5.6361537e-06 3.694413e-05
4.8866277e-06 2.5676018e-06 7.587667e-06 7.839202e-06 3.989951e-06 3.4286293e-06 2.2522293e-06 1.9308414e-05
00000000: 9850 5e36 bbd9 1235 b95d 5836 d5db e435
00000010: 5ab4 8735 bd18 2638 431e 9c36 5ad3 4937
00000020: 97b3 2b37 25dd bf37 d481 c136 6902 9836
00000030: 96dc 9337 1dde c636 afff ea35 773e cc37
00000040: 8364 6b36 4a0c af37 73db 2336 4a13 7235
00000050: 3963 b736 9c1c 4f36 b923 1236 8b97 2638
00000060: 68a3 6137 72aa 3637 66e6 3536 fe03 c437
00000070: 1858 ac36 ee37 5a38 3f84 c036 d98d ef37
00000080: 2f98 b136 044a f537 ffd9 6c37 03a0 a038
00000090: c09e 7f37 5850 5c37 311e bd36 75f4 1a38
000000a0: d0f7 a336 104f 2c36 9099 fe36 1e85 0337
000000b0: 6be1 8536 6717 6636 0125 1736 81f8 a137

exp_avg f4 [4, 8]
0.014673813 -0.011633987 -0.0009899024 0.009900958 -0.0021218315 0.021334741 0.010454799 0.0069975313
-0.0007517339 -0.0031165045 0.00023963109 -7.368086e-05 0.0007441014 -0.00026540944 0.003850795 -0.0018770774
-0.00850952 -0.0146142375 -0.0063742306 -0.009421447 -0.0026528274 -0.0019121706 0.013450987 -0.0006636809
-0.016028358 0.0113324 -0.0045977063 -0.009636044 0.011270474 -0.021184446 -0.009623612 -0.015180028
00000000: 6f6a 703c 7a9c 3ebc 9dbf 81ba a137 223c
00000010: 6d0e 0bbb 32c6 ae3c 9b4a 2b3c 8c4b e53b
00000020: 0210 45ba 453e 4cbb 7b45 7b39 1c85 9ab8
00000030: cd0f 433a a726 8bb9 9f5d 7c3b 4408 f6ba
00000040: 846b 0bbc 8e70 6fbc ecde d0bb 6a5c 1abc
00000050: 0fdb 2dbb cca1 faba 8761 5c3c dffa 2dba
00000060: e74d 83bc 88ab 393c 5ba8 96bb 7fe0 1dbc
00000070: cba7 383c 018b adbc 5bac 1dbc a7b5 78bc

exp_avg_sq f4 [4, 8]
0.00023819294 0.00014756444 1.0315097e-05 0.00011629715 1.3786846e-05 0.00045930964 0.000122692 6.0874172e-05
5.232018e-06 1.6715398e-05 3.2589876e-06 3.7385187e-06 3.3109175e-06 2.9197781e-06 2.305071e-05 6.445868e-06
0.00015729707 0.00026841214 0.00010636488 0.00014830062 4.3394866e-05 5.687383e-05 0.00024319228 2.4617764e-05
0.0002733468 0.00015510092 3.3712007e-05 0.00011466176 0.00014427277 0.00045178848 0.00012012959 0.000257371
00000000: 6ec3 7939 87bb 1a39 010f 2d37 8fe4 f338
00000010: 0d4e 6737 7fcf f039 e2a6 0039 2553 7f38
00000020: b18e af36 0b38 8c37 fbb4 5a36 43e3 7a36
00000030: 2131 5e36 68f1 4336 065d c137 9649 d836
00000040: 1cf0 2439 abb9 8c39 3610 df38 2581 1b39
00000050: e202 3638 cf8b 6e38 6e01 7f39 3f82 ce37
00000060: fd4f 8f39 96a2 2239 fe65 0d38 9076 f038
00000070: ed47 1739 06de ec39 15ee fb38 c0ef 8639

exp_avg f4 [8]
0.0011664209 -0.00030719434 -0.00038198623 -0.000103404964 -0.00078678987 0.00014912325 0.0003852491 -0.0003701142
00000000: 97e2 983a ed0e a1b9 5345 c8b9 1edb d8b8
00000010: 9340 4eba f85d 1c39 42fb c939 e30b c2b9

exp_avg_sq f4 [8]
4.1684016e-06 5.701446e-07 6.1458627e-07 3.2830383e-07 3.362286e-06 8.4273046e-07 1.7267992e-06 6.785267e-07
00000000: 4cde 8b36 0a0c 1935 0cfa 2435 bc41 b034
00000010: a2a3 6136 ff37 6235 5ec4 e735 0024 3635

exp_avg f4 [6]
-0.00058722595 8.7077315e-06 0.000828517 -0.00042553304 -0.0004681406 -0.0009556939
00000000: 11f0 19ba 6c17 1237 d630 593a 141a dfb9
00000010: c570 f5b9 8887 7aba

exp_avg_sq f4 [6]
5.85822e-06 1.257692e-06 4.834658e-06 6.7904534e-06 4.435657e-06 3.173813e-06
00000000: ba91 c436 f8cd a835 6539 a236 8dd9 e336
00000010: 01d6 9436 b1fd 5436

exp_avg f4 [4]
-0.0006387861 0.00011815 -0.001071626 -0.0002829977
00000000: 3674 27ba 4cc7 f738 cd75 8cba 4f5f 94b9

exp_avg_sq f4 [4]
1.3056028e-06 2.8717255e-05 4.650245e-06 1.09931925e-05
00000000: 2c3c af35 d6e5 f037 4d09 9c36 676f 3837

exp_avg f4 [3]
0.0013515017 0.0043444806 3.6079102e-05
00000000: df24 b13a 255c 8e3b a453 1738

exp_avg_sq f4 [3]
5.6885456e-05 4.387534e-05 1.1435877e-05
00000000: 4b98 6e38 ca06 3838 b8dc 3f37

exp_avg f4 [4]
-0.00058271684 -0.0045597376 -0.0021756915 -0.0020578874
00000000: 77c1 18ba da69 95bb 0c96 0ebb 9fdd 06bb

exp_avg_sq f4 [4]
3.2014825e-05 2.2098857e-05 1.3025448e-05 1.5097986e-05
00000000: a847 0638 ef60 b937 e087 5a37 5b4d 7d37

exp_avg f4 [6]
-0.0025276043 -0.0017431811 -0.0028569507 -0.0044471095 -0.0055072233 -0.008560551
00000000: 2aa6 25bb 747b e4ba ae3b 3bbb 0fb9 91bb
00000010: f075 b4bb 8e41 0cbc

exp_avg_sq f4 [6]
1.2054564e-05 8.753425e-06 1.8888677e-05 2.406294e-05 3.9061128e-05 7.500375e-05
00000000: f53d 4a37 addb 1237 2073 9e37 c5da c937
00000010: 91d5 2338 554b 9d38

exp_avg f4 [8]
-0.0020167052 0.00117765 -0.0027448807 -0.00096590875 0.0050973115 -0.012827693 -7.7098804e-05 -0.0073718214
00000000: b32a 04bb 605b 9a3a 75e3 33bb 0a35 7dba
00000010: 5907 a73b 3e2b 52bc 1bb0 a1b8 528f f1bb

exp_avg_sq f4 [8]
7.914042e-06 5.44353e-06 1.7723403e-05 6.483952e-06 6.3424675e-05 0.00018829752 3.1521738e-06 6.323626e-05
00000000: 8dc6 0437 91a7 b636 b8ac 9437 b990 d936
00000010: dd02 8538 bb71 4539 ef89 5336 b59d 8438

exp_avg f4 [4]
0.024027614 -0.0035908022 -0.0010815155 -0.034742802
00000000: 8fd5 c43c aa53 6bbb a3c1 8dba 784e 0ebd

exp_avg_sq f4 [4]
0.00062786555 2.7028924e-05 0.00023588525 0.0013144929
00000000: 5897 243a 2cbc e237 f757 7739 104b ac3a
