jet_by_jet_compression/grid_search/models/AE_basic_lr1e-02_pNA_wd0e+00.pth (torch_old, 10506 bytes, 48 tensors)

encoder.0.weight f4 [8, 4]
000000 cc bf b6 be 1c ba ac bd ae 70 22 be 19 00 1d be
       -0.35693204 -0.08433935 -0.15863296 -0.15332069
000010 19 f8 1f 3e e0 e4 e6 3d 20 e4 0c 3d 9c 74 8e 3d
       0.15621985 0.11274123 0.034397244 0.06955835
000020 a1 dd 28 be 9b a8 a7 3d 40 b5 8d 3d 76 32 89 bc
       -0.16490795 0.08186456 0.06919336 -0.016747694
000030 22 54 2f 3d c9 08 0e be 99 1e 8d be 90 23 f7 3d
       0.042804845 -0.13870539 -0.27562407 0.1206733
000040 1c 41 4a 3e aa b2 44 3e 1e 75 df bb 4f 9e 46 bb
       0.197514 0.1920878 -0.0068193814 -0.0030306762
000050 94 a1 d0 3b 9d 39 0b be c2 89 94 3d 83 1a 80 3d
       0.006366918 -0.13596196 0.07252838 0.06255057
000060 4b c9 53 bc a4 df 16 3d 9c 5e cd bd 78 bf 1f 3e
       -0.01292641 0.036834374 -0.10027811 0.15600383
000070 b9 5e e5 bd 17 fc a4 3d ed 8a 95 3e 61 7d c6 bd
       -0.111997075 0.08055895 0.29207554 -0.09691883

encoder.0.bias f4 [8]
000000 5e 1a 5c bf 2f 40 40 bf 14 04 6f be 57 c3 ce 3e
       -0.85977733 -0.75097936 -0.233414 0.40383407
000010 4a b8 09 3f ed 61 a0 be 37 05 46 bf e6 00 67 3f
       0.5379683 -0.3132471 -0.7735171 0.90235746

encoder.2.weight f4 [6, 8]
000000 94 26 57 3e 56 f4 d6 be 3f 7d 76 3e 8d 3d 92 3e
       0.2101081 -0.4198329 0.24071215 0.28562585
000010 45 a3 81 3e 08 e6 52 bf fb 6c d1 be 71 ad d9 3d
       0.25319877 -0.8238225 -0.40903458 0.106287844
000020 43 f5 e6 3c b1 e0 8f 3d 2b 1f b8 3e 16 ea 97 be
       0.028193122 0.07025278 0.3596128 -0.2967078
000030 19 af 6c 3d 22 26 ca 3e 89 13 d8 3d cc 64 d9 bc
       0.057784174 0.39482218 0.10550601 -0.026537322
000040 f4 48 15 3e 7f 08 31 3f 32 6d fb 3e a8 22 e9 3b
       0.1457861 0.6915359 0.49106747 0.007114727
000050 33 0e 7d 3e 5a 7a e2 be fe 23 fa 3e 7b eb 9b bb
       0.24712448 -0.44233972 0.48855585 -0.004758296
000060 14 1b 7a 3e ac f6 f2 be d7 aa 78 3d 2c e0 7e be
       0.24424392 -0.4745382 0.0607098 -0.24890202
000070 16 0d 83 be 19 88 af 3d 79 3b 8b 3e 14 e3 c9 3d
       -0.2559592 0.085708804 0.27193812 0.09857765
000080 23 70 69 be 1d 3e 02 3f ef c1 4e 3c ac 02 8e 3d
       -0.22796683 0.5087603 0.01261948 0.06934103
000090 e4 c2 5e be b4 6a 05 3e 3a 69 a2 3d 98 36 0e be
       -0.21754032 0.13028985 0.079302266 -0.13888013
0000a0 e8 b9 a4 bd e1 34 b7 be c4 07 6d 3e d9 52 89 3d
       -0.08043271 -0.3578253 0.23147494 0.06705255
0000b0 18 90 0a 3e e2 29 02 be 32 7d bc be e1 f5 30 3f
       0.1353153 -0.1271129 -0.36814266 0.6912518

encoder.2.bias f4 [6]
000000 cd f9 df 3e 48 3c 85 bd 5a be d8 be 8e 51 7a be
       0.4374527 -0.06505638 -0.42332727 -0.24445173
000010 1f 9c cb be b6 52 a2 3d
       -0.39767548 0.07925932

encoder.4.weight f4 [4, 6]
000000 fa b8 e1 3e 87 ac b2 be 04 10 d7 3e 1c 2e e7 be
       0.44086438 -0.34897253 0.42004406 -0.45152366
000010 43 38 13 be de 2e 03 bf da 8d 3c 3e cf 4a 2b be
       -0.14376931 -0.5124339 0.18413487 -0.16727756
000020 93 7e 0a bd b0 7c 00 3f ac 88 e3 be cd 79 2b be
       -0.033812117 0.5019026 -0.4444021 -0.16745682
000030 a2 a0 c8 3e 5d 8e 0b 3f 97 2b 2f 3f 13 81 3a 3d
       0.39185053 0.54514104 0.6842589 0.04553325
000040 40 49 36 be 08 71 e0 3e ed 45 c0 3d af fa 86 be
       -0.1780138 0.43836236 0.09388337 -0.2636313
000050 13 8a 6a bd cb ca 34 3f ac 90 0e bf 8b d8 87 3e
       -0.057260584 0.7062194 -0.556895 0.26532397

encoder.4.bias f4 [4]
000000 c1 fd 85 be 68 78 e3 bd f5 92 8d 3e a5 f1 c0 3e
       -0.2617016 -0.1110695 0.27651182 0.3768436

encoder.6.weight f4 [3, 4]
000000 45 b1 b8 3e f6 c1 12 bf 80 e6 02 3f fd 83 0a bf
       0.36072746 -0.5732721 0.51132965 -0.5410765
000010 68 cc f0 be a3 ae 14 bf 8a 58 6e bf e0 30 bf bd
       -0.4703095 -0.58078974 -0.9310385 -0.09335494
000020 cf f4 3d bf 09 69 0b bf d8 d2 90 3e 3f 9a b5 be
       -0.74201673 -0.54457146 0.2828586 -0.35469243

encoder.6.bias f4 [3]
000000 6c 39 f3 3d 28 38 e3 bd 80 76 a3 bc
       0.11876187 -0.11094695 -0.019953966

decoder.0.weight f4 [4, 3]
000000 2d 91 60 bf ac 56 2f 3f 5c db 68 3f a7 52 53 bf
       -0.8772152 0.68491626 0.90959716 -0.8254799
000010 46 56 83 3f 97 80 ce be bc e9 23 bf f9 ec ee 3d
       1.0260704 -0.4033248 -0.64028525 0.11666293
000020 f0 83 64 bf 5a b7 30 bf 13 24 46 bf 28 3b 19 3e
       -0.8926382 -0.6902977 -0.77398795 0.14963973

decoder.0.bias f4 [4]
000000 be 76 6e 3e 12 51 4a 3d 71 e3 4c 3d 8e 0c 44 be
       0.23287484 0.04939372 0.050021593 -0.19145414

decoder.2.weight f4 [6, 4]
000000 c5 21 65 be 53 04 81 3f a9 67 66 3f a8 d8 22 bf
       -0.22376163 1.0079445 0.9000192 -0.6361184
000010 95 bd 6c 3f 4c 11 51 3f d2 e9 4d be 63 45 3b 3f
       0.9247678 0.8166702 -0.20108727 0.7315275
000020 65 26 20 be 13 68 eb 3e a4 de cd be 46 e6 6d bf
       -0.15639646 0.4597784 -0.40208924 -0.92929494
000030 fc 6c 8f 3f 24 bf 91 3f ee 33 92 3e 21 1a 18 bf
       1.1205134 1.1386456 0.28555244 -0.5941487
000040 4a 3b 73 3f 3e a2 34 3f 9d 19 31 3f 43 4a 98 3e
       0.9501234 0.7056006 0.6917971 0.29744157
000050 0f ae 47 bf 0d 79 97 3e ab 84 90 3f 8a 2a 40 3f
       -0.7799997 0.29584542 1.1290487 0.7506491

decoder.2.bias f4 [6]
000000 2b b4 7d be 77 2e 82 bc 9c de 0e 3f 94 a3 60 be
       -0.2477576 -0.015891297 0.55808425 -0.219374
000010 48 4e d2 3e c9 d7 c3 bd
       0.4107535 -0.09562642

decoder.4.weight f4 [8, 6]
000000 4c 4c 71 3f 33 c1 18 3f ff e7 37 bf 3e 72 1b 3f
       0.94257045 0.596698 -0.7183837 0.60721195
000010 4c d2 92 bc 0c b5 70 3f 76 5b 03 3f ce 46 81 3f
       -0.017922543 0.94026256 0.51311433 1.0099733
000020 33 0a 83 bf ab 62 a5 3f a3 23 17 3f f5 45 0c 3e
       -1.0237488 1.2920736 0.5903875 0.13698561
000030 f8 35 51 3f 46 bc 67 3f d9 3d d9 3f 69 9f e3 3f
       0.81722975 0.9052166 1.6972 1.7783023
000040 06 7b 20 3f 4c ce 12 bf 99 76 03 3f 8b 39 37 3e
       0.6268772 -0.57346034 0.5135284 0.17893045
000050 4b 55 5a 3f ab bc b0 3d 11 7b 4b bf 8a d7 27 bf
       0.85286397 0.086297356 -0.7948466 -0.6556326
000060 80 30 80 3f 53 ff 75 bf 8d cd 94 3f c0 df de 3e
       1.0014801 -0.9609272 1.1625229 0.43530083
000070 20 4f 0b bf c7 a1 00 3f 40 82 84 bf 83 59 12 3f
       -0.5441761 0.5024685 -1.0352249 0.57167834
000080 f6 0b 3a 3f d0 22 05 3f 2a 1e b2 be b1 a2 82 bf
       0.726745 0.52006245 -0.34788638 -1.02059
000090 ab 3b 0f be 9b 2b a0 3f c8 c6 01 bf 8e ee 25 bf
       -0.13987605 1.2513307 -0.5069394 -0.6481713
0000a0 72 7b c0 3e cf 42 30 3f 1b 15 fc be b7 46 b5 bf
       0.3759418 0.6885194 -0.49234852 -1.4162205
0000b0 a4 ab 94 bf bc b0 74 bf c2 a4 dc bf d8 92 57 be
       -1.161488 -0.95582175 -1.723778 -0.2105211

decoder.4.bias f4 [8]
000000 8f 17 19 3e c6 7d 01 bf d9 48 fb 3e 4e 0d 0a 3f
       0.14950393 -0.5058254 0.49079016 0.5392655
000010 db 62 37 3f 20 e7 c8 3e 3c 43 b6 3e ee b3 23 bf
       0.71635216 0.39238834 0.3559817 -0.63946426

decoder.6.weight f4 [4, 8]
000000 65 66 c9 bf cf 62 8f bf fe 99 ae 3f 63 9e a9 3f
       -1.5734373 -1.1202029 1.3640745 1.3251461
000010 ce 20 6c 3f 61 3d d7 be 22 07 fa bf ae 91 bc bf
       0.92237556 -0.42039016 -1.9533427 -1.4731958
000020 48 37 ce be e1 61 81 bf 4d 00 70 bf f7 b5 17 3f
       -0.4027655 -1.0107995 -0.9375046 0.5926203
000030 e5 b7 98 be 18 05 e4 be 62 ec 4e 3e ce d2 b1 3e
       -0.298278 -0.44535136 0.2020736 0.34731144
000040 db 6a 87 bf 78 ea 39 3d f6 c5 09 3f f1 c3 e2 3b
       -1.0579485 0.045389622 0.5381769 0.0069203307
000050 13 db ef bf 65 82 1a 40 8a 93 9f 3e 8a 84 f3 bd
       -1.8738731 2.4142087 0.3116725 -0.11890514
000060 2d a5 8d 3f 80 68 dd 3f 30 45 d7 bf 67 29 2c 40
       1.1066033 1.7297516 -1.6817989 2.690027
000070 f8 2b ba 3f 61 3e e7 3f 54 7b c3 3d 53 8e bd 3f
       1.4544668 1.8065912 0.09545007 1.4809059

decoder.6.bias f4 [4]
000000 75 ff 30 bf d0 e3 de 3d 48 77 0f bf d2 bc 02 40
       -0.69139796 0.108832955 -0.56041384 2.0427747

exp_avg f4 [8, 4]
000000 1f 77 a3 38 04 93 01 ba 20 c9 e4 b9 f0 52 e9 39
       7.794634e-05 -0.00049428665 -0.000436374 0.00044503016
000010 f8 f9 f7 3a af da da ba 85 84 9b ba e5 3d 08 bb
       0.0018919101 -0.0016697253 -0.0011865055 -0.0020788845
000020 12 9b 37 3b db 65 2b bb 2d 20 32 bb 08 a3 75 3a
       0.0028016013 -0.002615324 -0.0027179823 0.0009370302
000030 84 2c 58 38 09 41 2f b9 51 7c b4 b8 c6 9f e1 38
       5.153987e-05 -0.00016713528 -8.6062246e-05 0.00010758596
000040 fd 63 1f 3b c3 94 3c ba 06 0b 97 ba fb 56 d0 39
       0.0024321072 -0.0007193798 -0.0011523671 0.00039737657
000050 05 4b 73 bb e5 d6 55 3a 39 83 0c 3b 78 47 21 bb
       -0.0037123573 0.0008157327 0.002144052 -0.002460925
000060 12 ad 31 39 d3 9e 2d b9 52 d6 08 b9 9d 17 fe 39
       0.00016944509 -0.00016557732 -0.00013049811 0.00048464249
000070 f7 21 5f 3a 9d c3 3b b9 4d e8 e3 b9 44 5f 60 3a
       0.0008511836 -0.00017906581 -0.00043469892 0.00085591176

exp_avg_sq f4 [8, 4]
000000 39 6f e2 35 91 97 47 36 c7 cf f8 35 a2 82 e8 35
       1.6870682e-06 2.9741534e-06 1.8537911e-06 1.7323366e-06
000010 15 03 30 39 15 83 ed 38 25 7e f9 37 87 36 93 39
       0.00016785816 0.000113254566 2.9741854e-05 0.0002807865
000020 0f 7e 2f 39 1e 15 fa 38 a5 63 39 38 70 3d b1 39
       0.00016736261 0.00011924862 4.420024e-05 0.00033805845
000030 5c 2c aa 36 bc 1e bc 36 45 1f 30 36 50 da 1e 37
       5.071559e-06 5.6064146e-06 2.6244245e-06 9.468364e-06
000040 1e 18 eb 39 a0 9a 18 38 e5 e7 4b 37 36 9c 96 3a
       0.00044840662 3.638363e-05 1.2153735e-05 0.0011490646
000050 a3 de 32 3a 8b 66 07 39 7b b1 8e 38 81 01 51 3a
       0.00068233366 0.00012912804 6.804146e-05 0.00079729414
000060 e5 d2 00 38 c5 58 45 37 db 2f 57 36 ad 2f 3f 38
       3.071399e-05 1.1762783e-05 3.2065352e-06 4.558235e-05
000070 ce 4f ec 37 2a 1e 26 36 f0 1a 18 36 50 79 7c 37
       2.8170554e-05 2.4753485e-06 2.2665445e-06 1.5048616e-05

exp_avg f4 [6, 8]
000000 13 4b 9a 39 ee 2c 81 3a 92 a2 09 b9 dc fc 02 39
       0.00029429104 0.0009855309 -0.000131259 0.00012491964
000010 c0 e8 52 b9 c2 4a 0b 3a 07 f3 8f 3a ef 87 a3 ba
       -0.00020113867 0.0005313569 0.0010982462 -0.0012476424
000020 77 33 60 38 1d 32 d0 39 30 95 35 ba d2 62 f1 39
       5.3453692e-05 0.0003971019 -0.0006926833 0.0004604073
000030 eb db 95 39 b0 c1 ac 39 58 67 70 3a a9 60 d8 ba
       0.00028583346 0.00032950705 0.0009170673 -0.0016508299
000040 3c 25 03 3b 1d ef 09 3b 2e 54 25 ba 0b 7f 0e 3a
       0.0020011207 0.0021047064 -0.0006306794 0.0005435801
000050 c8 10 b0 ba 76 06 b2 3a 51 63 0d 3b cd d9 34 bb
       -0.0013432736 0.0013582248 0.002157409 -0.002759564
000060 a0 8e af ba af db a3 ba 2c 4b 23 3a 14 1c 0c 3a
       -0.0013393946 -0.0012501384 0.0006229158 0.000534476
000070 6c df 52 3a 0e c7 c8 b9 eb bd 93 ba 0a cd 05 3b
       0.0008044157 -0.0003829528 -0.001127181 0.0020416402
000080 a9 fb 61 b9 36 78 7c ba 95 01 a9 38 1e 82 13 b7
       -0.00021551423 -0.000963095 8.058843e-05 -8.792178e-06
000090 1c 57 83 37 e8 5a 32 ba 36 2c 5c ba 8f e0 a1 3a
       1.565698e-05 -0.0006803707 -0.0008398922 0.0012350249
0000a0 0e 33 ef 38 dc 97 94 b9 aa 4d 5d b9 a3 0a 20 3a
       0.00011405918 -0.00028341904 -0.00021105135 0.00061051006
0000b0 10 2e 93 38 ef f6 20 b9 0e 1e da b9 d1 06 eb b8
       7.018086e-05 -0.00015350779 -0.00041602593 -0.00011206943

exp_avg_sq f4 [6, 8]
000000 05 c5 76 38 fb 7b e3 37 e6 f6 87 37 cb 3c b9 37
       5.883446e-05 2.7118242e-05 1.6208225e-05 2.2082027e-05
000010 28 ef 11 38 23 19 b9 36 ca 27 e7 37 da 24 05 38
       3.4793426e-05 5.516356e-06 2.7555874e-05 3.174399e-05
000020 33 3a f7 38 54 59 be 38 7c 2c b6 37 87 46 13 38
       0.00011788718 9.076545e-05 2.1716805e-05 3.5113215e-05
000030 0c 5e 8e 38 fc 8a a2 37 ce 4c cf 38 a3 0d e9 38
       6.788605e-05 1.9376625e-05 9.884835e-05 0.00011112846
000040 32 99 26 39 27 e3 8b 38 35 0d 1f 38 7a 5c 5c 38
       0.00015888063 6.670347e-05 3.7920854e-05 5.2538213e-05
000050 ff f7 ef 38 64 85 e1 37 f9 d2 90 38 f2 fb c6 38
       0.00011442601 2.6884205e-05 6.905752e-05 9.488304e-05
000060 02 55 ad 38 fa 68 83 38 62 17 4a 37 b7 d1 c8 37
       8.265117e-05 6.26612e-05 1.20455825e-05 2.3939514e-05
000070 ce 8f 4c 38 74 db 8b 37 85 c9 89 38 ea 46 ab 38
       4.877132e-05 1.6672282e-05 6.570205e-05 8.167124e-05
000080 e6 c8 65 38 c9 b6 1a 38 f4 bc 35 37 0a 8b a3 37
       5.4784956e-05 3.6886693e-05 1.0832435e-05 1.949586e-05
000090 b6 c2 0b 38 64 78 2e 37 c9 b0 2c 38 1d 05 31 38
       3.332152e-05 1.0399239e-05 4.117264e-05 4.220485e-05
0000a0 f0 94 59 37 43 bb 25 37 6b 2c 44 36 e1 b3 b8 36
       1.2968885e-05 9.878367e-06 2.923213e-06 5.504568e-06
0000b0 5c 88 06 37 26 30 2f 36 02 4d 2e 37 ee 4d 2a 37
       8.018771e-06 2.6105058e-06 1.0389138e-05 1.0150934e-05

exp_avg f4 [4, 6]
000000 c3 e8 ba bb 3d b9 04 3b 7c 1b 9c 3b 0a 98 c0 3a
       -0.005704017 0.0020252012 0.0047640186 0.0014693749
000010 de a1 97 3b c1 7a b5 bb a3 50 d9 ba e6 97 80 3a
       0.0046274504 -0.005538315 -0.0016579818 0.0009810894
000020 3c 1c 9e 3a 61 3c ea 39 5e 71 da 3a 64 85 0a bb
       0.0012062858 0.00044676944 0.0016665866 -0.0021136636
000030 75 7a ca bb 11 59 c7 3a 22 e8 9a 3b 7b 70 5d 3a
       -0.006179149 0.0015209039 0.0047273794 0.0008447242
000040 36 96 9d 3b f3 98 d0 bb ac 9d 2a 3a 06 90 1f b8
       0.0048091663 -0.006365889 0.00065084803 -3.8042686e-05
000050 fc ee 01 ba 9d e3 af b9 a8 ab c2 b9 a8 d2 cd 39
       -0.0004956571 -0.00033548186 -0.00037130457 0.00039257598

exp_avg_sq f4 [4, 6]
000000 03 14 49 3a 5f 2c 58 39 e6 31 2c 3a 45 23 69 39
       0.00076705235 0.00020615895 0.0006568715 0.0002223375
000010 1b 9e f9 39 21 5d 29 3a f9 45 da 39 3e 4d df 38
       0.0004761078 0.00064607157 0.00041632334 0.00010647856
000020 70 f9 bd 39 db e0 e8 38 df a5 89 39 42 23 b9 39
       0.00036234735 0.00011104505 0.0002625426 0.0003531222
000030 f5 2b 87 3a a2 0a 9f 39 89 d2 78 3a 09 74 b9 39
       0.0010312783 0.00030334765 0.00094918214 0.00035372403
000040 8f 2e 26 3a d6 a2 66 3a b4 e0 77 38 e0 0b 94 37
       0.0006339335 0.0008798068 5.909866e-05 1.7648505e-05
000050 31 ba 5e 38 71 e4 cd 37 5c 83 14 38 87 e0 4e 38
       5.310233e-05 2.454428e-05 3.5408288e-05 4.9323335e-05

exp_avg f4 [3, 4]
000000 91 ba e1 3a 5b 0d 58 ba 0e 5a 19 bb 45 49 7f bb
       0.0017221739 -0.0008241736 -0.0023399624 -0.0038953584
000010 a1 4b 22 bb e9 e0 c1 3a fc 2d 67 3b ab b1 b0 3b
       -0.0024764317 0.001479176 0.0035275212 0.0053922734
000020 b5 7a eb b8 b4 cd 80 39 6a c7 c2 39 49 76 f0 3a
       -0.00011228529 0.00024567323 0.00037151139 0.0018345799

exp_avg_sq f4 [3, 4]
000000 fe f3 20 38 6e c1 76 37 f9 f4 ac 38 f3 57 02 3a
       3.8374208e-05 1.4707779e-05 8.247229e-05 0.0004972212
000010 15 ef 34 38 86 b1 98 37 27 b7 9d 38 c2 2a 0b 3a
       4.3138007e-05 1.8202478e-05 7.520458e-05 0.00053088006
000020 ae 39 e9 37 3a 6f 4d 37 ee 38 71 38 d6 b8 c8 39
       2.7802624e-05 1.2244849e-05 5.7511897e-05 0.00038284686

exp_avg f4 [4, 3]
000000 8f c3 a6 ba 46 9a 0c bb 8d a3 91 b9 91 78 8f ba
       -0.0012723076 -0.0021454259 -0.0002777841 -0.0010945966
000010 b1 bb 18 bb 32 87 f2 38 85 a8 19 39 e0 08 5a b8
       -0.0023305232 0.00011564641 0.00014653995 -5.1983516e-05
000020 13 ef c5 39 b0 f0 2d 3a 3a d3 b0 3a 2c 5f 59 b9
       0.00037752892 0.00066352915 0.0013490685 -0.00020730187

exp_avg_sq f4 [4, 3]
000000 23 eb ef 37 9d 71 8e 38 83 b2 ff 36 d0 08 ee 37
       2.8600514e-05 6.79225e-05 7.6203737e-06 2.8375915e-05
000010 d4 65 60 38 26 ea d8 36 d5 72 b3 37 f8 7c 4c 38
       5.3500597e-05 6.46456e-06 2.1391936e-05 4.8753776e-05
000020 e2 93 b9 36 49 56 a2 37 51 4b 3f 38 34 45 b2 36
       5.5306455e-06 1.9352085e-05 4.5608092e-05 5.3128697e-06

exp_avg f4 [6, 4]
000000 d0 4a 28 39 ec 14 ec b8 05 29 bd b9 8b 93 eb 38
       0.00016049598 -0.00011257254 -0.0003607945 0.00011233155
000010 17 d2 e1 37 6e 66 2c b9 c8 29 8b 39 b9 0e ae b8
       2.691992e-05 -0.00016441356 0.00026543275 -8.299709e-05
000020 3f 0a 1b 39 d7 be 53 ba a7 a0 b8 39 ae 95 8c 3a
       0.00014785769 -0.00080774486 0.0003521491 0.001072576
000030 99 b5 f0 38 09 d3 ee b9 60 ff 23 39 25 ef 24 3a
       0.00011477917 -0.0004555213 0.00015640026 0.0006291739
000040 4f 0e b8 38 27 9d 14 ba 42 e7 ea 39 be 25 75 3a
       8.776469e-05 -0.00056691695 0.00044804259 0.00093516323
000050 c9 82 92 b6 72 e8 2c b7 2d 50 a5 b9 1d 38 e0 b9
       -4.3663645e-06 -1.0306119e-05 -0.00031530988 -0.00042766417

exp_avg_sq f4 [6, 4]
000000 be 6e f6 35 1b 12 3f 35 b2 fd c5 36 38 48 cc 36
       1.8360658e-06 7.117939e-07 5.9005915e-06 6.088081e-06
000010 2e ed e1 35 ac e9 ab 35 27 97 ae 36 16 99 a5 36
       1.6832835e-06 1.28085e-06 5.2032005e-06 4.9352047e-06
000020 77 dd b6 35 5f ca 28 36 c0 1b 0d 37 72 d7 13 37
       1.3624511e-06 2.5151746e-06 8.410716e-06 8.812045e-06
000030 f3 e8 e6 35 3f e7 41 35 c3 68 d8 36 bb e0 c7 36
       1.7204133e-06 7.223461e-07 6.4494975e-06 5.956824e-06
000040 6a 15 42 35 36 57 3c 36 fd 78 0f 36 0c c9 75 36
       7.2301793e-07 2.8064946e-06 2.1379085e-06 3.662487e-06
000050 9e 16 4f 35 e0 29 78 35 70 67 c7 36 34 32 b6 36
       7.714642e-07 9.2448136e-07 5.942704e-06 5.429867e-06

exp_avg f4 [8, 6]
000000 9f 9b f8 b5 1d 4f fe b8 54 1a 33 b9 a9 a0 80 39
       -1.8522732e-06 -0.000121264 -0.00017080578 0.00024533764
000010 5a 38 bc b9 28 b7 bc b9 57 89 df 38 db 03 0b b9
       -0.0003590014 -0.00035994616 0.0001065905 -0.00013257509
000020 fe 71 7f b8 6f 56 20 39 c4 cd 7f b9 93 e5 93 b7
       -6.09029e-05 0.00015290988 -0.00024395349 -1.763067e-05
000030 f0 95 3d ba 95 ec 9b 36 57 eb bb b8 e4 c9 67 ba
       -0.000723212 4.6469017e-06 -8.96069e-05 -0.0008842035
000040 ff dc d1 39 f1 3e aa 39 95 bd d5 39 78 bc d1 b8
       0.0004002824 0.00032471822 0.00040767775 -0.00010001002
000050 fd 8b c0 b9 e9 90 aa 39 d6 b9 2d ba df d2 d5 b8
       -0.00036725393 0.00032532893 -0.0006627118 -0.00010195909
000060 98 eb 95 b8 69 02 46 b8 17 26 00 38 12 0d b2 37
       -7.1487564e-05 -4.7209123e-05 3.0553052e-05 2.122534e-05
000070 8b b4 8a b9 05 54 c9 b9 28 f6 59 39 a6 da b6 b8
       -0.00026455926 -0.00038400307 0.00020786433 -8.719163e-05
000080 4f e1 e0 b8 c0 06 47 39 95 55 54 39 4e a7 5e 39
       -0.00010723119 0.00018980633 0.00020249777 0.00021233896
000090 df e2 09 3a 70 45 4f b9 b9 a0 4a 39 27 83 f1 39
       0.00052599417 -0.00019766926 0.00019324095 0.00046064818
0000a0 08 ad 77 38 0b 30 38 b9 70 61 e8 39 0a c3 56 38
       5.9050537e-05 -0.00017565505 0.00044323085 5.120322e-05
0000b0 72 20 f2 b8 2d 67 01 3a 11 18 48 b9 fa 17 94 b8
       -0.00011545503 0.0004936334 -0.00019082452 -7.061656e-05

exp_avg_sq f4 [8, 6]
000000 4f a3 c6 35 ab 65 83 35 c7 86 60 35 63 92 f5 35
       1.4799679e-06 9.78985e-07 8.364263e-07 1.8296527e-06
000010 76 a6 ca 36 28 43 c1 35 1d ce 07 35 e4 64 94 35
       6.0394477e-06 1.4399166e-06 5.0591353e-07 1.1056222e-06
000020 05 c0 64 35 05 1a 03 35 f8 53 cc 36 24 b5 c4 35
       8.5216044e-07 4.8839166e-07 6.089449e-06 1.4655857e-06
000030 81 ab ec 35 0d 80 cb 34 96 a4 27 35 1c ec 2c 36
       1.7633284e-06 3.7904866e-07 6.245185e-07 2.576743e-06
000040 de ca 69 36 dc 13 9a 35 07 a7 3e 36 da 63 e2 35
       3.483779e-06 1.1479674e-06 2.840943e-06 1.6867373e-06
000050 fb b5 e8 35 45 cb 87 36 54 11 2f 37 b6 52 54 36
       1.733831e-06 4.046977e-06 1.0434847e-05 3.1638606e-06
000060 3f 5a e6 35 29 2b 66 35 7a 43 99 35 4f ca 0c 36
       1.71626e-06 8.5744483e-07 1.1419027e-06 2.0979385e-06
000070 5e 18 bc 36 59 03 08 36 c3 3f 29 36 42 3f d1 35
       5.6056733e-06 2.0267528e-06 2.5220077e-06 1.5590124e-06
000080 dd 4a c6 35 77 d0 65 36 76 80 53 37 47 4d 82 36
       1.4773938e-06 3.4245002e-06 1.260649e-05 3.883298e-06
000090 08 88 67 35 76 f8 3f 35 e3 e6 97 35 d6 ee bf 35
       8.625216e-07 7.1514603e-07 1.1317574e-06 1.4300119e-06
0000a0 19 09 a9 35 eb 30 41 35 17 26 39 35 d6 04 6d 34
       1.2594129e-06 7.196929e-07 6.89733e-07 2.2074104e-07
0000b0 d8 98 a1 34 05 6c 91 35 50 97 a5 34 79 7e 55 34
       3.0099795e-07 1.083478e-06 3.084374e-07 1.9883181e-07

exp_avg f4 [4, 8]
000000 ab 5d 1f 39 af 60 38 b9 bc 2e 59 ba 25 9a e1 37
       0.00015198316 -0.00017583625 -0.0008284857 2.689387e-05
000010 cc 34 9a 39 a8 9c d3 b8 6c e6 18 3a 74 e0 8d 39
       0.00029412506 -0.000100904435 0.00058326754 0.00027060846
000020 22 8d 7c b7 93 63 f5 39 bb 81 8e b8 ce 38 09 39
       -1.50532305e-05 0.0004680423 -6.795252e-05 0.000130865
000030 86 4f 38 39 42 92 71 37 e6 12 da b9 fb 81 af 39
       0.00017577232 1.4398773e-05 -0.0004159428 0.00033475444
000040 3e 53 f9 37 ef ef f1 b8 b3 dc 15 b8 79 f7 a2 b8
       2.9721876e-05 -0.000115364666 -3.572991e-05 -7.770857e-05
000050 48 87 dc 39 ab d4 08 ba 34 c3 03 b7 69 47 34 b9
       0.00042062462 -0.0005219678 -7.853658e-06 -0.0001719274
000060 2e 44 bc 38 61 ce a3 38 19 9c 62 3a c0 68 f5 b9
       8.977238e-05 7.810887e-05 0.0008644476 -0.00046808086
000070 52 9f 09 ba 74 67 be b9 15 6a 9c b9 28 84 2d b9
       -0.0005249876 -0.00036316703 -0.00029833676 -0.00016547798

exp_avg_sq f4 [4, 8]
000000 bc f5 93 35 78 2b 11 36 3b cb 05 36 a3 47 7c 35
       1.1023872e-06 2.1631986e-06 1.993684e-06 9.398156e-07
000010 21 2a ad 35 8e b0 92 35 84 4d 25 36 c6 96 6e 36
       1.2901766e-06 1.0929232e-06 2.4632036e-06 3.5552525e-06
000020 44 25 39 35 86 39 14 36 d5 75 cc 35 0f 17 88 34
       6.89721e-07 2.2087202e-06 1.5233478e-06 2.534875e-07
000030 d4 ea 09 35 68 01 e6 34 38 37 59 36 d7 96 8e 36
       5.1378197e-07 4.2841862e-07 3.2367661e-06 4.24949e-06
000040 5c 32 97 34 0e 32 db 35 5a c6 32 35 87 e1 48 34
       2.8162583e-07 1.6331339e-06 6.6598807e-07 1.8708498e-07
000050 41 a4 14 35 4c f2 45 35 dc d1 2d 36 e3 f4 7a 36
       5.537332e-07 7.374081e-07 2.5901163e-06 3.7395446e-06
000060 c4 05 fb 35 75 75 28 36 b3 f9 8c 36 82 89 e1 35
       1.8702635e-06 2.510232e-06 4.201394e-06 1.6803826e-06
000070 f6 8d e4 35 97 79 f7 35 0b 88 3a 36 77 12 96 36
       1.702864e-06 1.8438321e-06 2.7795347e-06 4.472498e-06

exp_avg f4 [8]
000000 48 b0 4e b9 e0 24 df ba e3 b7 f4 ba 21 d3 d2 b9
       -0.00019711361 -0.0017024539 -0.0018670525 -0.00040211625
000010 ae c2 a4 ba 64 e6 b1 3a a0 56 ae b9 05 2b 7a 39
       -0.0012570226 0.001357269 -0.00033252407 0.00023857884

exp_avg_sq f4 [8]
000000 7f a2 f6 36 58 d1 a8 38 29 1a 05 39 54 e6 ee 36
       7.3502883e-06 8.0498576e-05 0.00012693614 7.1197665e-06
000010 58 87 4e 38 c5 f0 27 39 fa 52 c7 36 38 80 3c 36
       4.9240276e-05 0.00016016055 5.940322e-06 2.8088816e-06

exp_avg f4 [6]
000000 86 03 85 ba fe 05 9b ba 9f 6c 47 bb 03 58 09 3b
       -0.0010148145 -0.0011827347 -0.0030429733 0.0020957
000010 9e 87 6f 3a d6 3e 0c 3a
       0.0009137335 0.00053499395

exp_avg_sq f4 [6]
000000 54 da c4 38 12 79 84 39 14 4e 86 39 48 2e 3b 39
       9.386675e-05 0.00025267206 0.00025616644 0.00017850951
000010 c8 3e ed 38 2e 39 ec 37
       0.000113127346 2.8160019e-05

exp_avg f4 [4]
000000 de 8c d1 bb 89 c4 eb ba 66 a8 cf bb a0 0b 36 3a
       -0.0063949665 -0.0017987649 -0.0063372133 0.0006944481

exp_avg_sq f4 [4]
000000 f2 45 90 3a 3e 25 1b 3a 5f e4 cc 3a ce 00 c5 38
       0.0011007173 0.000591833 0.0015632025 9.393842e-05

exp_avg f4 [3]
000000 5f de b3 bb 12 bf ca 3b 60 39 2c 3b
       -0.005489155 0.006187328 0.0026279315

exp_avg_sq f4 [3]
000000 99 e9 89 3a 71 49 91 3a f2 51 44 3a
       0.0010521888 0.0011084509 0.00074890174

exp_avg f4 [4]
000000 09 66 8f 3b 4a 2b 87 3b d7 aa 2f ba 9a c7 b2 ba
       0.004376177 0.0041250335 -0.00067011773 -0.0013639808

exp_avg_sq f4 [4]
000000 e3 8a f5 39 5f 31 d6 39 98 27 b5 39 ad 6d a3 39
       0.0004683352 0.00040854045 0.0003455251 0.00031171498

exp_avg f4 [6]
000000 c8 9e 57 ba b0 91 b7 3a 23 ad 3a 3b 50 74 90 3a
       -0.00082252594 0.001400521 0.0028484545 0.0011020992
000010 35 61 08 3b 3a 75 89 b9
       0.0020809893 -0.00026218017

exp_avg_sq f4 [6]
000000 9f 09 9d 38 6e 0c 93 38 57 f5 07 39 65 0f a6 38
       7.4881355e-05 7.0118214e-05 0.00012966 7.918364e-05
000010 1b de 4a 38 ba 18 b7 38
       4.8367405e-05 8.730726e-05

exp_avg f4 [8]
000000 2c fc 2a ba 8a 96 94 b9 87 34 83 3a ff 62 ab ba
       -0.0006522562 -0.0002834092 0.0010010161 -0.0013075768
000010 0e 77 c2 b8 08 43 19 38 b0 c1 fd b9 f3 4f 34 ba
       -9.2728165e-05 3.654047e-05 -0.0004840023 -0.00068783684

exp_avg_sq f4 [8]
000000 6e 41 87 37 39 95 53 37 c9 8e 5c 37 86 5c fb 37
       1.6123722e-05 1.2611324e-05 1.3146267e-05 2.9964616e-05
000010 9b c2 89 37 ed c2 11 38 3d e7 b4 36 2c 48 55 36
       1.6422293e-05 3.4752233e-05 5.3913377e-06 3.1781483e-06

exp_avg f4 [4]
000000 e1 c2 a8 39 38 39 d5 b7 d0 a0 1a b6 81 7f 33 ba
       0.00032188653 -2.5418223e-05 -2.3041393e-06 -0.00068473077

exp_avg_sq f4 [4]
000000 43 11 9f 36 46 23 c5 36 a5 95 ad 36 8c ac c0 36
       4.740579e-06 5.875164e-06 5.1732227e-06 5.742133e-06
