jet_by_jet_compression/grid_search/models/AE_basic_lr1e-04_pNA_wd1e-02.pth (torch_old, 10509 bytes, 48 tensors)

encoder.0.weight f4 [8, 4]
0	0x3e7f13e1	0.24909927
1	0xbe250c4e	-0.16117975
2	0xbee4a6d6	-0.44658536
3	0x3edb83a2	0.42873865
4	0x3d9b0951	0.07570136
5	0xbc655104	-0.013996366
6	0xbe3c0f70	-0.18365264
7	0xbf061046	-0.5236858
8	0xbd4cdf1e	-0.05001747
9	0xbee6fdc2	-0.45115477
10	0x3cf11517	0.029429002
11	0x3d0bceb3	0.03413267
12	0xbe404754	-0.1877721
13	0xbed06fd6	-0.40710324
14	0xbd9f4dba	-0.07778497
15	0x3e064901	0.13113786
16	0x3ed137a5	0.40862766
17	0x3f04879d	0.5176943
18	0x3ed6b0c0	0.41931725
19	0xbe7d9e1a	-0.24767342
20	0xbeba0c69	-0.36337593
21	0xbd8003fd	-0.06250761
22	0x3d9dae1e	0.07699226
23	0xbeba86e0	-0.36431026
24	0xbe26107e	-0.16217229
25	0xbe839f7b	-0.2570761
26	0xbd137f3e	-0.03601002
27	0xbe622ed5	-0.22088178
28	0xbd5b24ed	-0.053502012
29	0x3e57e51d	0.21083494
30	0x3e87d0c6	0.2652647
31	0xbe3175cd	-0.17330094

encoder.0.bias f4 [8]
0	0x3eb5d24a	0.35512
1	0x3e4526e3	0.19253115
2	0xbd1dcc6a	-0.038525023
3	0x3c11fb41	0.008910001
4	0xbe85a1cb	-0.261
5	0x3e3b22fe	0.18275067
6	0x3d621bc5	0.055202264
7	0x3e1ae711	0.15127207

encoder.2.weight f4 [6, 8]
0	0x3c49896e	0.012300832
1	0x3ea694c4	0.32535374
2	0x3df56fd8	0.11984223
3	0xbe27966d	-0.16365977
4	0x3e6a0c7f	0.2285633
5	0xbed6b926	-0.41938132
6	0xbe6f0d81	-0.23344995
7	0x3c58e8b9	0.013239079
8	0xbda868cf	-0.08223116
9	0xbe2c97fd	-0.16854854
10	0xbe5f327a	-0.21796599
11	0xbe05c6fc	-0.13064188
12	0xbd5733f3	-0.052539777
13	0x3e2f7385	0.17133911
14	0x3e39c325	0.18140848
15	0x3e9b572e	0.3033995
16	0x3e77cdfc	0.2419967
17	0x3ebc35b9	0.36759737
18	0x3e114295	0.14185555
19	0x3e8d3315	0.27578035
20	0xbeafe742	-0.34356123
21	0x3e9a035f	0.30080697
22	0x3cd7e3ca	0.026353735
23	0x3d9befb0	0.07614076
24	0xbe11afef	-0.1422727
25	0xbe102a6e	-0.14078686
26	0xbe1d29d3	-0.15347986
27	0xbea63ed5	-0.32469812
28	0x3dda9c62	0.10674359
29	0xbe7cb84e	-0.24679682
30	0x3dcd975a	0.10038634
31	0x3ea13592	0.31486183
32	0xbdbfdc62	-0.093682066
33	0xbe343d36	-0.17601475
34	0xbe93d54c	-0.2887367
35	0xbe8b537c	-0.2721213
36	0xbdd2c378	-0.10291189
37	0x3e061852	0.13095215
38	0xbdccaed9	-0.09994287
39	0x3ed1924a	0.40931922
40	0xbe8217ac	-0.25408685
41	0x3e4e5614	0.20150024
42	0x3e9dd1e2	0.3082419
43	0x3d584a77	0.05280539
44	0xbdaeffc5	-0.08544878
45	0xbe8c48d2	-0.27399307
46	0x3d9adba0	0.075614214
47	0xbdec44dd	-0.11536572

encoder.2.bias f4 [6]
0	0x3e08c685	0.13356979
1	0x3df4a5a8	0.11945659
2	0xbde58dd6	-0.11208694
3	0xbc5ee002	-0.013603212
4	0x3e0b53b8	0.13606155
5	0x3e95fd56	0.29294842

encoder.4.weight f4 [4, 6]
0	0xbeaf64c9	-0.3425658
1	0xbee90e1b	-0.45518574
2	0x3e316a75	0.17325766
3	0xbdb90f9a	-0.09036179
4	0xbe01366e	-0.1261842
5	0x3dd38c06	0.10329442
6	0x3eeba1f1	0.4602199
7	0x3eadabcf	0.33920142
8	0xbe178e30	-0.14800334
9	0x3ec0380d	0.37542763
10	0x3e05a9ed	0.13053103
11	0xbcf5ca33	-0.030003643
12	0x3e14f36e	0.14545986
13	0xbe825827	-0.2545788
14	0x3ddba556	0.10724895
15	0x3ef6b72c	0.48186624
16	0x3eb377f5	0.35052457
17	0xbe661b32	-0.22471312
18	0x3e78d4a0	0.2429986
19	0xbe8407b8	-0.2578714
20	0x3cdc24ee	0.026873078
21	0x3d16feb3	0.036863994
22	0xbe99167b	-0.29899964
23	0x3d009003	0.03138734

encoder.4.bias f4 [4]
0	0x3e437e1e	0.19091079
1	0xbd3e92c2	-0.046526678
2	0x3e953561	0.29142287
3	0xbebdb43a	-0.37051564

encoder.6.weight f4 [3, 4]
0	0xbe9a6d36	-0.30161446
1	0xbe9311f3	-0.28724632
2	0xbdd83bc0	-0.105582714
3	0x3eb023e0	0.3440237
4	0xbed469bd	-0.41486922
5	0x3e7fc904	0.24979025
6	0x3eece486	0.462681
7	0x3eb2975c	0.34881103
8	0xbdefe7bd	-0.117141224
9	0x3e44b451	0.1920941
10	0x3e29150a	0.16511932
11	0xbeb5a7d0	-0.35479593

encoder.6.bias f4 [3]
0	0x3ef46b5c	0.4773816
1	0x3e31479d	0.17312475
2	0xbefc34dd	-0.4925908

decoder.0.weight f4 [4, 3]
0	0x3e1b9512	0.15193585
1	0x3eff06c6	0.49809855
2	0x3ee5f95b	0.44916806
3	0xbf13d875	-0.5775216
4	0xbe4b1fa0	-0.19836283
5	0x3ee0dcbc	0.43918407
6	0x3e9f51d8	0.3111713
7	0xbc39f63d	-0.011350212
8	0xbc01c0d7	-0.007919512
9	0x3db5413f	0.08850335
10	0x3ea49909	0.32148007
11	0x3efc6e16	0.4930274

decoder.0.bias f4 [4]
0	0x3e616498	0.2201103
1	0x3e9129cd	0.28352204
2	0xbee22d34	-0.44175112
3	0xbea936e2	-0.33049685

decoder.2.weight f4 [6, 4]
0	0x3ec29480	0.38003922
1	0x3e6d7829	0.23190369
2	0x3e161362	0.14655831
3	0x3f0c798c	0.54872966
4	0xbef5c15a	-0.47999078
5	0xbeb5e7b6	-0.35528344
6	0x3ec6e8c0	0.3884945
7	0xbd737773	-0.059440088
8	0xbe613795	-0.21993859
9	0x3e91f7cb	0.28509364
10	0xbe28cb59	-0.16483821
11	0xbef01650	-0.46892023
12	0xbd5f743f	-0.05455422
13	0xbe4212b2	-0.18952444
14	0xbe45d092	-0.19317845
15	0xbed35a61	-0.4127989
16	0x3e5818b3	0.21103172
17	0xbec77956	-0.3895976
18	0xbe1f90c1	-0.15582563
19	0xbf00dd08	-0.50337267
20	0xbe006b30	-0.12540889
21	0x3ed73037	0.42028973
22	0x3e732a06	0.237465
23	0x3ee0ce6d	0.4390749

decoder.2.bias f4 [6]
0	0xbeff0458	-0.49808002
1	0x3df57e5b	0.11986991
2	0x3ebda559	0.37040213
3	0xbda4832e	-0.08032833
4	0x3f0f2813	0.55920523
5	0xbe4fb2a6	-0.20282993

decoder.4.weight f4 [8, 6]
0	0x3ed074f3	0.40714225
1	0x3e50bc33	0.20384292
2	0xbce72cf4	-0.028219678
3	0xbc9b849e	-0.018984135
4	0xbea8d31c	-0.32973564
5	0x3e038609	0.12844099
6	0xbe770602	-0.24123386
7	0xbea9b425	-0.33145252
8	0x3e8a876d	0.27056447
9	0x3d1d9d11	0.03847987
10	0x3ef14c74	0.47128642
11	0xbe5919f8	-0.21201313
12	0xbe274eb6	-0.1633862
13	0xbe851aae	-0.25996917
14	0xbe9488ed	-0.29010716
15	0x3e9c1ec3	0.3049222
16	0x3dd9d301	0.10635949
17	0x3e9fb79e	0.31194776
18	0x3eaddea3	0.3395892
19	0x3e5df70a	0.21676269
20	0x3d93baed	0.07213388
21	0xbe34891e	-0.17630431
22	0x3e800007	0.2500002
23	0xbe8ac1f1	-0.2710109
24	0x3e5b42d7	0.21412216
25	0xbda1873a	-0.078871205
26	0x3e16db3f	0.14732073
27	0xbe4209a1	-0.18948986
28	0x3e14bc53	0.14524965
29	0xbe00c9e5	-0.12577017
30	0x3d87083e	0.06593369
31	0xbeaf69e0	-0.34260464
32	0xbe073241	-0.13202764
33	0xbec190fa	-0.3780592
34	0x3eb182d4	0.34670126
35	0x3e36f26e	0.17865917
36	0xbc263f23	-0.010146889
37	0x3e440692	0.19143131
38	0x3ecc4fa6	0.39904517
39	0xbda5e261	-0.08099819
40	0xbc8a2e02	-0.016867641
41	0x3e803e7f	0.2504768
42	0xbe9ae746	-0.30254573
43	0x3eca3eaf	0.3950095
44	0x3e479a8d	0.1949255
45	0xbcae3a91	-0.021268161
46	0xbe579d8d	-0.21056195
47	0xbeb8db9b	-0.36105046

decoder.4.bias f4 [8]
0	0x3e9c7ee0	0.30565548
1	0x3ea8f2bd	0.32997695
2	0xbdd57773	-0.10423174
3	0xbe83fd12	-0.25779015
4	0x3e7c984c	0.24667472
5	0xbdd5e535	-0.104441084
6	0xbea22710	-0.31670427
7	0xbe84c7fe	-0.25933832

decoder.6.weight f4 [4, 8]
0	0x3e90d971	0.28290895
1	0xbeb936db	-0.36174664
2	0x3e5d00b8	0.21582305
3	0xbe68e61a	-0.22744027
4	0x3e63c35f	0.22242497
5	0xbe75a4f2	-0.23988703
6	0xbe88cc46	-0.26718348
7	0xbda7d5cd	-0.08195076
8	0x3ecb2adf	0.39681146
9	0x3e44752d	0.19185324
10	0x3ec0b25b	0.37636074
11	0xbd0c3690	-0.034231722
12	0xbd97d757	-0.0741412
13	0x3e5cbded	0.21556826
14	0xbea9d9fb	-0.33174118
15	0xbebefa2b	-0.37300238
16	0x3e4ca3be	0.19984338
17	0xbe083f11	-0.13305308
18	0xbc97ffa5	-0.018554518
19	0x3e72e219	0.23719062
20	0x3e3a19ff	0.18173979
21	0x3ea60338	0.3242433
22	0x3e4598b5	0.19296534
23	0x3e2ca16e	0.16858456
24	0xbddc0a44	-0.107441455
25	0x3dfcb830	0.123398185
26	0xbea5180e	-0.32244915
27	0x3e154b39	0.14579476
28	0x3d81e83e	0.06343125
29	0x3e806d10	0.25083208
30	0x3e369fec	0.17834443
31	0x3e1ae265	0.15125425

decoder.6.bias f4 [4]
0	0x3e85104b	0.25988993
1	0xbd0f0825	-0.034919877
2	0x3e61379d	0.21993871
3	0xbdb73d74	-0.08947268

exp_avg f4 [8, 4]
0	0x39fc7661	0.00048153385
1	0x3b430e3a	0.0029763118
2	0xb613d1ec	-2.2026898e-06
3	0x39168f29	0.00014358446
4	0x3ae3f4a8	0.0017391639
5	0x3ba13248	0.004919324
6	0x39a76de8	0.0003193461
7	0x3912077b	0.00013926432
8	0x3b2ad377	0.0026065984
9	0x3c2311c3	0.009952965
10	0x3aa71783	0.0012748096
11	0x3974e9c7	0.00023356742
12	0x3aad4d5c	0.0013221907
13	0x3c80df13	0.01573137
14	0x3983e5a0	0.0002515735
15	0x3ad3d5d1	0.0016161745
16	0x39f35c15	0.00046417178
17	0xbb9c3bbe	-0.004767864
18	0x3a1ae60f	0.0005908915
19	0xba28a8ea	-0.00064338616
20	0xb9733591	-0.00023194241
21	0x3be1e92a	0.0068942504
22	0x3764bbe2	1.3633604e-05
23	0xba331faa	-0.00068330264
24	0xb8d9ed37	-0.00010391551
25	0x3b25802c	0.0025253398
26	0x3944b647	0.0001875992
27	0xba5795da	-0.0008223929
28	0xbb947e9d	-0.004531695
29	0xbc9b5e26	-0.018965792
30	0x3a35c1c3	0.0006933475
31	0xbac644b4	-0.0015126676

exp_avg_sq f4 [8, 4]
0	0x34786265	2.3132596e-07
1	0x3713413b	8.77707e-06
2	0x3257c077	1.25584085e-08
3	0x32df6afe	2.6009271e-08
4	0x364753a1	2.970199e-06
5	0x37cb8178	2.4259774e-05
6	0x340e591d	1.32572e-07
7	0x33209af9	3.739385e-08
8	0x36dd44f0	6.5943386e-06
9	0x38cdd185	9.814188e-05
10	0x35e584ee	1.7100517e-06
11	0x34544966	1.9770741e-07
12	0x35f07547	1.7915526e-06
13	0x39812f17	0.00024639882
14	0x34c439e4	3.6549966e-07
15	0x364a29c5	3.0124659e-06
16	0x3492a571	2.7314994e-07
17	0x37bd61fb	2.2576181e-05
18	0x34cb5594	3.7873963e-07
19	0x34f187d4	4.4988576e-07
20	0x33c2ec1b	9.076776e-08
21	0x3847c1a2	4.7625632e-05
22	0x338464d9	6.165073e-08
23	0x3511d4e8	5.432653e-07
24	0x328bdb75	1.6281527e-08
25	0x36d33f56	6.2956633e-06
26	0x333204d7	4.1448256e-08
27	0x353a3537	6.936784e-07
28	0x37a80bcf	2.003266e-05
29	0x39bc40e6	0.00035906507
30	0x35795417	9.2882095e-07
31	0x36429d4e	2.8999816e-06

exp_avg f4 [6, 8]
0	0x3b1b4229	0.0023690558
1	0xba0a1c07	-0.00052684586
2	0x3c1678e6	0.009184098
3	0x3c0c2b92	0.00855531
4	0xbc0b95a4	-0.008519564
5	0x3a25e870	0.00063288864
6	0x3ba50508	0.005036
7	0xbba38a73	-0.0049908697
8	0x3942e1af	0.00018585355
9	0x3987fcb5	0.00025937488
10	0x3bcbf2ca	0.006224011
11	0x3bc1a1c4	0.0059091765
12	0xbbc2f411	-0.005949505
13	0x3ac5a132	0.0015077947
14	0x3b86b362	0.0041107396
15	0xbb57cd73	-0.0032928854
16	0xb8b20402	-8.488448e-05
17	0x3954f0a7	0.00020307545
18	0xbaec0dcf	-0.0018009486
19	0xbad88fb8	-0.0016522324
20	0x3ac6ce02	0.0015167596
21	0xb8ca5472	-9.64784e-05
22	0xba81831b	-0.0009880991
23	0x3a848859	0.0010111436
24	0x3ada3a66	0.0016649484
25	0xba579930	-0.0008224426
26	0x3c2f0e15	0.01068451
27	0x3c230975	0.009950985
28	0xbc1f1996	-0.00971069
29	0x3ab70728	0.0013963925
30	0x3bc6e1a5	0.0060693794
31	0xbbac617b	-0.005260644
32	0x3aefc7ed	0.0018293835
33	0xb9a7c9f1	-0.0003200318
34	0x3c092b8d	0.0083722
35	0x3c05baaf	0.008162185
36	0xbc0e93d1	-0.008702234
37	0x3b01402a	0.0019722083
38	0x3ba9a892	0.005177566
39	0xbb837897	-0.004012178
40	0xba792b36	-0.0009505035
41	0x394672e2	0.00018925549
42	0xbb98872a	-0.0046547847
43	0xbb920156	-0.0044557257
44	0x3b95f8b3	0.0045767664
45	0xba3687dd	-0.0006962994
46	0xbb35a77d	-0.002771824
47	0x3b26656e	0.0025390047

exp_avg_sq f4 [6, 8]
0	0x36c6085d	5.9018334e-06
1	0x34e50114	4.2655358e-07
2	0x38b0e769	8.4354375e-05
3	0x389931ed	7.304908e-05
4	0x38978bfc	7.226315e-05
5	0x3503f75b	4.916125e-07
6	0x37d40366	2.5273952e-05
7	0x37d15268	2.4953115e-05
8	0x3419be9d	1.431858e-07
9	0x33fd1f90	1.1786972e-07
10	0x38213bca	3.8441074e-05
11	0x38110088	3.457119e-05
12	0x3812e150	3.501895e-05
13	0x36169805	2.2440229e-06
14	0x378c3287	1.671283e-05
15	0x37354c66	1.0806229e-05
16	0x328e5dba	1.6573598e-08
17	0x3341d0c9	4.5126203e-08
18	0x3656ba52	3.1996938e-06
19	0x363446c6	2.6863286e-06
20	0x3617aa32	2.259982e-06
21	0x325d4467	1.2879446e-08
22	0x3581118f	9.616359e-07
23	0x35880401	1.0133955e-06
24	0x36557cd9	3.1812144e-06
25	0x356c862d	8.81121e-07
26	0x38ef331b	0.00011405927
27	0x38cf084b	9.872074e-05
28	0x38c4cee6	9.384546e-05
29	0x36074230	2.0155094e-06
30	0x3819b004	3.664197e-05
31	0x37e8cd3e	2.7752129e-05
32	0x367406ec	3.6362862e-06
33	0x347333c7	2.2649975e-07
34	0x389277da	6.9841466e-05
35	0x388af6fb	6.6263565e-05
36	0x389dcde8	7.5246964e-05
37	0x36818639	3.860125e-06
38	0x37ded4c1	2.6563534e-05
39	0x378707a0	1.6096805e-05
40	0x3583f498	9.831447e-07
41	0x3399d743	7.1637736e-08
42	0x37b4dab1	2.1559508e-05
43	0x37a56600	1.971703e-05
44	0x37ae44be	2.0774427e-05
45	0x3503e921	4.914055e-07
46	0x36ff5a44	7.6101005e-06
47	0x36d7aaf9	6.427403e-06

exp_avg f4 [4, 6]
0	0x3bbae1c4	0.005703183
1	0x3b80c860	0.0039301366
2	0xbc0977de	-0.008390395
3	0x3bf6c9de	0.0075313887
4	0x3c00a6f4	0.007852305
5	0xbb5c9eec	-0.003366406
6	0xbbb7a594	-0.0056044552
7	0xbb8a8b7f	-0.004228055
8	0x3c0c7c9e	0.008574633
9	0xbc038e2a	-0.0080295
10	0xbc098feb	-0.008396129
11	0x3b89ae88	0.004201714
12	0xbbe63174	-0.0070249382
13	0xbb9ce717	-0.0047882902
14	0x3c371cf3	0.011176336
15	0xbc2d46b9	-0.010575944
16	0xbc232de6	-0.0099596735
17	0x3bc45e0e	0.0059926575
18	0x3b5153c8	0.0031940807
19	0x3b160215	0.0022889425
20	0xbba39d24	-0.004993098
21	0x3b90ed78	0.0044228397
22	0x3b952a14	0.0045521352
23	0xbb00eab7	-0.001967115

exp_avg_sq f4 [4, 6]
0	0x380688d5	3.2075524e-05
1	0x37812618	1.5395737e-05
2	0x389261bc	6.980027e-05
3	0x386c84b2	5.6390367e-05
4	0x3880dd86	6.1447776e-05
5	0x373e092a	1.1327016e-05
6	0x3801d7cf	3.0956984e-05
7	0x3795156d	1.7772161e-05
8	0x389879ea	7.270633e-05
9	0x38862a67	6.397516e-05
10	0x3892ffab	7.0094444e-05
11	0x3793cdb5	1.7619555e-05
12	0x384ca31e	4.8789305e-05
13	0x37bf7a50	2.282593e-05
14	0x3901c604	0.00012376165
15	0x38e9448b	0.00011123073
16	0x38cf16c5	9.87477e-05
17	0x381669e6	3.5861412e-05
18	0x37277611	9.981465e-06
19	0x36ac783c	5.1399966e-06
20	0x37cce21c	2.4423985e-05
21	0x37a1227b	1.9208752e-05
22	0x37aac94f	2.035932e-05
23	0x367fd246	3.8120356e-06

exp_avg f4 [3, 4]
0	0xbb2dbdc2	-0.002651081
1	0x3b46ce6a	0.0030335435
2	0x3b08196b	0.0020767103
3	0xb9f6600f	-0.00046992346
4	0x3c4fd5de	0.012685267
5	0xbc884bce	-0.016637709
6	0xbc4dfeda	-0.012572968
7	0x3b9746d7	0.004616599
8	0x3cb05606	0.021525394
9	0xbcf64491	-0.030061992
10	0xbccae00d	-0.024765039
11	0x3c498c03	0.012301448

exp_avg_sq f4 [3, 4]
0	0x36e8970f	6.9317243e-06
1	0x3717963c	9.0352805e-06
2	0x368d34a7	4.208257e-06
3	0x34808128	2.3935831e-07
4	0x3927aea5	0.00015991421
5	0x39900bc6	0.00027474592
6	0x39244881	0.00015667269
7	0x37b3870b	2.1401347e-05
8	0x39f035c5	0.0004581643
9	0x3a6a1718	0.0008929833
10	0x3a1ead07	0.0006053005
11	0x391cd11b	0.00014955217

exp_avg f4 [4, 3]
0	0x3b916cdd	0.0044380263
1	0xbca8ada4	-0.02059061
2	0xbc2ea14b	-0.010658572
3	0x3b3c020c	0.0028687743
4	0xbc673dde	-0.014113871
5	0xbbe91b2d	-0.0071138353
6	0xba363706	-0.0006950948
7	0xba20f94a	-0.00061406626
8	0x3a28d710	0.0006440738
9	0x3918f62b	0.00014587554
10	0xbcd1e6fd	-0.02562284
11	0xbbd8d1d3	-0.00661681

exp_avg_sq f4 [4, 3]
0	0x37ad1708	2.0633932e-05
1	0x39dcec0c	0.0004213754
2	0x38f09e3c	0.00011473565
3	0x370e64b4	8.487306e-06
4	0x394e1d3a	0.00019656579
5	0x38540209	5.0546634e-05
6	0x35334f21	6.6797844e-07
7	0x34f75e02	4.6075735e-07
8	0x35381904	6.8581744e-07
9	0x354e2248	7.6790866e-07
10	0x3a297f99	0.0006465852
11	0x3839b126	4.427242e-05

exp_avg f4 [6, 4]
0	0xbc594afc	-0.013262507
1	0xbb18b8a5	-0.0023303416
2	0x3b9195a5	0.004442888
3	0xbb93c930	-0.0045100674
4	0x3c922e7d	0.017844433
5	0x3b92e1d9	0.0044824895
6	0xbb2101f9	-0.0024567826
7	0x3c3c3007	0.01148606
8	0x3c874d10	0.016516238
9	0x3b232a2d	0.0024896965
10	0xbb71b50d	-0.0036881596
11	0x3bfbeb0c	0.007687932
12	0xba68a59d	-0.0008874776
13	0x3ada45b4	0.0016652853
14	0xb9e17a9f	-0.00043006704
15	0x382bdb55	4.0973846e-05
16	0xbb22f96b	-0.0024867903
17	0xbafa43e5	-0.001909372
18	0x3b002452	0.0019552899
19	0x3715fcf8	8.939991e-06
20	0xbc6c9dbd	-0.014441905
21	0xbb4b6a7a	-0.0031038807
22	0x3b3eb52c	0.0029099686
23	0xbbfb57b7	-0.0076703685

exp_avg_sq f4 [6, 4]
0	0x39364e3f	0.00017386021
1	0x36b01229	5.247323e-06
2	0x37aae158	2.0370513e-05
3	0x37ad62c6	2.0669202e-05
4	0x39a5d4c6	0.0003162978
5	0x37a75026	1.9945273e-05
6	0x370d918c	8.438143e-06
7	0x39133f98	0.00014042703
8	0x398d0ffe	0.0002690553
9	0x36d0752c	6.2125237e-06
10	0x37708c93	1.4337845e-05
11	0x388af089	6.625156e-05
12	0x35fba3ee	1.8748667e-06
13	0x36393865	2.7599974e-06
14	0x36747664	3.6427746e-06
15	0x36c56d3c	5.883774e-06
16	0x36e03d9a	6.6828916e-06
17	0x3672a825	3.6158683e-06
18	0x369a2b55	4.594602e-06
19	0x35080c4a	5.068183e-07
20	0x395821ff	0.0002061203
21	0x37207597	9.564122e-06
22	0x37166fd5	8.966735e-06
23	0x3884e92a	6.337681e-05

exp_avg f4 [8, 6]
0	0xbca6379a	-0.020290185
1	0x3cb2390d	0.02175572
2	0x3c733e92	0.014846461
3	0x3c52d0c4	0.012867156
4	0x3be7dbce	0.0070757633
5	0xbc0ef16b	-0.008724551
6	0x3b1d806f	0.0024032851
7	0x3a7d90a8	0.00096727395
8	0xbb2da06d	-0.0026493326
9	0xb98efdbd	-0.000272734
10	0xbb37734c	-0.0027992306
11	0x3abfbd2e	0.0014628523
12	0xbc53c363	-0.012925002
13	0x3c8b7a94	0.017026223
14	0x3c14c685	0.009080534
15	0x3c1602fd	0.009155986
16	0x3b4bfb4d	0.0031125129
17	0xbba95d8e	-0.0051686233
18	0x3a3a158b	0.0007098547
19	0x3b06c651	0.0020564983
20	0xbb044640	-0.0020183474
21	0x3a32523f	0.0006802417
22	0xbab84f5e	-0.0014061739
23	0xb5befaf7	-1.4229144e-06
24	0xbc012514	-0.007882375
25	0x3b01f1e3	0.0019828014
26	0x3be877ec	0.007094374
27	0x3b37c06b	0.0028038274
28	0x3bcb94a6	0.0062127886
29	0xbb8b7a0a	-0.0042564915
30	0xbc09cbe2	-0.008410426
31	0x3c66372f	0.014051243
32	0x3b806ca8	0.003919203
33	0x3befa4fa	0.007313368
34	0x39cdf14e	0.00039280433
35	0xbb6f75be	-0.0036538686
36	0x3c45136c	0.012028556
37	0xbc3270cd	-0.010891152
38	0xbc1ff674	-0.009763349
39	0xbbdf04c5	-0.0068059885
40	0xbbac31c7	-0.0052549574
41	0x3ba8689e	0.0051394245
42	0x3c016053	0.007896501
43	0xbc4cc9ed	-0.012499315
44	0xbbae2ee3	-0.005315648
45	0xbbce802d	-0.006301901
46	0xb9f29533	-0.00046269
47	0x3b29524f	0.0025836413

exp_avg_sq f4 [8, 6]
0	0x39e79c02	0.00044175988
1	0x39f57c8b	0.00046822833
2	0x397e3a93	0.00024245148
3	0x392fd9b7	0.00016770406
4	0x38ac7932	8.2241735e-05
5	0x38be03d8	9.060622e-05
6	0x3709ce8d	8.213928e-06
7	0x3595dcc7	1.116562e-06
8	0x3714e1f5	8.874097e-06
9	0x3447bb94	1.860156e-07
10	0x373ed7d2	1.1375132e-05
11	0x366fdae1	3.574118e-06
12	0x3959d75c	0.0002077496
13	0x3996ccf5	0.00028762934
14	0x38e5c057	0.00010955397
15	0x38b9bfad	8.85719e-05
16	0x3835b331	4.3320648e-05
17	0x383a23d1	4.4379212e-05
18	0x373b6f61	1.1172001e-05
19	0x3699702b	4.5728134e-06
20	0x375461bc	1.265894e-05
21	0x35896dc2	1.0239239e-06
22	0x3783e1d4	1.5721576e-05
23	0x36b7158b	5.456333e-06
24	0x388e00a0	6.771204e-05
25	0x3683d4e4	3.928888e-06
26	0x386496fb	5.4500048e-05
27	0x37064a55	8.004329e-06
28	0x38478df5	4.7577505e-05
29	0x37b69490	2.176527e-05
30	0x38a587f1	7.893134e-05
31	0x394e5e10	0.00019680732
32	0x37d0a3c4	2.4871792e-05
33	0x3859bf2e	5.191488e-05
34	0x37d38f62	2.5219928e-05
35	0x37af4ea4	2.0898246e-05
36	0x393b0cfb	0.00017838545
37	0x38f6d296	0.00011769419
38	0x38f9b817	0.00011907535
39	0x3850c6ac	4.9776092e-05
40	0x38750d49	5.8424925e-05
41	0x382d1ab4	4.1271283e-05
42	0x38b8bf6a	8.809457e-05
43	0x39232234	0.00015557633
44	0x383f4b26	4.5607936e-05
45	0x3832580c	4.2520507e-05
46	0x37c2e31d	2.323236e-05
47	0x3799774a	1.829457e-05

exp_avg f4 [4, 8]
0	0xbc1c6aa1	-0.009546907
1	0x3cd4b5ba	0.02596556
2	0xbbee4d76	-0.0072724177
3	0xbbe66eab	-0.0070322356
4	0x3c08e6e7	0.008355833
5	0xbc19077d	-0.009340164
6	0xbb2f1e2a	-0.002672086
7	0x3c013226	0.0078854915
8	0xbc0892eb	-0.008335809
9	0x3a1e23e6	0.0006032571
10	0xbbf39b20	-0.007434264
11	0x3ac3e5ba	0.0014945783
12	0xbc0b6cac	-0.008509796
13	0xbcdceacb	-0.026967427
14	0x3c3879ef	0.01125954
15	0x3d056dca	0.032575406
16	0xbbed026e	-0.0072329557
17	0x3bed8988	0.007249061
18	0xbbaffed6	-0.005370955
19	0xb94a0eed	-0.00019269781
20	0xbb01134a	-0.0019695335
21	0xbc7fe680	-0.01561892
22	0x3b57d1dd	0.0032931485
23	0x3c95ce70	0.018286914
24	0xbb7738ee	-0.0037723142
25	0x3c24de5f	0.010062783
26	0xbadd96ac	-0.0016905866
27	0xbb5b2b8d	-0.0033442706
28	0x3b7d10af	0.003861468
29	0xba78a769	-0.0009485395
30	0xbb03daa0	-0.0020119324
31	0x38e1c2d2	0.00010765124

exp_avg_sq f4 [4, 8]
0	0x38e35391	0.00010839769
1	0x3a615d09	0.0008596932
2	0x387a938f	5.974207e-05
3	0x387a0402	5.9608377e-05
4	0x38d61274	0.00010207752
5	0x38bb85e8	8.941797e-05
6	0x37d84bcc	2.5784502e-05
7	0x388140fe	6.163305e-05
8	0x38b1ac00	8.472055e-05
9	0x39149d59	0.00014172996
10	0x388181df	6.17539e-05
11	0x370c3735	8.357504e-06
12	0x38c02c9d	9.163583e-05
13	0x3a3ee5ad	0.0007282149
14	0x390f87f5	0.0001368819
15	0x3a8a4c53	0.0010551311
16	0x388337bb	6.2569474e-05
17	0x3945f74a	0.00018879506
18	0x3808d31f	3.262155e-05
19	0x36df97b1	6.663577e-06
20	0x37f38349	2.9028992e-05
21	0x397abd68	0.00023912417
22	0x37e1b7a8	2.6907612e-05
23	0x39abe506	0.00032786297
24	0x37da5dd4	2.6031317e-05
25	0x39698c7a	0.00022272943
26	0x370ec7b8	8.51036e-06
27	0x3783b6d2	1.570155e-05
28	0x3812cadb	3.4998036e-05
29	0x36940ce4	4.4122444e-06
30	0x3793eee7	1.7635013e-05
31	0x3628efc1	2.5173506e-06

exp_avg f4 [8]
0	0x3a237258	0.0006234995
1	0x3a88459c	0.0010396722
2	0x3ac0fd0d	0.0014723853
3	0x3b4e3f6d	0.003147091
4	0xbaf5fc1c	-0.0018767151
5	0x3a82f79c	0.0009992006
6	0xb95857fa	-0.00020632139
7	0xbad0a0cd	-0.0015917063

exp_avg_sq f4 [8]
0	0x34d0f867	3.8923756e-07
1	0x358fa028	1.0700942e-06
2	0x36149b1b	2.2144002e-06
3	0x3727ab06	9.993795e-06
4	0x36695983	3.4771808e-06
5	0x358aafc8	1.033296e-06
6	0x3366368a	5.360065e-08
7	0x363efe4f	2.8460233e-06

exp_avg f4 [6]
0	0xbb0e7a99	-0.0021740554
1	0xbb6ea06a	-0.0036411532
2	0x3ab59beb	0.0013855671
3	0xbb45c756	-0.0030178628
4	0xb9729543	-0.00023134523
5	0x3abc0723	0.0014345389

exp_avg_sq f4 [6]
0	0x36ae621b	5.197025e-06
1	0x375da439	1.3210863e-05
2	0x35fe6981	1.895518e-06
3	0x3720ad7c	9.577136e-06
4	0x351345e7	5.486349e-07
5	0x360e21c7	2.117931e-06

exp_avg f4 [4]
0	0x3baf2445	0.0053449
1	0xbb6f3d09	-0.0036504886
2	0xb7c68388	-2.3664688e-05
3	0x3b3b2b05	0.0028559577

exp_avg_sq f4 [4]
0	0x37f11da8	2.8743249e-05
1	0x37692b26	1.38979285e-05
2	0x35dc70cd	1.6424107e-06
3	0x37084fe0	8.124829e-06

exp_avg f4 [3]
0	0xbaa0db8a	-0.0012272459
1	0xbb61a5c4	-0.003443108
2	0xbc8dabf4	-0.017293908

exp_avg_sq f4 [3]
0	0x35f81360	1.8483079e-06
1	0x37791ce3	1.4848282e-05
2	0x399d74a7	0.00030032286

exp_avg f4 [4]
0	0xbaacc102	-0.0013180079
1	0xba8d433d	-0.0010777485
2	0xbb09cdd8	-0.0021027233
3	0xbc8d9f97	-0.017288012

exp_avg_sq f4 [4]
0	0x37446fcf	1.1708543e-05
1	0x369dac0d	4.698994e-06
2	0x36decec5	6.6401867e-06
3	0x399d1817	0.00029963322

exp_avg f4 [6]
0	0xbc196c5a	-0.009364212
1	0x3a9934a0	0.0011688657
2	0x3bcc4d6f	0.0062348167
3	0x3a332a1c	0.0006834583
4	0xbb8bd379	-0.004267153
5	0xbb82b860	-0.0039892644

exp_avg_sq f4 [6]
0	0x38c49600	9.373948e-05
1	0x37e9d3a0	2.787431e-05
2	0x3858cdca	5.169007e-05
3	0x37fdce46	3.0256004e-05
4	0x37c8b4df	2.3926083e-05
5	0x37cfb984	2.476271e-05

exp_avg f4 [8]
0	0x3bad6d80	0.0052925944
1	0xbb97e167	-0.0046350244
2	0x3a4c7d95	0.00078006956
3	0xbb67be3a	-0.0035361187
4	0x3c11b273	0.008892643
5	0xbb85f104	-0.004087569
6	0xbbbe43b7	-0.005806412
7	0x3b055bd0	0.0020348914

exp_avg_sq f4 [8]
0	0x38bf3377	9.117176e-05
1	0x37f4ecd5	2.919735e-05
2	0x38805239	6.118831e-05
3	0x3833bf5d	4.2855147e-05
4	0x38ce5d2a	9.8401986e-05
5	0x38a262d1	7.743168e-05
6	0x38c461a4	9.364195e-05
7	0x3845707d	4.7073223e-05

exp_avg f4 [4]
0	0x3d043c13	0.032283854
1	0xbb2193ce	-0.002465475
2	0x3bece0a9	0.00722893
3	0x3c47691d	0.012171057

exp_avg_sq f4 [4]
0	0x3ab05a48	0.001345464
1	0x3973199e	0.00023183829
2	0x39915644	0.00027720828
3	0x39b65027	0.00034773463
