jet_by_jet_compression/grid_search/models/AE_basic_lr1e-04_pNA_wd1e-03.pth (torch_old, 10509 bytes, 48 tensors)

encoder.0.weight f4 [8, 4]
-0.3875117 -0.51950586 -0.5608673 0.40273187 0.31149387 -0.060662273 0.2676028 0.34850967
-0.26501498 0.14976346 0.19401914 -0.2865518 0.1937231 0.2744174 -0.22489366 -0.03714942
-0.371699 0.40880555 0.07395789 -0.09094507 0.47086918 -0.26114807 -0.26714316 -0.19031592
-0.36312738 0.1165194 -0.40471485 0.05297554 0.13157041 0.48756915 -0.40640584 0.48438427
00000000: ef67 c6be 56fe 04bf 0095 0fbf df32 ce3e
00000010: 207c 9f3e 0179 78bd 3c03 893e dc6f b23e
00000020: 0bb0 87be 985b 193e f4ac 463e ebb6 92be
00000030: 595f 463e 7080 8c3e 864a 66be fd29 18bd
00000040: 554f bebe f64e d13e 3c77 973d 6941 babd
00000050: c415 f13e 33b5 85be fdc6 88be 2de2 42be
00000060: d5eb b9be b9a1 ee3d c936 cfbe e1fc 583d
00000070: 65ba 063e aaa2 f93e 6d14 d0be 3701 f83e

encoder.0.bias f4 [8]
-0.13873897 -0.18128291 0.070492096 -0.0029296395 -0.35454023 0.45766804 -0.29540253 -0.19276516
00000000: 9711 0ebe 3aa2 39be 295e 903d 32ff 3fbb
00000010: 4c86 b5be 7753 ea3e 003f 97be 3b64 45be

encoder.2.weight f4 [6, 8]
0.18772739 -0.35144672 0.22019008 0.26199198 -0.25163952 0.0049517173 0.2719747 0.0638182
-0.01775767 -0.24343799 -0.13297483 0.019099073 0.14931971 -0.30990493 -0.0620888 0.11094463
0.3539658 0.26646423 0.10398761 0.028932944 0.11425928 0.20721911 0.33988237 -0.20962673
-0.17839147 -0.30283144 0.14584115 0.2756626 0.033810806 0.036816172 -0.12699994 -0.19378045
0.19926085 0.09393864 0.0807729 0.2937875 0.028835243 -0.27706 -0.093977705 -0.1665262
-0.119395144 0.32204494 0.18056148 -0.073407054 -0.1657874 -0.32375214 -0.1595268 0.18704535
00000000: 9c3b 403e d3f0 b3be 8279 613e d023 863e
00000010: e5d6 80be 0442 a23b 4540 8b3e 1eb3 823d
00000020: 8878 91bc cf47 79be 8e2a 08be a975 9c3c
00000030: 44e7 183e dcab 9ebe d350 7ebd f036 e33d
00000040: 013b b53e 006e 883e 75f7 d43d c804 ed3c
00000050: c500 ea3d 3f31 543e 1005 ae3e 64a8 56be
00000060: 41ac 36be b90c 9bbe 6257 153e a623 8d3e
00000070: 337d 0a3d 8ecc 163d 460c 02be 626e 46be
00000080: 090b 4c3e e762 c03d 436c a53d 516b 963e
00000090: e337 ec3c cfda 8dbe 6277 c0bd d885 2abe
000000a0: 7185 f4bd 13e3 a43e 1ce5 383e 7056 96bd
000000b0: 2cc4 29be d7c2 a5be fe5a 23be d188 3f3e

encoder.2.bias f4 [6]
0.056867607 -0.10590075 0.34078607 0.21543944 -0.055637956 0.3103276
00000000: 02ee 683d 7ee2 d8bd 837b ae3e 289c 5c3e
00000010: a0e4 63bd 42e3 9e3e

encoder.4.weight f4 [4, 6]
0.11150094 0.05114576 0.37969425 0.2618964 0.14197035 -0.42051983 0.3298944 0.1839374
0.15771635 -0.23053576 -0.08038038 -0.16879092 0.091794506 0.43802136 -0.3348634 -0.306719
0.003454585 0.30125186 0.051981278 0.14514571 0.31617314 0.05350226 0.32012758 -0.31850764
00000000: 9b5a e43d 377e 513d 4967 c23e 4917 863e
00000010: ad60 113e 604e d7be ebe7 a83e 165a 3c3e
00000020: 6580 213e 9111 6cbe 789e a4bd 87d7 2cbe
00000030: c2fe bb3d 5644 e03e 3773 abbe 460a 9dbe
00000040: 5266 623b af3d 9a3e 52ea 543d 14a1 143e
00000050: 72e1 a13e 3025 5b3d c3e7 a33e 6f13 a3be

encoder.4.bias f4 [4]
0.024923388 -0.21119812 0.22773634 0.3606235
00000000: 222c cc3c 5244 58be b733 693e a5a3 b83e

encoder.6.weight f4 [3, 4]
0.34193546 0.4485141 0.18141636 0.09900911 -0.46207336 0.20559387 -0.44074875 0.4956307
0.19106999 0.51005125 -0.45247966 0.15774316
00000000: 2a12 af3e a4a3 e53e 36c5 393e 4ac5 ca3d
00000010: e194 ecbe 3387 523e d2a9 e1be 4fc3 fd3e
00000020: daa7 433e b892 023f 6aab e7be 6c87 213e

encoder.6.bias f4 [3]
0.035257373 -0.353327 0.46620613
00000000: 096a 103d 47e7 b4be 92b2 ee3e

decoder.0.weight f4 [4, 3]
-0.5701767 -0.39190754 -0.5165629 0.33139402 -0.021835066 -0.55907786 -0.2946016 -0.0052225934
-0.039068013 0.5911217 -0.41603267 0.23251548
00000000: 1af7 11bf 1ba8 c8be 773d 04bf 7aac a93e
00000010: 74df b2bc ba1f 0fbf 05d6 96be 4a22 abbb
00000020: c805 20bd c053 173f 3c02 d5be 8a18 6e3e

decoder.0.bias f4 [4]
-0.028674025 -0.18142052 -0.5112823 0.05465352
00000000: cae5 eabc 4dc6 39be 66e3 02bf 5fdc 5f3d

decoder.2.weight f4 [6, 4]
-0.5077615 -0.41038993 -0.007774821 0.17054665 0.2092579 0.27912673 0.17206539 -0.20603758
-0.3650288 0.058397792 0.2156281 0.11419683 0.2153592 -0.2998141 0.2443854 0.11719913
0.33038932 0.39970267 0.21773463 0.15928034 0.4277515 0.028603485 -0.064826824 -0.12511115
00000000: a8fc 01bf a11e d2be edc3 febb c8a3 2e3e
00000010: b447 563e b3e9 8e3e e931 303e 84fb 52be
00000020: 0ee5 babe 8632 6f3d 9dcd 5c3e 07e0 e93d
00000030: 1f87 5c3e 3c81 99be 2b40 7a3e 1906 f03d
00000040: ca28 a93e d4a5 cc3e d4f5 5e3e 631a 233e
00000050: 3f02 db3e db51 ea3c edc3 84bd 231d 00be

decoder.2.bias f4 [6]
-0.2919179 -0.37793145 -0.36035278 0.2789027 0.28090847 -0.05909645
00000000: 4376 95be 3b80 c1be 2980 b8be 56cc 8e3e
00000010: 3cd3 8f3e 1f0f 72bd

decoder.4.weight f4 [8, 6]
0.2870972 -0.09836167 -0.17565897 -0.18324989 0.22948533 -0.046990015 -0.0022734778 -0.3758504
-0.28688636 -0.18157315 0.063491 -0.039938536 0.26535764 0.09546784 -0.18333812 0.15139526
0.20699434 0.18410116 -0.19747451 0.11332347 -0.38604486 -0.04154767 0.07607657 0.29652256
-0.3912257 0.15444769 0.16856866 -0.4014966 0.36108553 -0.30343223 0.21971706 0.009779243
0.24858698 0.3449834 -0.21628983 -0.028114583 -0.19113155 -0.42608666 0.34547332 -0.1819068
0.03195947 0.1001847 -0.3612986 0.21784726 0.04622089 0.20825665 0.026573638 0.35443017
00000000: 67fe 923e d871 c9bd f2df 33be dca5 3bbe
00000010: 34fe 6a3e 9a78 40bd a1fe 14bb 776f c0be
00000020: c5e2 92be 50ee 39be 9207 823d 9796 23bd
00000030: f5dc 873e a584 c33d fdbc 3bbe 5c07 1b3e
00000040: 53f6 533e 0485 3c3e c236 4abe 2316 e83d
00000050: aca7 c5be e42d 2abd 08ce 9b3d ced1 973e
00000060: bc4e c8be 8927 1e3e 439d 2c3e f690 cdbe
00000070: 34e0 b83e 785b 9bbe 82fd 603e 1e39 203c
00000080: 968d 7e3e aaa1 b03e 157b 5dbe 8e50 e6bc
00000090: fdb7 43be 0828 dabe e1e1 b03e c745 3abe
000000a0: efe7 023d a32d cd3d 21fc b8be 5a13 5f3e
000000b0: 1e52 3d3d 3b41 553e f5b0 d93c df77 b53e

decoder.4.bias f4 [8]
0.31427053 0.25769714 -0.3683852 0.042960964 -0.3421681 0.17074946 0.1595757 -0.22195746
00000000: 11e8 a03e e1f0 833e fc9c bcbe d6f7 2f3d
00000010: a830 afbe f2d8 2e3e d067 233e d148 63be

decoder.6.weight f4 [4, 8]
-0.051158804 0.036478754 -0.0051848064 -0.16129078 0.08563875 0.07624502 -0.28433356 0.25524476
0.31366774 -0.08599903 -0.24070023 0.1537103 -0.030687077 -0.24068771 -0.30106595 0.2694642
0.23413326 -0.06400045 0.04381377 0.30484134 0.34340504 -0.3005162 -0.27843744 0.30140245
0.19748047 0.2434529 0.22191557 0.23975337 -0.013619946 -0.2613828 -0.2783523 -0.13938704
00000000: e58b 51bd bf6a 153d 4fe5 a9bb 6929 25be
00000010: 5e63 af3d 5926 9c3d 2b94 91be 71af 823e
00000020: 0f99 a03e 4220 b0bd 1f7a 76be 3c66 1d3e
00000030: 7763 fbbc d776 76be 5125 9abe 36f7 893e
00000040: a1c0 6f3e ab12 83bd 1176 333d 2a14 9c3e
00000050: c9d2 af3e 42dd 99be 5a8f 8ebe 6c51 9a3e
00000060: 5238 4a3e b84b 793e d63d 633e e881 753e
00000070: 3226 5fbc f7d3 85be 3184 8ebe 7abb 0ebe

decoder.6.bias f4 [4]
0.18011093 -0.0058486415 0.2940918 -0.11505255
00000000: 006f 383e f6a5 bfbb 3393 963e aca0 ebbd

exp_avg f4 [8, 4]
-0.00080413517 0.005085998 0.012683755 0.006895623 -8.3115934e-05 -0.005114424 -0.0071587265 -0.00015582822
0.00026447288 0.0016631633 0.0027091901 0.0010980907 0.0015465338 0.0075663775 0.012527683 0.003080351
0.00068184396 0.0020699885 0.0050111795 0.0011368385 0.0021731555 0.006220511 0.014452535 0.0021902013
-0.0012444686 0.0130651705 0.018756565 0.005553749 -0.0016881446 -0.0061336462 -0.012972591 -0.0017897452
00000000: 99cc 52ba 72a8 a63b 86cf 4f3c aef4 e13b
00000010: 874e aeb8 e696 a7bb c093 eabb d265 23b9
00000020: f3a8 8a39 80fe d93a ab8c 313b cfed 8f3a
00000030: 10b5 ca3a 60ef f73b e940 4d3c b7df 493b
00000040: c6bd 323a a5a8 073b d234 a43b f801 953a
00000050: 806b 0e3b 6ed5 cb3b 53ca 6c3c 7b89 0f3b
00000060: 701d a3ba 4c0f 563c 5ea7 993c 39fc b53b
00000070: bc44 ddba c1fc c8bb fe8a 54bc e295 eaba

exp_avg_sq f4 [8, 4]
1.0910472e-06 2.5032092e-05 0.00015934529 4.4741446e-05 6.698429e-08 2.5645946e-05 5.0202558e-05 1.06762926e-07
7.381112e-08 2.8085321e-06 7.4533405e-06 1.2359507e-06 2.3048722e-06 5.5769964e-05 0.00015389791 9.093098e-06
4.514381e-07 4.165969e-06 2.5179588e-05 1.2598451e-06 4.4123994e-06 3.7090897e-05 0.00020532747 4.5994675e-06
2.1932692e-06 0.00016610365 0.00034575217 2.910692e-05 2.953909e-06 3.7301455e-05 0.00016637951 3.3057809e-06
00000000: 1970 9235 02fc d137 ed15 2739 c3a8 3b38
00000010: 01d9 8f33 4022 d737 9690 5238 8a45 e533
00000020: 1882 9e33 377a 3c36 b517 fa36 f1e2 a535
00000030: 67ad 1a36 8bea 6938 a85f 2139 8f8e 1837
00000040: 2e5d f234 67c9 8b36 c138 d337 f317 a935
00000050: 390e 9436 0c92 1b38 2c4d 5739 2055 9a36
00000060: 1430 1336 1c2c 2e39 1246 b539 a22a f437
00000070: c53b 4636 2274 1c38 2976 2e39 e2d8 5d36

exp_avg f4 [6, 8]
-0.0124480985 0.005831429 0.0035170093 -0.0005125164 0.0041061747 -0.0063018873 -0.006647881 5.4342695e-06
0.00018701973 0.0003111415 -0.0007190926 0.0010241116 0.00046642905 -0.0002710629 0.00076872 0.0017766643
-0.024224354 0.011050663 0.007226023 -0.0029189647 0.004914422 -0.009511875 -0.0153610185 -0.0034664676
-0.0025362223 0.0007696296 0.001037284 -0.0006339048 -0.00012416265 -0.00023383225 -0.0020297498 -0.0012758704
-0.0045999535 0.0021038214 0.0012404909 -0.0003770212 0.0007274902 -0.001516776 -0.0029862833 -0.0004980127
0.022559548 -0.011143374 -0.0067894086 0.0027725282 -0.007120636 0.011578154 0.012803089 0.0029988203
00000000: 1cf3 4bbc 9215 bf3b a07d 663b 655a 06ba
00000010: 178d 863b 1080 cebb 78d6 d9bb 0558 b636
00000020: ba1a 4439 b520 a339 7d81 3cba 7c3b 863a
00000030: 0c8b f439 721d 8eb9 ed83 493a f6de e83a
00000040: 2772 c6bc d70d 353c 46c8 ec3b 1a4c 3fbb
00000050: 2909 a13b b2d7 1bbc c8ac 7bbc ad2d 63bb
00000060: c036 26bb f8c0 493a 7af5 873a a22c 26ba
00000070: a831 02b9 de30 75b9 8d05 05bb 1b3b a7ba
00000080: 35bb 96bb 44e0 093b f897 a23a eeaa c5b9
00000090: 0ab5 3e3a 8fce c6ba 85b5 43bb 118d 02ba
000000a0: cdce b83c b392 36bc b079 debb 4eb3 353b
000000b0: 3954 e9bb 4cb2 3d3c 0cc4 513c db87 443b

exp_avg_sq f4 [6, 8]
0.00015225651 3.2532145e-05 1.3006463e-05 3.601477e-07 1.7391796e-05 3.9591432e-05 4.271296e-05 3.049816e-07
3.712266e-08 9.74545e-08 4.975105e-07 1.0528049e-06 2.2206596e-07 7.3075014e-08 5.7319784e-07 3.1083648e-06
0.0005760243 0.00011734839 5.4606473e-05 9.076396e-06 2.6131405e-05 9.167922e-05 0.0002286699 1.4006393e-05
6.400714e-06 5.96959e-07 1.114513e-06 4.1631634e-07 2.5362029e-08 8.8829e-08 4.0488076e-06 1.6460112e-06
2.0939278e-05 4.294219e-06 1.635292e-06 1.6012729e-07 6.030658e-07 2.3735865e-06 8.705961e-06 3.1640718e-07
0.0004995442 0.00012020447 4.7412923e-05 8.15377e-06 5.179462e-05 0.00013390761 0.00015956038 1.0394621e-05
00000000: 0ca7 1f39 2073 0838 5536 5a37 535a c134
00000010: 99e4 9137 fa0e 2638 b126 3338 5abc a334
00000020: cc70 1f33 2e48 d133 a98c 0535 1a4e 8d35
00000030: 0771 6e34 6aed 9c33 dbdd 1935 4d99 5036
00000040: 5600 173a f018 f638 4109 6538 d346 1837
00000050: c434 db37 e843 c038 1cc7 6f39 00fd 6a37
00000060: b7c5 d636 b63e 2035 6096 9535 1582 df34
00000070: b1db d932 42c2 be33 feda 8736 84ec dc35
00000080: c2a6 af37 0f17 9036 357c db35 74ef 2b34
00000090: 5ee2 2135 e849 1f36 d10f 1237 acde a934
000000a0: d8f3 023a 4916 fc38 3ddd 4638 2dcc 0837
000000b0: 0d3e 5938 8d69 0c39 aa4f 2739 8f64 2e37

exp_avg f4 [4, 6]
-0.006400674 0.00023818041 -0.0040997355 0.0034352131 -3.49549e-05 0.007712105 -0.022734502 0.0038273279
-0.015742812 0.004036412 0.0024476987 0.022401817 0.014048368 -0.0005406834 0.007855816 -0.004654569
-0.0008696586 -0.014809193 -0.010038203 0.00038399827 -0.0057140575 0.0031082758 0.00041739954 0.011049519
00000000: bfbc d1bb 11c0 7939 1357 86bb 5021 613b
00000010: 8a9c 12b8 d3b5 fc3b b53d babc e8d3 7a3b
00000020: 12f7 80bc e143 843b 9269 203b 0484 b73c
00000030: 202b 663c a6bc 0dba aeb5 003c 5b85 98bb
00000040: cdf9 63ba 42a2 72bc 4677 24bc 6053 c939
00000050: fd3c bbbb 37b4 4b3b 6bd6 da39 0b09 353c

exp_avg_sq f4 [4, 6]
3.961806e-05 1.4166139e-07 1.6516615e-05 1.1920734e-05 2.653849e-08 5.731354e-05 0.0005042426 1.5614687e-05
0.00024437142 1.8197878e-05 6.659202e-06 0.00048600064 0.0001929392 6.2562856e-07 6.0782382e-05 2.2236909e-05
1.015617e-06 0.00021294647 9.8009965e-05 3.1827346e-07 3.2083313e-05 9.960146e-06 2.773456e-07 0.00011803388
00000000: 912b 2638 961b 1834 298d 8a37 2aff 4737
00000010: c2f6 e332 f263 7038 262f 043a 49fc 8237
00000020: fa1e 8039 a5a7 9837 1c72 df36 e7cd fe39
00000030: b94f 4a39 def0 2735 96f0 7e38 6689 ba37
00000040: 5650 8835 624a 5f39 b38a cd38 2cdf aa34
00000050: 3291 0638 801a 2737 17e6 9434 f588 f738

exp_avg f4 [3, 4]
-0.013217004 -0.011502761 0.009159656 -0.00782616 -0.0072005466 -0.0055995076 0.0047041713 -0.00452792
-0.018855792 -0.023047414 0.014404731 -0.0067865755
00000000: 228c 58bc 1476 3cbc 6212 163c 4b39 00bc
00000010: 90f2 ebbb 137c b7bb 7325 9a3b f25e 94bb
00000020: 7677 9abc eecd bcbc d201 6c3c ec61 debb

exp_avg_sq f4 [3, 4]
0.00016843925 0.00012787098 8.058671e-05 6.034114e-05 5.0293653e-05 3.0476514e-05 2.1352596e-05 2.0233783e-05
0.00034341443 0.00051618397 0.00020004906 4.6332676e-05
00000000: 119f 3039 1b15 0639 a900 a938 ce16 7d38
00000010: 66f2 5238 d1a7 ff37 5a1e b337 b8bb a937
00000020: 4e0c b439 8550 073a 43c4 5139 5555 4238

exp_avg f4 [4, 3]
0.01708467 0.009848264 0.0203693 0.011630933 0.007223337 0.012161449 0.0006395877 0.0005654212
-0.0013329329 -0.0047223954 -0.00331047 -0.00522634
00000000: 26f5 8b3c 9d5a 213c 85dd a63c ab8f 3e3c
00000010: beb1 ec3b d040 473c 01aa 273a c638 143a
00000020: ceb5 aeba 53be 9abb 78f4 58bb b841 abbb

exp_avg_sq f4 [4, 3]
0.00028324913 9.3758674e-05 0.00041044955 0.00013180924 5.054013e-05 0.00014727662 4.01221e-07 3.597929e-07
1.8481986e-06 2.14983e-05 1.0519832e-05 2.695525e-05
00000000: 0e81 9439 4ea0 c438 9b31 d739 4636 0a39
00000010: 0dfb 5338 446e 1a39 6567 d734 8f29 c134
00000020: 9f0f f835 3f57 b437 567e 3037 f51d e237

exp_avg f4 [6, 4]
0.012763042 0.0018669632 0.001600244 -0.0057636127 -0.016635448 -0.0006369118 0.0013335862 0.006145585
0.022666184 0.009089943 0.006247822 -0.01123919 0.006837146 0.0024200527 0.0010696944 -0.0028281203
-0.017300319 -0.0040174956 -0.002406693 0.00818751 -0.0064825313 -0.0012190477 -0.00010728829 0.002300167
00000000: 141c 513c e4b4 f43a 47bf d13a b0dc bcbb
00000010: 1047 88bc 6df6 26ba bacb ae3a e760 c93b
00000020: 6fae b93c fced 143c 88ba cc3b 9424 38bc
00000030: 230a e03b bf99 1e3b fd34 8c3a fc57 39bb
00000040: 66b9 8dbc 32a5 83bb 9cb9 1dbb e824 063c
00000050: 6a6b d4bb 74c8 9fba f6ff e0b8 66be 163b

exp_avg_sq f4 [6, 4]
0.00015870426 5.1123693e-06 5.488126e-06 3.3518983e-05 0.00026937717 2.0051393e-06 3.940506e-06 3.840231e-05
0.00050209824 8.76578e-05 4.9673105e-05 0.00012782679 4.6714285e-05 6.8059894e-06 2.901929e-06 8.5279735e-06
0.00029281553 1.8586286e-05 1.0357792e-05 6.78309e-05 4.038944e-05 1.8274167e-06 6.44406e-07 5.3174194e-06
00000000: da69 2639 eb8a ab36 a526 b836 bc96 0c38
00000010: 313b 8d39 0890 0636 b038 8436 2b12 2138
00000020: 3e9f 033a ecd4 b738 1758 5038 3e09 0639
00000030: 15ef 4338 015f e436 c3be 4236 5e13 0f37
00000040: 0985 9939 bfe9 9b37 61c6 2d37 7040 8e38
00000050: d567 2938 8f45 f535 3efb 2c35 496c b236

exp_avg f4 [8, 6]
0.01457947 -0.004062013 0.007240539 -0.0027849386 -0.009182931 -0.009138036 0.00029564943 0.0003952173
0.00045664766 -0.00013172299 -6.8974005e-05 1.29638765e-05 0.0006695526 -0.00019877646 0.00064251904 -0.0003326852
0.00026406004 -0.0005891928 0.014354794 -0.006392075 0.005690982 -0.0017259012 -0.008709902 -0.009649168
0.011848964 -0.0034135734 0.0065759127 -0.003209865 -0.006294177 -0.008128844 -0.018228093 0.0053084227
-0.009075381 0.0035383853 0.011144968 0.011598718 -0.02665948 0.008976272 -0.0130007565 0.0053206813
0.015561559 0.017726567 0.019547082 -0.0030087011 0.012125861 -0.006100694 -0.011280398 -0.012477462
00000000: bbde 6e3c a21a 85bb 0b42 ed3b 8483 36bb
00000010: 0174 16bc b3b7 15bc 6501 9b39 2b35 cf39
00000020: 366a ef39 1f1f 0ab9 23a6 90b8 6d7f 5937
00000030: ea84 2f3a a66e 50b9 b96e 283a 406c aeb9
00000040: 8a71 8a39 0f74 1aba 5f30 6b3c 9d74 d1bb
00000050: 6b7b ba3b a237 e2ba fab3 0ebc 8b17 1ebc
00000060: 2822 423c 42b6 5fbb c17a d73b 995c 52bb
00000070: 623f cebb d82e 05bc 1553 95bc 47f2 ad3b
00000080: e8b0 14bc 41e4 673b 6299 363c 8d08 3e3c
00000090: fb64 dabc 3711 133c 2001 55bc 1c59 ae3b
000000a0: e9f5 7e3c 4e37 913c 3421 a03c a12d 45bb
000000b0: 8cab 463c 55e8 c7bb 6bd1 38bc 456e 4cbc

exp_avg_sq f4 [8, 6]
0.0002069163 2.7888358e-05 5.4582237e-05 9.573672e-06 8.2091305e-05 8.227599e-05 2.8949842e-07 2.9971607e-06
1.9228103e-06 7.7088566e-07 8.8768914e-08 1.1238973e-07 7.418356e-07 5.958621e-06 3.5911705e-06 1.5467934e-06
1.6505157e-07 6.5726397e-07 0.00020116712 5.386591e-05 3.6980935e-05 5.667302e-06 7.4005715e-05 9.1781374e-05
0.00013753242 1.7773218e-05 4.3663167e-05 1.09947705e-05 3.8581493e-05 6.560625e-05 0.00032285965 4.4329605e-05
8.476679e-05 1.4949269e-05 0.00012060727 0.00013227093 0.00068918953 0.00010993046 0.00016736389 3.0910585e-05
0.00023408014 0.00030955207 0.0003700796 2.2211918e-05 0.0001436248 3.747727e-05 0.00012280313 0.00015307448
00000000: acf7 5839 cbf1 e937 3bef 6438 9c9e 2037
00000010: 6f28 ac38 968b ac38 5c6c 9b34 d422 4936
00000020: a109 0136 dcee 4e35 3aa1 be33 e85a f133
00000030: 8e22 4735 2af0 c736 d7ff 7036 6b9b cf35
00000040: 0839 3134 d66e 3035 63f0 5239 15ee 6138
00000050: fa1b 1b38 c129 be36 8433 9b38 c07a c038
00000060: 9436 1039 b217 9537 f822 3738 2e76 3837
00000070: 90d2 2138 1696 8938 7d45 a939 8dee 3938
00000080: d3c4 b138 9fce 7a37 89ee fc38 35b2 0a39
00000090: baaa 343a 778a e638 677e 2f39 fda5 0138
000000a0: 6973 7539 604b a239 3e07 c239 bb53 ba37
000000b0: fd99 1639 ea30 1d38 b7c4 0039 9e82 2039

exp_avg f4 [4, 8]
0.0033446085 -0.000182568 -0.0021210683 -0.016567351 -0.0031206184 0.008780657 0.0020357787 -0.015853059
0.0008093917 -0.0011619587 -0.00085392134 -0.0107207205 -0.0045400127 0.0074400995 -0.00024305981 -0.009690376
0.0072805136 0.0022652193 -0.0052474723 -0.026857764 -0.0092693 0.01617329 0.0039569964 -0.027669659
-9.8423414e-05 -0.0023593868 0.00058901205 -0.009524529 -0.001552508 0.0054283803 -0.0004460495 -0.007274644
00000000: 3831 5b3b b96f 3fb9 9f01 0bbb 41b8 87bc
00000010: 4a83 4cbb bfdc 0f3c b36a 053b 46de 81bc
00000020: 5c2d 543a dd4c 98ba b1d9 5fba f6a5 2fbc
00000030: 63c4 94bb 14cc f33b dfdd 7eb9 62c4 1ebc
00000040: 6091 ee3b 1374 143b fdf2 abbb d004 dcbc
00000050: 43de 17bc d97d 843c b1a9 813b 7bab e2bc
00000060: ab68 ceb8 f19f 1abb ee67 1a3a c50c 1cbc
00000070: 867d cbba 8ee0 b13b c0db e9b9 2360 eebb

exp_avg_sq f4 [4, 8]
4.4054974e-05 5.423312e-05 2.843237e-05 0.0002669048 6.55416e-05 8.0832884e-05 1.4285384e-05 0.0002741911
3.426847e-05 5.9689424e-05 2.5871157e-05 0.00011109747 7.9600344e-05 5.856053e-05 1.0532204e-05 0.0001153238
8.959865e-05 6.341892e-05 5.350845e-05 0.00070647884 0.0001467278 0.00026381906 2.636572e-05 0.0007885905
3.010708e-05 5.886271e-05 2.2881019e-05 9.1761016e-05 5.43666e-05 3.2890137e-05 9.709559e-06 7.241797e-05
00000000: abc7 3838 5f78 6338 0d82 ee37 5bef 8b39
00000010: 6173 8938 d384 a938 42ab 6f37 4ec1 8f39
00000020: 7dbb 0f38 085b 7a38 e305 d937 00fd e838
00000030: 1cef a638 e49e 7538 79b3 3037 fed9 f138
00000040: e9e6 bb38 c6ff 8438 436e 6038 fe32 393a
00000050: f2da 1939 3251 8a39 f42b dd37 6ab9 4e3a
00000060: 768e fc37 5be3 7638 9df0 bf37 d26f c038
00000070: b107 6438 84f3 0938 3de6 2237 1adf 9738

exp_avg f4 [8]
-0.0002786666 0.0005931317 0.0018985801 0.0025496809 0.0008461728 0.0043430976 -8.932401e-05 -0.0005573507
00000000: ff19 92b9 657c 1b3a c7d9 f83a 8c18 273b
00000010: b2d1 5d3a 8b50 8e3b 7653 bbb8 2c1b 12ba

exp_avg_sq f4 [8]
4.0327893e-07 4.5506687e-07 3.525625e-06 6.330622e-06 7.1532844e-07 1.8156608e-05 6.615417e-07 5.087707e-07
00000000: 3c82 d834 ea4f f434 c799 6c36 a16b d436
00000010: ff04 4035 054f 9837 cd94 3135 7592 0835

exp_avg f4 [6]
0.0028639974 -0.001423434 0.011902048 0.0027337265 0.0026106818 -0.0013627803
00000000: e7b1 3b3b 8592 baba cf00 433c 5228 333b
00000010: f917 2b3b 529f b2ba

exp_avg_sq f4 [6]
8.2941215e-06 1.9860636e-06 0.00013705647 7.2308517e-06 6.610292e-06 3.8809553e-06
00000000: fb26 0b37 5048 0536 d1b6 0f39 8ba0 f236
00000010: facd dd36 2739 8236

exp_avg f4 [4]
0.0060542827 0.0042657345 -0.008332558 0.006698397
00000000: 0163 c63b 93c7 8b3b 4885 08bc 3a7e db3b

exp_avg_sq f4 [4]
3.5494395e-05 2.4868179e-05 6.859152e-05 4.3843836e-05
00000000: d1df 1438 029c d037 cbd8 8f38 f6e4 3738

exp_avg f4 [3]
0.0038943496 0.00015862312 0.022441268
00000000: 5838 7f3b 1254 2639 c0d6 b73c

exp_avg_sq f4 [3]
1.925834e-05 1.7864445e-06 0.00049177144
00000000: f88c a137 c4c5 ef35 39ea 003a

exp_avg f4 [4]
-0.007183399 -0.007503713 -0.0024975801 0.0033387952
00000000: b862 ebbb b5e1 f5bb 71ae 23bb b0cf 5a3b

exp_avg_sq f4 [4]
7.0322276e-05 6.309351e-05 6.592619e-06 1.2029027e-05
00000000: fc79 9338 1251 8438 2a36 dd36 47d0 4937

exp_avg f4 [6]
0.0021948328 -0.010103333 -0.00481129 0.00015068548 -0.0020796505 -0.002273029
00000000: 2fd7 0f3b 7388 25bc 07a8 9dbb 5301 1e39
00000010: bf4a 08bb 19f7 14bb

exp_avg_sq f4 [6]
1.6121454e-05 0.00010375771 6.58856e-05 7.4811646e-06 2.0485984e-05 7.281043e-06
00000000: 8f3c 8737 7f98 d938 102c 8a38 b706 fb36
00000010: 51d9 ab37 af4f f436

exp_avg f4 [8]
-0.0031882438 -0.0010466215 -0.00048777266 0.00092603854 -0.0028154575 0.0037267336 0.0037208693 -0.008866396
00000000: dbf1 50bb ca2e 89ba bdbb ffb9 65c1 723a
00000010: 8a83 38bb 373c 743b d4d9 733b 5c44 11bc

exp_avg_sq f4 [8]
4.2017808e-05 1.0785744e-05 1.9459909e-05 4.177212e-05 2.3204273e-05 5.858132e-05 8.318218e-05 0.00010472765
00000000: 473c 3038 6bf4 3437 d63d a337 7934 2f38
00000010: cca6 c237 37b5 7538 1872 ae38 3ba1 db38

exp_avg f4 [4]
-0.0028237037 -0.0029678645 0.0011806207 -0.0058148354
00000000: e30d 39bb 8180 42bb 0fbf 9a3a 608a bebb

exp_avg_sq f4 [4]
0.00022778046 0.0002488089 0.00023656116 0.00025384608
00000000: 5ad8 6e39 9172 8239 670d 7839 a516 8539
