jet_by_jet_compression/grid_search/models/AE_basic_lr1e-03_pNA_wd1e-03.pth (torch_old, 10506 bytes, 48 tensors)

encoder.0.weight f4 [8, 4]
-0.05121296 0.039139327 -0.40274647 -0.052697167 -0.3084357 0.18808316 0.24775793 -0.056996267
-0.022766516 0.13798873 -0.3326406 0.18809056 -0.07608803 -0.31054977 -0.042133745 -0.23265913
0.19725369 -0.19540735 -0.08231571 -0.0061514634 0.10645006 -0.6455882 -0.03486473 -0.13288958
-0.16983482 0.23932174 -0.25164422 -0.252798 0.27811724 0.14565557 0.30523387 -0.13679624
00000000: aec4 51bd 8f50 203d c934 cebe fcd8 57bd
00000010: 49eb 9dbe df98 403e 41b4 7d3e eb74 69bd
00000020: d880 babc eb4c 0d3e de4f aabe d09a 403e
00000030: 0bd4 9bbd 6100 9fbe 6f94 2cbd 323e 6ebe
00000040: dffc 493e dd18 48be 2495 a8bd 3792 c9bb
00000050: 7d02 da3d 4545 25bf 52ce 0ebd 3514 08be
00000060: 2ee9 2dbe c210 753e 83d7 80be bd6e 81be
00000070: 6265 8e3e bc26 153e 9d47 9c3e 5014 0cbe

encoder.0.bias f4 [8]
0.30386114 0.07572932 -0.2046638 0.20951277 0.17157999 0.47597495 0.40245435 0.71682686
00000000: b093 9b3e f917 9b3d 6393 51be 848a 563e
00000010: aab2 2f3e fdb2 f33e 7f0e ce3e f781 373f

encoder.2.weight f4 [6, 8]
0.13737637 -0.21032794 -0.4635851 0.0314694 0.066194825 0.50671244 -0.113448955 -0.1213552
0.29358256 -0.12445723 0.019697767 -0.07905224 -0.38120863 -0.5540342 0.13425262 -0.36126938
-0.47370204 -0.17583479 -0.26769218 0.41771877 -0.28586555 0.035977587 -0.14025456 -0.18654482
0.29718465 -0.0019512033 0.32017618 0.017415615 -0.15111226 -0.0035640693 -0.055007868 -0.27247244
-0.0075495727 0.082376495 0.14617312 0.30675635 -0.43825376 -0.4640275 0.15947013 0.00326129
0.40834442 0.23131232 -0.12432795 0.17878672 -0.09100339 0.35845864 0.33257812 0.3070737
00000000: 64ac 0c3e 3560 57be 075b edbe 0fe6 003d
00000010: 2791 873d e8b7 013f ed57 e8bd 1389 f8bd
00000020: 7450 963e 6fe3 febd 365d a13c 24e6 a1bd
00000030: c72d c3be 2fd5 0dbf 8579 093e 4df8 b8be
00000040: 1389 f2be 090e 34be f30e 89be 3cdf d53e
00000050: f85c 92be 3c5d 133d e49e 0fbe 9b05 3fbe
00000060: 9628 983e 85bf ffba 22ee a33e 31ab 8e3c
00000070: 2cbd 1abe 2993 69bb ee4f 61bd 8281 8bbe
00000080: 6862 f7bb 02b5 a83d 68ae 153e 2b0f 9d3e
00000090: cc62 e0be 0395 edbe 234c 233e 5ebb 553b
000000a0: 8512 d13e 23dd 6c3e a79f febd de13 373e
000000b0: fc5f babd e487 b73e ae47 aa3e c438 9d3e

encoder.2.bias f4 [6]
0.08198655 0.07166647 -0.26573214 -0.18164375 0.26211026 0.3157481
00000000: 90e8 a73d dfc5 923d 0b0e 88be d200 3abe
00000010: 5133 863e bca9 a13e

encoder.4.weight f4 [4, 6]
-0.19108228 -0.50487906 -0.06642746 -0.40303656 -0.12844974 -0.37572542 -0.6099372 0.040425844
0.09407732 -0.09980436 0.534494 -0.42924938 -0.33044404 0.19282605 -0.6034725 0.44814995
-0.3274812 -0.2971993 -0.22479208 0.23431505 0.58999985 0.07678356 0.59458166 0.41759393
00000000: 13ab 43be c13f 01bf 1f0b 88bd cf5a cebe
00000010: 5488 03be 155f c0be d824 1cbf 9295 253d
00000020: 9cab c03d 3a66 ccbd 99d4 083f 93c6 dbbe
00000030: f62f a9be 3174 453e 2c7d 1abf e973 e53e
00000040: 9eab a7be 822a 98be e52f 66be 49f0 6f3e
00000050: 3b0a 173f b340 9d3d 8136 183f dfce d53e

encoder.4.bias f4 [4]
-0.11870081 0.22964762 -0.24686977 -0.112096526
00000000: 6919 f3bd bf28 6b3e 6ecb 7cbe dd92 e5bd

encoder.6.weight f4 [3, 4]
0.57192653 0.14110024 -0.90167 0.4026172 -0.6818122 -0.260209 -0.20730922 0.42358378
0.020045782 -1.0357507 0.04328423 -0.6712722
00000000: c769 123f 957c 103e d8d3 66bf d723 ce3e
00000010: 3f8b 2ebf 1d3a 85be de48 54be f9df d83e
00000020: 0d37 a43c 7b93 84bf ce4a 313d 7fd8 2bbf

encoder.6.bias f4 [3]
-0.20770831 -0.035817232 -0.09664845
00000000: 7db1 54be 17b5 12bd 9fef c5bd

decoder.0.weight f4 [4, 3]
-0.20713569 0.7333017 0.65595686 0.87489414 0.10740322 -0.14506006 -0.3828602 0.9921468
-0.57727253 -0.38820824 -0.7004452 -0.3312401
00000000: 611b 54be a9b9 3b3f caec 273f 10f9 5f3f
00000010: 38f6 db3d a08a 14be 4106 c4be 55fd 7d3f
00000020: 22c8 13bf 3bc3 c6be 6050 33bf 4d98 a9be

decoder.0.bias f4 [4]
-0.07396456 -0.047993124 -0.08614193 0.26096368
00000000: bb7a 97bd 7094 44bd 2e6b b0bd 089d 853e

decoder.2.weight f4 [6, 4]
0.64045495 0.38238698 0.5859944 -0.70865744 -0.05896977 0.8663462 -0.5495917 -0.45486337
0.6024247 -0.7073765 -0.6170967 0.0224498 -0.66282576 -0.07412777 -0.9422882 0.61214656
-0.986255 0.34379143 0.038006674 0.77877814 -0.02843259 -0.89645994 0.07503469 0.43614548
00000000: dbf4 233f 3ac8 c33e bb03 163f 936a 35bf
00000010: 498a 71bd ddc8 5d3f 0bb2 0cbf dae3 e8be
00000020: 8138 1a3f a016 35bf 0dfa 1dbf a5e8 b73c
00000030: f3ae 29bf 4dd0 97bd cd39 71bf a3b5 1c3f
00000040: 357b 7cbf 6e05 b03e e3ac 1b3d 015e 473f
00000050: 77eb e8bc 667e 65bf caab 993d 764e df3e

decoder.2.bias f4 [6]
0.17036429 -0.04279928 -0.12036547 0.12047652 -0.1769968 -0.2514849
00000000: fa73 2e3e 4c4e 2fbd 2c82 f6bd 65bc f63d
00000010: a63e 35be a1c2 80be

decoder.4.weight f4 [8, 6]
0.262163 -0.48046616 -0.024534795 -0.90650946 -0.028516399 0.17691892 0.7128577 -0.15759116
-0.070617765 -0.57473 -0.3833847 -0.4759464 -0.5893089 -0.6625768 0.56589377 0.34483564
-0.15771215 0.6447844 0.25879705 -0.8477449 -0.15608937 -0.616468 -0.40641084 0.6440827
0.0002195625 -0.5588906 0.9301164 0.30851892 -0.43362975 0.33424583 -0.6763298 -0.031229617
0.19986895 0.91827536 0.43581346 -0.21996664 0.32345042 0.009666004 -0.78970885 -0.12735857
0.5710172 -0.31734285 -0.6397081 -0.6798435 -0.28126338 0.053549673 0.86889166 0.58767205
00000000: 3b3a 863e a9ff f5be 32fd c8bc 0111 68bf
00000010: 399b e9bc 3c2a 353e d87d 363f 945f 21be
00000020: 0ca0 90bd 8121 13bf 004b c4be 3faf f3be
00000030: f3dc 16bf a29e 29bf 6ade 103f 4c8e b03e
00000040: 4b7f 21be 9710 253f 0c81 843e cf05 59bf
00000050: e4d5 1fbe d9d0 1dbf 1515 d0be 9be2 243f
00000060: 5c3a 6639 7413 0fbf 1c1c 6e3f 31f6 9d3e
00000070: b804 debe 4522 ab3e f323 2dbf 41d5 ffbc
00000080: 72aa 4c3e 1814 6b3f f122 df3e ef3e 61be
00000090: 4b9b a53e 295e 1e3c 5c2a 4abf 496a 02be
000000a0: 2f2e 123f c37a a2be e9c3 23bf 390a 2ebf
000000b0: c101 90be e756 5b3d af6f 5e3f ad71 163f

decoder.4.bias f4 [8]
0.003178337 0.29217148 0.014369991 -0.043882452 0.08673168 0.08700961 0.111330464 -0.018503318
00000000: a54b 503b 8097 953e 1c70 6b3c 16be 33bd
00000010: 61a0 b13d 1832 b23d 3a01 e43d 4594 97bc

decoder.6.weight f4 [4, 8]
-0.7012329 -0.17752482 0.7077995 -0.34642422 0.56347895 0.6731088 -0.56046647 0.12545891
-0.10185772 -0.32572705 0.14241618 0.106266186 -0.29281014 -0.05269972 0.5415991 0.711118
-0.79277915 -0.30450633 -0.7224896 -0.60363203 -0.46823233 0.52949727 0.5288936 -0.22344969
-0.210717 -0.5107846 0.7210569 0.039427094 0.27726004 0.6921986 -0.11555476 0.5300937
00000000: 0084 33bf 11c9 35be 5932 353f 845e b1be
00000010: 2840 103f dc50 2c3f bb7a 0fbf 4d78 003e
00000020: c89a d0bd b2c5 a6be 8cd5 113e 16a2 d93d
00000030: 36eb 95be a9db 57bd 3da6 0a3f d40b 363f
00000040: 93f3 4abf 41e8 9bbe 14f5 38bf a187 1abf
00000050: 26bc efbe 228d 073f 9265 073f ffcf 64be
00000060: 32c6 57be c8c2 02bf 2f97 383f 4e7e 213d
00000070: 07f5 8d3e ed33 313f f9a7 ecbd 39b4 073f

decoder.6.bias f4 [4]
0.00040429822 0.33690146 -0.07743047 0.32566923
00000000: fdf7 d339 597e ac3e de93 9ebd 1ebe a63e

exp_avg f4 [8, 4]
-0.0020776463 0.0075659147 -0.00080361916 0.003341742 0.00060105196 -0.0025496848 0.0005648244 0.004023694
-0.003429076 0.003482796 -0.0022150755 0.0047610975 -3.624776e-05 -0.00293225 0.003216974 0.0005586064
0.0052910694 -0.003966278 0.0021279347 -0.0027804768 0.0041575376 -0.006456259 0.00032798594 -0.0008735715
-0.0019463329 -0.0016704155 -0.0028779332 0.0042862594 0.0014081283 -0.0041062683 0.0001726292 0.0012341457
00000000: 1f29 08bb 7eeb f73b f8a9 52ba 2101 5b3b
00000010: ea8f 1d3a 9d18 27bb b910 143a 31d9 833b
00000020: 59ba 60bb 9f3f 643b cd2a 11bb fb02 9c3b
00000030: bc08 18b8 fe2a 40bb ded3 523b 716f 123a
00000040: b560 ad3b 8df7 81bb d274 0b3b a938 36bb
00000050: f43b 883b 078f d3bb 87f5 ab39 6400 65ba
00000060: 181c ffba d8f1 daba b59b 3cbb c073 8c3b
00000070: f290 b83a e08d 86bb cc03 3539 0fc3 a13a

exp_avg_sq f4 [8, 4]
2.1372105e-05 6.644354e-05 1.1029176e-05 3.5439694e-05 1.6846294e-06 9.0013245e-06 1.3269113e-06 1.9160023e-05
3.8818293e-05 2.5980224e-05 9.146871e-06 3.4858298e-05 4.6189263e-05 2.2823115e-05 2.0243471e-05 1.9100165e-05
4.4662258e-05 5.281798e-05 2.4050676e-05 3.871503e-05 1.5920641e-05 4.8593087e-05 5.4420993e-06 3.5099433e-06
5.2532673e-06 5.114271e-06 1.07471415e-05 2.8340512e-05 4.353151e-06 1.931863e-05 2.3429795e-06 5.4785833e-06
00000000: 3f48 b337 9b57 8b38 f309 3937 15a5 1438
00000010: 6d1b e235 6504 1737 5318 b235 d6b9 a037
00000020: d3d0 2238 1bf0 d937 8375 1937 d034 1238
00000030: 58bb 4138 4474 bf37 86d0 a937 4b39 a037
00000040: bc53 3b38 e088 5d38 6fc0 c937 f261 2238
00000050: 518d 8537 6ed0 4b38 479b b636 5e8c 6b36
00000060: 3945 b036 419b ab36 9f4e 3437 c9bc ed37
00000070: 4811 9236 710e a237 153c 1d36 acd4 b736

exp_avg f4 [6, 8]
0.0009147267 0.0025076694 -0.0013725387 0.0011805526 -0.0012573206 0.0015683152 0.004082798 0.002524643
0.0013431589 -0.0006517047 0.001273278 0.00093314186 -0.00027575574 0.0015846029 0.0012513073 -0.0020459665
-0.0014358244 0.00011631375 -8.9311725e-06 -0.0014299059 0.0004526305 -0.001222171 -0.0023918557 0.0003473865
0.00027618732 0.0025041106 0.001444658 -0.0026397728 -0.0032220038 -0.0035866832 0.002730306 -0.00054897205
-0.00088404305 0.0005055033 0.0019443544 -0.0012604671 -0.00033813532 -0.0032990118 -0.0029145353 -0.0026367563
-0.002924104 -0.002666737 0.0006023193 -0.00058419036 0.0013526158 0.0033675379 -0.005695116 -0.0031574334
00000000: 45ca 6f3a b657 243b c2e6 b3ba c6bc 9a3a
00000010: aecc a4ba ed8f cd3a fec8 853b 7b74 253b
00000020: ef0c b03a 29d7 2aba 1fe4 a63a 179e 743a
00000030: 4f93 90b9 73b2 cf3a e802 a43a 9f15 06bb
00000040: 4632 bcba 78ed f338 18d7 15b7 ae6b bbba
00000050: 0a4f ed39 4131 a0ba aec0 1cbb 6d21 b639
00000060: 3ccd 9039 011c 243b ae5a bd3a 0a00 2dbb
00000070: 4128 53bb 8f0e 6bbb efee 323b e4e8 0fba
00000080: 20bf 67ba c183 043a b5d9 fe3a 4236 a5ba
00000090: c147 b1b9 3c34 58bb ca01 3fbb 6ecd 2cbb
000000a0: 53a2 3fbb 6cc4 2ebb f7e4 1d3a 5a24 19ba
000000b0: 414a b13a e9b1 5c3b 189e babb f1ec 4ebb

exp_avg_sq f4 [6, 8]
8.483272e-06 1.3187599e-05 4.2498805e-06 5.0723456e-06 5.83283e-06 1.082972e-05 3.5823396e-05 1.5101706e-05
8.99643e-06 5.392649e-06 5.6896747e-06 7.03523e-06 4.2112983e-06 1.3751977e-05 9.930608e-06 9.756308e-06
5.0274277e-05 4.64223e-05 4.535162e-05 4.9405742e-05 4.4864668e-05 5.86714e-05 5.7392157e-05 6.707959e-05
2.1265716e-05 2.5459247e-05 2.0364221e-05 2.5726655e-05 2.8159307e-05 3.458226e-05 2.8026368e-05 2.3731413e-05
7.725631e-05 6.991409e-05 7.660372e-05 7.6020835e-05 6.8992405e-05 9.1112604e-05 8.327717e-05 8.094388e-05
1.1035253e-05 1.1248331e-05 7.2991825e-06 7.3344177e-06 6.509552e-06 2.3045666e-05 3.2787055e-05 1.6780556e-05
00000000: 6053 0e37 4e40 5d37 329a 8e36 1e33 aa36
00000010: a1b7 c336 4bb1 3537 1441 1638 555d 7d37
00000020: 5fef 1637 81f2 b436 efe9 be36 2a10 ec36
00000030: c74e 8d36 4bb8 6637 a39b 2637 06af 2337
00000040: 98dd 5238 91b5 4238 ee37 3e38 0339 4f38
00000050: 122d 3c38 f015 7638 5cb8 7038 15ad 8c38
00000060: c763 b237 5191 d537 d5d3 aa37 92cf d737
00000070: a737 ec37 6b0c 1138 2b1a eb37 d212 c737
00000080: aa04 a238 d79e 9238 4fa6 a038 606d 9f38
00000090: 04b0 9038 b513 bf38 17a5 ae38 6ac0 a938
000000a0: 0d24 3937 37b7 3c37 80eb f436 2b1a f636
000000b0: a06c da36 3152 c137 d584 0938 f8c3 8c37

exp_avg f4 [4, 6]
-0.0010004975 0.00047387998 -0.0015944614 0.00027376454 0.0014197519 0.0037799133 0.004121802 -0.0042582583
0.0022085283 -9.448876e-06 -0.0053605316 -6.894227e-05 -0.0027217825 0.0041690245 -0.0020797395 0.0010771864
0.0014028476 0.0034698003 0.0017513877 -0.001740044 0.0023017183 0.00092062616 -0.0010604134 -0.0042305375
00000000: 2023 83ba 1873 f839 3ffd d0ba 0e88 8f39
00000010: f816 ba3a 6cb8 773b 2e10 873b dc88 8bbb
00000020: f5bc 103b 9d86 1eb7 66a7 afbb 1995 90b8
00000030: ef5f 32bb 509c 883b 3d4c 08bb 6130 8d3a
00000040: c1df b73a 9765 633b d28e e53a 3012 e4ba
00000050: 6dd8 163b 2d56 713a 92fd 8aba 52a0 8abb

exp_avg_sq f4 [4, 6]
2.4085222e-05 2.217943e-05 2.1154166e-05 1.4114455e-05 1.3473138e-05 4.4418008e-05 4.434306e-05 5.3673975e-05
2.365045e-05 8.95054e-06 5.575315e-05 2.3357386e-05 6.7405475e-05 3.7397676e-05 6.059875e-05 3.729181e-05
1.864274e-05 9.688736e-05 3.323988e-05 1.977673e-05 3.0999756e-05 1.7145196e-05 1.1118522e-05 5.774544e-05
00000000: 9f0a ca37 f70d ba37 3a74 b137 1fcd 6c37
00000010: b00a 6237 794d 3a38 00fd 3938 fe1f 6138
00000020: f464 c637 472a 1637 7dd8 6938 9bef c337
00000030: 0a5c 8d38 73db 1c38 6a2b 7e38 c769 1c38
00000040: fb62 9c37 0130 cb38 0d6b 0b38 34e6 a537
00000050: bc05 0238 07d3 8f37 b089 3a37 b233 7238

exp_avg f4 [3, 4]
-0.0004883113 0.007790961 0.003045805 0.004254637 0.004735591 0.0007663665 0.0013097341 -0.0020306848
-0.004753217 0.010277578 0.004658513 0.007892184
00000000: 0402 00ba 514b ff3b 219c 473b 7b6a 8b3b
00000010: 042d 9b3b fce5 483a 62ab ab3a 3d15 05bb
00000020: e0c0 9bbb 4963 283c 70a6 983b 384e 013c

exp_avg_sq f4 [3, 4]
6.406946e-05 0.00017465316 4.501755e-05 9.6275224e-05 4.102213e-05 4.8427846e-05 6.218596e-05 3.495285e-05
5.198989e-05 0.00017451025 4.5991626e-05 0.000102156526
00000000: 085d 8638 1a23 3739 3ad1 3c38 5ee7 c938
00000010: 2d0f 2c38 011f 4b38 d569 8238 569a 1238
00000020: b80f 5a38 bdfc 3639 22e7 4038 de3c d638

exp_avg f4 [4, 3]
-0.0018007886 0.0010784934 -0.014512971 0.001255871 -0.0027088914 -0.004504234 0.0055871634 -0.0062346756
0.024431659 0.00020323036 0.00021102818 0.015112619
00000000: 7008 ecba 3c5c 8d3a d0c7 6dbc 0a9c a43a
00000010: a887 31bb 4198 93bb 8614 b73b 404c ccbb
00000020: e724 c83c 3c1a 5539 7247 5d39 eb9a 773c

exp_avg_sq f4 [4, 3]
1.1160314e-05 1.232104e-05 0.0002707453 2.9003215e-05 0.00014082728 9.795745e-05 5.1377086e-05 6.4682004e-05
0.0007276981 8.102742e-06 8.623987e-06 0.00031079675
00000000: 2f3d 3b37 77b6 4e37 d2f2 8d39 ee4b f337
00000010: 09ab 1339 816e cd38 ba7d 5738 e3a5 8738
00000020: fec2 3e3a 03f1 0737 beaf 1037 6ff2 a239

exp_avg f4 [6, 4]
-0.0019853688 0.00051636674 -0.00097134087 0.0013091604 -0.0070254444 0.00041737847 0.012126513 0.003412355
-0.008492327 -0.0018321509 0.018261459 0.0057457746 -0.0059866016 -0.002456503 0.015004453 0.0053984975
0.0077488227 0.00043047834 -0.013231695 -0.0049338 0.008129727 0.0015046543 -0.01254772 -0.0059464206
00000000: f61c 02bb c95c 073a 95a1 7eba 2298 ab3a
00000010: b335 e6bb 97d3 da39 48ae 463c d1a1 5f3b
00000020: 6723 0bbc c824 f0ba 0e99 953c 0d47 bc3b
00000030: 412b c4bb 48fd 20bb 3dd5 753c e1e5 b03b
00000040: d6e9 fd3b d3b1 e139 c0c9 58bc b7ab a1bb
00000050: 8c32 053c d237 c53a f494 4dbc 31da c2bb

exp_avg_sq f4 [6, 4]
8.620122e-06 2.2988718e-06 7.731203e-06 9.034967e-06 6.343947e-05 1.7912013e-06 0.00019295212 2.2084621e-05
0.0001491073 1.9885465e-05 0.00040136962 0.0001252602 4.5107747e-05 8.9236155e-06 0.0002507608 3.6569614e-05
7.009065e-05 1.2578438e-06 0.00021041256 3.0929717e-05 8.578061e-05 6.901627e-06 0.00020112463 5.9927836e-05
00000000: 249f 1037 5146 1a36 44b5 0137 e394 1737
00000010: ce0a 8538 3569 f035 3153 4a39 5d42 b937
00000020: b059 1c39 b6cf a637 eb6e d239 4758 0339
00000030: 1332 3d38 a3b6 1537 8b78 8339 5362 1938
00000040: a2fd 9238 2fd3 a835 31a2 5c39 88ba 0138
00000050: 1de5 b338 8694 e736 fbe4 5239 065b 7b38

exp_avg f4 [8, 6]
-0.001706391 0.0016814326 0.0016084708 0.0029113528 -0.0002332737 -0.0010426672 -0.0029201745 -0.004207671
-0.0040119532 0.0008976868 0.0058776415 0.0029033835 0.0028877521 0.004517172 0.0037205499 0.00020076161
-0.005542351 -0.0036495386 0.00055287126 0.0049659023 0.0054404233 0.0017906098 -0.0051785526 -0.002543007
-0.00030504985 -0.0063102227 -0.006909737 -0.0018905142 0.006122783 0.002413985 0.0003790651 -0.009805486
-0.010584849 -0.0047266856 0.008899102 0.0038879556 0.0013313614 0.009233318 0.0114905415 0.004074737
-0.01133434 -0.0047846213 -0.00030451035 0.009556733 0.013846879 0.0042327046 -0.011313832 -0.0024707566
00000000: fba8 dfba 8463 dc3a 53d3 d23a 65cc 3e3b
00000010: ef9a 74b9 1baa 88ba 6660 3fbb 81e0 89bb
00000020: b476 83bb be52 6b3a 3b99 c03b b146 3e3b
00000030: 7140 3d3b c904 943b 78d4 733b 8983 5239
00000040: 9c9c b5bb 192d 6fbb 90ee 103a 02b9 a23b
00000050: 9445 b23b e5b2 ea3a d9b0 a9bb 94a8 26bb
00000060: 19ef 9fb9 fcc5 cebb 136b e2bb 21cb f7ba
00000070: a0a1 c83b f333 1e3b 42bd c639 30a7 20bc
00000080: 136c 2dbc 50e2 9abb 8acd 113c 12cd 7e3b
00000090: 1381 ae3a 5847 173c d342 3c3c 5f85 853b
000000a0: abb3 39bc 50c8 9cbb b0a6 9fb9 d893 1c3c
000000b0: 05de 623c 80b2 8a3b a75d 39bc 6bec 21bb

exp_avg_sq f4 [8, 6]
1.2596429e-05 7.997263e-06 6.0716525e-06 2.1536398e-05 1.0379168e-05 3.885125e-06 1.1662594e-05 2.2939808e-05
1.9579678e-05 4.8767224e-06 4.102661e-05 1.0137946e-05 1.909853e-05 2.9965977e-05 1.7905946e-05 1.4167167e-05
4.249674e-05 1.6623315e-05 1.9819329e-06 3.054726e-05 3.4970864e-05 5.8092533e-06 3.341868e-05 7.947801e-06
2.3962393e-05 4.4702036e-05 4.9271857e-05 3.246219e-05 5.8960126e-05 1.0225008e-05 2.1069418e-06 0.00010261497
0.000116079944 2.5993011e-05 8.591129e-05 1.74275e-05 2.014708e-05 9.801187e-05 0.0001447624 4.134183e-05
0.00015803125 2.9224939e-05 1.2434866e-06 0.00011333162 0.0002205616 2.177469e-05 0.00014564894 7.658416e-06
00000000: 4055 5337 fc2b 0637 19bb cb36 10a9 b437
00000010: 3022 2e37 f85c 8236 76aa 4337 dd6e c037
00000020: 0a3f a437 baa2 a336 fd13 2c38 2616 2a37
00000030: c835 a037 725f fb37 ba34 9637 85af 6d37
00000040: 873e 3238 4c72 8b37 5901 0536 df1f 0038
00000050: aead 1238 1bed c236 092b 0c38 8c57 0537
00000060: d902 c937 727e 3b38 41a9 4e38 0328 0838
00000070: f44b 7738 138c 2b37 fc64 0d36 fe32 d738
00000080: f26f f338 910b da37 462b b438 4531 9237
00000090: 8601 a937 b98b cd38 5ccb 1739 7466 2d38
000000a0: 31b5 2539 1428 f537 e0e5 a635 73ac ed38
000000b0: 8e46 6739 caa8 b637 57b9 1839 a57c 0037

exp_avg f4 [4, 8]
0.0019162378 0.0019145883 -0.004154201 0.0008378557 -0.0005600991 -0.006130333 -0.0021792918 -0.0063225417
-0.022888415 0.009950717 -0.0060482263 -0.027941948 0.026238656 -0.0041556573 -0.042536374 -0.062823236
0.0075736446 -0.00094631815 0.0024588613 0.009681722 -0.004487363 -0.001720516 0.008213124 0.014763418
0.009225457 0.005402602 -0.0038606073 0.008553735 -0.010068374 -0.0036537463 0.014050426 0.014169136
00000000: 452a fb3a ecf2 fa3a f71f 88bb 8ba3 5b3a
00000010: 9dd3 12ba f6e0 c8bb 73d2 0ebb 532d cfbb
00000020: 7c80 bbbc 5508 233c 3330 c6bb 83e6 e4bc
00000030: 73f2 d63c 2e2c 88bb 9f3a 2ebd 78a9 80bd
00000040: 562c f83b 5612 78ba d924 213b 16a0 1e3c
00000050: bb0a 93bb f082 e1ba 5790 063c 43e2 713c
00000060: 5f26 173c 4f08 b13b 3e02 7dbb f724 0c3c
00000070: d2f5 24bc b173 6fbb c233 663c aa25 683c

exp_avg_sq f4 [4, 8]
3.8630005e-05 4.6142937e-05 6.1863495e-05 3.0476658e-05 2.7393642e-05 9.068123e-05 2.074858e-05 9.624405e-05
0.00056316546 0.00010771502 4.913572e-05 0.00083669054 0.0006965739 2.798075e-05 0.001848722 0.004096793
6.253014e-05 2.8662666e-06 9.399001e-06 0.00010417143 2.0803722e-05 4.4177814e-06 7.316588e-05 0.00023976612
0.00013844922 0.00012119681 0.00011201922 0.00010867104 0.00012881678 0.00013364159 0.00018919744 0.00030078882
00000000: a706 2238 9a89 4138 b6bc 8138 20a8 ff37
00000010: 66cb e537 1d2c be38 3c0d ae37 a2d6 c938
00000020: 65a1 133a 10e5 e138 1417 4e38 5a55 5b3a
00000030: 489a 363a 34b8 ea37 d150 f23a 643e 863b
00000040: 9d22 8338 165a 4036 67b0 1d37 9c76 da38
00000050: a783 ae37 743c 9436 a270 9938 ba69 7b39
00000060: ae2c 1139 0b2b fe38 dceb ea38 52e6 e338
00000070: fe12 0739 2422 0c39 4d63 4639 31b3 9d39

exp_avg f4 [8]
-0.0025090196 -0.001177157 0.00027083742 0.002552535 0.002048742 -0.001489589 -0.0021070926 -1.8887418e-05
00000000: 5d6e 24bb d64a 9aba 2fff 8d39 6e48 273b
00000010: 3044 063b 503e c3ba 2617 0abb 6c70 9eb7

exp_avg_sq f4 [8]
1.884483e-05 2.8689553e-06 1.2368503e-05 4.7453286e-05 2.703534e-05 8.890985e-06 4.3654277e-06 2.4026288e-06
00000000: f714 9e37 4788 4036 5182 4f37 9408 4738
00000010: f3c9 e237 7d2a 1537 bd7a 9236 d93c 2136

exp_avg f4 [6]
0.0014397696 -0.0013411455 -0.001316365 -0.00012676965 -0.0020271614 -0.0037517152
00000000: a7b6 bc3a 60c9 afba e189 acba 78ed 04b9
00000010: 20da 04bb 56df 75bb

exp_avg_sq f4 [6]
2.7425283e-05 1.8230094e-05 9.729832e-05 3.3747674e-05 0.000104089915 3.4096433e-05
00000000: 590f e637 d4ec 9837 a30c cc38 4a8c 0d38
00000010: d94a da38 c402 0f38

exp_avg f4 [4]
0.0016845777 0.000864297 0.0029048508 -0.005450889
00000000: 0ccd dc3a fd91 623a 4f5f 3e3b 5f9d b2bb

exp_avg_sq f4 [4]
8.3171e-05 3.745656e-05 0.0001824209 0.000112402224
00000000: 176c ae38 ad1a 1d38 3d48 3f39 7cb9 eb38

exp_avg f4 [3]
-0.005106648 -0.00803856 -8.5923246e-05
00000000: ab55 a7bb 2ab4 03bc b131 b4b8

exp_avg_sq f4 [3]
0.00022996645 0.0003040842 5.1057035e-05
00000000: 2623 7139 7e6d 9f39 1326 5638

exp_avg f4 [4]
0.00021507 -0.005902946 -0.0043056393 0.004171253
00000000: 6a84 6139 806d c1bb 5216 8dbb 02af 883b

exp_avg_sq f4 [4]
5.833906e-05 0.0003732994 0.00011286156 8.776659e-05
00000000: 17b1 7438 66b7 c339 17b0 ec38 540f b838

exp_avg f4 [6]
-0.00026589367 -0.0016926555 0.003466131 0.008137728 -0.0035729809 -0.002195928
00000000: a567 8bb9 18dc ddba 0728 633b 1b54 053c
00000010: ac28 6abb 8fe9 0fbb

exp_avg_sq f4 [6]
3.687753e-05 2.4611718e-05 0.00018356538 9.003794e-05 2.7913598e-05 5.396489e-05
00000000: f2ac 1a38 4375 ce37 757b 4039 c0d2 bc38
00000010: ff27 ea37 5c58 6238

exp_avg f4 [8]
0.00075771235 0.001611727 0.0024094041 -0.0010379938 0.003764718 0.002421251 0.0012133382 -0.004777013
00000000: 37a1 463a 9640 d33a 18e7 1d3b 4b0d 88ba
00000010: 7db9 763b daad 1e3b e008 9f3a 7d88 9cbb

exp_avg_sq f4 [8]
2.5829431e-05 1.368164e-05 3.1409527e-05 6.5031304e-06 5.222776e-05 1.9535266e-05 3.892581e-05 3.7802194e-05
00000000: 48ac d837 328a 6537 b9bd 0338 7735 da36
00000010: 210f 5b38 aadf a337 4544 2338 cc8d 1e38

exp_avg f4 [4]
-0.0039063413 -0.0040888214 -0.000680929 -0.0017852656
00000000: c400 80bb 85fb 85bb 5f80 32ba 93ff e9ba

exp_avg_sq f4 [4]
0.00013916868 9.547392e-05 1.1367668e-05 0.00021589833
00000000: cfed 1139 2c39 c838 c3b7 3e37 c462 6239
