jet_by_jet_compression/grid_search/models/AE_basic_lr1e-04_pNA_wd1e-01.pth (torch_old, 10509 bytes, 48 tensors)

encoder.0.weight f4 [8, 4]
0	0x3f0f3b8b	0.5595023
1	0xbeb3849f	-0.3506212
2	0xbe29629f	-0.16541527
3	0xbdea8929	-0.114519425
4	0x3e86ff06	0.26366442
5	0x3eb13d36	0.34617013
6	0xbd85ef4b	-0.06539782
7	0x3e8e0c8f	0.27743956
8	0x3e680852	0.22659424
9	0xbe13b454	-0.14424258
10	0xbe974f7f	-0.29552838
11	0xbd9f0523	-0.077646516
12	0x3ebc0ad3	0.36727008
13	0xbef4768c	-0.47746694
14	0x3c2f9eca	0.010719011
15	0x3e56f8c7	0.20993339
16	0x3e3dd4ab	0.18538158
17	0xbf0ab61e	-0.5418414
18	0xbf00d6d3	-0.50327796
19	0x3e8b49aa	0.2720464
20	0xbd435e17	-0.047697153
21	0x3ed717c1	0.4201031
22	0xbe0ee43c	-0.13954252
23	0x3e30efa1	0.17278911
24	0x3ea1e9b1	0.31623605
25	0xbe441441	-0.19148351
26	0xbed60f31	-0.41808465
27	0x3d7c80d9	0.061646316
28	0x3de2504b	0.11050471
29	0x3e9588e0	0.2920599
30	0x3e9d21ec	0.30689943
31	0xbe1e3eab	-0.15453593

encoder.0.bias f4 [8]
0	0xbe10d63d	-0.14144225
1	0x3d6011f0	0.054704607
2	0xbec3b4b3	-0.382238
3	0x3ecb62b4	0.39723742
4	0xbd8da8c3	-0.06916954
5	0x3d60106c	0.05470316
6	0xbe944650	-0.28959894
7	0x3eba8d88	0.36436105

encoder.2.weight f4 [6, 8]
0	0x3cfa58a6	0.030559849
1	0xbe50434e	-0.20338175
2	0xbe210fe4	-0.15728718
3	0xbeae3bb5	-0.34029928
4	0xbeda825b	-0.42677578
5	0x3e1c9118	0.15289724
6	0xbe9f6be0	-0.3113699
7	0x3ec2d6e5	0.38054577
8	0xbe507a0c	-0.20359057
9	0xbdaa2d9f	-0.08309483
10	0x3c3b007a	0.011413688
11	0x3e674726	0.22585735
12	0x3ece7141	0.4032078
13	0x3d6c07c1	0.057624582
14	0x3cf1d9af	0.029522745
15	0xbe541921	-0.20712711
16	0xbce5cecc	-0.02805271
17	0x3e4e091c	0.20120662
18	0xbe9aaea9	-0.3021138
19	0x3d0c9857	0.03432497
20	0xbe96c356	-0.29445904
21	0xbe08b4eb	-0.13350265
22	0x3de68e65	0.11257628
23	0x3e06205c	0.13098282
24	0x3e1cd28a	0.1531469
25	0x3e619464	0.22029263
26	0xbc3469aa	-0.01101152
27	0xbca09ca5	-0.019605944
28	0xbedc0bf9	-0.42977884
29	0x3e2e4818	0.17019689
30	0xbe08b402	-0.13349918
31	0x3dba33d8	0.0909192
32	0x3ed17f13	0.40917262
33	0x3c19e1a9	0.0093921805
34	0x3ec27268	0.3797791
35	0x3e8879ac	0.26655328
36	0xbe0df55d	-0.1386313
37	0xbe36062f	-0.17775796
38	0x3e12807d	0.14306827
39	0xbe1a75a8	-0.15083945
40	0xbe08b7d2	-0.13351372
41	0xbe23ec4a	-0.16008106
42	0x3e80dd08	0.25168633
43	0x3d8e6b2f	0.069540374
44	0x3d6fb8aa	0.05852572
45	0xbe703e5d	-0.2346129
46	0x3eabaff4	0.3353268
47	0xbeca1c3e	-0.39474672

encoder.2.bias f4 [6]
0	0xbd3e9720	-0.046530843
1	0x3e820b20	0.25399113
2	0xbdd17475	-0.102272905
3	0xbd3abac9	-0.04558829
4	0x3de76f27	0.113004975
5	0x3e97b2e4	0.2962867

encoder.4.weight f4 [4, 6]
0	0xbe57b6cb	-0.21065824
1	0x3e2d8dd4	0.16948634
2	0xbeb6051b	-0.3555077
3	0xbe5639eb	-0.20920531
4	0x3e91c255	0.28468576
5	0x3edd89ab	0.43269095
6	0xbed1562b	-0.40886053
7	0x3e7d4875	0.24734671
8	0xbdf6da49	-0.12053353
9	0x3e56e934	0.20987397
10	0x3d816690	0.0631839
11	0xbe921cb4	-0.28537524
12	0x3e92236e	0.28542656
13	0xbe8994b3	-0.2687126
14	0xbe413b9d	-0.18870397
15	0x3eb5cd6e	0.35508293
16	0xbe0fdf47	-0.14050017
17	0xbecdc021	-0.40185645
18	0x3de576b6	0.11204283
19	0x3e1e231f	0.15443085
20	0x3eaa529b	0.33266148
21	0xbed709f5	-0.41999784
22	0xbeb0af57	-0.34508774
23	0xbeae9c07	-0.34103414

encoder.4.bias f4 [4]
0	0xbc39b8e3	-0.011335584
1	0x3eb5e7af	0.35528323
2	0x3eb5d7d1	0.35516217
3	0x3e9cad95	0.30601183

encoder.6.weight f4 [3, 4]
0	0x3f155b94	0.5834286
1	0x3ed98a2a	0.42488223
2	0xbe932805	-0.2874147
3	0x3c832afb	0.016011706
4	0x3df52cfe	0.11971472
5	0xbe72b137	-0.23700415
6	0x3dadc3ed	0.084846355
7	0xbd66cb50	-0.056346238
8	0xbd2d1e47	-0.042265203
9	0xbf08b9a7	-0.53408283
10	0xbe4f30cd	-0.2023346
11	0x3ea51904	0.32245648

encoder.6.bias f4 [3]
0	0xbd99125b	-0.07474204
1	0xbea6e65f	-0.32597634
2	0x3e200e08	0.15630352

decoder.0.weight f4 [4, 3]
0	0x3f0a8d9b	0.5412232
1	0x3ec239c2	0.3793469
2	0x3e323272	0.17402056
3	0xbedd7aec	-0.43257844
4	0xbee2f7d4	-0.44329703
5	0x3c78617a	0.015159959
6	0xbeeeef9a	-0.46667176
7	0xbe4623c1	-0.19349577
8	0x3eba8528	0.36429715
9	0xbde92a8f	-0.113850705
10	0xbecaf65c	-0.39641082
11	0x3ee6ad47	0.45054075

decoder.0.bias f4 [4]
0	0x3eaa5387	0.3326685
1	0x3ee3a2b7	0.4446008
2	0xbcf4fb4b	-0.029904982
3	0xbe42e318	-0.19031942

decoder.2.weight f4 [6, 4]
0	0x3ee6094e	0.44928974
1	0xbefcc7a3	-0.4937106
2	0xbe2601cb	-0.16211621
3	0x3ece924b	0.40345988
4	0x3dc1c5d1	0.094615586
5	0x3c0c0e51	0.008548335
6	0xbec41e0b	-0.3830417
7	0x3f0196e8	0.5062089
8	0x3f05cfe2	0.5227033
9	0xbe309662	-0.17244866
10	0xbe529635	-0.20565112
11	0xbecd4811	-0.40094045
12	0x3ef7a214	0.48365843
13	0xbc7184da	-0.014741147
14	0xbe0a664b	-0.13515584
15	0x3c2a45c6	0.010392612
16	0x3efacd09	0.48984554
17	0xbc9f2283	-0.019425636
18	0xbeef8f07	-0.4678881
19	0x3e7cf70e	0.24703619
20	0x3de69e3b	0.11260649
21	0xbe50b49f	-0.20381401
22	0x3d8b5f14	0.06805244
23	0x3eaa0d6a	0.3321336

decoder.2.bias f4 [6]
0	0x3e8cae59	0.27476767
1	0xbedd2fd8	-0.43200564
2	0x3e68729b	0.22699969
3	0xbdb5fa42	-0.088856235
4	0xbcab988d	-0.020946765
5	0xbe634734	-0.2219513

decoder.4.weight f4 [8, 6]
0	0xbe9a4165	-0.30128017
1	0xbe9e0c7c	-0.308689
2	0xbbb01769	-0.0053738845
3	0xbed8a966	-0.4231674
4	0xbec4af52	-0.3841501
5	0xbce2bee4	-0.027678914
6	0xbe55988f	-0.20858978
7	0xbe312051	-0.17297484
8	0xbecf59e5	-0.40498272
9	0xbea86320	-0.32888126
10	0x3e8263de	0.25466818
11	0x3e7e2be5	0.24821432
12	0xbdbfabac	-0.09358916
13	0xbe8c84b3	-0.2744499
14	0x3e6f0e50	0.23345304
15	0x3e99ed28	0.30063748
16	0x3e2540dd	0.16138025
17	0xbe30367d	-0.17208286
18	0xbe0c1596	-0.1368011
19	0xbe0e4aa2	-0.13895658
20	0x3ef0ce52	0.4703241
21	0x3ef63808	0.48089623
22	0xbccbf221	-0.02489573
23	0x3d8e1237	0.06937068
24	0xbe944527	-0.2895901
25	0xbe143be8	-0.14475977
26	0xbcfd7d7b	-0.030943623
27	0x3d823be3	0.06359079
28	0xbedaf046	-0.4276144
29	0x3ee90cdd	0.45517626
30	0x3ec5a0b8	0.3859918
31	0xbe25b9b2	-0.16184118
32	0xbd25f9e2	-0.04052151
33	0x3ed42901	0.41437533
34	0xbe785397	-0.24250637
35	0x3e585123	0.21124701
36	0xbe25d9c1	-0.16196348
37	0xbd9f593f	-0.07780694
38	0xbeb1799c	-0.34663093
39	0x3e0d877e	0.13821217
40	0xbbc9d4a2	-0.006159381
41	0x3e85c4d3	0.26126727
42	0xbecb31b2	-0.39686352
43	0x3e0b5bae	0.13609192
44	0xbe446d0d	-0.19182225
45	0xbe4611f4	-0.19342786
46	0xbe9c9b97	-0.30587456
47	0xbd0d2556	-0.034459434

decoder.4.bias f4 [8]
0	0xbe376a94	-0.1791175
1	0xbe4cc46f	-0.19996808
2	0xbec4b776	-0.3842122
3	0xbec7a25d	-0.3899106
4	0x3d080f70	0.033217847
5	0xbe532905	-0.20621116
6	0xbdafae05	-0.085781135
7	0xbe969d1a	-0.29416734

decoder.6.weight f4 [4, 8]
0	0xbc15abcd	-0.009135199
1	0x3daed119	0.08535976
2	0xbc388137	-0.011261276
3	0x3ecdc5c1	0.40189937
4	0x3d5684fd	0.05237292
5	0x3e2971ca	0.16547313
6	0x3de38d04	0.11110881
7	0x3e85912e	0.26087326
8	0x3ebff4b6	0.37491387
9	0x3e90ce98	0.2828262
10	0xbe55befa	-0.20873633
11	0xbeba5ce8	-0.36399007
12	0x3e3561ff	0.17713164
13	0xbe0c9e8a	-0.13732353
14	0x3ecb0a58	0.3965633
15	0x3e888c29	0.26669434
16	0x3e8c03ab	0.27346548
17	0xbe00cecb	-0.12578885
18	0xbe83bd8c	-0.2573055
19	0xbeb9fc94	-0.36325514
20	0x3d9a19c2	0.07524444
21	0xbe729526	-0.23689708
22	0x3e5a9e00	0.21349335
23	0x3eadac6d	0.33920613
24	0xbd861c75	-0.065483965
25	0xbeb7f8d6	-0.35932034
26	0x3d869007	0.0657044
27	0x3cb55801	0.02213669
28	0xbe810691	-0.25200322
29	0xbe744d66	-0.2385765
30	0x3cd1a8e8	0.025593236
31	0x3e748e22	0.23882344

decoder.6.bias f4 [4]
0	0x3e9de979	0.30842188
1	0x3e363ba4	0.17796189
2	0xbcefff43	-0.029296523
3	0xbd9102fe	-0.07080649

exp_avg f4 [8, 4]
0	0xb9fcbf66	-0.00048207788
1	0x3a324368	0.00068002054
2	0xba421e89	-0.0007405063
3	0xbb015a8c	-0.0019737808
4	0xbabc5ea6	-0.0014371469
5	0xbb93f831	-0.0045156707
6	0xbba8e872	-0.0051546628
7	0x3978c507	0.00023724521
8	0x3c25a317	0.010109684
9	0x3c87f331	0.016595455
10	0x3c4869b0	0.012232229
11	0x3a9521cb	0.0011377869
12	0x3bcb8cf0	0.0062118694
13	0x3c2d2332	0.010567473
14	0x3c1e042b	0.009644548
15	0x3ba35e70	0.004985623
16	0x3c5f1093	0.013614791
17	0x3c692c46	0.014231747
18	0x3c22f22a	0.009945432
19	0x3c13149a	0.00897708
20	0xbbb43e1a	-0.005500567
21	0xbbd7a149	-0.006580506
22	0xbbe5d761	-0.0070142006
23	0xba9b5783	-0.0011851642
24	0x3c1aad39	0.009440714
25	0x3c3ed3d1	0.011647181
26	0x3c0cb6b6	0.008588484
27	0x3b8f4646	0.004372391
28	0xbc20d62b	-0.009816687
29	0xbc9dcdac	-0.019263111
30	0xbc3dc25d	-0.011581984
31	0xbbc06b98	-0.005872201

exp_avg_sq f4 [8, 4]
0	0x349584c3	2.785001e-07
1	0x34f99cbd	4.6493906e-07
2	0x3524a192	6.1329877e-07
3	0x3686f503	4.0220343e-06
4	0x36092077	2.0433488e-06
5	0x37ad6640	2.0670821e-05
6	0x37dec245	2.6554926e-05
7	0x340e9b7c	1.3281345e-07
8	0x38d60eed	0.00010207095
9	0x39920c06	0.00027856248
10	0x391b7d12	0.00014828544
11	0x361174af	2.1674603e-06
12	0x381e170c	3.76916e-05
13	0x38ead661	0.00011197921
14	0x38c0d1e3	9.194368e-05
15	0x37d18346	2.497587e-05
16	0x3942c4af	0.00018574552
17	0x395722c2	0.00020516946
18	0x38cbe5cb	9.7225966e-05
19	0x38ad5335	8.264781e-05
20	0x37fd3947	3.0186622e-05
21	0x38379daf	4.3777454e-05
22	0x384d2913	4.8914062e-05
23	0x35c2f6e9	1.4525987e-06
24	0x38ba0068	8.869247e-05
25	0x390fd4e1	0.00013716846
26	0x38985270	7.26328e-05
27	0x37a41912	1.9561998e-05
28	0x38c83f69	9.548554e-05
29	0x39c51ff5	0.00037598578
30	0x390b38ad	0.00013277186
31	0x3815a32f	3.5676345e-05

exp_avg f4 [6, 8]
0	0x3abd18c8	0.0014426941
1	0xbc0c0615	-0.008546372
2	0x3b3aad9e	0.0028484832
3	0x3b39b491	0.0028336386
4	0x3c295900	0.010336161
5	0xbbb6c2f5	-0.00557744
6	0x3b638612	0.0034717363
7	0xbc04ad30	-0.008097932
8	0xbb623b13	-0.0034520074
9	0x3be2a06f	0.006916098
10	0xbbaa163c	-0.005190639
11	0xbb0ad42d	-0.0021183596
12	0xbc2bd481	-0.010487677
13	0x3ba0f762	0.004912303
14	0xbbbbcd2a	-0.0057312446
15	0x3c10f924	0.008848462
16	0x3b90791d	0.004408969
17	0xbbcbefa1	-0.0062236344
18	0x3b94ab40	0.004537016
19	0x3ba4f24a	0.005033766
20	0x3c4a3456	0.012341579
21	0xbbb5d343	-0.005548866
22	0x3bc84c30	0.006112598
23	0xbc16be7b	-0.0092006875
24	0x39cec047	0.0003943464
25	0xbba13416	-0.004919539
26	0x3aeace69	0.0017914298
27	0x3952f7ac	0.00020119426
28	0x3b94479b	0.0045251376
29	0xbb1f031d	-0.002426333
30	0x3ae07338	0.0017124182
31	0xbb7b5982	-0.0038352911
32	0xbb239236	-0.0024958975
33	0x3bd56c03	0.00651312
34	0xbb49c9e1	-0.0030790495
35	0xbb830233	-0.003998065
36	0xbc32f3a6	-0.010922348
37	0x3b9e0372	0.004822188
38	0xbb92a1a2	-0.0044748345
39	0x3c04d08e	0.008106364
40	0xbb35d0d0	-0.002774287
41	0x3c06785d	0.008207408
42	0xbb86ec4f	-0.0041175256
43	0xbb535d6a	-0.0032251724
44	0xbc3e95e1	-0.011632414
45	0x3bb4ce30	0.0055177435
46	0xbba45b83	-0.005015792
47	0x3c136766	0.00899682

exp_avg_sq f4 [6, 8]
0	0x3624ddc9	2.4567e-06
1	0x3898cc31	7.2859584e-05
2	0x37097b28	8.194511e-06
3	0x37112841	8.652046e-06
4	0x38dffbc8	0.000106803665
5	0x3803bc86	3.140841e-05
6	0x374b5d20	1.2121425e-05
7	0x38896092	6.550657e-05
8	0x37508bc7	1.2430311e-05
9	0x384824c0	4.7717942e-05
10	0x37e33ed0	2.7089758e-05
11	0x36a15edb	4.8092165e-06
12	0x38e75d39	0.000110323024
13	0x37cbb22b	2.4282452e-05
14	0x380a9001	3.3035878e-05
15	0x38a5008d	7.867916e-05
16	0x37a89db9	2.0100606e-05
17	0x38213968	3.8438855e-05
18	0x37adcbfa	2.0718191e-05
19	0x37dc1267	2.6234613e-05
20	0x392091ae	0.00015313059
21	0x38020392	3.099774e-05
22	0x381e0933	3.7678703e-05
23	0x38b23a0a	8.498512e-05
24	0x34a2e90c	3.0344415e-07
25	0x37ce236e	2.4573612e-05
26	0x3661c144	3.3640108e-06
27	0x3412435a	1.3621812e-07
28	0x37af641b	2.0908241e-05
29	0x36cc7635	6.093435e-06
30	0x364ddfbe	3.0677616e-06
31	0x377e66a7	1.516348e-05
32	0x36de4b47	6.624879e-06
33	0x3830bf1a	4.2139647e-05
34	0x372068e2	9.561163e-06
35	0x378c43fe	1.6720962e-05
36	0x38fb5aaa	0.000119855
37	0x37c496a9	2.3435177e-05
38	0x37a9a2e1	2.0222216e-05
39	0x388a2a25	6.588203e-05
40	0x370cb58c	8.38692e-06
41	0x388e366c	6.7812245e-05
42	0x37911174	1.7293474e-05
43	0x3739c3e3	1.1072468e-05
44	0x390f3580	0.00013657473
45	0x38023568	3.1044154e-05
46	0x37d6456b	2.5543113e-05
47	0x38abf89a	8.200221e-05

exp_avg f4 [4, 6]
0	0x3cde1942	0.027111653
1	0xbc97354e	-0.018458035
2	0x3c8cc4d6	0.017183702
3	0x3cc3a8d5	0.023884216
4	0xbc71a5d6	-0.014749011
5	0xbccfc16f	-0.025360791
6	0x3c7849d4	0.015154321
7	0xbc187efe	-0.009307621
8	0x3c0897bf	0.00833696
9	0x3c43881d	0.011934307
10	0xbc0a0e1a	-0.008426214
11	0xbc4c79e2	-0.012480231
12	0xbc03a30f	-0.008034482
13	0x3be4d66d	0.0069835694
14	0xbbbccb2c	-0.0057615247
15	0xbc030b3c	-0.007998284
16	0x3b876133	0.00413146
17	0x3c0f79d0	0.00875707
18	0xbb606957	-0.0034242475
19	0x3b116196	0.002218341
20	0xba8936d1	-0.0010468607
21	0xbae53b3b	-0.0017488966
22	0x3b0a1fcb	0.002107608
23	0x3b025b17	0.001989072

exp_avg_sq f4 [4, 6]
0	0x3a42bde0	0.0007428806
1	0x39b30b84	0.0003415012
2	0x399ae515	0.00029543848
3	0x3a16246c	0.0005727473
4	0x39684bbd	0.00022153459
5	0x3a293598	0.00064548245
6	0x3970f0e1	0.00022977918
7	0x38b5847e	8.655431e-05
8	0x38905831	6.882882e-05
9	0x39148987	0.00014165613
10	0x389560c0	7.122895e-05
11	0x39228fdd	0.00015503117
12	0x38883d12	6.4963606e-05
13	0x384c3759	4.8688937e-05
14	0x380b1902	3.3163473e-05
15	0x38865e21	6.407151e-05
16	0x379149d1	1.731972e-05
17	0x38a0d25c	7.668577e-05
18	0x374289a0	1.1595344e-05
19	0x36a54154	4.9249884e-06
20	0x358e42f6	1.0599313e-06
21	0x364843c2	2.9841763e-06
22	0x36937102	4.3940972e-06
23	0x3682a839	3.8938856e-06

exp_avg f4 [3, 4]
0	0xbd9367cf	-0.07197534
1	0xbc504d91	-0.012713806
2	0x3d7d038a	0.061770953
3	0x3cc27fac	0.02374252
4	0xbd6f3e22	-0.058408864
5	0xbc58c4b3	-0.0132304905
6	0x3d4b8ccd	0.049694825
7	0x3ca70e74	0.020392634
8	0x3b3e56f3	0.0029043525
9	0x3b62f408	0.0034630317
10	0xbb1e8879	-0.002419023
11	0x3931d53c	0.00016959471

exp_avg_sq f4 [3, 4]
0	0x3baa0b6c	0.00518935
1	0x392e64c5	0.00016631473
2	0x3b7ab40c	0.003825429
3	0x3a1426f3	0.0005651556
4	0x3b5fd745	0.003415541
5	0x393c5862	0.00017962002
6	0x3b21d071	0.002469089
7	0x39d8f857	0.00041383758
8	0x37120acc	8.704792e-06
9	0x3753982b	1.2612009e-05
10	0x36c38b77	5.8276887e-06
11	0x3442ef66	1.815475e-07

exp_avg f4 [4, 3]
0	0xbdc4474c	-0.09583911
1	0xbc0df454	-0.008664209
2	0x3c4f2a8b	0.01264442
3	0x3ca1b145	0.019737849
4	0xbb1bc866	-0.002377057
5	0xbab26679	-0.0013610861
6	0x3d2fcfec	0.0429229
7	0xb9318be2	-0.00016932146
8	0xbb6f5702	-0.0036520367
9	0x3c0eff0a	0.008727798
10	0xba222cd5	-0.000618649
11	0xbb6f840e	-0.0036547217

exp_avg_sq f4 [4, 3]
0	0x3c168408	0.009186752
1	0x38af0ceb	8.3470564e-05
2	0x3924a405	0.00015701361
3	0x39ca676f	0.00038605506
4	0x36d07cf5	6.21343e-06
5	0x35f0bf12	1.7937002e-06
6	0x3af133f5	0.0018402325
7	0x366051a4	3.3426122e-06
8	0x37582b7b	1.2884727e-05
9	0x38a663c5	7.93408e-05
10	0x358de456	1.0571773e-06
11	0x37625a0a	1.3491614e-05

exp_avg f4 [6, 4]
0	0xbca5d7a4	-0.020244427
1	0x3c615ee9	0.0137555385
2	0x3c9aa3bd	0.018876905
3	0x3bb53313	0.00552977
4	0x3a7011e4	0.00091579393
5	0xb89f5207	-7.5969896e-05
6	0xbaaad910	-0.001303466
7	0xba8fdb56	-0.0010975401
8	0xbcfc0483	-0.03076387
9	0x3cbbd352	0.022927914
10	0x3d0806f8	0.03320977
11	0x3c3d650c	0.011559736
12	0xbd32ac8b	-0.04362158
13	0x3cb30a42	0.021855477
14	0x3d372071	0.044708673
15	0x3c8e2e43	0.017356044
16	0xbc77bf1d	-0.015121249
17	0x3c19f99b	0.0093978895
18	0x3c6726cc	0.014108371
19	0x3b899c91	0.0041995724
20	0x3c23cfd9	0.009998285
21	0xbb7d3d62	-0.0038641323
22	0xbc0a762f	-0.008451029
23	0xbb0c5c2a	-0.0021417239

exp_avg_sq f4 [6, 4]
0	0x39d3c9e2	0.0004039547
1	0x3950bf38	0.0001990766
2	0x39b886b2	0.0003519557
3	0x37f7ecf8	2.9555042e-05
4	0x35d546bf	1.5890326e-06
5	0x35bbc6ae	1.3990409e-06
6	0x36039ea2	1.9612858e-06
7	0x35aba596	1.2788685e-06
8	0x3a7b8b6d	0.0009595666
9	0x3a090a0b	0.0005227632
10	0x3a90d0c8	0.001104855
11	0x390b8098	0.00013303978
12	0x3afd3b2d	0.0019320004
13	0x39f8fdea	0.00047491427
14	0x3b0363c1	0.0020048472
15	0x399dbb8c	0.00030085107
16	0x396e067e	0.00022699867
17	0x38c129c2	9.210735e-05
18	0x394e556f	0.00019677517
19	0x378fca16	1.7141032e-05
20	0x38db2c35	0.00010450968
21	0x37976410	1.8047198e-05
22	0x3897af75	7.2329225e-05
23	0x369ca9cc	4.6689293e-06

exp_avg f4 [8, 6]
0	0x3caae14a	0.02085938
1	0x3bc1f769	0.005919386
2	0x3cce341e	0.025171336
3	0x3c8985ef	0.016787497
4	0x3cc265f3	0.023730254
5	0x3a3a53a1	0.00071077986
6	0x3c030ee0	0.007999152
7	0x3a813cf8	0.0009860089
8	0x3c12498e	0.00892867
9	0x3bbe0c15	0.00579978
10	0x3c0ae7e1	0.008478136
11	0xb9e186c2	-0.00043015747
12	0xbc77f0f8	-0.015133135
13	0xbb2360b7	-0.0024929473
14	0xbc9ac749	-0.018893855
15	0xbc42ec82	-0.011897208
16	0xbc8bc272	-0.017060492
17	0x3a5ac855	0.0008345892
18	0xbce9249c	-0.02845984
19	0xbb87df6b	-0.0041465065
20	0xbd1fc3ef	-0.039005216
21	0xbcbf70b9	-0.02336918
22	0xbd0a9be4	-0.033840075
23	0x3b54f179	0.0032492562
24	0x3c251869	0.010076621
25	0x3b157317	0.0022804195
26	0x3c43eaea	0.011957863
27	0x3c007d35	0.007842352
28	0x3c393f17	0.011306546
29	0xb8e0ac1d	-0.00010713211
30	0xbc3897a2	-0.011266621
31	0xbb5e7f7f	-0.0033950505
32	0xbc75cf87	-0.015003092
33	0xbc1dc3fb	-0.009629245
34	0xbc5d931b	-0.013523842
35	0xb911cd45	-0.00013904746
36	0x3c8e0ae4	0.017339177
37	0x3b715af5	0.0036827896
38	0x3ca38926	0.019962858
39	0x3c5a7e36	0.013335755
40	0x3c99b951	0.018765124
41	0x39b2f601	0.00034134093
42	0x3c23a35c	0.009987678
43	0x3b824362	0.003975318
44	0x3c1e691f	0.0096686175
45	0x3bfa2168	0.007633377
46	0x3c273ec6	0.010207837
47	0x3b112efe	0.0022153254

exp_avg_sq f4 [8, 6]
0	0x39e5eee2	0.00043856265
1	0x38222cd0	3.8665545e-05
2	0x3a279f67	0.0006394297
3	0x3994046f	0.00028232063
4	0x3a1460ed	0.0005660195
5	0x36487d18	2.9875137e-06
6	0x388eb90a	6.805554e-05
7	0x36dcc63a	6.5795875e-06
8	0x38b9d138	8.8604575e-05
9	0x3812cc57	3.499942e-05
10	0x389e970b	7.562161e-05
11	0x3680657c	3.8265116e-06
12	0x3971e1ae	0.00023067623
13	0x370917ae	8.17135e-06
14	0x39bd0556	0.00036052865
15	0x39146425	0.00014151687
16	0x39993044	0.00029218395
17	0x3614058a	2.2056943e-06
18	0x3a5944aa	0.0008288125
19	0x37c9beb2	2.4049867e-05
20	0x3acd9a78	0.0015686294
21	0x3a109e8f	0.0005516791
22	0x3a98a728	0.0011646496
23	0x37a4edd1	1.9661065e-05
24	0x38db4c81	0.00010456984
25	0x36eb9f67	7.0221026e-06
26	0x391cd58b	0.0001495687
27	0x3882ba1a	6.233547e-05
28	0x3908e561	0.00013055421
29	0x35dd153b	1.6471962e-06
30	0x390501e5	0.00012684574
31	0x3781f64d	1.5492691e-05
32	0x396cacae	0.00022571042
33	0x38c15f06	9.220657e-05
34	0x393f45eb	0.00018241226
35	0x361b9c71	2.318786e-06
36	0x399ce970	0.00029928563
37	0x37a3319e	1.9454219e-05
38	0x39ceb04e	0.0003942274
39	0x39397a63	0.00017688567
40	0x39b7acd9	0.00035033262
41	0x363f9bc9	2.8551897e-06
42	0x38c99867	9.612814e-05
43	0x37d9f71d	2.5983487e-05
44	0x38b904a8	8.822355e-05
45	0x386e5307	5.6820947e-05
46	0x38d333e2	0.00010070928
47	0x372b5db6	1.0214213e-05

exp_avg f4 [4, 8]
0	0x3cb3535a	0.021890331
1	0x3c31ed68	0.010859825
2	0xbc7d99f7	-0.015478603
3	0xbca82111	-0.02052358
4	0x3c822e27	0.015891148
5	0xbbf5166e	-0.0074794805
6	0x3c06c027	0.008224524
7	0x3c5a2111	0.013313548
8	0xbd2c340e	-0.04204183
9	0xbce1e034	-0.027572729
10	0x3c5ab0c6	0.01334781
11	0x3c97087b	0.018436661
12	0xbce59627	-0.0280257
13	0x3c1198d2	0.008886533
14	0xbc9fd545	-0.019510875
15	0xbd205191	-0.039140288
16	0xbd09aa0e	-0.033609442
17	0xbc940133	-0.018066978
18	0x3c848283	0.016175514
19	0x3cb63019	0.022239732
20	0xbcb8b734	-0.022548296
21	0x3c2ae556	0.0104306545
22	0xbc52b381	-0.01286018
23	0xbccc6279	-0.0249493
24	0x3c5b2404	0.013375286
25	0x3c01609a	0.007896567
26	0xbbb44c75	-0.0055022785
27	0xbbf4c0c2	-0.0074692676
28	0x3c1bddca	0.009513328
29	0xbb33df2a	-0.0027446249
30	0x3bc33da3	0.0059582754
31	0x3c2ad3e5	0.010426496

exp_avg_sq f4 [4, 8]
0	0x3a077504	0.0005167278
1	0x39310e04	0.00016885257
2	0x397537f3	0.00023385863
3	0x39d8013f	0.0004119966
4	0x39909863	0.00027579357
5	0x386f4fc4	5.7056328e-05
6	0x38cb3267	9.6891825e-05
7	0x398bbfa9	0.00026654944
8	0x3ae910ce	0.0017781497
9	0x3a4a23da	0.0007711031
10	0x3940a9a3	0.00018373741
11	0x39ba2b55	0.0003550897
12	0x3a4e5cef	0.00078721246
13	0x38b67749	8.700655e-05
14	0x39ca879e	0.00038629485
15	0x3acbd43c	0.0015550922
16	0x3a950f46	0.001137235
17	0x39b9588f	0.0003535193
18	0x3987bd4b	0.0002589024
19	0x3a0113e5	0.0004923924
20	0x3a06905a	0.00051332044
21	0x38e84121	0.00011074753
22	0x393d362c	0.00018044625
23	0x3a3092ff	0.00067357713
24	0x395b3cb7	0.00020908086
25	0x38da0c1c	0.000103973056
26	0x380a4a09	3.2970715e-05
27	0x3882e612	6.241737e-05
28	0x38e23823	0.00010786976
29	0x3755c8ab	1.2742511e-05
30	0x3877b434	5.9057216e-05
31	0x394365ff	0.00018634646

exp_avg f4 [8]
0	0xba04b515	-0.0005062384
1	0x39854ac4	0.00025423442
2	0xbb66f7bf	-0.0035242883
3	0x3a85c14d	0.0010204703
4	0xbaaf37bc	-0.001336805
5	0x3ad7d395	0.0016466255
6	0xbb204636	-0.0024455911
7	0x3bcd9848	0.006274257

exp_avg_sq f4 [8]
0	0x34937e83	2.7472933e-07
1	0x3407e7a2	1.2657122e-07
2	0x375a26db	1.3002859e-05
3	0x35be9802	1.4200343e-06
4	0x36247ea4	2.451162e-06
5	0x363d5045	2.8209918e-06
6	0x36d4a253	6.3369894e-06
7	0x3826796b	3.9690563e-05

exp_avg f4 [6]
0	0x3ab1cd98	0.00135653
1	0x3b5d82ed	0.0033799962
2	0xba208e41	-0.0006124713
3	0x3a8d3087	0.0010771909
4	0xbad265a5	-0.0016052021
5	0xba7326d4	-0.00092755

exp_avg_sq f4 [6]
0	0x363d4c8d	2.8207753e-06
1	0x374eacd3	1.2318796e-05
2	0x35a11f77	1.2004592e-06
3	0x35b21bb7	1.32701e-06
4	0x3661aa4d	3.362674e-06
5	0x35f64329	1.8347974e-06

exp_avg f4 [4]
0	0x3b03dd0e	0.0020120773
1	0x3b3b3518	0.0028565582
2	0x3b74c0d1	0.0037346373
3	0x3ae22938	0.0017254716

exp_avg_sq f4 [4]
0	0x37421811	1.15689045e-05
1	0x371e920a	9.451536e-06
2	0x37726954	1.4448848e-05
3	0x365bd680	3.2758398e-06

exp_avg f4 [3]
0	0x3bda1fac	0.0066566076
1	0x3b27b2a3	0.0025588654
2	0x3b86967f	0.004107296

exp_avg_sq f4 [3]
0	0x38a3ea92	7.816138e-05
1	0x37daa1fc	2.6063055e-05
2	0x37a0bf05	1.9162437e-05

exp_avg f4 [4]
0	0x3c9d4716	0.019198935
1	0x3bf922bb	0.007603017
2	0x3acb982c	0.0015533022
3	0x392a40ba	0.00016236576

exp_avg_sq f4 [4]
0	0x39e46468	0.00043562357
1	0x387e899d	6.068648e-05
2	0x37cc8680	2.4381327e-05
3	0x36568284	3.1964455e-06

exp_avg f4 [6]
0	0x3b1c717f	0.002387136
1	0x3a424284	0.00074104243
2	0x3bb6cb1a	0.005578411
3	0xbc12e182	-0.008964898
4	0x3933aa84	0.00017134292
5	0x3b7bb30a	0.0038406276

exp_avg_sq f4 [6]
0	0x380923b5	3.26966e-05
1	0x36e3c2b3	6.787793e-06
2	0x3884a665	6.325244e-05
3	0x392a5e3d	0.0001624757
4	0x377bc0d4	1.5005662e-05
5	0x38132609	3.5082954e-05

exp_avg f4 [8]
0	0x3afe7686	0.0019413985
1	0x3b8b8c00	0.0042586327
2	0xbbb61630	-0.005556844
3	0xbc3a0878	-0.011354558
4	0x3b2e4c36	0.0026595718
5	0xb885283c	-6.3494284e-05
6	0x3b8f682d	0.0043764324
7	0xbb038fd7	-0.002007475

exp_avg_sq f4 [8]
0	0x380a7174	3.3007425e-05
1	0x3882c969	6.2363986e-05
2	0x38515428	4.990786e-05
3	0x3974d88a	0.0002335032
4	0x37edfcd6	2.8370338e-05
5	0x37ce4a1c	2.4591624e-05
6	0x383ce2d7	4.5033954e-05
7	0x3850ca9c	4.977976e-05

exp_avg f4 [4]
0	0x3c73a365	0.014870499
1	0x3c9c2a9e	0.01906329
2	0xbba0bba2	-0.00490518
3	0xbb295625	-0.00258387

exp_avg_sq f4 [4]
0	0x39c6799c	0.0003785611
1	0x3a0e67a1	0.0005432312
2	0x395eb072	0.00021237301
3	0x397ec955	0.0002429833
