jet_by_jet_compression/AE_2D_latent_space/models/AE_2D_v100_loss0029.pt (torch_old, 169495 bytes, 16 tensors)

en1.weight f4 [100, 4]
0	0x3f5ac6e9	0.8545976
1	0xbda593ab	-0.08084806
2	0x3d9ead45	0.07747892
3	0x3f0794f6	0.5296167
4	0x3fa64336	1.2989261
5	0x3eff1215	0.49818483
6	0x3e0d1966	0.1377922
7	0xbf0a39da	-0.53994524
8	0xbf5fc2e2	-0.8740674
9	0xbe084b33	-0.13309936
10	0xbe66f02e	-0.22552559
11	0xbf8b3927	-1.0876817
12	0x3f7cf766	0.98815
13	0x3ec85725	0.39128986
14	0x3e26e0dd	0.16296716
15	0x3fa72c48	1.3060389
16	0xbe37b491	-0.17939974
17	0xbcfbf1e5	-0.030754993
18	0x3e2e006a	0.16992345
19	0xbea822e9	-0.32839134
20	0x3f87abd6	1.0599315
21	0xbe59b43c	-0.2126016
22	0x3db76fd0	0.089568734
23	0xbecc9a0f	-0.39961287
24	0x3f9ee78c	1.2414412
25	0x3f01e173	0.50734633
26	0x3e1e387d	0.15451236
27	0x3e7dad95	0.24773248
28	0xbfa0609a	-1.252948
29	0xbdc6317e	-0.09677409
30	0x3cac6133	0.021042442
31	0xbf2ed648	-0.6829572
32	0xbf5a2380	-0.8521042
33	0xbf6a25f1	-0.91464144
34	0x3d42faad	0.047602344
35	0xbfa40dcc	-1.281671
36	0xbe80e5fb	-0.2517546
37	0xbe2e7925	-0.170384
38	0xbf2d7b73	-0.67766494
39	0x3ed0b7b3	0.4076515
40	0x3fa44284	1.2832799
41	0x3f6fb1a3	0.9363043
42	0x3edf783a	0.43646413
43	0x3ec35867	0.38153383
44	0xbf5607e5	-0.83605796
45	0xbef1011e	-0.47071165
46	0x3db3a416	0.08771531
47	0xbf33c8e6	-0.7022842
48	0xbe70767c	-0.23482698
49	0xbd0330ba	-0.03202889
50	0x3dd66249	0.10467965
51	0xbe3343c6	-0.17506322
52	0xbffea960	-1.9895439
53	0xbe0cdcf0	-0.13756156
54	0xbe0159fa	-0.1263198
55	0x3f568cda	0.8380867
56	0xbe7c2d22	-0.24626592
57	0xbea7dc8d	-0.32785454
58	0x3e0365dd	0.12831827
59	0xbe150c33	-0.14555435
60	0x3f9b7899	1.2146178
61	0x3f890892	1.070574
62	0x3ef13766	0.47112578
63	0x3c193579	0.009351128
64	0x3e6bf147	0.23041259
65	0xbee57971	-0.44819215
66	0x3ec34923	0.38141736
67	0xbe7c8185	-0.24658783
68	0x3fb4b2b2	1.4117033
69	0x3f4602b7	0.7734789
70	0x3e8fcc57	0.28085586
71	0xbf05605e	-0.5210017
72	0xbf836960	-1.0266533
73	0xbeda1ca4	-0.42599976
74	0x3ef46ebc	0.47740734
75	0xbf8882ed	-1.0664955
76	0xbfcc22ec	-1.5948157
77	0x3e862bdc	0.26205337
78	0x3e967bc2	0.29391295
79	0x3eaf3f55	0.34228006
80	0xbf98f1f1	-1.1948835
81	0xbdc37b08	-0.09544951
82	0xbdb0e6e7	-0.08637791
83	0xbfa2a0f0	-1.2705364
84	0xbf278dd5	-0.65450794
85	0xbf939870	-1.1530895
86	0x3d756160	0.059907317
87	0x3ec1ac97	0.37826988
88	0x3f68a14e	0.9087113
89	0xbe872a4b	-0.26399454
90	0x3e9d356e	0.30704826
91	0x3f2cf911	0.67567545
92	0x3f83d457	1.0299176
93	0xbf03ff20	-0.51561165
94	0x3f05856b	0.52156705
95	0x3ed688a5	0.41901127
96	0xbd5687dc	-0.05237566
97	0x3e11c9bf	0.14237116
98	0xbecf2e9a	-0.40465242
99	0x3e4e7f8c	0.20165843
100	0x401d8515	2.4612477
101	0xbea3885c	-0.3193997
102	0xbe11b6de	-0.14229915
103	0xbf1fd394	-0.6243222
104	0xbef8ccd2	-0.48593765
105	0x3ef10215	0.470719
106	0xbed82789	-0.42217663
107	0xbcfcac8b	-0.030843994
108	0x3e156724	0.14590126
109	0x3e36a408	0.1783601
110	0xbefbc796	-0.4917571
111	0xbf48e904	-0.78480554
112	0xbf35e6af	-0.7105512
113	0xbe66edf6	-0.22551712
114	0x3eb4247f	0.35184094
115	0x3fd5ce45	1.6703573
116	0x3fca07fb	1.5783685
117	0x3f062c80	0.5241165
118	0x3e6c78e7	0.23092996
119	0xbf2e9997	-0.6820311
120	0xbe8e1d5d	-0.27756777
121	0xbf01459f	-0.5049686
122	0x3df74680	0.12073994
123	0x3d8b1e66	0.067929074
124	0xbfa84c00	-1.3148193
125	0xbfa696fe	-1.3014829
126	0xbe56c411	-0.20973231
127	0xbf06e656	-0.52695215
128	0x3e435a54	0.19077426
129	0x3e86ce17	0.2632911
130	0x3e4a2464	0.19740444
131	0x3c0b7a32	0.00851302
132	0xbf2dd90d	-0.6790932
133	0xbea8a705	-0.32939926
134	0xbe6c53d2	-0.2307885
135	0xbf96c2e6	-1.1778228
136	0xbfa526de	-1.2902486
137	0xbf48526e	-0.7825078
138	0xbe62c866	-0.22146758
139	0x3e48968f	0.19588684
140	0x3fa50846	1.289315
141	0x3f827b57	1.019389
142	0x3eaa6035	0.33276525
143	0xbdfc8093	-0.12329211
144	0x3f474ef2	0.77854836
145	0xbeae9885	-0.34100738
146	0xbe17b28d	-0.14814205
147	0xbe6edeca	-0.23327175
148	0x3f43f77f	0.76549524
149	0x3f0a7d0d	0.5409706
150	0xbf12d102	-0.5735017
151	0x3ea4aea9	0.32164505
152	0xbf4ff8ae	-0.8123883
153	0xbf1dc8e8	-0.61634684
154	0xbb3a5d08	-0.0028436799
155	0x3f8c4179	1.0957481
156	0x3fb1762f	1.3864192
157	0xbe10b4d0	-0.14131474
158	0x3eac87e3	0.33697423
159	0x3f26f19f	0.65212435
160	0x3f835b8b	1.0262312
161	0x3e97a623	0.2961894
162	0x3e761800	0.24032593
163	0xbe355fe9	-0.17712368
164	0x3fb47490	1.4098072
165	0x3f363dcb	0.7118804
166	0x3e2990d3	0.16559152
167	0xbf171ebf	-0.5903129
168	0xbf41ed60	-0.7575283
169	0xbf8123cd	-1.008905
170	0xbda3ed6c	-0.08004269
171	0x3cc780ee	0.02435347
172	0xbf7a6901	-0.97816473
173	0xbf74259a	-0.95369875
174	0xbe6df1ab	-0.2323672
175	0xbd5a16b0	-0.053244293
176	0xbf49aa74	-0.78775716
177	0xbded0f05	-0.115751304
178	0xbdc18ea3	-0.09451034
179	0xbf4114e9	-0.7542253
180	0x3fcab8a4	1.5837598
181	0x3f0aeb8e	0.5426568
182	0x3e869df0	0.26292372
183	0xbf38d67b	-0.7220227
184	0x3f89b95d	1.0759693
185	0x3e273694	0.16329414
186	0x3e8149b7	0.25251552
187	0x3f0fbe83	0.5615007
188	0xbf6d6747	-0.92735714
189	0x3e299d73	0.16563968
190	0xbea83cd4	-0.32858908
191	0xbf06b5a9	-0.5262094
192	0xbf805439	-1.0025703
193	0x3d8a3b77	0.06749623
194	0xbde67574	-0.11252871
195	0xbf5d8509	-0.8653112
196	0xbd4b42f5	-0.049624402
197	0xbe0611ca	-0.13092723
198	0xbe72b54f	-0.23701976
199	0xbfab6677	-1.3390645
200	0xbeae03d2	-0.3398729
201	0xbf285f92	-0.6577083
202	0x3d888a19	0.06666965
203	0xbeb10961	-0.34577468
204	0xbf68cfd5	-0.90942127
205	0x3e94aaa3	0.29036435
206	0x3e825224	0.25453293
207	0x3e06b2d4	0.13154155
208	0xbf8547d7	-1.0412549
209	0x3eaf9544	0.34293568
210	0xbe8e0a42	-0.277422
211	0xbf01830f	-0.50590605
212	0x3f9cee90	1.2260303
213	0x3f85a16d	1.0439888
214	0x3ed76e45	0.42076316
215	0xbdd280d7	-0.102784805
216	0x3f0e284d	0.55530244
217	0x3e8a7b8f	0.27047393
218	0x3f37b5ee	0.7176198
219	0xbf2d4c14	-0.6769421
220	0x3e080217	0.13282047
221	0x3ec85d91	0.39133886
222	0xbe64563a	-0.22298518
223	0x3e531d9d	0.20616765
224	0xbfc68bbb	-1.5511392
225	0xbefbb57f	-0.49161908
226	0xbe9801b7	-0.29688808
227	0x3f6c8dc9	0.92403847
228	0x3f9b7a74	1.2146745
229	0x3f4628ff	0.77406305
230	0x3a6dbc51	0.0009068894
231	0x3e1595b7	0.14607893
232	0xbf800af2	-1.000334
233	0xbe33739e	-0.17524573
234	0x3cd83cdb	0.026396206
235	0xbea38476	-0.31936997
236	0xbf9f52fa	-1.2447197
237	0xbf94c599	-1.1622802
238	0xbe3104d0	-0.17286992
239	0x3dd202de	0.10254453
240	0x3e879c14	0.26486266
241	0xbe3716ef	-0.17879842
242	0x3f354623	0.70810145
243	0xbeab97a4	-0.3351413
244	0xbf1e58c7	-0.61854213
245	0xbeb76375	-0.35818067
246	0xbe0b15c1	-0.13582517
247	0x3d9ef56d	0.07761655
248	0x3f0cb08c	0.5495689
249	0xbe942ef3	-0.2894207
250	0x3f1f0a7f	0.6212539
251	0xbd5ac1f3	-0.05340762
252	0x3f075a92	0.52872574
253	0x3f4191fc	0.7561338
254	0xbd1448e4	-0.036202326
255	0x3e872078	0.2639196

en1.bias f4 [100]
0	0xbf7b3f19	-0.98143154
1	0x3ea254fc	0.31705463
2	0x3f3f8ecb	0.7482726
3	0x3f179ed3	0.5922672
4	0xbf93edfc	-1.1557002
5	0x3f5cc622	0.86239827
6	0x3f164680	0.58701324
7	0xbf61e60b	-0.8824164
8	0xbe6731ad	-0.22577544
9	0x3f3b8659	0.73251873
10	0x3e9a81f8	0.30177283
11	0xbf899388	-1.0748148
12	0xbf8fa204	-1.1221318
13	0x3e030db9	0.12798204
14	0x3f93e9ea	1.155576
15	0xbe63840c	-0.2221834
16	0x3f55084a	0.83215773
17	0xbe848e01	-0.2588959
18	0xbf34bf3a	-0.7060429
19	0xbe92cf72	-0.28673893
20	0x3e6c8180	0.23096275
21	0xbed49a03	-0.41523752
22	0xbf52fd5a	-0.82417834
23	0xbebaed08	-0.36508965
24	0xbf879652	-1.0592749
25	0x3dc1a1ea	0.09454711
26	0xbd4d6031	-0.050140563
27	0x3f7509ef	0.9571828
28	0x3e12dac7	0.1434127
29	0xbe07b128	-0.13251173
30	0xbf82d16f	-1.0220164
31	0x3b56dfd2	0.0032787216
32	0xbf378352	-0.71684754
33	0x3f1254d2	0.57160676
34	0x3eec1325	0.46108356
35	0x3e14ca7b	0.14530365
36	0x3f5cba6b	0.8622195
37	0xbe3d6d3c	-0.18498701
38	0xbf14f95e	-0.58193004
39	0xbeecc028	-0.46240354
40	0xbf48dce7	-0.7846207
41	0xbec53918	-0.38520122
42	0x3eec4624	0.46147263
43	0x3e9d4233	0.30714568
44	0x3f6a1fdf	0.9145488
45	0xbe279924	-0.16367012
46	0xbf3e7542	-0.7439767
47	0x3f337b6c	0.701102
48	0x3f6b7210	0.9197092
49	0x3f151882	0.5824052
50	0x3f80fffc	1.007812
51	0xbf2b3f5b	-0.6689355
52	0x3f2cc05b	0.6748101
53	0xbe365bfb	-0.17808525
54	0x3d552cd4	0.052044705
55	0xbf91d4ea	-1.1393101
56	0x3e7cf9fb	0.24704735
57	0x3f19f78e	0.60143363
58	0x3f7fe53d	0.99959165
59	0x3d8b025c	0.067875594
60	0xbf24600a	-0.64209044
61	0xbf8196b1	-1.0124112
62	0xbf22ae74	-0.63547444
63	0xbeff726c	-0.49891984
64	0x3e6e774f	0.232877
65	0xbd97ec4e	-0.074181184
66	0x3ecc02c2	0.39845854
67	0x3f67ccf5	0.90547115
68	0xbf630ae6	-0.88688505
69	0x3f873720	1.0563698
70	0xbf475e3c	-0.77878165
71	0x3f30cb66	0.6906036
72	0xbf41a675	-0.7564462
73	0x3e847a24	0.25874436
74	0x3f81ea8e	1.0149705
75	0x3f025d22	0.5092336
76	0x3f09027f	0.53519434
77	0x3f8e7cff	1.1131896
78	0xbf3a9c3c	-0.72894645
79	0x3f37daad	0.7181805
80	0xbf87e496	-1.0616634
81	0xbee63824	-0.44964707
82	0xbf19447e	-0.59870136
83	0x3eecd24e	0.462542
84	0x3f8b0d1f	1.0863379
85	0xbf646f28	-0.8923211
86	0xbf8093e7	-1.0045136
87	0xbe4dc58d	-0.20094891
88	0xbe5d3e08	-0.21605694
89	0xbe8aaf07	-0.2708666
90	0x3fae9388	1.3638773
91	0x3eb185b7	0.3467233
92	0xbda4ee3e	-0.080532536
93	0x3ec896f4	0.39177668
94	0xbe84d2a8	-0.25941968
95	0xbf52ad56	-0.8229574
96	0xbd90da43	-0.0707288
97	0x3e2d3250	0.16913724
98	0xbf1adcf7	-0.60493416
99	0xbe4f0c67	-0.20219575

en2.weight f4 [100, 100]
0	0xbf152bb0	-0.58269787
1	0x3ed0c8de	0.4077825
2	0xbccc5f46	-0.024947774
3	0x3f40bd08	0.7528844
4	0xbf4f6494	-0.81012845
5	0x3f02b69c	0.5105989
6	0x3f795f90	0.9741144
7	0xbf7c4c46	-0.98553884
8	0xbf43bba2	-0.7645818
9	0x3f4bb424	0.7957175
10	0x3f19c509	0.60066277
11	0xbfe3cb9d	-1.7796513
12	0xbf9990e4	-1.1997342
13	0xbd0e5553	-0.03474934
14	0x3f8ca3da	1.0987504
15	0x3e62f542	0.22163871
16	0x3f0824ed	0.53181344
17	0xbb8820bd	-0.0041542933
18	0xbf3fe69a	-0.74961245
19	0xbe221da6	-0.15831622
20	0xbe98c7d9	-0.29839972
21	0xbe9fcebf	-0.31212422
22	0xbdfeb4ee	-0.12436853
23	0x3ece49c8	0.40290666
24	0xbf14511f	-0.5793628
25	0x3eb0b1c5	0.34510627
26	0xbea34de9	-0.31895378
27	0x3cc37f1f	0.023864327
28	0x3e1b597b	0.15170853
29	0xba95f744	-0.0011441489
30	0xbed77a02	-0.42085272
31	0xbf330ce0	-0.6994152
32	0xbf5d0133	-0.86329955
33	0xbdf74ef6	-0.120756075
34	0x3e904327	0.28176233
35	0x3f1237ad	0.57116205
36	0x3f0c05af	0.5469617
37	0xbe79fa0c	-0.24411792
38	0xbf3c2f3b	-0.7350957
39	0x3eae5b03	0.3405381
40	0xbf5ba471	-0.8579779
41	0xbe0bea20	-0.1366353
42	0xbd3b4fdb	-0.045730453
43	0xbd2aa27c	-0.041658863
44	0x3e79c72c	0.24392384
45	0xbdd5e364	-0.10443762
46	0xbd705fe8	-0.058685213
47	0xbca73676	-0.020411711
48	0x3e72c96e	0.23709652
49	0xbddae1ec	-0.106876224
50	0x3eb2bb37	0.3490846
51	0xbec196e5	-0.37810436
52	0xbe3f7c75	-0.1869982
53	0x3d643ffa	0.055725075
54	0xbe0c20ca	-0.13684383
55	0xbeeba2da	-0.46022683
56	0x3e715e8b	0.23571222
57	0x3f31e9fa	0.69497645
58	0x3f772bd8	0.96551275
59	0xbee15788	-0.44012094
60	0xbe9ff5fa	-0.31242353
61	0xbf28421b	-0.6572587
62	0x3d6ce30c	0.057833716
63	0xbea136e8	-0.31487203
64	0x3ec226d4	0.37920249
65	0x3e6cbf32	0.2311981
66	0xbeb2546b	-0.3483003
67	0x3f96ae54	1.1771951
68	0xbf1529a1	-0.58266646
69	0x3e9afd47	0.3027136
70	0xbf0e8cc0	-0.5568352
71	0x3f11d2db	0.56962365
72	0xbf79a7bb	-0.9752156
73	0xbe83a69c	-0.2571305
74	0x3f8c2efe	1.0951841
75	0x3d184d42	0.037183054
76	0xbe3ea293	-0.18616705
77	0x3f6bde9f	0.9213657
78	0xbf094677	-0.53623146
79	0x3f8f0e11	1.1176168
80	0xbf9daf64	-1.231915
81	0x3ebef243	0.37294206
82	0xbe02668a	-0.12734428
83	0x3f0605df	0.5235271
84	0x3f146c9b	0.5797822
85	0xbeb835b2	-0.35978466
86	0xbf8bacfd	-1.0912167
87	0x3ef9ff75	0.4882771
88	0x3e96dd1c	0.29465568
89	0x3da43769	0.08018381
90	0x3f5cc2ea	0.86234915
91	0x3f387440	0.72052383
92	0xbe84e09a	-0.25952607
93	0xbe64d7be	-0.22347924
94	0xbefd9771	-0.49529603
95	0xbf106604	-0.56405663
96	0x3ed14591	0.40873387
97	0x3e4603fb	0.19337456
98	0xbf49216b	-0.78566617
99	0xbe988dcd	-0.29795685
100	0xbf0ed574	-0.55794454
101	0x3e8293ad	0.25503293
102	0xbe61e95a	-0.22061673
103	0xbec485b8	-0.3838327
104	0x3ea5e915	0.3240439
105	0x3d463d97	0.04839858
106	0x3e63b628	0.22237456
107	0x3dc613de	0.09671758
108	0xbcb4b2e9	-0.022057967
109	0x3e9c7316	0.30556554
110	0xbde1c768	-0.11024362
111	0x3e2bd2ec	0.16779679
112	0xbd95f94c	-0.0732294
113	0x3e0efec8	0.13964379
114	0xbdf144aa	-0.11780675
115	0x3c17d7d3	0.009267765
116	0xbf152368	-0.5825715
117	0x3d9b6f69	0.07589609
118	0xbd0d073a	-0.03443072
119	0xbe81bfbe	-0.253416
120	0x3d49ad39	0.049237464
121	0x3e1c685d	0.15274186
122	0xbefff411	-0.49990895
123	0xbc4a7582	-0.012357118
124	0xbe3a211f	-0.18176697
125	0xbca8c376	-0.020601016
126	0xbed2d297	-0.41176292
127	0x3efc80be	0.49316972
128	0x3e6978f3	0.22800045
129	0x3c6d2cbf	0.014476
130	0xbd4691d7	-0.048478927
131	0x3bca53ef	0.0061745564
132	0xbc9fd34f	-0.01950994
133	0x3c7c0389	0.015381702
134	0xbe1b923f	-0.15192507
135	0xbdcc2c17	-0.09969347
136	0xbea03598	-0.3129089
137	0xbe2779bf	-0.16355036
138	0xbef481b1	-0.47755197
139	0x3e6a60d1	0.22888495
140	0x3d1216a6	0.03566613
141	0x3e1eb170	0.15497375
142	0xbd3257d9	-0.04354081
143	0x3d96dc16	0.07366197
144	0x3dfdf88e	0.12400924
145	0xbe0857ff	-0.13314818
146	0x3eb87c02	0.3603211
147	0x3e90d6df	0.28288934
148	0xbe9cb3f7	-0.30606052
149	0xbdbe8f96	-0.093047306
150	0xbe0d7765	-0.13815077
151	0x3e969443	0.2940999
152	0x3c0ad584	0.008473758
153	0x3cbbc368	0.022920325
154	0xbe2cd49f	-0.16877984
155	0xbc7134bd	-0.014722046
156	0xbd321363	-0.04347552
157	0x3e27c233	0.16382675
158	0xbdf865d6	-0.12128799
159	0xbc0ed7ec	-0.008718472
160	0x3e2bc30d	0.16773625
161	0xbddcbfd2	-0.10778774
162	0xbe459447	-0.19294845
163	0x3e347067	0.17621003
164	0xbe77b74a	-0.24191013
165	0xbd81b58c	-0.063334554
166	0x3bc02b9c	0.0058645736
167	0x3dcac9ec	0.09901795
168	0x3e3c69a3	0.18399672
169	0x3dc50b70	0.09621322
170	0xbf0437ff	-0.51647943
171	0x3e824f3b	0.25451073
172	0x3db2e6b7	0.087354116
173	0xbcaeecc3	-0.021353131
174	0xbe3e0ac3	-0.18558793
175	0xbed55a05	-0.41670242
176	0xbd4a781f	-0.049430963
177	0xbe8c2a7b	-0.2737616
178	0xbebcfe40	-0.36912727
179	0x3c4f082d	0.012636227
180	0xbe1ba92f	-0.15201257
181	0xbf180bf6	-0.5939325
182	0xbd870271	-0.065922625
183	0xbd9e727c	-0.0773668
184	0x3f2247f7	0.6339106
185	0xbe4179df	-0.18894146
186	0x3e886dbe	0.26646227
187	0x3f0fac00	0.56121826
188	0x3d84515c	0.064608306
189	0x3e3e3b63	0.18577342
190	0xbea2f2c6	-0.31825846
191	0x3de51e78	0.11187452
192	0x3f0ea3c8	0.5571866
193	0xbe45ca9a	-0.19315568
194	0xbea59857	-0.3234279
195	0xbd4cd033	-0.05000324
196	0x3e169600	0.14705658
197	0x3dcf7b98	0.101309955
198	0xbe780d7b	-0.24223892
199	0xbd889d6e	-0.06670652
200	0xbf5c6250	-0.8608751
201	0xbe2fac47	-0.17155562
202	0xbab1beca	-0.0013560888
203	0x3f4b41cc	0.79397273
204	0xbcb5b2b7	-0.022179944
205	0xbe3e4283	-0.1858006
206	0xbe7d7a37	-0.24753653
207	0xbed8d073	-0.42346534
208	0x3c8945e1	0.016756954
209	0x3ea07224	0.31337082
210	0x3ec954a2	0.39322382
211	0xbefdca04	-0.49568188
212	0xbf1d7c90	-0.6151819
213	0x3de02508	0.10944563
214	0x3e24d640	0.16097355
215	0x3e8d6b1d	0.27620783
216	0xbe8ad12e	-0.27112716
217	0x3e0d5368	0.13801348
218	0xbe8c8d0f	-0.2745137
219	0x3dca2843	0.098709606
220	0xbeba2a2a	-0.36360294
221	0xbe645156	-0.22296652
222	0xbd63eaaa	-0.055643715
223	0x3eaf35d9	0.3422077
224	0xbf182bc0	-0.5944176
225	0xbd851394	-0.06497875
226	0xbc80a8f4	-0.015705563
227	0x3d8f99f0	0.07011783
228	0x3f7de7f0	0.99182034
229	0xbe3b492f	-0.18289636
230	0xbed3b0fa	-0.4134596
231	0x3dac0980	0.084002495
232	0x3e40e00d	0.18835469
233	0x3d172a33	0.03690548
234	0x3e973b57	0.2953746
235	0x3f1f4d69	0.62227494
236	0xbecde1c4	-0.40211308
237	0xbec11221	-0.37709144
238	0xbad19599	-0.0015990018
239	0xbda01153	-0.07815804
240	0xbe995303	-0.29946145
241	0xbe227018	-0.15863073
242	0xbe71f5f8	-0.23628986
243	0xbde01561	-0.10941578
244	0x3f205db6	0.6264299
245	0xbe493d84	-0.19652373
246	0xbda597c7	-0.0808559
247	0x3e7b80ce	0.24560854
248	0x3d2bacb4	0.04191275
249	0xbd77ea18	-0.060525984
250	0x3e0f8e2f	0.14019082
251	0xbb512c7c	-0.0031917384
252	0x3e16e8e5	0.1473728
253	0x3eb4b194	0.3529173
254	0xbe32b985	-0.17453583
255	0xbe6f4ef9	-0.2336997

en2.bias f4 [100]
0	0x3f7cde1d	0.9877642
1	0xbe3080e1	-0.17236663
2	0x3f5bbc61	0.8583432
3	0x3f34cd02	0.7062532
4	0x3f7e34d7	0.9929938
5	0xbf5d4486	-0.86432683
6	0xbf8d7a82	-1.1053011
7	0x3dd34c1a	0.103172496
8	0x3e9b76b4	0.30364
9	0x3c5acb40	0.013354123
10	0xbf9e5155	-1.236857
11	0x3fb51a2c	1.4148612
12	0x3f4d50ef	0.8020162
13	0xbe849014	-0.25891173
14	0x3f3418ca	0.70350325
15	0xbeb2eeb1	-0.34947732
16	0xbf6ac974	-0.91713643
17	0x401a40e5	2.4102108
18	0xbfdb793e	-1.7146375
19	0x3f13b900	0.5770416
20	0xbf2ccf63	-0.67503947
21	0xbfb90b5a	-1.4456589
22	0xbf1cffc5	-0.61327773
23	0x4047c787	3.1215532
24	0x3de277d2	0.1105801
25	0xbf3a50f0	-0.7277975
26	0x3ea72e8b	0.32652697
27	0xbfa0e959	-1.2571212
28	0x3f993ba1	1.1971322
29	0x3f22e1ea	0.6362597
30	0x3f1ad8c4	0.6048701
31	0xbef7f8ff	-0.48432156
32	0x3f3576a0	0.7088413
33	0x3e3f62f3	0.1869009
34	0xbf45b347	-0.7722668
35	0x404fa2ad	3.244304
36	0x3f8af7d6	1.0856884
37	0x3f8fb638	1.1227484
38	0x3f4988ec	0.7872455
39	0x3ed177c7	0.40911695
40	0x3e596476	0.21229729
41	0x3f1f20d6	0.6215948
42	0xbf17f764	-0.59361863
43	0x3f6bd27d	0.92118055
44	0x3f5d7037	0.8649935
45	0x3e904c8a	0.28183395
46	0xbfc03469	-1.5015994
47	0xbf60c4d4	-0.87800336
48	0x3f4a08f3	0.78919905
49	0x3f7a1226	0.9768394
50	0xbf00f683	-0.5037615
51	0xbf307a4b	-0.68936604
52	0xbfccf270	-1.6011486
53	0x3f5a6d3e	0.8532294
54	0x3f1e6cd9	0.6188484
55	0xbe19f8f6	-0.15036377
56	0x3ebf8c4e	0.3741173
57	0xbec9004f	-0.39258048
58	0xbd7ab4b7	-0.0612075
59	0xbf9d56b7	-1.2292088
60	0x400b277e	2.1742854
61	0xbf91df62	-1.1396296
62	0x3ebe4391	0.37160924
63	0x3f1438f0	0.5789938
64	0x3f037ab4	0.51359105
65	0xbfcc852f	-1.5978144
66	0x3f657ac7	0.8964047
67	0xbf25d5ee	-0.64779556
68	0x3f6084cd	0.8770264
69	0x3f317738	0.6932254
70	0x3f5116d9	0.8167549
71	0x3f49c94b	0.78822774
72	0xbf423c7a	-0.7587353
73	0x3f53e039	0.8276401
74	0xbed5a087	-0.41724035
75	0xbff6fa2b	-1.9295095
76	0xbec7e937	-0.39045116
77	0x3ee897bb	0.4542826
78	0x3f3840f1	0.7197409
79	0xbe33e032	-0.17565992
80	0x3f31791f	0.6932544
81	0xbf4fc937	-0.81166404
82	0xbf28fef8	-0.6601405
83	0xbf0087fa	-0.50207484
84	0x3efd9b95	0.49532762
85	0xbf14417d	-0.5791243
86	0x3e1a6387	0.15077029
87	0x3fa39903	1.278107
88	0xbf8b401f	-1.0878943
89	0x3e280efa	0.16411963
90	0x3f246d23	0.6422903
91	0x3ed8a4a3	0.42313108
92	0xc00e1c10	-2.2204628
93	0x3ee84087	0.4536173
94	0x3f5e1cf8	0.8676295
95	0x3e641602	0.2227402
96	0xbf720495	-0.9453824
97	0xbf8f9557	-1.121745
98	0xbe07fc1a	-0.13279763
99	0x3f724175	0.9463113

en3.weight f4 [100, 100]
0	0x3fd322c8	1.6494989
1	0x3f3f546d	0.747382
2	0x3f00942d	0.502261
3	0xbeb1c2f3	-0.34719047
4	0xbe4469c8	-0.19180977
5	0x3e6aca88	0.22928822
6	0xbec2d588	-0.38053536
7	0xbde12ace	-0.109944925
8	0x3daa6216	0.0831949
9	0x3e92d01e	0.28674406
10	0xbea5593f	-0.32294652
11	0x3ea6dddb	0.32591137
12	0xbe904e49	-0.28184727
13	0xbe0efaf4	-0.13962919
14	0x3f1ea2d4	0.61967206
15	0x3e9c4df1	0.30528215
16	0x3ef1356b	0.47111067
17	0x3e8fdcae	0.28098053
18	0xbedfe909	-0.4373248
19	0xbd9a6795	-0.07539288
20	0x3d178e60	0.037001014
21	0xbe85728e	-0.2606396
22	0x3acc3d83	0.0015582297
23	0x3e7338fd	0.23752208
24	0xbea10222	-0.3144694
25	0xbfaa1683	-1.328812
26	0xbd787e33	-0.060667228
27	0x3ee65c09	0.44992092
28	0x3ed78731	0.4209533
29	0x3f0000ac	0.50001025
30	0x3e0bbb61	0.13645698
31	0xbeceafa4	-0.40368378
32	0x38cde326	9.8174714e-05
33	0xbd7f5a59	-0.06234202
34	0x3e30e037	0.17273031
35	0x3ec04671	0.37553743
36	0x3ea63f61	0.3247023
37	0xbf09e7b9	-0.53869206
38	0x3d7a27fa	0.06107328
39	0x3eb363c2	0.35037047
40	0xbf12b33b	-0.57304734
41	0x3e9749af	0.29548404
42	0x3f481a7b	0.78165406
43	0xbe581a28	-0.21103728
44	0x3fc9d94a	1.5769436
45	0xbd9c008a	-0.0761729
46	0xbf178221	-0.59182936
47	0xbbf9fbd9	-0.0076288995
48	0x3fc627c9	1.5480891
49	0x3ed10910	0.40827227
50	0x3e3056f8	0.17220676
51	0x3e1b2c24	0.15153557
52	0xbdb34d1c	-0.08754942
53	0x3f32a23e	0.6977881
54	0xbce06d45	-0.027395854
55	0x3ed732ee	0.42031044
56	0xbcd3d4b1	-0.025858255
57	0xbdd1e8a9	-0.102494545
58	0xbfdca74c	-1.7238555
59	0xbe801095	-0.2501265
60	0x3dfde51a	0.12397213
61	0xbf1e6f75	-0.6188882
62	0x3d095e71	0.033537332
63	0x3f23cf4a	0.63988173
64	0xbf4d069a	-0.800882
65	0xbf222563	-0.633383
66	0xbec4064f	-0.38286063
67	0xbf278ea7	-0.65452045
68	0x3f4cf52b	0.80061597
69	0x3ee25c54	0.44211066
70	0x3feb87a5	1.840077
71	0xbe9221f1	-0.2854152
72	0x3e132274	0.14368612
73	0xbed3b223	-0.41346845
74	0x3e012a6b	0.12613837
75	0xbeaf4beb	-0.34237608
76	0xbc6345b8	-0.013871603
77	0x3eb74799	0.35796812
78	0xbd48d1ff	-0.049028393
79	0xbf3172ad	-0.69315606
80	0x3ef2c3c7	0.4741499
81	0xc017ccbf	-2.3718717
82	0xbe017b0d	-0.12644596
83	0x3ee098e3	0.43866643
84	0x3f8c4c23	1.0960735
85	0xbda6ce11	-0.08144773
86	0xbd80a50e	-0.06281482
87	0x3e546797	0.20742641
88	0x3ec9b9f1	0.39399675
89	0xbe6b4e08	-0.22978985
90	0x3f405df1	0.75143343
91	0x3f8dd5ba	1.1080849
92	0x3d6766ec	0.05649464
93	0xbe7e7c2b	-0.24852054
94	0xbc7372bf	-0.014858901
95	0x3d05e5a2	0.032689698
96	0x3d549227	0.051897194
97	0x3f1270c4	0.57203317
98	0xbf05ad59	-0.5221763
99	0x3f5845e1	0.84481627
100	0x3f734339	0.9502445
101	0x3f29a3d0	0.66265583
102	0x3ee6e344	0.45095265
103	0xbed1e5f8	-0.40995765
104	0xbe52b24d	-0.20575829
105	0xbf71c45a	-0.94440234
106	0xbfc0253e	-1.5011365
107	0x3ef60999	0.48054197
108	0xbea9d11e	-0.33167356
109	0x3e699dbd	0.22814079
110	0x3d2eee31	0.042707626
111	0x3e3e5321	0.18586399
112	0xbe887e27	-0.26658747
113	0xbf552cb5	-0.8327134
114	0x3f8eb42a	1.1148732
115	0x3ef0976e	0.46990532
116	0x3e90b971	0.2826648
117	0x3e6adfc2	0.2293692
118	0xbe8e556a	-0.2779954
119	0x3f87381e	1.0564001
120	0x3e425264	0.18976742
121	0xbdc205d9	-0.094737716
122	0xc001040a	-2.0158715
123	0x3e6298f4	0.2212866
124	0x3e7487fa	0.23879996
125	0xbf93cb0c	-1.154634
126	0x3f2c6781	0.67345434
127	0xbb8ecd27	-0.004357952
128	0x3e8235d5	0.25431696
129	0xbe08a15a	-0.133428
130	0xbe96e604	-0.29472363
131	0xbf4af7b5	-0.7928422
132	0x3f649bf1	0.8930045
133	0x3e2dfdac	0.169913
134	0xbeca6613	-0.39531
135	0x3e627fa6	0.22119007
136	0x3f03c0e6	0.51466215
137	0x3f635dd0	0.8881502
138	0x3d426ac1	0.04746509
139	0x3fa802a4	1.3125806
140	0x3a9f1d45	0.001213946
141	0xbf700175	-0.93752223
142	0xbea77e4b	-0.3271354
143	0x3ea247ec	0.31695497
144	0x3fb72848	1.4309168
145	0xbe503b35	-0.20335086
146	0x3e1beeb7	0.15227781
147	0xbeeaff60	-0.4589796
148	0x3f52f78f	0.82408994
149	0x3f40bdca	0.75289595
150	0xbf0d66e2	-0.5523511
151	0x3dfd6a85	0.123738326
152	0xbe8c25ad	-0.27372494
153	0x3f5e5af6	0.86857545
154	0x3f000e66	0.5002197
155	0x3f6c904d	0.92407686
156	0x3f566312	0.8374492
157	0xbd23c078	-0.039978474
158	0xbeafb15b	-0.34315
159	0x3d8ee1b8	0.06976646
160	0x3ec53b01	0.3852158
161	0xbf113bd2	-0.56731904
162	0xbf22c857	-0.63586944
163	0xbf1af0ab	-0.6052348
164	0x3fbf983c	1.4968333
165	0xbdf1afbf	-0.11801099
166	0x3f19c304	0.60063195
167	0xbe96c5f3	-0.29447898
168	0x3f36ecfb	0.71455353
169	0x3e9c2953	0.30500278
170	0x3f3e9f22	0.7446157
171	0xbe9fc387	-0.31203863
172	0x3e2f16b6	0.17098507
173	0xbe4ee10e	-0.20203039
174	0xbf05b9cc	-0.5223663
175	0xbe8c846d	-0.27444783
176	0xbee36d08	-0.44419122
177	0x3e800f29	0.25011566
178	0x3eeb6da3	0.45982084
179	0xbfcd92ad	-1.6060387
180	0x3f49e00b	0.7885749
181	0xbfe2b690	-1.7711964
182	0xbf7b4859	-0.9815727
183	0xbecc49a9	-0.39899948
184	0x3f286c54	0.65790296
185	0xbf4c338b	-0.7976615
186	0xbf17cb21	-0.59294325
187	0x3eb6c167	0.3569443
188	0xbf17a126	-0.5923027
189	0x3e6cde71	0.2313173
190	0x3f19b184	0.6003649
191	0x3f88e925	1.069615
192	0xbed787a1	-0.42095664
193	0xbeabf356	-0.33584088
194	0x3f07346e	0.52814376
195	0x3e765a39	0.24057855
196	0xbea5e9e3	-0.32405004
197	0xbf2d3e9d	-0.67673665
198	0xbe17e93e	-0.14835069
199	0x3f86bd54	1.0526528
200	0x3dabfcd9	0.08397836
201	0x3e21ae38	0.15789115
202	0xbccd0929	-0.025028782
203	0xbddfd4f1	-0.10929287
204	0x3ddf7275	0.10910503
205	0x3f677166	0.9040741
206	0x3e314b7c	0.17313951
207	0x3c255a38	0.010092311
208	0x3ef7941d	0.4835519
209	0xbd220917	-0.03955945
210	0x3d423eed	0.047423292
211	0x3d0cc355	0.03436597
212	0xbe11ef45	-0.1425143
213	0x3e948ee2	0.2901526
214	0x3dd13ecd	0.102170564
215	0x3f0e296f	0.5553197
216	0x3e2d43a9	0.16920342
217	0xbe3b2336	-0.1827515
218	0x3e9caeae	0.3060202
219	0x3ca596cd	0.020213509
220	0xbe0dabd8	-0.13835084
221	0x3d90001e	0.07031272
222	0x3e47edfa	0.19524375
223	0xbc4101df	-0.011780231
224	0x3e7a4721	0.24441196
225	0x3c3c619b	0.01149788
226	0x3f22c117	0.6357588
227	0x3c03e5de	0.00805041
228	0xbe0e01d9	-0.13867892
229	0x3c9a0d61	0.018805208
230	0xbd80f1d4	-0.06296125
231	0x3cf89bcb	0.030347725
232	0xbeb41af8	-0.35176826
233	0xbeef8203	-0.4677888
234	0xbd854f4c	-0.06509265
235	0xbdf207c6	-0.11817889
236	0xbe865c3c	-0.26242244
237	0x3b2193e0	0.002465479
238	0x3ce65e1c	0.028121047
239	0xbd4ad9bc	-0.049524054
240	0xbdc090ac	-0.09402594
241	0x3dc8aae6	0.09798221
242	0xbe2c16e2	-0.16805604
243	0x3d80f554	0.062967926
244	0x3d085e51	0.033293072
245	0xbed0ca1b	-0.40779194
246	0x3e59ae20	0.2125783
247	0x3e2547bc	0.16140646
248	0x3d702104	0.058625236
249	0xbe0bed8b	-0.13664834
250	0x3b9ba899	0.004750323
251	0xbe929168	-0.2862656
252	0x3ec55b4f	0.38546225
253	0xbe802937	-0.25031444
254	0x3dbfdd37	0.09368365
255	0xbd89cc21	-0.067283876

en3.bias f4 [100]
0	0x3ea27915	0.31733003
1	0x3e5df5f0	0.21675849
2	0xbe0f5e31	-0.14000775
3	0xbd9eef25	-0.07760457
4	0x3f0b9322	0.5452138
5	0xbdf8e049	-0.12152154
6	0xbea4399f	-0.3207521
7	0xbdb78805	-0.089614905
8	0xbd767ef0	-0.06017965
9	0xbd0ccd48	-0.03437546
10	0xbca3fe10	-0.020018607
11	0xbedb1c42	-0.42794997
12	0x3e4b286a	0.19839635
13	0x3deceffc	0.11569211
14	0x3e9d04fb	0.30667862
15	0xbe0cbe5e	-0.13744494
16	0xbe61f5ae	-0.22066376
17	0x3f8d4011	1.1035177
18	0x3da68508	0.081308424
19	0x3eaa7c4e	0.33297962
20	0xbec30cfc	-0.38095844
21	0xbeddc5cc	-0.4331497
22	0x3f1220f1	0.57081515
23	0xbe66052d	-0.22462912
24	0xbf2fc23c	-0.68655753
25	0xbdf9175b	-0.12162658
26	0xbe937b30	-0.28804922
27	0x3e1afff7	0.15136705
28	0xbeb7a70c	-0.35869634
29	0xbf2348ca	-0.6378294
30	0xbe8db878	-0.276798
31	0xbea6e388	-0.32595468
32	0x3e00bf34	0.12572938
33	0xbfb4e6c7	-1.4132928
34	0xbf81a97c	-1.0129848
35	0xbdeb4f94	-0.11489788
36	0xbe4dee7c	-0.20110506
37	0x3f1dbdeb	0.61617917
38	0xbefa593e	-0.4889621
39	0xbebec0cc	-0.37256467
40	0xbec13217	-0.37733528
41	0x3e560bf8	0.20903003
42	0x3f6289b9	0.884914
43	0xbe09d727	-0.1346098
44	0x3e193d72	0.14964846
45	0x3e913d1c	0.28366935
46	0x3f5058c9	0.81385475
47	0x3ea556ac	0.32292688
48	0xbe6d6202	-0.23181918
49	0xbf7d1a9b	-0.9886872
50	0x3ed6e1da	0.41969186
51	0xbdc94aa5	-0.098286904
52	0x3c25d9c9	0.010122725
53	0xbde6dfb7	-0.11273139
54	0x3a7c639c	0.000962788
55	0xbc686dd4	-0.014186341
56	0x3dcde45a	0.1005332
57	0x3e0bd52d	0.13655539
58	0xbcb07d67	-0.021544171
59	0x3e5dc194	0.21655875
60	0x3e982971	0.29719117
61	0xbd68bdef	-0.05682176
62	0x3db779ba	0.089587644
63	0xbd3d2aa2	-0.046183236
64	0xbe9951c4	-0.29945195
65	0xbf1704b2	-0.5899154
66	0xbf0d980f	-0.5531015
67	0xbf28b5dc	-0.65902495
68	0xbe3fa01a	-0.18713418
69	0xbeeefeec	-0.46678865
70	0xbf6e0447	-0.92975277
71	0x3c8f190b	0.017467996
72	0xbf2bea51	-0.67154413
73	0x3c2aa651	0.0104156295
74	0xbf65cef1	-0.8976889
75	0xbf495df7	-0.78659004
76	0xbeecd7bb	-0.4625834
77	0xbea055af	-0.3131537
78	0xbf09d7c6	-0.5384487
79	0x3eb838de	0.35980886
80	0xbefbb0f7	-0.4915845
81	0x3f8b29eb	1.0872167
82	0xbccd833f	-0.025086997
83	0xbea97e65	-0.33104244
84	0xbf0f45ac	-0.55965686
85	0x3f293237	0.66092247
86	0x3e176855	0.14785893
87	0x3e9ef0e5	0.31043163
88	0x3f7eecfd	0.99580365
89	0xbe04ca67	-0.12967835
90	0x3edc9eac	0.43089807
91	0xbf8d1024	-1.1020551
92	0xbcd8d6aa	-0.026469547
93	0x3ee1ffe8	0.44140553
94	0xbed47718	-0.4149711
95	0x3e484aaf	0.1955974
96	0xbea62100	-0.32447052
97	0x3f75160b	0.9573676
98	0x3f0b2a2c	0.54361224
99	0xbee41d2d	-0.4455351

en4.weight f4 [2, 100]
0	0x3c34cfdb	0.011035885
1	0x3a5f1416	0.0008509768
2	0x3c3c3e92	0.011489527
3	0xbc0738d8	-0.008253299
4	0xbbf63c64	-0.0075145233
5	0xbe5699c8	-0.209571
6	0x3d768681	0.060186867
7	0xbc36d389	-0.011158832
8	0xbd634137	-0.055482116
9	0x3c56e99d	0.013117221
10	0x3b186d0a	0.0023258352
11	0xbc45faa8	-0.012083687
12	0xbc06249b	-0.008187438
13	0x3c3c0f8c	0.011478316
14	0x3d078291	0.033083502
15	0x3b6838af	0.0035434177
16	0x3c01a02d	0.007911724
17	0x3daa0e65	0.08303527
18	0xbe82a576	-0.25516862
19	0x3eec1151	0.4610696
20	0xbb64b1fd	-0.0034896128
21	0x3d977ed5	0.07397238
22	0xbd877072	-0.06613244
23	0x3efc7c20	0.4931345
24	0xbd5ff8e5	-0.054680724
25	0xbc0811d8	-0.0083050355
26	0x3e867f21	0.26268867
27	0xbc3aa962	-0.011392923
28	0xbd3fc953	-0.046822857
29	0x3dcaad4c	0.09896335
30	0xbe6c9ab9	-0.23105897
31	0xbc9e171e	-0.019298133
32	0x3afad0b5	0.0019135686
33	0x3d0568cd	0.03257065
34	0xbd8d2f38	-0.06893772
35	0x3c865638	0.016398534
36	0x3c240d81	0.010012985
37	0xbd794f4f	-0.06086665
38	0xbc73f9dd	-0.014891115
39	0xbf007e2f	-0.5019254
40	0xbe4f11cb	-0.20221631
41	0xbe34f73b	-0.17672436
42	0xbc076b3c	-0.008265313
43	0x3cc4eec3	0.024039632
44	0x3c3687b6	0.011140754
45	0x3c40f1e3	0.01177642
46	0xbcc136f9	-0.023585783
47	0xbb3e37e2	-0.0029025008
48	0x3b16abb9	0.0022990538
49	0x3d4df848	0.050285608
50	0x3e85d2de	0.2613744
51	0x3c120942	0.00891334
52	0xbdcbde75	-0.0995454
53	0xbc8a0b69	-0.016851144
54	0x3cb4392e	0.021999922
55	0x3d86c4fb	0.0658054
56	0xbcdb23bc	-0.026750438
57	0xbcad196d	-0.021130288
58	0x3c9eb3e9	0.019372897
59	0x3b10f87b	0.0022120762
60	0xbea9aa90	-0.3313794
61	0xbc4edb71	-0.012625561
62	0xbbfb1f88	-0.007663671
63	0xbbe7b6a6	-0.007071334
64	0x3c1d30a8	0.00959412
65	0xbce81034	-0.028328039
66	0xba9b9b11	-0.0011871775
67	0x3d463555	0.048390705
68	0xbdda27d9	-0.106521316
69	0x3f1062f3	0.56400985
70	0x3cb22cf9	0.02174996
71	0x3bb7f5c3	0.005614014
72	0x3c68dbb5	0.0142125385
73	0x3aa9c2bc	0.0012951712
74	0xbd006af7	-0.03135201
75	0xbdba2adb	-0.09090205
76	0xbd40cdb6	-0.04707118
77	0x3c02b99a	0.007978821
78	0x3bbe9ea5	0.0058172517
79	0x3a3b2d2d	0.00071402156
80	0x3b3ace86	0.0028504445
81	0xbb85c492	-0.004082271
82	0xbe9c5121	-0.30530646
83	0xbcd74f72	-0.026283
84	0xbeeaecfe	-0.45883936
85	0x3d4832e0	0.048876643
86	0x3c1ee418	0.0096979365
87	0xbd2fa3dc	-0.042880878
88	0x3d2a8863	0.041633975
89	0x3c0c7c31	0.008574531
90	0x3eb6c54e	0.35697407
91	0x39f0e038	0.00045943423
92	0x3b3f0113	0.0029144927
93	0x3c14456b	0.009049754
94	0xbca52f24	-0.02016408
95	0x3c37a976	0.011209836
96	0x3c568d21	0.013095171
97	0x3bd926ea	0.0066269534
98	0xbd44f28e	-0.04808288
99	0xbbda7122	-0.0066663185
100	0x3dd312d2	0.10306324
101	0xbd842eb5	-0.06454221
102	0xbd057f4d	-0.032592107
103	0xbd98151e	-0.07425903
104	0x3c348f8b	0.011020551
105	0xb9bd2bfe	-0.00036081666
106	0x3d23cff9	0.03999326
107	0xbcfac8b1	-0.030613275
108	0xbb43eab6	-0.0029894537
109	0x3ddc162c	0.107464164
110	0x3d2556cf	0.04036599
111	0xbdce1a6a	-0.10063632
112	0x3d182dcb	0.037153047
113	0x3d2b27da	0.041786052
114	0x3d1aefd5	0.037826378
115	0x3d0d048a	0.034428157
116	0x3d297b64	0.04137744
117	0x3e936d12	0.28794152
118	0x3b2031ed	0.002444382
119	0x3c3691d7	0.011143169
120	0xbc966df5	-0.018362978
121	0xbba18f44	-0.0049304087
122	0x3f4de485	0.8042682
123	0x3c2b6f91	0.010463611
124	0xbc13fabb	-0.009031947
125	0xbd982d0b	-0.07430466
126	0x3c870d90	0.01648596
127	0xbdb9dee3	-0.090757154
128	0xbe25288d	-0.1612875
129	0xbe3905e9	-0.18068661
130	0x3b332710	0.0027336515
131	0xbe26bc76	-0.1628283
132	0xbd20953d	-0.039204825
133	0x3e933859	0.28753927
134	0xbf260336	-0.6484865
135	0xbc4ad0f4	-0.01237892
136	0x3da87957	0.08226269
137	0xbc8bc4a0	-0.017061532
138	0xbdab9150	-0.083773255
139	0xbc2e5e13	-0.010642546
140	0x3c0943e4	0.008378003
141	0x3a9098e3	0.0011031892
142	0xbe4a613b	-0.19763653
143	0x3e13e07c	0.14441103
144	0x3ddccaf1	0.107808955
145	0x3c74cbf7	0.014941207
146	0x3ddd5dfc	0.10808942
147	0xbd166881	-0.036720756
148	0x3c64e6a0	0.013971001
149	0x3ef80a90	0.4844556
150	0x3bcb09af	0.0061962227
151	0x3dbb4572	0.09144105
152	0xbb1838e7	-0.0023227276
153	0xbe37ab32	-0.179364
154	0x3e02a51c	0.12758297
155	0x3c4ee961	0.012628884
156	0x3d747355	0.0596803
157	0xbc619404	-0.0137682
158	0xbc24be01	-0.010055066
159	0x3ca0d8d1	0.019634636
160	0x3b97b131	0.004629277
161	0xbe10ed7d	-0.14153095
162	0x3c91de3d	0.017806167
163	0xbd2f6572	-0.042821355
164	0x3db9f1f8	0.09079355
165	0xbe6be86f	-0.23037885
166	0xbd0d1cd6	-0.03445133
167	0x3ecca304	0.3996812
168	0xbcd84ec3	-0.026404744
169	0xbcf4c274	-0.029877879
170	0x3e2c07e3	0.16799884
171	0x3d46005c	0.048340186
172	0x3e39c28d	0.18140621
173	0x3c95086d	0.018192494
174	0x3dbda1e6	0.09259395
175	0x3c0dc63d	0.008653221
176	0xbe9f77d0	-0.31146097
177	0x3d83f133	0.064424895
178	0x3dee95f4	0.11649695
179	0xbdd445ad	-0.10364852
180	0xbb2bd257	-0.0026217902
181	0xbe816de4	-0.25279152
182	0xbca0af4f	-0.019614844
183	0xbe7a6be6	-0.24455222
184	0xbbdf02e8	-0.0068057664
185	0x3e676d4f	0.22600292
186	0x3cff623e	0.031174775
187	0xbd8838f0	-0.06651485
188	0xbe24e459	-0.16102733
189	0x3da89f94	0.08233562
190	0x3c1c4c53	0.0095396815
191	0x3eaadc92	0.33371407
192	0x3c7e9521	0.015538485
193	0x3dec2530	0.115305305
194	0x3d9aa4dc	0.07550976
195	0x3d7fc446	0.06244304
196	0x3c8d8f89	0.017280357
197	0x3ec24ce2	0.37949282
198	0xbea50dcb	-0.32237086
199	0xbcbc9b3c	-0.02302324

en4.bias f4 [2]
0	0x3e0776c4	0.13228899
1	0xbd448689	-0.047979865

de1.weight f4 [100, 2]
0	0x3d4ba9d2	0.0497225
1	0xbf24faa7	-0.64444965
2	0xbe7f79e1	-0.24948837
3	0x3fa02fbe	1.251457
4	0xbe1c0e6b	-0.15239875
5	0x3fb2627f	1.3936309
6	0xbf197eaa	-0.599589
7	0xbfb45aac	-1.4090171
8	0xbf3f0740	-0.7462044
9	0x3e65a97a	0.22427931
10	0xbf136043	-0.5756876
11	0xbeb5c415	-0.3550116
12	0x3f186e72	0.59543526
13	0x3ee769a1	0.45197776
14	0x3dd50adb	0.10402461
15	0xbfa2a336	-1.2706058
16	0x3e9b2a56	0.30305737
17	0x3dc53e4e	0.09631024
18	0xbf085042	-0.53247464
19	0xbf2e59d3	-0.6810581
20	0xbebcb174	-0.36854136
21	0xbf65a67e	-0.8970717
22	0x3d8c3b7e	0.06847285
23	0xbe469cc1	-0.19395734
24	0x3ee282ce	0.4424042
25	0xbef597f1	-0.47967485
26	0x3e38461b	0.17995493
27	0x3fa286fe	1.2697446
28	0x3ee7e579	0.4529226
29	0x3f01b7dd	0.5067118
30	0x3e5eb554	0.21748859
31	0x3f0ffc27	0.5624413
32	0x3ec73140	0.38904762
33	0x3eea7a64	0.45796502
34	0xbf2da64d	-0.6783188
35	0x3ee0df53	0.43920383
36	0x3ebaffe3	0.3652335
37	0xbf6b5fcc	-0.9194305
38	0x3f667cbc	0.9003408
39	0xbf9799a5	-1.1843764
40	0x3eb8816b	0.36036238
41	0x3ee23e41	0.4418812
42	0xbecaacd1	-0.39584973
43	0xbf9539b1	-1.1658231
44	0xbf511dc2	-0.8168603
45	0x3f814332	1.0098631
46	0x3e5ab888	0.21359456
47	0xbf5e7f6a	-0.8691317
48	0x3c79fb15	0.0152576165
49	0x40129217	2.2901666
50	0xbf138847	-0.5762982
51	0x3f187e45	0.5956767
52	0xbd513311	-0.05107409
53	0x3f871081	1.0551912
54	0x3f0129e0	0.5045452
55	0xbf463ae5	-0.77433616
56	0xbf07986c	-0.5296695
57	0xbf8d1654	-1.1022439
58	0x3f4b5536	0.79426897
59	0xbf1d2ef6	-0.6139978
60	0x3e0c5808	0.13705456
61	0xbf153c74	-0.5829537
62	0xbecf7bb8	-0.40524077
63	0x3f386148	0.7202344
64	0x3f41267c	0.7544935
65	0xbf6b2fd9	-0.91869885
66	0x3bcaecaa	0.0061927633
67	0x3f56562c	0.8372524
68	0x3f465218	0.77469015
69	0xbf398fd9	-0.7248512
70	0x3f49c3b1	0.78814226
71	0x3e57e0f3	0.21081905
72	0x3e9f7806	0.31146258
73	0xbec03549	-0.37540653
74	0xbee774d4	-0.4520632
75	0x3fa7d70f	1.3112506
76	0xbf182627	-0.59433216
77	0x3eee5aca	0.46553642
78	0xbf59d5bd	-0.85091764
79	0x3f0453e7	0.51690525
80	0xbf3d73d5	-0.7400487
81	0x3d8614f5	0.06546966
82	0xbef0571a	-0.46941453
83	0x3e8bd262	0.27308947
84	0x3f39f5c2	0.7264062
85	0x3f3f1bb4	0.74651647
86	0xbf17b66f	-0.59262747
87	0x3f6df24b	0.92947835
88	0x3f3cbd04	0.73725915
89	0xbed2c014	-0.4116217
90	0xbe2c5c45	-0.16832073
91	0xbf7d20ca	-0.9887816
92	0xbe6eff80	-0.23339653
93	0xbecd4b9a	-0.40096742
94	0xbe4b80fd	-0.19873424
95	0x3f9bc69e	1.2169988
96	0xbb87c499	-0.0041433093
97	0xbe1995f8	-0.14998615
98	0x3e6652ba	0.22492495
99	0xbf5005ae	-0.81258667
100	0xbd18147f	-0.03712892
101	0xbf4097c7	-0.75231594
102	0xbee01b1e	-0.4377069
103	0xbf382d36	-0.71943986
104	0x3e0a60ef	0.1351354
105	0xbf00b506	-0.5027622
106	0x3f7fd81e	0.99939144
107	0x3fe2dae4	1.772305
108	0x3e020d6c	0.12700433
109	0xbf9f334b	-1.2437528
110	0xbf14c997	-0.581201
111	0xbf0e6e73	-0.5563728
112	0x3f2d22e2	0.6763135
113	0x3f7d2397	0.9888243
114	0xbf092d0b	-0.53584355
115	0x3f6aa5bf	0.9165916
116	0x3f16e2d6	0.58939874
117	0x3f868630	1.0509701
118	0xbee3facd	-0.44527283
119	0x3f80dba3	1.0067028
120	0x3f410e92	0.7541286
121	0xbede362b	-0.43400702
122	0xbf1a0d2c	-0.6017635
123	0xbe099563	-0.13435893
124	0xbf1a76bb	-0.6033742
125	0x3fb9012d	1.4453484
126	0x3f0acad5	0.5421575
127	0xbf8a38ad	-1.0798546
128	0xbf04ac46	-0.5182537
129	0x3f55d48a	0.83527434
130	0xbf170188	-0.5898671
131	0x3ebc0d70	0.36729002
132	0x3f1c53b0	0.61065197
133	0x3f861b3e	1.0477064
134	0xbebdc31a	-0.37062913
135	0xbd81f480	-0.06345463
136	0xbf2cd2b8	-0.6750903
137	0x3f4b2e66	0.79367673
138	0x3dbe3a3c	0.09288451
139	0xbfe972f3	-1.8238205
140	0xbe8133a0	-0.252347
141	0x3f53c20e	0.8271798
142	0x3f556bc6	0.83367574
143	0xbf545643	-0.82944125
144	0x3f2b4733	0.66905516
145	0xbf92e800	-1.1477051
146	0x3f2030c3	0.62574404
147	0xbef57978	-0.47944236
148	0xbee6f072	-0.4510532
149	0xbf8960e9	-1.07327
150	0x3e235fb0	0.1595447
151	0x3f42f0e7	0.7614884
152	0xbe875afa	-0.26436597
153	0x3f6b3806	0.9188236
154	0xbf069c9c	-0.52582717
155	0xbea6bbec	-0.32565248
156	0x3e240da1	0.16020824
157	0xbf02308e	-0.5085534
158	0x3f32e785	0.6988452
159	0xbf33147d	-0.6995314
160	0xbf533dc4	-0.8251612
161	0x3f1b1ebb	0.60593766
162	0x3eeb9f17	0.46019813
163	0xbe2ad145	-0.16681392
164	0xbf3bbeb6	-0.73337877
165	0x3ea9ff61	0.3320265
166	0x3e4e4187	0.20142184
167	0xbfafd6c0	-1.3737411
168	0x3f19c320	0.6006336
169	0x3eb0e1fd	0.34547415
170	0x3fa9931b	1.3248018
171	0xbf89c207	-1.0762337
172	0xbda6d8c3	-0.08146813
173	0xbf17f92e	-0.59364593
174	0x3e90718a	0.28211623
175	0x3e50313b	0.2033128
176	0xbe8487d0	-0.25884867
177	0x3f97f567	1.1871766
178	0xbe3891e2	-0.180244
179	0x3f2b6c1f	0.66961855
180	0xbf88b781	-1.0681001
181	0x3dd4e009	0.10394294
182	0x3ebc5056	0.3678004
183	0x3f89dc7f	1.0770415
184	0x3f3ff847	0.74988216
185	0x3e538188	0.20654881
186	0x3f2c3be5	0.6727889
187	0x3f560b9b	0.8361146
188	0x3e3a20c0	0.18176556
189	0x3f554d0a	0.8332068
190	0xbf192535	-0.598224
191	0x3dcdb1e5	0.10043696
192	0xbf11cbe5	-0.56951743
193	0xbf244928	-0.6417413
194	0xbf3e0f96	-0.7424253
195	0xbf349d8c	-0.705529
196	0x3f74b9be	0.9559592
197	0xbf849f41	-1.03611
198	0xbf391f92	-0.723138
199	0x3dc02dd5	0.09383742

de1.bias f4 [100]
0	0xbe02b11c	-0.12762874
1	0x3ebf867b	0.37407288
2	0x3f70c118	0.9404464
3	0xbf168614	-0.58798337
4	0xbf118661	-0.5684567
5	0xbe630d07	-0.22172938
6	0x3e834009	0.25634792
7	0xbf5cfd26	-0.86323774
8	0x3d284e52	0.041090317
9	0x3ec7fdc6	0.390608
10	0xbeb798f4	-0.3585888
11	0xbe164c59	-0.14677562
12	0x3d04271d	0.032263864
13	0x3f3958ed	0.72401315
14	0x3e799cbd	0.24376197
15	0x3e4f12dd	0.2022204
16	0x3ea27704	0.31731427
17	0xbcfa384d	-0.030544424
18	0x3ed52886	0.4163248
19	0xbf104d73	-0.5636818
20	0x3ea33175	0.3187367
21	0x3ef52d66	0.478862
22	0x3f1685bc	0.5879781
23	0x3e162214	0.14661437
24	0x3d7d5667	0.061849978
25	0xbeb0fc71	-0.34567598
26	0xbf0b4cd0	-0.5441408
27	0x3f0d6d49	0.5524488
28	0xbeaf587a	-0.3424719
29	0x3f1cd67f	0.61264795
30	0x3e11221e	0.14173171
31	0x3de8d4fc	0.113687485
32	0xbf0a7e65	-0.5409911
33	0x3f0260b5	0.50928813
34	0xbedd7bf0	-0.4325862
35	0xbcf78bad	-0.03021797
36	0x3d50eaed	0.051005293
37	0x3f63d0be	0.8899039
38	0xbe588ef7	-0.21148287
39	0x3f231df4	0.6371758
40	0xbf2726a7	-0.65293354
41	0xbe08133a	-0.13288584
42	0xbd9ad448	-0.07560021
43	0xbf56b2d0	-0.83866596
44	0xbe3bdfc3	-0.18347077
45	0x3d0ace2f	0.03388804
46	0xbe30b381	-0.17255975
47	0xbeaa01d5	-0.33204523
48	0x3e057c7e	0.13035771
49	0xbdca3928	-0.09874183
50	0x3d9a10c0	0.07522726
51	0xbb93d58b	-0.0045115403
52	0xbd6670f3	-0.05626006
53	0x3f05f271	0.5232306
54	0x3df8c61e	0.12147163
55	0x3d97c2bb	0.07410189
56	0x3efc7776	0.4930989
57	0xbf176490	-0.5913782
58	0xbe6204d0	-0.22072148
59	0xbf237ce4	-0.6386244
60	0xbeb3ddf7	-0.35130283
61	0x3e5442e3	0.2072864
62	0x3f63e342	0.8901864
63	0xbf432c46	-0.7623943
64	0xbf3beca9	-0.7340799
65	0xbec64a1b	-0.38728413
66	0xbef6e4a8	-0.48221326
67	0xbe5b21a5	-0.21399553
68	0x3f0f2d3b	0.5592839
69	0xbd5d8faf	-0.054092105
70	0x3d36d81d	0.044639695
71	0xbf10c6f6	-0.5655359
72	0xbf4f73b3	-0.8103592
73	0x3e745454	0.23860294
74	0x3f121dc6	0.5707668
75	0x3e09a52c	0.13441914
76	0xbd76348b	-0.060108703
77	0xbe105627	-0.14095365
78	0xbde53d68	-0.11193353
79	0xbf274524	-0.65339875
80	0xbf342b8c	-0.7037895
81	0x3e8a8d84	0.27061093
82	0x3e68947e	0.22712895
83	0xbf63622a	-0.8882166
84	0x3f02d4fa	0.51106226
85	0xbeee9c7f	-0.46603772
86	0xbe3c40b4	-0.18384057
87	0x3d4fc5b6	0.05072566
88	0x3e01d958	0.12680566
89	0x3cf5a2df	0.02998489
90	0xbf78c548	-0.9717603
91	0x3eeb8edf	0.4600744
92	0x3f2bf8ef	0.6717672
93	0x3e67fe6c	0.22655648
94	0x3ec090ee	0.37610573
95	0xbc29a971	-0.010355339
96	0xbeadc4a6	-0.33939093
97	0xbcdfc3b1	-0.027314993
98	0xbf0000b1	-0.50001055
99	0x3dd354ec	0.10318932

de2.weight f4 [100, 100]
0	0xbe907cea	-0.28220302
1	0x3ef01f11	0.46898702
2	0x3fc015e7	1.5006684
3	0xbed1e9bb	-0.40998635
4	0x3e9a78f6	0.3017041
5	0xbe2395d2	-0.1597512
6	0x3e5c990c	0.21542758
7	0xc02f21f9	-2.7364485
8	0x3d997e9b	0.07494851
9	0x3df5e75d	0.1200702
10	0xbe4bacbd	-0.19890113
11	0x3e19cd0e	0.15019628
12	0xbe5cd034	-0.21563798
13	0x3f6c3601	0.92269903
14	0x3e5062db	0.2035021
15	0x3d25429f	0.040346738
16	0x3e106e48	0.14104569
17	0x3e2cf2b7	0.16889463
18	0xbe25920f	-0.16168998
19	0x3e044e8e	0.12920591
20	0x3caead5d	0.0213229
21	0x3db394f3	0.08768644
22	0x3f091022	0.5354024
23	0xbde071ea	-0.109592274
24	0x3e50b7a9	0.20382561
25	0x3e2f13b8	0.17097366
26	0x3c971d29	0.018446522
27	0xbe176bbb	-0.1478719
28	0xbe9e9aad	-0.30977383
29	0xbe39a308	-0.18128598
30	0xbe28734c	-0.16450232
31	0x3e88cf27	0.26720545
32	0xbebb0c28	-0.36532712
33	0x3e76f63f	0.24117373
34	0xbdca5198	-0.09878844
35	0x3e5a8945	0.21341427
36	0xbdd8400d	-0.10559092
37	0x3fb207ed	1.3908669
38	0x3e487115	0.19574387
39	0xbcd8e772	-0.02647755
40	0x3e66850d	0.22511692
41	0x3d62e46c	0.05539362
42	0xbe11e08c	-0.14245814
43	0x3ddc6f80	0.107634544
44	0xbd969f9f	-0.07354664
45	0xbdc226fa	-0.094800904
46	0xbe4d1c43	-0.20030312
47	0x3e2f1a13	0.1709979
48	0xbead6ef7	-0.33873722
49	0xbef74e2e	-0.48301834
50	0xbde69c1f	-0.112602465
51	0xbce9fe7b	-0.028563729
52	0xbea2e3a7	-0.3181431
53	0xbd11864a	-0.03552846
54	0xbd601862	-0.054710753
55	0xbdc93e53	-0.098263405
56	0x3e79c137	0.24390112
57	0x3d91f5f7	0.07126992
58	0xbe5558a3	-0.20834593
59	0x3e0460cc	0.1292755
60	0xbce5a95a	-0.028034855
61	0x3d8d6872	0.06904687
62	0x3f3163ca	0.6929289
63	0xbf119640	-0.5686989
64	0x3e431e33	0.19054489
65	0x3e4f45ab	0.2024142
66	0xbdd4f00b	-0.10397347
67	0xbdbd74fc	-0.092508286
68	0x3e6a596e	0.22885677
69	0xbeae9388	-0.34096932
70	0x3ea766d2	0.32695633
71	0xbe8591a6	-0.26087683
72	0xbf125c82	-0.57172406
73	0xbe5a2fe5	-0.21307333
74	0x3d8c7cb9	0.068597265
75	0x3ea25e59	0.31712607
76	0x3ec04458	0.37552142
77	0xbd8aad39	-0.06771321
78	0xbe336c1c	-0.17521709
79	0xbdbec7e7	-0.09315472
80	0x3e884f1f	0.26622865
81	0xbde9659e	-0.11396335
82	0xbdad315f	-0.084566824
83	0x3e12f9af	0.14353059
84	0xbd758142	-0.059937723
85	0xbdae2317	-0.085027866
86	0xbe9a89c0	-0.3018322
87	0x3e0aa305	0.1353875
88	0x3efbc947	0.49177
89	0x3e4ca9e2	0.1998668
90	0x3e7022a2	0.23450711
91	0x3edab8fa	0.4271925
92	0xbe02b35e	-0.12763736
93	0x3df5ab24	0.11995533
94	0x3ea8b2bd	0.32948866
95	0xbde53c4c	-0.11193141
96	0xbe6119de	-0.21982524
97	0x3b8bfef8	0.004272338
98	0xbcf5e49a	-0.030016232
99	0xbd3e4d7a	-0.046460606
100	0x3e38d9bf	0.18051814
101	0x3c9ae6db	0.018908909
102	0x3eaf7311	0.34267476
103	0xbf16870e	-0.5879983
104	0xbf0807c3	-0.53136843
105	0xbbce7850	-0.0063009635
106	0x3ca02468	0.01954861
107	0xbec7ab54	-0.389979
108	0xbf1cc58d	-0.6123894
109	0x3f191dac	0.598109
110	0xbf2f6a58	-0.6852164
111	0x3e84d5ae	0.25944275
112	0x3dc3b8d1	0.09556735
113	0x3f1f33bc	0.62188315
114	0x3ecaf322	0.3963862
115	0x3f398f16	0.72483957
116	0x3ecbcfa0	0.39806843
117	0xbd5d1c9d	-0.053982366
118	0x3ea5c61b	0.32377705
119	0xbe531002	-0.20611575
120	0x3d9ce30a	0.07660492
121	0x3ed7a936	0.42121285
122	0x3e9e7dd4	0.30955374
123	0x3e26613f	0.16248034
124	0x3d14a38b	0.03628878
125	0xbebcb86f	-0.36859462
126	0xbee01122	-0.4376307
127	0x3f02c213	0.51077384
128	0xbf2a3ff6	-0.66503847
129	0x3ec65dfc	0.3874358
130	0x3ecfdade	0.4059667
131	0xbcaf11ed	-0.021370852
132	0xbe5d1962	-0.21591714
133	0x3f401b70	0.75041866
134	0xbe9f0ce5	-0.31064525
135	0xbe5e249d	-0.21693654
136	0x3e1608f7	0.14651857
137	0x3e745c15	0.23863252
138	0xbe375290	-0.17902589
139	0x3f03e35d	0.51518804
140	0xbf4e8d8c	-0.80684733
141	0xbd9ab099	-0.075532146
142	0xbea7011b	-0.3261803
143	0xbee41223	-0.44545087
144	0x3c934ae4	0.017980047
145	0x3e6c4b28	0.23075545
146	0xbf19768d	-0.5994652
147	0xbe322871	-0.1739824
148	0xbeb94b26	-0.36190146
149	0xbd954be3	-0.07289865
150	0x3eefc63e	0.46830934
151	0x3e97c301	0.29640964
152	0x3e0ef6f4	0.13961393
153	0xbd5490ff	-0.05189609
154	0x3e8614cc	0.26187742
155	0x3e984837	0.29742596
156	0x3f3079da	0.6893593
157	0xbebbb8e2	-0.36664492
158	0xbeb18834	-0.34674227
159	0xbed434d2	-0.4144655
160	0xbed6333e	-0.4183597
161	0x3f3181a1	0.69338423
162	0x3da5de95	0.08099095
163	0xbea6967a	-0.3253668
164	0xbf0fa1dc	-0.5610635
165	0xbf07d2e1	-0.5305615
166	0xbf067951	-0.52528864
167	0xbd2cf1fd	-0.042222966
168	0x3ee1d5c4	0.44108403
169	0xbd8dc50d	-0.0692235
170	0x3dd673be	0.10471295
171	0xbe79eb1e	-0.24406096
172	0xbeb3c69a	-0.35112458
173	0x3e7cff38	0.24706733
174	0x3f0f65f1	0.56014925
175	0xbe233ccd	-0.15941162
176	0xbe0f4f81	-0.13995172
177	0x3e45a3ab	0.19300716
178	0x3dbbfdf7	0.09179299
179	0xbf132fbb	-0.57494706
180	0xbf01c2f1	-0.5068808
181	0x3e8faa3e	0.28059572
182	0x3ee55659	0.4479244
183	0xbe33c6e9	-0.17556347
184	0x3f4bc82d	0.7960232
185	0xbdb528b3	-0.088456534
186	0x3e7240da	0.23657551
187	0xbec0f5a5	-0.37687412
188	0xbcd1518f	-0.025551585
189	0xbe4f2b67	-0.202314
190	0xbf5b3515	-0.8562787
191	0x3f1b00d5	0.60548145
192	0x3f459cbc	0.7719228
193	0xbdb3c0cf	-0.0877701
194	0x3f1caea0	0.61203957
195	0x3ea6f41a	0.3260811
196	0x3d12a87b	0.035805207
197	0x3e9a2494	0.30106032
198	0xbd24bc39	-0.040218566
199	0x3ef83c31	0.48483422
200	0xbfa929b3	-1.321585
201	0x3fcf0156	1.6172283
202	0x3efa0281	0.48830035
203	0xbf18b074	-0.59644246
204	0x3d8417de	0.06449865
205	0xbeab0229	-0.33400086
206	0x3eb78e34	0.3585068
207	0xbf000ee0	-0.500227
208	0xbdcd1879	-0.100144334
209	0x3e078fab	0.13238399
210	0xbe8ec079	-0.2788122
211	0xbf837705	-1.0270697
212	0xbf7b2817	-0.9810805
213	0x3f07542a	0.528628
214	0x3e3df52a	0.18550554
215	0x3eb558b2	0.35419232
216	0x3ece8bd5	0.40341058
217	0x3eece03a	0.4626482
218	0xbf01c862	-0.50696385
219	0xbfb0d4a4	-1.3814893
220	0x3ef6c227	0.48195
221	0xbe763462	-0.2404342
222	0x3f697d05	0.9120639
223	0xbf4c55ba	-0.7981831
224	0x3fcad924	1.5847516
225	0x3e9962f7	0.29958317
226	0x3e71bd80	0.23607445
227	0xbe302f7b	-0.17205612
228	0xbefb9828	-0.49139524
229	0xbe27b2a4	-0.1637674
230	0xbeb84058	-0.3598659
231	0x3fd3ec94	1.6556573
232	0xbf3befb1	-0.73412615
233	0x3eccd9f4	0.40010035
234	0xbf414a20	-0.7550373
235	0xbdbfb44a	-0.09360559
236	0xbf320780	-0.69542694
237	0x3f028486	0.50983465
238	0x3f0ed0b7	0.55787224
239	0x3f072d2f	0.5280332
240	0xbca690c7	-0.020332707
241	0x3f065686	0.52475774
242	0xbc9b9fcb	-0.018997094
243	0x3d7b1e33	0.061308097
244	0xbf863cff	-1.0487365
245	0xbf23b3d2	-0.6394626
246	0xbe17c347	-0.14820586
247	0x3f201b36	0.6254152
248	0x3d98687f	0.07441806
249	0xc005f7a8	-2.0932407
250	0xbf1840c8	-0.5947385
251	0xbebdafbe	-0.37048143
252	0xbf6f6e6e	-0.9352788
253	0x3f37a77d	0.7173994
254	0xbf1a986b	-0.6038882
255	0xbd83b0c5	-0.064302005

de2.bias f4 [100]
0	0x3cc95519	0.02457671
1	0x3f96a450	1.1768894
2	0xbbd2ddfe	-0.006435155
3	0x3ebb41bb	0.36573586
4	0x3e41ed8f	0.18938278
5	0x3e5e4106	0.21704492
6	0xbeeca3cd	-0.4621872
7	0xbe820a0e	-0.25398296
8	0x3de5db24	0.112234384
9	0xbe11e5dd	-0.14247842
10	0x3f0fedae	0.56222045
11	0x3eaa2140	0.33228493
12	0xbd8a93ff	-0.06766509
13	0x3f09d01b	0.5383317
14	0xbf8458d5	-1.0339609
15	0x3ee288f7	0.4424512
16	0xbf4cbeb5	-0.79978496
17	0xbd33a79e	-0.043861024
18	0xbeb74b4a	-0.35799628
19	0xbe168e43	-0.14702706
20	0xbf011caa	-0.5043436
21	0x3c870fa9	0.01648696
22	0xbf0290f8	-0.51002455
23	0xbed92638	-0.4241197
24	0xbf8aa0e5	-1.0830351
25	0xbf8b27a4	-1.0871472
26	0x3e49626b	0.1966645
27	0x3e7745eb	0.24147765
28	0xbc6c0f9a	-0.014408017
29	0x3ec4e019	0.38452223
30	0xbf2d4998	-0.6769042
31	0xbe0b1337	-0.13581549
32	0x3f05dd4e	0.5229081
33	0xbea80aae	-0.32820648
34	0xbca257bc	-0.019817226
35	0x3ea5df2b	0.32396826
36	0x3d86eb49	0.06587846
37	0x3d257660	0.040396094
38	0xbe949ef8	-0.29027534
39	0xbee6d9cc	-0.4508804
40	0xbedb8b74	-0.42879832
41	0xbe2976fa	-0.16549292
42	0x3f44dc37	0.7689852
43	0xbe9115ef	-0.28337047
44	0x3dfea4db	0.124337874
45	0x3f157a8c	0.58390117
46	0xbdbb0f8c	-0.09133825
47	0x3d43d5aa	0.047811188
48	0xbdcf722c	-0.101291984
49	0x3f903272	1.1265395
50	0xbf30c916	-0.6905683
51	0x3f4f7f29	0.81053406
52	0x3f0269d0	0.5094271
53	0x3e1510af	0.14557146
54	0xbd5b155f	-0.053487178
55	0xbe71339d	-0.23554845
56	0x3e2cfae6	0.16892585
57	0xbe87499d	-0.2642335
58	0xbe243c9b	-0.16038744
59	0xbe8f852d	-0.28031293
60	0x3f341bec	0.70355105
61	0xbaad07c7	-0.001320117
62	0xbe0cc2d6	-0.13746199
63	0xbc8ff89e	-0.017574605
64	0x3e7e61d0	0.24842
65	0x3de56e12	0.11202635
66	0x3ee5f4a8	0.4491322
67	0x3e4f19dc	0.20224708
68	0xbea72fdb	-0.32653698
69	0x3f267337	0.65019554
70	0x3e9c5055	0.30530038
71	0xbeb32da2	-0.34995753
72	0xbd43d4b2	-0.047810264
73	0xbf00d05d	-0.5031794
74	0x3f98033f	1.1875991
75	0x3da03461	0.078224905
76	0x3edf9f69	0.43676308
77	0xbddde2ba	-0.1083426
78	0x3e674554	0.2258504
79	0x3e86201b	0.2619637
80	0x3f452417	0.77008194
81	0x3d7f13c4	0.06227471
82	0x3ec2d3a9	0.3805211
83	0xbe5e1c92	-0.21690586
84	0xbe9336c8	-0.28752732
85	0xbe3f43b2	-0.18678167
86	0x3d7b0c62	0.061291106
87	0xbec40dd7	-0.3829181
88	0xbf917d4e	-1.1366365
89	0xbf6d7f23	-0.9277212
90	0xbcd57356	-0.026055973
91	0xbe7c9682	-0.24666789
92	0x3ec223a7	0.37917826
93	0xbf96cb91	-1.1780874
94	0xbd252eb2	-0.040327735
95	0xbecc2ec5	-0.39879432
96	0xbd76e484	-0.060276523
97	0x3e8e57d8	0.27801394
98	0x3f2310e7	0.63697666
99	0xbe2e69e3	-0.1703258
