jet_by_jet_compression/AE_2D_latent_space/models/AE_2D_v4_bs256_loss0029.pt (torch_old, 986309 bytes, 16 tensors)

en1.weight f4 [500, 4]
000000 68 40 b9 bf b9 0e 4f 3f c4 89 9e 3e 5f b8 09 bd
       -1.447278 0.8088184 0.30964482 -0.033623096
000010 c3 c2 87 bf ca 2c 6e bf ab 83 ac be 1d 93 0b 3e
       -1.0606312 -0.9303709 -0.33694205 0.13630338
000020 d6 37 fc 3e d9 44 81 be b3 be 0a bf 5e 20 0c be
       0.4926135 -0.2524784 -0.54197234 -0.13684222
000030 b1 1c 61 3e 9c 65 9e be b6 3b 02 3f cb 65 83 3e
       0.21983601 -0.30936897 0.5087236 0.256636
000040 6e 18 bf 3e 1d 70 8b be bb c4 0d 3d 68 45 9f be
       0.37323326 -0.27233973 0.034611445 -0.3110764
000050 c3 03 77 3f 92 4e 8c 3e 65 60 e5 3e 49 5b c8 3e
       0.96490115 0.27403694 0.44800106 0.39132145
000060 a9 d6 83 bf 3d 6e 52 bf 74 5e b5 be ad 65 77 3e
       -1.0299884 -0.8219946 -0.35423625 0.2415988
000070 3b 8f 11 3f 7c 6d 0b bf 21 91 e6 bd cc 18 32 3f
       0.5685918 -0.54463935 -0.1125815 0.6956909
000080 96 94 a7 bf bd 40 71 3f 87 cc a2 3e 66 6e e9 3d
       -1.309222 0.9423941 0.31796667 0.1139801
000090 52 0e 0e bf 5c 5d 6c bf 5a 76 94 3e b3 45 dc bc
       -0.554906 -0.92329955 0.28996545 -0.026888704
0000a0 95 9e 93 3d 2f 68 06 3e b4 6f a2 3e ee b6 7d bd
       0.072079815 0.1312568 0.31725848 -0.061942033
0000b0 b6 c1 07 bf fb 69 b2 bd 39 1d 2c 3e 65 87 46 be
       -0.53029954 -0.087116204 0.16808023 -0.19387586
0000c0 72 86 36 3f ad 3e 36 bf c0 93 bd 3e eb f5 63 3f
       0.712989 -0.71189386 0.37026787 0.89047116
0000d0 89 78 65 bf c2 6e 04 3f 01 5d 95 be 6c 09 56 bf
       -0.8963705 0.51731503 -0.2917252 -0.83608127
0000e0 14 b8 c4 3f 0a 08 8e 3e c0 49 8c 3e 30 f9 0d 3f
       1.5368676 0.27740508 0.27400017 0.55458355
0000f0 df 07 4b be 42 00 1c 3d 21 13 a4 3e 12 e3 70 3d
       -0.19827221 0.038086183 0.32045844 0.0588103
000100 14 ac 58 be 85 da 0b 3f 34 1d b7 be 01 7b 7c bd
       -0.21159393 0.5463031 -0.35764468 -0.061640743
000110 e8 02 d1 bf a9 9e 4f 3f bd 76 a6 3e 96 4e 97 3d
       -1.6329012 0.8110147 0.32512465 0.07388036
000120 cf 56 b6 3f 5d f0 9e 3e fa ed e2 3e 3f 68 f1 3e
       1.4245242 0.31042758 0.44322187 0.47149846
000130 8b 6b 05 3e 24 92 b7 3e d2 68 84 bf 65 f1 ca bc
       0.13029306 0.35853684 -1.0344489 -0.024773309
000140 38 3c 44 bf 29 6c 39 3f c9 ad 79 3e fc bf 3d bf
       -0.76654387 0.72430664 0.243827 -0.7412107
000150 c2 c5 36 bf ad 20 82 3f f3 26 d1 3d 4f 44 3e 3f
       -0.71395504 1.0166222 0.10212507 0.7432298
000160 8b fd b6 be ec 52 f6 3e 68 9b 09 bf 4e c4 45 be
       -0.35740313 0.4811014 -0.53752756 -0.19313166
000170 7a a4 9b bf 2a 3c 85 3c e7 b9 de be 2b fa 7a bf
       -1.2159569 0.01626404 -0.43501207 -0.98037976
000180 d5 e4 5a bf da 9f 17 3f 96 d0 b1 3c a7 12 6d bf
       -0.8550542 0.5922829 0.021705907 -0.92606586
000190 c7 91 f6 be 08 49 86 3e 54 7d 0f 3d 11 66 bf bd
       -0.48158094 0.26227593 0.03503163 -0.093456395
0001a0 32 bb 85 3f 29 f2 6c bf 9d 5b c0 be 5e 00 4b 3f
       1.0447752 -0.9255701 -0.37569895 0.79297435
0001b0 0c bd 16 3e 3c f2 b1 bd c4 45 73 3e 3c 8b 1e 3d
       0.14720553 -0.08688781 0.23757082 0.038707003
0001c0 6e 38 80 bd be eb e3 bd d4 6f 84 3e 6a c2 8b 3e
       -0.06260763 -0.11128949 0.25866568 0.27296764
0001d0 91 16 53 bf 6a 95 56 bf 00 c6 ed be 1b 66 14 3e
       -0.8245631 -0.8382174 -0.46440125 0.14492075
0001e0 e3 71 34 3f a1 f3 57 bf 7d 96 88 be 52 90 81 3f
       0.7048628 -0.84356123 -0.26677313 1.0122168
0001f0 20 26 a8 bd 2d 81 03 bf be 63 ab be 84 bd 94 bd
       -0.08210397 -0.5136898 -0.33474535 -0.0726271
000200 81 0e f1 bc 59 5f 20 bf a2 05 3b 3f bd 5d a1 be
       -0.029425861 -0.6264549 0.7305547 -0.3151683
000210 06 b2 bc be b3 17 10 3f 14 46 46 3d eb de 91 bf
       -0.3685457 0.5628616 0.048406675 -1.1396154
000220 c3 db 0e bf fc 4a 84 3f f2 c7 04 be 05 95 e4 3e
       -0.5580408 1.0335383 -0.12966898 0.44644943
000230 0b 94 0d 3e b4 03 65 3f ef 0c e8 bd 93 b9 bb 3d
       0.13826005 0.89458776 -0.11330592 0.09166255
000240 78 2e de be 29 3b 26 3c d8 ba a8 bf e5 41 76 3e
       -0.43394828 0.010145941 -1.318202 0.24048574
000250 da f6 90 3e f0 cd 6b bf aa 58 3c 3e 8c 14 c4 bd
       0.28313333 -0.9211111 0.18393198 -0.095742315
000260 dc 2e 71 bf 5a 89 20 3e bb 2e da be 35 4c 8a bf
       -0.94212127 0.15677395 -0.42613778 -1.0804507
000270 f0 d9 e4 3e 7f 42 5b bf 66 fa 7b 3e 2b 42 90 be
       0.44697523 -0.8564834 0.24607238 -0.28175482
000280 d0 11 f3 3e 07 b9 38 bf 94 15 a2 3d 3e df 35 be
       0.47474527 -0.7215733 0.07914272 -0.17760941
000290 72 b0 2f bf 18 00 a3 bf 06 76 5a be a8 16 af bd
       -0.6862861 -1.2734404 -0.21334085 -0.08549243
0002a0 b3 ff ca bd 74 9e 01 bf 25 f2 34 be 7c 76 3e 3e
       -0.09912052 -0.50632405 -0.17670496 0.18599886
0002b0 c6 90 81 3f f2 b4 3e bf a6 60 59 3d 72 d3 4a bd
       1.0122306 -0.7449485 0.053070687 -0.049518056
0002c0 61 12 8b 3f da c6 eb bd 38 75 e4 3e 90 ca 9d 3f
       1.0864984 -0.11512537 0.4462068 1.2327442
0002d0 99 67 06 bf 66 2d e2 be 6f 4c e3 3c e2 c5 15 bf
       -0.5250183 -0.4417526 0.027746407 -0.5850507
0002e0 03 e5 b9 3f 1c 2b f5 3e c6 ed 05 3f 07 62 40 3f
       1.4523014 0.47884452 0.5231594 0.7514958
0002f0 3c de 64 3f 40 15 31 bf c1 11 88 3c 71 9e 6c 3f
       0.894016 -0.6917305 0.016610028 0.9242926
000300 1d 62 84 3e f8 74 9b be b6 dc 22 3e e1 01 bc bd
       0.25856104 -0.30362678 0.15904507 -0.09180046
000310 b7 c4 a8 bf 9e 9f 89 bf d7 c6 24 bf 71 a3 fe 3c
       -1.3185033 -1.0751836 -0.64365906 0.031083794
000320 14 d2 4d bf f9 3e 8b 3f 97 a0 0a 3e 17 49 45 3f
       -0.8039868 1.0878593 0.13537823 0.7706465
000330 1c 04 31 bf 84 4d 7c 3e 13 26 56 be 4c 68 97 be
       -0.69146895 0.24638945 -0.20912962 -0.2957176
000340 c2 9f 70 3f bd 36 cf be 5d 6c 8d 3e f9 2b 81 3f
       0.9399377 -0.4047145 0.27621737 1.0091544
000350 f6 d7 d1 be 50 89 c3 be 37 41 5e bf 8d ca 80 3e
       -0.40985078 -0.381907 -0.8681826 0.25154534
000360 90 95 f6 3e 86 7d b3 3e a5 2b 40 3f e4 62 2a be
       0.48160982 0.35056704 0.75066596 -0.16639286
000370 70 d3 5a 3f 38 f0 92 be 46 68 d9 3e 75 0d 85 3f
       0.8547888 -0.28698897 0.42462367 1.0394732
000380 46 85 9e 3f fb 19 25 3f d6 f7 d7 3e ad 05 79 3e
       1.2384422 0.6449277 0.4218127 0.24318571
000390 60 ba ae be a2 af 76 be 4a ff 5f bd ea 4b 56 bf
       -0.34126568 -0.24090436 -0.054686822 -0.83709586
0003a0 78 b2 de be 29 50 f5 3e 76 98 13 bd 17 67 83 3e
       -0.43495536 0.4791272 -0.03603407 0.2566459
0003b0 37 c0 00 3f bc bb 5d bd 24 9c 94 be c0 36 43 3e
       0.50293297 -0.054134116 -0.29025376 0.19063854
0003c0 0d ef 36 bd ac c0 6f 3e c3 2f dd 3e 43 a8 a9 3d
       -0.04466157 0.23413342 0.43200502 0.082840465
0003d0 03 59 80 3f 4b 48 47 bf 54 36 e0 bd 09 0d 73 3f
       1.0027164 -0.77844685 -0.10947862 0.94941765
0003e0 f0 03 6a 3f 5f 4a 46 3f 62 07 05 3f fb fd 43 3f
       0.9141226 0.7745723 0.5196439 0.7655942
0003f0 35 cf a9 3e 8d 5a f4 be e1 14 66 3e 47 ea 46 3c
       0.331659 -0.47725335 0.22468902 0.012140817

en1.bias f4 [500]
000000 04 68 9b 3d ae 04 e4 3e c8 24 47 bf 6d 26 4a 3f
       0.07588199 0.4453482 -0.777905 0.78964883
000010 82 e9 ab bf 35 80 17 bd 30 7a a0 3e 73 b0 fe 3e
       -1.3430636 -0.036987502 0.31343222 0.49743995
000020 8b 80 c5 3d 26 3a c2 be 63 24 8e 3f 2e 75 5b 3f
       0.09643658 -0.3793499 1.1104854 0.85725677
000030 4e af a2 3e a2 b3 38 bf b9 96 7d be f9 2e 5f 3f
       0.31774372 -0.721491 -0.24764527 0.8718105
000040 9b da 66 bf d4 69 17 3e 81 fd 16 3e 0a a3 12 bf
       -0.90177315 0.14786464 0.14745142 -0.5728003
000050 c6 4d ab be e4 d7 2e bf 0e 94 3b bf 4e a8 03 bf
       -0.33457774 -0.6829817 -0.7327279 -0.5142869
000060 0f 6b 5c be 08 fc b7 3f cc 2c d6 38 0d 7e d5 3f
       -0.21525215 1.4373789 0.00010212659 1.6679093
000070 ce f7 a3 3f 94 c8 46 3e df 0b 36 be 83 ec 91 3f
       1.2809999 0.19412452 -0.17777966 1.1400303
000080 a7 76 be 3d e9 4c 96 3e e2 53 d5 be 3c 6d 83 be
       0.09299975 0.29355553 -0.4166556 -0.25669277
000090 d9 fd 66 3f b5 87 36 be ac 38 f8 be 89 77 a1 3e
       0.9023109 -0.17825206 -0.48480737 0.3153651
0000a0 6a d2 f7 3e 2d 42 38 3f f1 ea 65 bf 49 f7 fa bd
       0.4840272 0.71975976 -0.8981162 -0.12254197
0000b0 c0 d9 85 3e 8d 7e 47 3f 9a af 35 3d 2e 5b e1 3e
       0.26142693 0.77927476 0.04435692 0.44014877
0000c0 82 b9 e8 3f fd f6 a3 3e 1c da 35 bf 89 c9 3b bf
       1.8181612 0.32024375 -0.71035933 -0.73354393
0000d0 e1 1d 33 3e 23 b9 f3 be 5f d8 0f 3f c5 15 67 3e
       0.17491867 -0.47602186 0.5618953 0.22566898
0000e0 b1 8c 2e 3d 1b 0d 8a 3f b3 35 a1 bf 74 9b c7 bf
       0.042614643 1.078525 -1.2594513 -1.5594316
0000f0 f2 93 d2 bf 96 b0 ae 3e f0 88 87 3e c3 74 96 3f
       -1.6451399 0.341191 0.26471663 1.1754383
000100 15 8f aa 3f 8b 26 95 3e f7 06 6b be 2a 08 1d bf
       1.3324915 0.29130968 -0.22951876 -0.6134058
000110 a7 8c 66 3f c0 ee a3 bf 34 56 91 bd 66 88 6a bf
       0.9005837 -1.2807236 -0.0709652 -0.9161438
000120 76 34 e2 3e 73 15 04 be 4c e4 9a 3f be 77 51 bf
       0.4418065 -0.12898807 1.2100921 -0.8182334
000130 be 2a 86 bf 5a 11 37 3f 41 f7 75 3c d9 22 57 bf
       -1.0481794 0.7151085 0.015012563 -0.8403755
000140 29 1b 94 bf 47 7e d3 be 08 f0 29 bf 98 13 50 3f
       -1.1570789 -0.4130728 -0.66381884 0.812799
000150 0d e5 d6 bf 5a b0 cf 3e 6e ed 81 3f 77 46 20 3f
       -1.6788651 0.40564233 1.0150583 0.6260752
000160 a4 3f 47 3f 50 a7 ac 3f b6 f9 f0 bd f1 3e 95 3e
       0.7783148 1.348856 -0.117663786 0.29149583
000170 10 1c 52 3f 89 1c fe be 1a 46 23 bd 12 39 98 bd
       0.8207407 -0.49631146 -0.039861776 -0.0743276
000180 06 d4 05 bd 1f 79 31 3f b1 41 0f 3f fa 13 2e 3f
       -0.032672904 0.6932544 0.5595961 0.6799923
000190 b4 55 3c bf db e0 2e be 6e 32 ac bf 92 1e 82 bf
       -0.7356827 -0.17077963 -1.345289 -1.0165579
0001a0 81 ac 2f 3e a5 29 8b 3d 73 74 5a 3f 13 a5 bb 3f
       0.17155649 0.067950524 0.8533394 1.4659752
0001b0 89 1a a2 be 31 65 2f bf 13 56 40 3f fc e3 17 bf
       -0.3166087 -0.6851378 0.7513134 -0.5933225
0001c0 ce aa 37 bf 5b 7f e6 bd 5e 4f 63 3f 5e b7 66 3f
       -0.71745 -0.1125476 0.8879298 0.90123546
0001d0 90 5a 93 bb 14 a0 bd be 06 50 66 be a5 7b fc 3e
       -0.00449688 -0.37036192 -0.22491464 0.49313083
0001e0 b2 3b 10 be 2e 0c a0 3f fb 44 0e be 96 80 99 3d
       -0.14085272 1.2503717 -0.13893501 0.07495229
0001f0 26 d6 48 be 78 a1 1b 3f 9e d9 7f bf 5b 88 50 bf
       -0.19612941 0.60793257 -0.9994143 -0.8145806
000200 c4 2c 68 3e ea 2a 42 3e 80 9b ed bd 84 ad d1 3d
       0.22673327 0.18961683 -0.11601925 0.102381736
000210 66 84 55 3f 74 18 a8 3e 6e 23 5f bd 18 c4 94 3e
       0.8340515 0.32831156 -0.054477148 0.29055858
000220 23 6c 88 3e 73 a1 88 3d de a3 28 3e 82 8e bc be
       0.26645002 0.06671419 0.1646876 -0.36827475
000230 02 39 b5 bd d1 6c 10 bf 2a 56 43 bf a3 fe b9 3f
       -0.08848764 -0.5641604 -0.7630335 1.4530834
000240 38 a6 e3 be 42 3e 8f 3b c8 f9 95 3f 6f e3 af be
       -0.44462752 0.0043714354 1.1716852 -0.34353206
000250 be 75 08 be 51 5f db 3d c2 ec 00 bf 25 f2 43 bf
       -0.13326165 0.107115395 -0.50361264 -0.7654136
000260 5b 05 bc bc d4 c7 6e 3f 44 53 b6 3e 02 07 4f 3e
       -0.022951772 0.93273664 0.35610402 0.20217517
000270 a8 f5 8e bf 63 b2 05 bf 9f 5e 1e 3d 6a a9 07 bf
       -1.1168718 -0.5222532 0.038664456 -0.5299288
000280 0d 7c 10 3f 8a f8 81 3f 37 7b 77 bf 88 f8 ba 3e
       0.56439286 1.0153973 -0.96672386 0.3651774
000290 66 54 b8 be 47 2e 72 3f 23 32 97 bc 77 5e 41 bf
       -0.3600189 0.94601864 -0.018456524 -0.75534767
0002a0 51 b3 76 bf 98 87 04 bc f2 32 1c 3f 5f 9c d5 bf
       -0.96367365 -0.008088969 0.61015236 -1.6688346
0002b0 52 bd 20 3e 9e 8b e2 3e 97 f5 fb be 85 d7 28 3f
       0.1569722 0.44247144 -0.49210808 0.65953857
0002c0 1d 13 ec bd d2 b8 2a bf 74 22 9c bf 11 f0 25 bf
       -0.11527083 -0.66688263 -1.2198014 -0.6481944
0002d0 3f 67 c7 bd 08 b1 be be c4 39 4b 3e 89 93 28 3f
       -0.097364895 -0.3724444 0.19846255 0.6585012
0002e0 69 bd 7e 3f be bd 63 bf e2 1e 05 bf 1b 70 7e 3e
       0.99507767 -0.889614 -0.5200025 0.24847452
0002f0 61 0f 4b 3f f1 39 4a bf 23 32 36 3f 44 6b 7f 3e
       0.7932034 -0.7899466 0.7117025 0.24943262
000300 6d ae 34 bf 81 33 72 3f 72 9b 20 3d b1 a2 e3 bf
       -0.7057865 0.9460984 0.039210744 -1.7784024
000310 72 7b 42 3e 15 eb 98 3f 16 22 1f bf 08 29 27 bf
       0.18992403 1.1946741 -0.62161386 -0.65296984
000320 5a 78 a3 bd bd 5f 13 bf f4 ae c1 3e fc 62 0b bf
       -0.079819396 -0.5756796 0.3782879 -0.54447913
000330 bd e5 2b 3f 5d 4d 45 3e a6 c2 4b bd 88 b8 5a be
       0.6714743 0.19267793 -0.049746178 -0.21359456
000340 56 2e 44 3e 77 d2 81 bf 07 60 b4 be 6e 50 bb be
       0.19158301 -1.0142354 -0.35229513 -0.365848
000350 53 cb a8 3e aa 18 b0 bf af 19 40 be 5e a3 53 3f
       0.32967624 -1.3757527 -0.18759798 0.82671154
000360 f7 2f 15 3f 97 09 8f 3c 95 4b 1e be ae 97 96 be
       0.58276314 0.017460627 -0.1545852 -0.29412597
000370 82 3f 44 3e 72 ec c1 bc c3 df c7 3f 77 aa 7e bf
       0.19164851 -0.023672316 1.5615162 -0.9947886
000380 12 a6 ce 3e 89 54 04 3f c4 88 35 3f f9 4a 39 3f
       0.40361077 0.5169149 0.7091181 0.72380024
000390 df 1b 79 bc 21 c4 8e be 66 a2 a3 3f 20 76 a6 3e
       -0.015204399 -0.2788401 1.2783935 0.32511997
0003a0 94 43 47 be 86 a1 09 be 5e c9 55 bf 7b 48 36 3f
       -0.19459373 -0.13440523 -0.83510387 0.71204346
0003b0 fc 85 4d 3e ba 06 8a 3f 58 f9 ad 3d b6 95 d1 be
       0.20070642 1.0783303 0.08494824 -0.40934533
0003c0 a1 a0 94 3e db 09 fd 3b 9c 14 b1 be 89 af 91 3f
       0.290288 0.007722122 -0.34586036 1.1381694
0003d0 ef 72 20 bf 94 8c 5e be 76 3a 28 3e e6 cc c2 bf
       -0.62675375 -0.21733314 0.16428551 -1.521878
0003e0 e6 32 2a be 84 12 80 3f 7e 15 7a 3f c3 72 8f 3e
       -0.16620979 1.000565 0.97689044 0.28017244
0003f0 31 1e 31 bf ff d8 60 3e ea 97 cc be 1d 3a c5 3f
       -0.69186693 0.21957777 -0.3995965 1.540836

en2.weight f4 [200, 500]
000000 5e 02 ee be b9 7d d9 bd ef 37 e7 be 87 d4 d9 3e
       -0.4648618 -0.10619683 -0.4515986 0.42544958
000010 d1 56 61 bf a3 57 04 3f 72 bd 6c be d0 f2 99 bd
       -0.88023096 0.51696223 -0.23119143 -0.07517016
000020 f9 c5 13 3e 2b a9 94 be a8 6b ad 3e 45 3e 88 3e
       0.1443099 -0.29035315 0.33871198 0.26610008
000030 21 8e 24 3e bd e8 27 bf 59 8e fc 3e 95 4c f8 bd
       0.16069843 -0.65589505 0.49327353 -0.12123982
000040 6a 08 3a bf ef e6 96 be 82 26 54 3e 28 24 c0 be
       -0.7266909 -0.29473063 0.20717815 -0.37527585
000050 05 ba bb ba 56 a3 bf be e2 72 62 bf a3 7c 85 be
       -0.0014322406 -0.37429303 -0.8845655 -0.26071653
000060 42 43 9e be ca d8 e2 3e ee f4 40 bd 60 d8 29 3e
       -0.3091069 0.44306022 -0.047108583 0.16586447
000070 87 36 12 3f 64 de f9 be 31 d1 c4 3c 4f 10 51 be
       0.5711445 -0.48802483 0.024025531 -0.20416377
000080 9f 3a e1 3e 66 6d dd be 1f 17 43 bf 05 4b 45 bd
       0.43990037 -0.43247527 -0.76207155 -0.048167247
000090 40 1d 69 be 48 b0 90 be 42 7b c5 be ca 5a 48 3f
       -0.22765064 -0.28259492 -0.385706 0.78263533
0000a0 c0 47 0a 3f 91 26 97 3e 2b fc 83 be 57 ab d0 3e
       0.5401573 0.2952161 -0.25778326 0.40755722
0000b0 c1 4c 3d 3f ed 9e 42 3e cd aa a3 3e 0d 62 8f 3e
       0.7394524 0.19005938 0.31966248 0.28004494
0000c0 0e e1 3c bd 3a 63 01 bf 80 17 dc be ad 3e 0f 3d
       -0.046113066 -0.5054203 -0.4298668 0.03497188
0000d0 e6 40 cc 3e 70 88 e1 be 64 0c 96 3e 37 e7 11 3f
       0.39893264 -0.44049406 0.29306328 0.5699343
0000e0 7b 69 79 3e ec e6 1d be 0e 6d 3f bc 4a 40 03 bf
       0.24356644 -0.15420121 -0.0116837155 -0.5126997
0000f0 12 6f 9e be de 7c 59 3e 36 73 0a 3f 50 a3 c1 3e
       -0.30944115 0.2123904 0.5408205 0.3781991
000100 cc 0f 9e 3e 37 c7 d1 3d 50 7e 44 3f ed bd 0d bf
       0.30871427 0.10243075 0.7675524 -0.5536793
000110 2c e5 e3 bd b5 9b db be 44 41 6b be b5 43 1e be
       -0.111276954 -0.42892233 -0.22974116 -0.15455516
000120 88 fa fa 3e a9 8e 97 3e 28 c8 44 3f 1f 29 05 3f
       0.49019265 0.2960103 0.76867914 0.5201587
000130 2d 55 c0 be 84 c9 b8 3e ab fa 13 bf 11 dd 0b bf
       -0.37564984 0.36091244 -0.57804364 -0.54634196
000140 96 3d c9 be c5 7f 01 3f e6 82 2f bf 2a 76 02 3e
       -0.393048 0.50585586 -0.6855911 0.12740389
000150 8f 48 e8 be 8b 88 d9 bd 8c c4 d6 3e e5 50 65 bd
       -0.45367858 -0.10621747 0.41946828 -0.05598535
000160 5d 07 1a 3c 52 e2 71 3f 3a bb 7f be e1 d1 6b 3f
       0.00940117 0.9448596 -0.24973765 0.92117125
000170 30 c4 12 3f 09 57 81 be 86 01 ac 3e e7 0f 56 bf
       0.5733061 -0.25261715 0.33594912 -0.83618015
000180 3d 61 ad be 5c 7f cf 3e d2 a7 31 3f 39 67 4a bc
       -0.3386325 0.40526855 0.693967 -0.012353712
000190 5f 51 47 3e 59 7e 2e 3d ff fd 58 bf 24 af 41 bf
       0.19464634 0.042600963 -0.8476257 -0.7565787
0001a0 fb 1f c8 3e f9 9a 40 bf bd 5c ee bd 26 13 d9 3e
       0.390869 -0.7523647 -0.11638782 0.42397422
0001b0 89 6c a8 be 95 eb e9 3d 96 52 01 3f cd 52 f8 3e
       -0.32895306 0.11421887 0.5051664 0.48500672
0001c0 0e c4 b0 be 50 56 05 bd 1b 78 1d 3d 39 b5 cd 3e
       -0.34524578 -0.032553017 0.03844462 0.40177324
0001d0 15 d7 a0 3e b3 bf 5d 3f ba ce db bd d4 bf 81 3e
       0.31414095 0.86620635 -0.10732789 0.25341666
0001e0 be 76 06 3f b8 b4 bf 3e 12 66 15 bf a1 f3 22 3f
       0.52524936 0.37442565 -0.5835887 0.63653
0001f0 da 6b c7 be ca 63 0e 3f d5 96 fc be b9 b7 56 bf
       -0.38949472 0.55621016 -0.49333826 -0.8387409
000200 35 d4 d5 3e 02 20 8f be de 3b 4e bf 55 6c 31 3d
       0.41763464 -0.27954108 -0.805601 0.043316204
000210 c4 8a bc 3e 2a 4c 94 3e 60 df bc 3e 2b 22 fe be
       0.3682462 0.2896436 0.36889172 -0.49635443
000220 0a 83 0c bf 65 12 3c 3e c4 99 15 3f ea 7c 7a bf
       -0.5488745 0.18366392 0.5843775 -0.97846854
000230 2c 54 c5 3e e8 ea 37 be d1 d6 fb be a4 99 4a 3f
       0.3854078 -0.17960703 -0.4918733 0.79140687
000240 62 96 af bc 86 57 4e 3e 0a d4 da bd 84 05 61 bf
       -0.021434013 0.20150575 -0.106849745 -0.8789904
000250 75 81 cb 3e dc b8 91 bd de ed da be 60 d2 33 bf
       0.39747205 -0.07115337 -0.42759603 -0.7024288
000260 7b 19 e8 be 2d 33 41 3e 14 8c 05 3f 49 e1 0d 3f
       -0.4533194 0.18867178 0.5216687 0.5542188
000270 01 fa ce bd 8c 51 66 bf 67 3c b3 3e 12 fd 51 bf
       -0.10106278 -0.8996818 0.3500702 -0.8202678
000280 20 33 61 bd 52 65 b3 3e ec f2 d2 be 7b 3c a5 3e
       -0.054980397 0.3503824 -0.4120096 0.32272705
000290 95 f2 8f 3d 05 73 ed 3e 79 37 4f bd b7 e2 32 bf
       0.07028691 0.46376815 -0.050590012 -0.6987719
0002a0 57 64 d1 be 37 45 05 3e 8c 62 b5 3d 05 b4 b8 bc
       -0.40896866 0.13014685 0.08856687 -0.022546778
0002b0 55 e3 19 3f 00 12 c4 3d 48 78 2d bf 51 0d b9 3c
       0.60112506 0.09573746 -0.6776166 0.022589358
0002c0 41 4f ce bd 6d 4e ca be f6 a1 03 bd b2 ed 68 be
       -0.1007371 -0.3951296 -0.03213688 -0.22746924
0002d0 81 55 83 be 9f eb d4 bd 9b 11 64 3e b2 5d 04 3f
       -0.25651172 -0.10396504 0.22272341 0.5170547
0002e0 cd d9 6d 3e d1 2b dd be ef 87 89 bf 78 b7 67 3f
       0.23227616 -0.43197492 -1.0744609 0.90514326
0002f0 df 1b 30 be fe 1f 4a bf a2 fb 8c 3f c3 14 9d 3d
       -0.17198132 -0.78955066 1.1014292 0.076699756
000300 0e 5d 28 bd 00 55 bc 3e e3 fc 2e bc 1b 88 3c bf
       -0.04110437 0.367836 -0.01068041 -0.7364518
000310 73 43 e8 3e 09 94 45 bc f1 ab 14 bf 78 c9 2a bf
       0.4536396 -0.01205922 -0.5807486 -0.66713667
000320 7e ba 21 bf cd 93 6f bf 5a fe 50 3e a7 ba 99 be
       -0.6317519 -0.935849 0.20409527 -0.30025217
000330 e9 8d 27 3f 48 a2 05 3c 3d 18 3e be 5d e2 20 bf
       0.6545091 0.008156367 -0.18563934 -0.628454
000340 92 fd 07 be 71 97 a3 3e f2 c3 c1 be 84 8f d6 bd
       -0.13280323 0.31951478 -0.37844807 -0.10476592
000350 ff f5 74 3e 0e 3c 49 bf 45 ef e5 be 04 04 ba bd
       0.23921965 -0.7860726 -0.4490911 -0.09082797
000360 cf 98 f8 3e be e1 d4 3e 6f fd 8c be ad dc f9 3e
       0.48554084 0.41578478 -0.27537104 0.48801175
000370 4b 2e 94 be d7 76 08 bf 57 00 d9 3d c2 e3 2a be
       -0.2894157 -0.53306335 0.10595768 -0.16688445
000380 bf 7a 03 be d4 ec 27 3e 8a 78 d3 3e 6d dc ab 3e
       -0.12839793 0.16398937 0.41302902 0.3356661
000390 3b 63 8c 3e 2b ec d5 be ba 95 f9 3d 5b ee 7e 3e
       0.27419457 -0.41781744 0.12186761 0.24895613
0003a0 32 33 29 3e 42 0a 9f be 54 bc 10 be 3f ae 32 3f
       0.16523436 -0.31062514 -0.14134341 0.6979713
0003b0 53 4a 85 3f 9c 22 1d be ad fd 09 3e bb b9 aa bd
       1.0413307 -0.15345234 0.13475676 -0.083362065
0003c0 a9 36 d5 bd 6d 81 be 3e 3c f7 5f be f9 86 30 3f
       -0.10410816 0.3720812 -0.21871656 0.6895595
0003d0 98 6c a8 be ba e4 25 be cc 84 b7 3d 13 ff 91 be
       -0.3289535 -0.16200534 0.08960876 -0.2851492
0003e0 22 76 01 3f fe da 8e 3e 1b b0 05 3e 88 c4 c7 3e
       0.5057088 0.27901453 0.1305546 0.3901713
0003f0 66 2a 24 bf 50 9e 44 bd c0 cf 08 3d a8 1f 83 bb
       -0.64127195 -0.04800254 0.03340125 -0.0040015765

en2.bias f4 [200]
000000 68 1c 7f 3f b4 21 6a bf 76 d7 7f bf a7 b7 4b 3f
       0.9965272 -0.91457677 -0.9993814 0.79577106
000010 68 4c 07 bf 59 92 e7 3d 7d 0d 99 3f 28 a1 8e be
       -0.5285096 0.113072105 1.1957241 -0.27857327
000020 b3 ae 66 bf bf ce c0 bd a0 90 9a 3f 27 08 c3 be
       -0.9011032 -0.09414434 1.2075386 -0.38092157
000030 fe bd 7a 3f 53 c9 04 3f ed 3e 36 3f 10 64 bf be
       0.97946155 0.51869696 0.7118977 -0.3738103
000040 be 84 1e bf 34 96 4e bf 2e 18 6a 3f cd a6 1b 3f
       -0.619213 -0.8069794 0.91443145 0.6080139
000050 f1 d2 2b bf 7a d9 81 3f e9 89 89 3d 33 60 36 be
       -0.67118746 1.0144494 0.067157574 -0.17810135
000060 f4 0d 8d 3e f0 de a6 3e 60 ec b3 3e dc 6c 33 3e
       0.27549708 0.32591963 0.35141277 0.17521995
000070 53 31 9d bf de 55 0a bf c3 7e 8a be bc 1d 9b bf
       -1.2280678 -0.5403727 -0.27049837 -1.2118449
000080 76 8f 59 3f 6c 7d 37 bf 24 e2 58 3f 0c 86 65 bf
       0.8498453 -0.71675754 0.84720063 -0.89657664
000090 f9 ad 88 bf ef c9 6d 3f 99 b9 5b bf 7e b4 09 3f
       -1.0678092 0.9288625 -0.85830075 0.53791034
0000a0 25 f3 3e bf 55 d8 91 3e 40 48 55 bf a1 d3 93 bf
       -0.7458976 0.2848536 -0.8331337 -1.1548959
0000b0 b5 40 72 bf 69 1a 6c bf 8d 17 42 3f a1 44 67 3f
       -0.94629985 -0.922278 0.75817186 0.90339094
0000c0 8c c3 9d 3f 20 0c 27 3e 7d 39 3c bd d4 0e d3 bd
       1.2325301 0.16313219 -0.045953263 -0.103055626
0000d0 8e ef 45 bf 01 5f 2e bf 0a 36 52 bf 71 be 45 3f
       -0.77318656 -0.68113714 -0.8211371 0.77243716
0000e0 99 a4 cf be 8e fe 44 3f 78 a6 1a 3f 9c 6e 51 bf
       -0.40555266 0.7695092 0.6041026 -0.818094
0000f0 71 10 88 3e 27 ef 05 3f 2c a2 73 3f 46 ac ec 3e
       0.26575044 0.5231804 0.9516933 0.46225184
000100 ef 74 43 3f 90 20 70 bf 3a 48 98 bf 71 69 8d be
       0.763503 -0.93799686 -1.1897042 -0.27619508
000110 db a5 1a 3f 5a b6 00 bf 2f 1f 59 bf 9d e4 85 bd
       0.60409325 -0.50278246 -0.8481321 -0.06537745
000120 6e 26 1b 3f f0 54 5a bf d0 3f ab 3e 81 87 2e bf
       0.60605514 -0.85285854 0.33447123 -0.6817551
000130 76 a7 65 bf 9d 0c 15 3f 86 fe 44 be 19 6c 6e 3f
       -0.8970865 0.5822237 -0.19237718 0.93133694
000140 4b 5c 28 3f 65 37 c2 3d 45 28 05 3f 51 47 4a 3f
       0.6576583 0.09483222 0.5201457 0.7901507
000150 7e 93 97 3f 37 86 b0 be a3 46 3c be 04 94 58 be
       1.1841886 -0.34477398 -0.18386321 -0.21150213
000160 96 c9 4f 3f fc 0a 82 bd d7 2b ad 3e 09 66 3f 3f
       0.8116697 -0.06349751 0.3382251 0.7476507
000170 44 49 9c bf cb ff bb 3e 73 06 35 3d b5 13 04 bf
       -1.2209859 0.36718592 0.044195604 -0.5159257
000180 64 93 78 3f d9 fc d9 be 7b 12 20 bf c4 cf 93 3f
       0.970999 -0.4257572 -0.625282 1.154778
000190 11 0e 15 be 1e df 3d 3f d7 6e 77 bf 16 28 cb 3e
       -0.14556147 0.74168575 -0.96653503 0.3967902
0001a0 2d 3b 6c 3c af c2 ff be e2 d3 9e bf 6c e3 93 bf
       0.0144184055 -0.4995322 -1.2408412 -1.1553779
0001b0 9d 67 76 bf ba 40 4f bf 6b f0 f1 3d ad 05 ce 3e
       -0.9625185 -0.8095814 0.11813434 0.40238705
0001c0 a6 0e 86 bf 2d 49 2a bf 25 f2 c1 be 54 47 32 3f
       -1.047322 -0.6651791 -0.37880054 0.6964009
0001d0 5f 6c 0c 3d 47 01 6f bf af 4b 80 bf ff bc 42 be
       0.03428304 -0.93361324 -1.0023097 -0.19017409
0001e0 98 9c 38 be 96 bb 94 3f 35 3d 15 bf 3b f0 89 3f
       -0.18028486 1.1619747 -0.5829652 1.0776438
0001f0 bf c4 89 bf 5b 3e 37 3e be 07 e2 3e da 7e d8 3d
       -1.0763167 0.1789488 0.44146532 0.1057107
000200 f4 9d 68 3f f5 6e 55 be 3b 43 02 3e 7b b9 72 3e
       0.9086602 -0.20843108 0.12720959 0.23703568
000210 3a e3 90 3f 43 23 95 3d 77 e4 91 bf 6b bd 18 bf
       1.1319344 0.07282116 -1.1397847 -0.5966403
000220 7f ab 8b 3f 5a 53 51 3f a7 87 30 be 0e a0 95 bf
       1.0911711 0.8176781 -0.17239247 -1.168947
000230 9c c7 08 3f bf 0e 1b 3f b9 1a 99 bf ad 63 67 bf
       0.5342958 0.60569376 -1.196128 -0.9038647
000240 69 e4 89 3f 4d 23 81 be b7 95 73 be ff 31 d1 3d
       1.077283 -0.25222245 -0.2378758 0.10214614
000250 54 19 e5 3e 83 6b 69 3f 68 bb 5e bd fd 48 b5 3b
       0.44745886 0.91179675 -0.054377943 0.0055323825
000260 34 5b ff 3d f2 9f 63 3e a0 3b bf 3e 59 f6 83 3f
       0.124685675 0.22228983 0.37350178 1.0309554
000270 a7 8a 53 3f cb 06 8b 3f df de c9 be f2 0d 1d bf
       0.8263344 1.0861448 -0.3942785 -0.61349404
000280 ee 89 7f bf ce ec 17 3e c7 de 29 3e d2 7f 32 3f
       -0.9981984 0.14836428 0.16588889 0.6972629
000290 00 26 54 bf 37 01 ba 3e fb 72 87 bd a0 49 66 be
       -0.82870483 0.36329052 -0.06613728 -0.22489023
0002a0 00 74 81 3f 60 19 ec be a6 49 d9 be d9 77 37 bf
       1.0113525 -0.4611311 -0.42439002 -0.7166725
0002b0 f0 c3 19 3f 88 77 a2 3f f4 4c 28 3f 08 ab 57 be
       0.600646 1.2692728 0.6574242 -0.21061337
0002c0 b1 0d dc 3e ba 08 80 3f bf 03 8f bf 10 ff b7 3f
       0.42979196 1.0002663 -1.1173018 1.4374714
0002d0 0d 64 0e 3f ae f1 b5 be 36 ac 50 be 50 d3 d3 be
       0.55621415 -0.3553595 -0.20378193 -0.41372156
0002e0 6c b2 93 3f 5c f1 90 3a 04 a8 7e 3f 20 14 69 3f
       1.1538825 0.0011058259 0.9947512 0.91046333
0002f0 7b 72 85 3e 6e dd 46 3f 79 f2 6a be a5 4a cb 3e
       0.26063904 0.77681625 -0.22944058 0.39705387
000300 50 2d c3 3d 59 f1 4c 3d e1 0e 85 be 05 fd a0 3c
       0.09530127 0.050034855 -0.25987914 0.0196519
000310 0f 57 5a 3f 0c 24 3b bf e8 7c 8a bf de 93 5b 3f
       0.8528909 -0.7310188 -1.0819368 0.857725

en3.weight f4 [100, 200]
000000 6b c0 44 3e 4c 1c 9c be 79 60 e2 bd 49 01 a8 3e
       0.19214027 -0.3049034 -0.11053557 0.3281348
000010 b4 cd 04 bf 4d c5 51 3d f2 72 bd 3e 6e d4 8f 3e
       -0.5187638 0.05121355 0.3700176 0.28091758
000020 8d 99 7e 40 9d fb ed 3d 4e 29 b8 3e df 5e c2 3d
       3.978122 0.11620257 0.35969013 0.094907515
000030 55 12 2f 3e 27 8c 42 be 24 46 81 3c 2a a7 09 3e
       0.17096837 -0.18998776 0.015780516 0.13442674
000040 6d 6e 33 3e a9 5d 07 be 6a 89 6b 3d ee 5e 0b 3d
       0.17522593 -0.13219322 0.057504095 0.03402608
000050 9a 39 51 3d 90 22 ea 3e a5 64 1d bf 5f 3c 44 be
       0.051080324 0.45729494 -0.61481696 -0.19163655
000060 0a eb 8f 3e 12 ef cb bd 24 cc 81 3d 0a c3 a7 be
       0.28109008 -0.099577084 0.06337765 -0.3276599
000070 46 ef e2 be 7a aa 16 3d 29 1e 64 bb 3e 7b cd be
       -0.44323176 0.036783673 -0.0034808016 -0.4013309
000080 01 9a 4e 3e 3c 51 27 3d 23 06 02 3e 79 0d 22 bf
       0.20175935 0.040848956 0.12697653 -0.6330181
000090 27 34 9f be ed d1 da 3d ad aa de bd 36 ff 81 3d
       -0.31094477 0.106845714 -0.108723976 0.06347506
0000a0 e0 3d a7 be ef 4a 82 3e a4 86 98 be 22 b4 e2 be
       -0.32664394 0.25447795 -0.29790223 -0.44278055
0000b0 14 cf 88 bc 9e 68 82 be b2 b6 e7 3e 1f c5 2a bc
       -0.016700305 -0.25470442 0.45256573 -0.010422974
0000c0 1b d4 b1 3d 38 26 6f 3e 27 68 0d 3f e2 ce 26 3e
       0.08683034 0.23354423 0.5523705 0.16289857
0000d0 21 ac 53 be 41 8a aa be 2c de 8e bf 4c 26 d8 3e
       -0.2067113 -0.33308604 -1.1161551 0.42216718
0000e0 15 30 56 bd 00 73 51 3f 24 62 0a 3f 49 aa df bd
       -0.05229195 0.818161 0.54056 -0.10921151
0000f0 00 b3 c6 bc ad 93 0d 3e ba 6a d7 3c bc d1 82 be
       -0.024255276 0.13825865 0.026296008 -0.2555064
000100 19 95 57 bd ac 97 0f 3b 9a 73 9a bc b4 11 a5 3e
       -0.052632425 0.0021910472 -0.018853951 0.3224007
000110 6b b6 25 3e 5f 53 ce 3d 2e 2c 48 3d 84 0e 39 bd
       0.16182868 0.100744955 0.048870258 -0.04517986
000120 ec a3 bf bc 78 8f ff 3d 11 17 22 3d b0 bd 84 be
       -0.023393594 0.12478536 0.03957278 -0.2592597
000130 b9 5b 61 be 44 fb 8b 3f aa bb e2 3b fd a1 74 3e
       -0.22007646 1.0936055 0.006919344 0.23889919
000140 0f 9b 22 be 42 a6 00 3e f1 4f 6a 3c 76 84 60 ba
       -0.15879463 0.12563422 0.014301286 -0.000856466
000150 50 c4 9f 3e bc 72 dd 3e c1 f2 57 bc 2b dc 04 3e
       0.31204462 0.43251598 -0.013180436 0.12974612
000160 43 02 01 3f 9e 72 32 be 80 1e 2e 3d 2c 6c 3f bd
       0.50394076 -0.17426535 0.042509556 -0.04673402
000170 15 da 7d be ee e2 9c 3e fa 0f c9 be d5 5b 58 bc
       -0.24790223 0.30641884 -0.39270002 -0.013205488
000180 f9 74 3d 3e e5 4d 28 bd 11 52 06 3e 0b c0 4e bc
       0.18501653 -0.04108991 0.13117243 -0.012619029
000190 a6 24 2d bd 87 33 73 be 9d 11 8a bf 50 cc 7b be
       -0.04227128 -0.23750125 -1.0786625 -0.24589658
0001a0 e2 1b ca be a3 37 60 be 74 b9 c1 be b8 47 d3 be
       -0.39474398 -0.21896224 -0.37836802 -0.41265655
0001b0 df 2a 38 be 79 1f 7a be 41 86 ed 3d 81 28 3c 3e
       -0.17985104 -0.24426068 0.115978725 0.18374826
0001c0 33 c7 18 bf 37 1c 1c be c4 85 59 3d ba fb 81 3e
       -0.59678954 -0.15245138 0.053106084 0.25387365
0001d0 cc f9 98 3e 4f f6 b4 bd 3c 44 ac be 97 02 da 3d
       0.2987808 -0.08836042 -0.3364581 0.10645025
0001e0 52 0f 05 bd ec 94 cb 3e 2e 4b 5d 3a f8 b1 81 3e
       -0.032485314 0.39762056 0.00084416836 0.25331092
0001f0 68 c2 d0 be 4d d3 9c 3d 73 ed a4 bd bd 01 0a 3e
       -0.4077332 0.0765749 -0.08053102 0.13477226
000200 3d f8 10 3f 5f 3b d2 bd 58 2a 83 bc 5a 80 8d be
       0.5662878 -0.102652304 -0.016011402 -0.27636987
000210 0a 59 80 be b3 a5 01 be 4b ab 7d be f7 18 19 3e
       -0.2506793 -0.12660865 -0.24772374 0.1495093
000220 82 f4 c3 bd ee 8b 91 3e bd c8 22 be 74 2c db be
       -0.095681205 0.2842707 -0.15896888 -0.42807353
000230 9b 76 5c 3e bd 7f dc 3d dc 48 b3 be 63 3b 8c be
       0.2152962 0.10766552 -0.35016525 -0.27389058
000240 ec c8 61 3b 5e f4 b7 be 67 2a e2 3d 80 6b 4e be
       0.0034452034 -0.35928625 0.11043244 -0.20158195
000250 97 45 d0 bd cf c4 80 3f 0b 9c 8c be a8 39 2a bd
       -0.10169523 1.0060061 -0.274628 -0.04155889
000260 66 c0 e8 3e d6 f1 01 3d 2f 15 d1 3d 3a 68 cd 3e
       0.45459288 0.031724773 0.102091186 0.4011858
000270 41 83 0a be 55 0e 00 3f 79 92 1c be 43 7c 5c b9
       -0.13526632 0.5002187 -0.1529025 -0.00021027126
000280 02 16 e3 be 32 67 d8 be da 13 d5 be f5 58 a5 bd
       -0.44352728 -0.42266232 -0.41616708 -0.08073608
000290 71 b1 30 be cd 5c bc 3d 66 cc 93 bb c7 f9 53 be
       -0.17255189 0.09197388 -0.00451045 -0.20700751
0002a0 87 19 51 3e 5a f0 39 ba d6 43 71 bd d6 b8 8b 3e
       0.20419894 -0.0007093005 -0.058902584 0.27289456
0002b0 a0 8c 4a 3e f6 62 dc 3e aa c5 a1 bc 01 e7 16 be
       0.19780207 0.4304425 -0.019747574 -0.14736558
0002c0 1e 18 62 3d 64 3a 26 3d a8 86 92 be e0 ac 3e 3e
       0.05519878 0.04058303 -0.2861836 0.18620634
0002d0 5c 27 dc bd fd c0 a5 3e 61 fc c7 3d ba fb d2 be
       -0.10749695 0.323738 0.09764934 -0.41207677
0002e0 4c d2 a4 3e b2 2f a3 bf 5a c1 92 3d 61 07 ce bd
       0.32191694 -1.274893 0.07165785 -0.10060001
0002f0 8b 1d d6 3d 67 5b 3a be 12 51 e9 bd 69 e5 19 be
       0.104548536 -0.1819893 -0.11392416 -0.1502892
000300 02 0f 85 bd b4 64 c2 bd 17 d0 85 3d d4 ef 27 3d
       -0.06497003 -0.09491864 0.065338306 0.041000202
000310 1d ea 3e bc 28 04 a4 bd a4 b0 11 bd 01 1a 60 be
       -0.011652497 -0.08008605 -0.03556885 -0.2188492
000320 5b a1 1c be dd 79 a5 3e f2 57 3a bd cd 6d 0a be
       -0.15295927 0.32319537 -0.045494027 -0.13518448
000330 37 c1 24 be 89 99 51 3e f7 e3 f1 be c0 89 71 3d
       -0.1608933 0.20468725 -0.47244236 0.05896926
000340 34 8e 3c 3d 82 a9 d0 3d d5 fc bf be 06 27 0a 3d
       0.046034053 0.10188581 -0.37497583 0.033728622
000350 f5 0f 8f be d1 9a 8b be 76 ab eb bd fa c1 fb 3d
       -0.27941862 -0.27266553 -0.11507313 0.122928575
000360 48 b6 13 bd 07 bd 82 3d 09 69 96 be 45 f4 c9 bc
       -0.03606251 0.0638371 -0.2937701 -0.02465261
000370 b9 eb 5f 3e 1d a0 eb be d4 78 76 be 41 66 1a 3e
       0.21867265 -0.46020594 -0.2406953 0.1507807
000380 82 e5 c4 3d 1d 2f f2 3d 8f dd 8b be e2 06 bf 3e
       0.09614088 0.118253924 -0.27317473 0.3730994
000390 71 c6 00 3f fe 32 8c 3f 4d 55 31 3e 85 a5 0e 3f
       0.503028 1.0953062 0.17317696 0.5572131
0003a0 60 3c a9 bc 1b 8a 01 3f 77 8d dc 3d 6b 4a a9 3e
       -0.020658672 0.5060136 0.1076917 0.3306459
0003b0 ec 6f e0 3e cd 32 c3 be 0a cd 7f 3c e0 f4 c7 3e
       0.4383539 -0.38124695 0.01561285 0.39054012
0003c0 36 c3 bc 3e 97 59 16 bf c7 15 30 3e f1 13 42 3e
       0.36867684 -0.58730453 0.17195807 0.1895292
0003d0 70 87 14 3e 44 0c 08 3d 90 4e d0 be c7 cd 2f be
       0.1450479 0.033214822 -0.40684938 -0.17168342
0003e0 04 73 2f bd 6f 66 d7 3e b0 3e 16 3d eb 24 82 be
       -0.042834297 0.42070338 0.036680877 -0.2541879
0003f0 74 58 34 bd b6 ad 9b bc 01 62 6d 3e 9b 45 ab be
       -0.044029668 -0.01900373 0.23181917 -0.33451542

en3.bias f4 [100]
000000 1e f2 cd 3e 31 8c 16 bf 4f e9 b4 3d 78 91 a0 3e
       0.40223783 -0.58807665 0.088335626 0.31360984
000010 53 3e f5 bd bd 1b ed 3e 52 7a b2 3e 64 ab 08 bf
       -0.11974778 0.46310225 0.34858948 -0.5338652
000020 1a 9b 72 3e 17 37 77 3e 7e f7 f6 be 82 79 ae 3e
       0.23691979 0.24142109 -0.48235697 0.34077078
000030 05 0d af bd a1 e4 4c bd 0e 18 4d be 46 a4 4d bc
       -0.08547405 -0.050022725 -0.20028707 -0.012551373
000040 52 af 2e 3e 1b 35 e0 be 7f 6d 0b bf 9d c9 07 be
       0.17059067 -0.43790516 -0.5446395 -0.13260503
000050 3f 58 42 be 93 93 ef be c2 3e 9d 3e b8 83 1b be
       -0.18978976 -0.46792278 0.30711943 -0.15186965
000060 65 77 34 3f 82 18 15 bd 16 38 d2 be 0b fd 34 bf
       0.7049468 -0.036400326 -0.41058415 -0.7069861
000070 6d 8f fd 3e ac 9e ae 3e 8f ca 92 3e 30 9d 97 3e
       0.49523488 0.34105432 0.28670165 0.29612112
000080 9c 29 fb be a1 32 db 3e 77 c0 a3 be eb 8c 0e 3f
       -0.49055183 0.42812064 -0.31982777 0.55683774
000090 d4 46 bb be b5 bb d2 be d6 ee d3 3e 37 cd 04 bf
       -0.36577475 -0.41158834 0.41393155 -0.51875633
0000a0 fd 27 8e be a5 4c 36 3e 43 7f 81 be 60 65 a3 be
       -0.27764884 0.17802675 -0.25292405 -0.3191328
0000b0 56 80 1a be 00 e8 c0 3e b9 2f fb be 80 1c 4f be
       -0.15088019 0.37677002 -0.49059847 -0.20225716
0000c0 63 a0 17 be 41 fe a9 be 2c 90 83 3d f3 ec d4 3e
       -0.14807276 -0.33201793 0.06423983 0.41587028
0000d0 84 4c a4 3e 2d b7 af 3e 65 a0 4b 3f a3 7a 52 be
       0.32089627 0.3431944 0.7954162 -0.20554595
0000e0 f9 59 33 bf 1f 6f 25 bf 8c 86 2c 3f 64 52 0f bf
       -0.7005916 -0.6462268 0.673928 -0.55985093
0000f0 c7 05 1f 3f 6b 75 bd 3e 43 d0 96 3e 8d c6 30 bf
       0.6211819 0.37003645 0.29455766 -0.69052964
000100 d7 22 5b bd 6d 3a bf 3e 9a 9e f1 3e 44 0d a0 3e
       -0.053500023 0.37349263 0.47191316 0.3126012
000110 be 7a cc be ea 34 1b bf 87 c1 b7 3e 7c ae 2d bf
       -0.39937395 -0.60627615 0.35889837 -0.6784437
000120 24 c4 2c 3e ae e2 8f be 79 d5 1e 3f 56 d9 a1 3e
       0.16871697 -0.2810263 0.62044483 0.31611127
000130 9e 90 f4 3d c4 3c d7 bd 80 cc c6 bd 65 7c b5 be
       0.11941646 -0.10509637 -0.09706974 -0.35446468
000140 7a 45 a9 be 42 66 4e 3e ba 4d ad 3d 0d 40 8c 3e
       -0.3306082 0.20156196 0.08462091 0.27392617
000150 54 e3 2c bf 7d cd 86 3e 35 c8 94 be 30 b7 02 bd
       -0.67534375 0.2632865 -0.29058996 -0.031912982
000160 29 f9 9b be 24 12 4d be b1 49 27 be e6 d9 2c 3f
       -0.30463532 -0.20026451 -0.16336705 0.67519987
000170 09 0e 07 bf ff c7 81 3d a2 a5 ea be 90 22 be 3e
       -0.5275579 0.06336974 -0.45829493 0.37135744
000180 d4 82 0f bf 1e 3a 92 be c0 2a 34 bf af c2 90 3e
       -0.56059 -0.28559965 -0.7037773 0.28273532

en4.weight f4 [2, 100]
000000 f0 04 98 3e af 20 5c bb 9c 21 de bd fb 00 8d be
       0.29691267 -0.0033588817 -0.10846254 -0.2753981
000010 a9 d1 19 bc bb 80 19 bc 84 c6 8b bd 3c e6 2d be
       -0.009388366 -0.009369071 -0.06824973 -0.16982359
000020 6a d1 fb bd fb 48 41 3d 91 e6 75 3d 1d 89 88 3d
       -0.12295802 0.04718874 0.06003434 0.06666777
000030 0d f6 5c 3c fa b7 69 3d 66 c2 ce 3c 67 4f b0 3c
       0.013486397 0.05706022 0.02523918 0.021522237
000040 ce db 3c be 4a 11 a7 3c a4 49 2b be ec de 1f 3e
       -0.18443224 0.020393986 -0.1672731 0.15612382
000050 52 f6 94 3c ba 54 b4 3e 5f 24 bd 3e c4 d4 e8 3d
       0.01818386 0.3522089 0.3694181 0.11368707
000060 13 ad 4a 3d 4b 36 93 3e d0 95 d6 bd 6a 59 e0 bc
       0.049481463 0.2875236 -0.10477793 -0.027386386
000070 19 a0 e0 bc f8 77 04 be 97 3c 93 3c 39 2d 2b be
       -0.02742009 -0.1293639 0.017973227 -0.1671647
000080 9d c6 c2 bd 70 8d c2 bb c0 0d cc 3d ca 9a 83 be
       -0.09510539 -0.005937271 0.0996356 -0.25704032
000090 b5 66 82 3c 0b 3c 25 3c e0 f3 ec 3b e5 58 ba bc
       0.015918115 0.010085116 0.0072312206 -0.022747466
0000a0 24 04 9e bd b0 69 04 3c d4 50 6c bc c3 29 5a bd
       -0.077156335 0.0080818385 -0.014423568 -0.053262483
0000b0 b2 93 a5 bb b0 36 13 be d0 a1 c8 3d 38 98 b7 3d
       -0.005053007 -0.1437633 0.09796488 0.0896458
0000c0 19 86 a9 3e 2f 91 04 bd 4e 74 43 bc 7e 29 e9 bd
       0.3311012 -0.03236502 -0.011929585 -0.11384867
0000d0 b8 9e ce bd 82 33 c1 bd 1b a3 10 3e ee 2b ab bc
       -0.10088867 -0.094336525 0.1412472 -0.02089497
0000e0 71 0f 36 3d 84 0c 62 be 71 29 18 3e 9f 75 2b 3e
       0.04444832 -0.22075087 0.14859559 0.16744088
0000f0 6c 5e 27 3e 1b 09 40 bd bc b2 55 be 7a cb 98 bd
       0.16344613 -0.046883684 -0.20868963 -0.07460685
000100 a3 cd 71 3d 10 bd a9 3d 17 95 83 3d 28 63 f2 3b
       0.059034 0.08288014 0.06424921 0.0073970743
000110 cd c9 0d bf ec c6 29 be 57 4a 87 bd 98 29 c8 be
       -0.5538605 -0.16579789 -0.06605976 -0.39094234
000120 aa 22 40 3e 04 44 6f bc 80 70 79 3c cb 34 88 3c
       0.18763223 -0.0146036185 0.015224576 0.016626736
000130 9b c4 42 bc 20 a7 a6 3b 36 f3 0a 3e 8e 9c 26 bc
       -0.011887695 0.005085841 0.1356934 -0.0101691615
000140 8e a7 c5 3d e4 c4 1d bc 69 fd 13 3e eb 8d 29 3d
       0.09651099 -0.009629462 0.14452137 0.04139511
000150 e6 fa 3f be 00 cd 96 bd d9 46 2f bd f0 76 95 3d
       -0.18748054 -0.073633194 -0.042792175 0.07298076
000160 e5 01 df 3c d6 62 be bb 46 fb 88 be 7b 19 5d 3d
       0.027222583 -0.005810122 -0.26754206 0.05397938
000170 39 68 47 be 57 d2 41 bc 6c 64 8b bc 39 fe 17 bd
       -0.19473352 -0.011829934 -0.017015658 -0.03710768
000180 60 e4 dc 3d 0b 7e a0 3c f4 1d 07 be 35 fc bd bc
       0.107857466 0.019591352 -0.1319502 -0.02319155
000190 e8 16 c6 bb f5 83 5d 3b d0 82 c3 3d 65 b1 96 be
       -0.006045211 0.0033800576 0.09546435 -0.29432216
0001a0 ce 3d 40 bc 32 20 56 bc 31 ca a3 3d 37 4d ef bc
       -0.011733485 -0.013069199 0.07997549 -0.029211624
0001b0 9d 29 d3 3b f1 b7 3f 3d 2b 7a be bd 2e 2b ac 3d
       0.0064441697 0.04680628 -0.093006454 0.08406673
0001c0 58 7a 9e 3c cb 17 91 3d b7 b0 02 3d 22 5f d0 3c
       0.019345447 0.07084616 0.03190681 0.025435988
0001d0 8c 10 81 3d 36 84 dc 3c 7c c2 13 bd d4 bf f1 bd
       0.06301984 0.026918512 -0.036074147 -0.118041664
0001e0 dc d3 b1 3c b0 bf e0 3e 45 7e d0 3e 88 80 79 bd
       0.021707468 0.43896246 0.40721336 -0.060913593
0001f0 31 3b aa bd b1 e6 c0 bd 09 d5 19 be 80 b6 a9 bd
       -0.08312071 -0.09419001 -0.15022673 -0.08286762
000200 d5 5e 12 bd 35 00 2f be 69 b3 72 3b ae f3 52 be
       -0.03573497 -0.17089923 0.0037033206 -0.20600769
000210 bd f2 29 3e 4d 0b b1 ba d3 c5 ea 3d f7 71 25 3e
       0.16596504 -0.0013507396 0.11463513 0.16156755
000220 56 28 a5 3c 10 a7 3a 3c 42 17 16 3c c4 52 8c bd
       0.020160835 0.01139237 0.0091608185 -0.06851724
000230 1d d4 60 be 3f 2b 32 3c a2 8d 92 bc 9f b3 0a be
       -0.21955915 0.0108745685 -0.017889801 -0.13545083
000240 48 04 4b bb ed a0 86 bd 47 03 2b be a9 b7 c5 3d
       -0.0030977894 -0.06573663 -0.16700469 0.09654171
000250 50 50 c0 3e fb a9 85 3c f1 92 48 3e 80 6c e5 bd
       0.37561274 0.016316405 0.19587304 -0.11202335
000260 dd 99 60 3c d7 a1 99 3d 7c 1b 63 bc c1 56 c6 bc
       0.013708559 0.075015716 -0.013861533 -0.02421129
000270 f7 ad 5d bc 8f 6d ce 3d 4a 7b 09 be 9c 55 57 3e
       -0.013530246 0.100794904 -0.13425937 0.21028751
000280 a5 84 fc bd 66 c6 6e bd c3 22 5f be 82 28 cb bc
       -0.123299874 -0.058294676 -0.21790604 -0.024799589
000290 2b 89 b6 3d fc 54 96 3d 8f 96 97 3d 7b 15 17 3c
       0.089128815 0.07340428 0.07401764 0.00922143
0002a0 3a 72 71 3e c1 6f 59 be 82 74 28 be a9 8d da be
       0.2357873 -0.21234037 -0.16450694 -0.42686203
0002b0 8f 74 ae bd cd ea 9f bc 27 e4 46 be 02 6c d3 3c
       -0.085183255 -0.019521141 -0.1942297 0.025808338
0002c0 f6 d7 70 bc 06 b1 de 3b 20 5e 7e bd 57 4e a0 bd
       -0.014699927 0.006796005 -0.062101483 -0.07827442
0002d0 1e 28 f8 3d 00 94 4a bc 71 ae bd bd d4 70 e8 3c
       0.12117027 -0.0123643875 -0.09261788 0.028374113
0002e0 cd 07 17 3e e3 77 00 3e f5 3d 5e bd 65 1c ad bd
       0.1474907 0.12545733 -0.054258306 -0.084526815
0002f0 66 c8 72 bd 64 24 e9 bb d6 01 a5 be 03 f2 9d 3d
       -0.059273146 -0.007114934 -0.32227963 0.07712176
000300 74 d5 b3 3d 6b ac 4b bc 5d 57 b2 bc fb 33 32 3e
       0.08780947 -0.012431244 -0.021770174 0.17402641
000310 43 f2 b6 3d cd e1 c4 3c bf b9 dd 3d 3d 3d 8f bb
       0.089329265 0.024033451 0.10826444 -0.004371314

en4.bias f4 [2]
000000 a2 d2 29 3e 96 79 30 bd
       0.16584256 -0.043084703

de1.weight f4 [100, 2]
000000 94 c9 d4 3e cf 34 07 bd c5 97 ab 3e a1 71 0a 3e
       0.41560042 -0.033009347 0.33514228 0.13519908
000010 ca 24 4f bf 12 68 44 3f cd 6e 02 bf 69 3a 39 3f
       -0.8091551 0.767213 -0.5095032 0.7235475
000020 07 16 98 3e fe ae 71 bd 20 07 19 3d b2 90 9f be
       0.29704306 -0.059004776 0.03736031 -0.3116508
000030 4b 8c fc bd e5 54 0d 3f aa c6 4c bf cb f5 51 3f
       -0.12331446 0.55207664 -0.7999064 0.82015675
000040 a8 58 3e bf 6e 83 e2 3e 38 e1 3d 3f 28 2d fa be
       -0.7435403 0.44240898 0.7417178 -0.48862576
000050 fa 72 a5 be 55 dc 08 be 2b 96 b2 3e f9 79 19 3f
       -0.32314283 -0.133653 0.34880194 0.5995174
000060 65 0c c2 3c 01 2f dc 3e 7b bf 51 bf f2 3d 86 bf
       0.02368755 0.4300461 -0.819328 -1.0487654
000070 b9 86 b7 3f 91 dc cd 3f 25 78 b4 3f 49 52 58 3e
       1.4337989 1.6082937 1.4099165 0.2112514
000080 7f 35 0a 3f aa 41 e8 be 5b 5d e6 be d9 45 af bf
       0.5398788 -0.45362598 -0.449931 -1.3693191
000090 32 5c 98 be 76 d6 c0 3e 50 73 06 bf 9f bd 52 bf
       -0.2975784 0.3766362 -0.525197 -0.8232059
0000a0 c0 8d 9d be 52 04 63 bc 6b 5c f5 be b9 e1 8e bf
       -0.3077221 -0.0138560105 -0.47922072 -1.1162635
0000b0 ef 8c 26 3f e1 b8 a5 be 8c dd 0c bf 3f 48 fc 3e
       0.650588 -0.32367614 -0.55025554 0.4927387
0000c0 fd b4 0f 3f eb 14 45 bf 8c fc 04 bf dc e1 8d 3e
       0.5613554 -0.76985043 -0.51947856 0.2771138
0000d0 da 88 f6 3d b7 53 92 3f 09 09 18 bf 9a 69 bf 3e
       0.12037821 1.1431798 -0.59388787 0.37385255
0000e0 a4 c3 44 3e 95 ea 98 be 65 34 ef 3e ba 59 48 3e
       0.19215256 -0.29866472 0.4671966 0.19565478
0000f0 5d 6c 82 3e d8 30 eb be 10 94 63 bf f4 7a 52 bf
       0.254733 -0.45935702 -0.888978 -0.8221886
000100 9f c0 a8 bd 46 64 d2 be 62 0c 31 3d 26 09 44 3e
       -0.082398646 -0.41092128 0.0432247 0.19144115
000110 3c 0f 80 bf b3 02 64 3f 18 42 3c bf ae 13 8c bf
       -1.0004649 0.8906662 -0.7353835 -1.0943506
000120 ca 37 ad 3d a2 0e 56 be 36 1b b6 3e 2b 10 c9 be
       0.084579065 -0.2090402 0.35567635 -0.39270148
000130 09 f9 99 be 84 f0 55 3d 81 35 99 3f cd 8f 90 3f
       -0.3007281 0.052231327 1.1969453 1.1293885
000140 64 99 28 3f e8 34 04 bf d2 46 3c bf af 87 18 3f
       0.65859056 -0.5164323 -0.73545563 0.59582037
000150 17 45 8c 3f 5c 9b 05 3f 35 50 31 bf 5f aa 85 bf
       1.0958585 0.52190185 -0.6926301 -1.0442618
000160 72 3e e8 3e 09 f3 82 be b9 0d f2 3c 69 a5 a1 be
       0.45360142 -0.25576046 0.02954756 -0.3157151
000170 34 18 47 bf 66 5e 5c bf bc dd 55 3f 56 e7 63 bf
       -0.77771306 -0.8608154 0.83541465 -0.89024866
000180 1d 3b bf be a6 c5 8c bf 3e ce ba 3e 5c bb 29 bf
       -0.37349787 -1.0997818 0.36485475 -0.6630151
000190 bd fc 88 bd 84 4e ca be 79 28 1c 3f fe 82 24 bf
       -0.06688831 -0.39513028 0.60999256 -0.6426238
0001a0 46 5d 3d 3f f8 10 3a bf 58 23 4a 3f fc 8b 84 3f
       0.7397045 -0.7268214 0.7896018 1.035522
0001b0 8c 54 88 bf e4 16 33 bf ce df a3 be 89 96 47 3e
       -1.0650802 -0.69956803 -0.32006687 0.19491018
0001c0 78 fb 03 3f 67 f3 30 bf 84 36 85 bd 56 c8 bf bf
       0.51555586 -0.691214 -0.06504539 -1.4983013
0001d0 60 e7 3d bf 45 c2 44 3f 45 e8 f9 be 9c 10 9d bf
       -0.74181175 0.7685893 -0.4881002 -1.2270694
0001e0 74 b3 85 3d 5f 37 95 3e e5 c0 99 be ff c1 a3 bf
       0.065283686 0.29143807 -0.3002998 -1.2793578
0001f0 52 54 f8 be 6d b0 ea 3e 16 dd c7 be be 5f 15 3d
       -0.4850183 0.45837727 -0.39035863 0.03646826
000200 b4 84 9a 3d 2a e2 04 bf 4c 01 73 bf 54 a9 24 bf
       0.07544842 -0.519076 -0.94923854 -0.64320874
000210 57 79 5d 3d 9c f0 80 bd bf 35 72 be f7 57 76 bf
       0.054070797 -0.062958926 -0.23653315 -0.96227974
000220 64 37 10 bf 1f 69 3b 3e f0 91 b2 3e d8 3b 26 bf
       -0.5633452 0.1830182 0.34876966 -0.64935064
000230 74 71 55 3f 15 9b 18 bf 78 15 56 bf 68 6e 6e bf
       0.8337624 -0.59611636 -0.8362651 -0.93137217
000240 cd d3 db be 56 cc 94 bf b6 46 66 3e 86 cc 63 be
       -0.4293503 -1.1624858 0.22487912 -0.22245988
000250 5e 31 16 3f e8 72 05 3e 6a c3 89 bf 33 44 05 be
       0.5866908 0.13032115 -1.0762761 -0.13014297
000260 f9 73 96 bf 9e ff be 3e b2 b9 7a 3f 09 12 6e bf
       -1.1754142 0.37304395 0.979396 -0.9299627
000270 93 8a 3d be 54 a8 e2 be 84 05 61 3f dc 5e 82 3e
       -0.18509893 -0.4426905 0.8789904 0.25462997
000280 59 6a 38 bf e2 34 3e 3f 1b 88 ca 3e 4f 9f 16 bf
       -0.72037274 0.7429944 0.39556965 -0.58836836
000290 b1 15 eb 3e 86 6c d9 be 82 e8 a4 be 82 0d 47 be
       0.45914987 -0.4246561 -0.3220864 -0.19438747
0002a0 20 c4 56 3e 76 d3 9d 3f c8 9b 99 3f 02 d3 e6 3e
       0.20973253 1.2330158 1.2000666 0.4508286
0002b0 00 57 01 bf bb 42 04 bf 0b 98 0f 3f d8 0a 7d be
       -0.50523376 -0.5166432 0.56091374 -0.24711168
0002c0 22 47 97 be 81 6a 84 3e 5c 8f 28 3e 0b 5c 08 3e
       -0.29546458 0.25862506 0.16460937 0.13316362
0002d0 a8 c0 6e 3f b5 f2 33 3f 93 1f a3 be 89 74 74 3d
       0.9326272 0.70292217 -0.31860027 0.05968145
0002e0 91 32 63 3f 28 f4 52 bf bd 4c 3f be a0 cb a6 3e
       0.88749033 -0.824038 -0.18681617 0.3257723
0002f0 ab c6 67 bf d5 23 4f 3f 31 da 95 3e 27 77 c9 be
       -0.9053752 0.8091405 0.2926803 -0.3934872
000300 9f 73 46 be 36 ac 9d bf 1c a2 39 3e 4a a4 47 3e
       -0.19380043 -1.231818 0.18128246 0.19496265
000310 19 58 0d be a9 a0 6a be 0e f1 37 bf a2 bc f8 3e
       -0.13803138 -0.2291285 -0.71852195 0.48581415

de1.bias f4 [100]
000000 dc 22 9d 3e 00 b0 ee 3e 8b 5e 45 3e 5c 9e 7c be
       0.30690658 0.46618652 0.19274347 -0.24669784
000010 0c f1 0a be 8c b5 de be d3 54 64 3e 3c ca bb 3e
       -0.13568515 -0.43497884 0.22297983 0.3667773
000020 79 38 49 3e 87 75 4a be ef 1d 95 be 2a 22 38 3f
       0.19650449 -0.19771396 -0.291244 0.7192713
000030 c4 7b 5c 3e b3 78 1b 3e a3 60 31 3f d3 0d 34 bf
       0.21531588 0.15182762 0.6928808 -0.70333594
000040 d8 ba 40 3e c6 ac 6d bf ea 1d b7 3e 1e 1a 58 bf
       0.18821275 -0.92841756 0.3576501 -0.8441485
000050 ae c7 fa be a9 11 61 3f 8a 8d 56 be e5 2d 64 be
       -0.4898047 0.8791757 -0.2095243 -0.22283132
000060 2e 04 57 be 52 f2 38 3e dd 77 20 bf f5 6e 20 3e
       -0.20997688 0.18061188 -0.62682897 0.15667327
000070 fd 60 22 3e b0 b8 10 3f f6 f0 6d be 7c ef 87 3f
       0.1585731 0.5653181 -0.2323645 1.061996
000080 03 aa d6 3c 9a 51 c0 3e 0f 6a 9c 3e 04 ef 79 bf
       0.026204115 0.37562257 0.30549666 -0.97630334
000090 74 a1 05 bf 23 61 bf 3d f6 be 3d be bf 12 50 be
       -0.5219948 0.09344699 -0.18529877 -0.20319651
0000a0 6c b2 3c bd 4b 49 ab 3d 5a e0 71 bf 74 d3 90 3e
       -0.046068594 0.08363589 -0.9448296 0.28286326
0000b0 03 1c c2 3e aa a8 1a bf d3 ac 72 bf 41 7d 4d be
       0.37911996 -0.6041361 -0.9479496 -0.20067312
0000c0 d3 11 45 bf 04 92 91 3e 72 ae 80 be 1e d3 0d 3e
       -0.7698032 0.28431714 -0.2513309 0.13850066
0000d0 57 e4 1f 3e 62 d3 5e 3f 3a 01 86 3f 5e cd a7 3e
       0.15614448 0.87041295 1.0469124 0.3277387
0000e0 51 f4 32 be f6 cd 59 bf 19 df 8c 3c 6f 3d 6a bf
       -0.17476012 -0.85079896 0.017196225 -0.9149999
0000f0 51 32 0d 3f 3e 9c 4c bf ad 6c c3 3a 31 9e 1c 3e
       0.551549 -0.79925907 0.0014909707 0.1529472
000100 d5 7d 92 3e e0 74 6a 3f fa 75 ea be bb 06 07 3f
       0.28611627 0.9158459 -0.45793134 0.52744645
000110 94 21 af be cf 9e 8c 3e 27 6d 90 be a8 04 7e bf
       -0.34205306 0.2746491 -0.28208277 -0.99225855
000120 43 50 39 3f db fd 1e 3d d6 7e 20 3f 61 fc 59 bf
       0.72388095 0.038816314 0.62693536 -0.85150725
000130 b3 54 07 3f 39 9a 69 be df c7 ea bb b1 59 69 3c
       0.52863616 -0.22812738 -0.00716494 0.0142425755
000140 64 3d fa bd 1e 08 2c 3e 1b cc 78 be 0f e7 a9 be
       -0.122187406 0.16799971 -0.2429661 -0.33184096
000150 46 fa 46 3f ad 88 58 bf 8b bf 2e bf bd 90 92 3e
       0.77725637 -0.8458355 -0.6826102 0.28626052
000160 35 ea b4 bc 8b 39 53 3e eb 50 5d bf 57 52 d0 3d
       -0.022084335 0.2062742 -0.86451596 0.10171955
000170 aa e5 21 bc e9 31 1f 3e 3c 5b 4f 3e cc ad af be
       -0.009881416 0.15546383 0.20249647 -0.34312284
000180 8c b7 43 bf cf 3e 82 3e d6 6a ae be f8 95 28 3e
       -0.76451945 0.25438544 -0.34065884 0.16463459
