jet_by_jet_compression/AE_2D_latent_space/models/AE_2D_v4_bs256_loss00188.pt (torch_old, 986309 bytes, 16 tensors)

en1.weight f4 [500, 4]
00000000: 5588 413e ce40 eabe d07c 39be b238 e5be
00000010: 17fe 0d3e ca31 58bf 2a4d 35bf 73d1 633c
00000020: 75d2 4cbf bbf9 413e ac97 883e 48db 47bf
00000030: a21a 6b3e 3f35 43bf f928 bebe 1b22 d2be
00000040: 80c2 7a3d 0b29 14bf e629 4cbe 5bcd 273f
00000050: 5390 3abe 9d01 cf3e 20cc 1e3e 5833 f33e
00000060: 8dee d23d ffc9 633f 30ad 943e 31f9 8a3e
00000070: 13b2 643f 9e55 69bf 8a55 8ebe ed8b 8bbe
00000080: f92c 23bd 6eb9 5abf 31dc e2be 8923 71be
00000090: e676 923e 8ff4 7fbe 44be 80be 4b4f 373f
000000a0: 36ce d83e 02db b2be f8dd 173d 23b5 afbd
000000b0: da5b 2c3e b88f 18bf 43d9 bbbe 82b1 a5be
000000c0: 3961 803e 271c 3fbe 4c8e 95be c8b8 553e
000000d0: 27e5 6abe 56e1 e4be af1e 91bd afd9 2f3f
000000e0: 76d7 80bd 6235 8b3e 4c7e 80bd 3522 3d3f
000000f0: bad6 aebe 544a 9d3e 3296 3c3e 239b bdbe
00000100: 3885 2cbe 62f5 2c3f 98f6 f53d 0bd5 433f
00000110: 0998 f2bd 897f 8e3e 354d f0bd e3fe 463f
00000120: 0788 b6be a00a 203f 449b a03e 7302 8cbf
00000130: cbe3 be3d a831 08bf b93c 54be 3450 c6be
00000140: 3d94 74be 116f 31bf 35be bcbe 1ab6 533f
00000150: 6c0a 9c3e 61b5 05bf 8f7e 3bbf 9ccd 473e
00000160: 51f4 46be 6663 e83e 7356 e23d 77a0 483f
00000170: 2b6f d93d c081 6d3f 7585 5c3d 36d0 12bf
00000180: 13ea 0ebf f333 253f dfc0 753c c8c9 6e3d
00000190: 571f 063f b5b2 7f3e 4e83 6cbd b928 813f
000001a0: 542d 7fbe c2a4 b63e bf4a 703e 898f 143e
000001b0: 327d bfbe e541 dc3e 4f63 a3bd 599c 2f3f
000001c0: 447f 203e 9f9c 0aba 5cd6 8d3e adbc 15bf
000001d0: a8eb 7e3d 6656 d4be 2676 2a3b f9ab 6ebe
000001e0: 77ea 8c3e 35f2 1b3f 6520 8e3e fef7 7fbf
000001f0: f2dd 173f b3df c83e a502 513e 3957 61bf
00000200: 2f3a 00be 8691 e8be ef2a d7bd cd19 4d3f
00000210: ab49 7fbd 8740 02be 5bf1 e53d 7055 2dbf
00000220: 2be1 c23e 910a 1abf 4b80 6cbd 1885 0a3e
00000230: 1b46 aebe 89f9 79bc 93fa cc3e 8438 51bd
00000240: e0bb 94bd f166 d93d 504c be3e ba9c 08bf
00000250: b1a8 293e d292 2b3e 19ab 36be 6ebb 783f
00000260: af74 993f 267a 15bd 7bbb 81be 0244 0dbf
00000270: 7b69 b8be 751c 3c3e da26 993e 0b6d 0cbe
00000280: 696b ad3e 392f 67bf a51a 82be 58a7 d13e
00000290: 4e92 f33d 7e79 7c3e 76a6 a8bd 73a9 843f
000002a0: ad4b 39bc c23d b63e dca1 0d3f 46b3 22bf
000002b0: 4a8a 253e a543 b13e 8876 b13d cbe4 9f3f
000002c0: 4ecf 4a3c 8e19 88be 89ee f13d 8be9 6cbf
000002d0: fe71 3bbf cf6d 45bd d2ba 13bd e601 563f
000002e0: 97cb 09bf f59f 883e 6525 7b3e d891 bfbe
000002f0: 909c 693e 2e4d 213f 34b8 98bc 54c2 f7be
00000300: 334f fe3e 9eaa 19bf 9827 bfbe 7bcd 20be
00000310: da89 d03e d0b3 6e3d 154f 4ebe c95a 763f
00000320: 7deb 8ebf 58cd 31be 725b e03d 6d05 8d3e
00000330: 5733 cb3e e821 e33d 1499 8cbc 8f62 6e3f
00000340: d39f 6cbe 1bcf 03bf c0db bcbe 3a48 4e3f
00000350: 3d09 04bf 0ca8 1a3f bc2d d5bc c791 df3d
00000360: 98db 16bf 752d ba38 7fcd 4cbd 194d 5d3f
00000370: ae56 2f3f 63c7 62bf c5c1 be3d db0c c8be
00000380: 3c43 91bd 5b8e c4bd 05cd 423e fa65 6f3e
00000390: 9b02 d33e c2da 4dbf 940a 063e fed7 0fbf
000003a0: 3c2e cbbe 4e43 f5be 5e51 06be 4c14 813f
000003b0: b058 803f f4d7 1ebf 8266 f8be 9c2e acbd
000003c0: 9719 9e3e d014 0ebf f086 4a3c 7542 47bf
000003d0: 5d55 c8be b548 c7bc 2658 053f e7c7 523e
000003e0: 9b01 5bbd 9525 663f 307d 223f a57e 9cbe
000003f0: e721 4d3e 6523 cdbe 4b40 50bd 37e2 4abf
0.18899663 -0.45752567 -0.18114018 -0.44769818 0.13866459 -0.8445097 -0.7082087 0.013904917
-0.8000863 0.18942921 0.26678216 -0.7806897 0.22959378 -0.7625312 -0.37140635 -0.41041645
0.061220646 -0.57875127 -0.19937858 0.6554772 -0.18219118 0.40430918 0.15507555 0.4750011
0.10299406 0.88980097 0.29038382 0.27143243 0.8933422 -0.91146266 -0.27799636 -0.27255192
-0.03983781 -0.85439193 -0.44308618 -0.23548712 0.28606337 -0.24995635 -0.2514516 0.71605366
0.42344826 -0.34932715 0.03707692 -0.08579471 0.16831914 -0.595943 -0.36689195 -0.3236199
0.25074175 -0.18663083 -0.29210126 0.2087127 -0.22938977 -0.44703168 -0.070859306 0.68691534
-0.06291096 0.27189165 -0.06274089 0.7388032 -0.34148198 0.3072077 0.1841667 -0.37032422
-0.16847694 0.67561924 0.12009925 0.7649695 -0.11845405 0.27831677 -0.11733476 0.77732676
-0.35650656 0.6251621 0.31368458 -1.0938247 0.09320792 -0.5320077 -0.20726289 -0.38733065
-0.23884673 -0.693101 -0.36863866 0.8269974 0.304767 -0.5222989 -0.7323999 0.19512028
-0.19429137 0.45388335 0.11051645 0.7836985 0.10616907 0.9277611 0.053838212 -0.57348955
-0.5582592 0.64532393 0.014999597 0.058297902 0.5239157 0.24970515 -0.05774241 1.0090553
-0.24919635 0.35672575 0.23466013 0.1450788 -0.37400204 0.43019024 -0.07977926 0.6859794
0.15673548 -0.00052876206 0.27702606 -0.5849102 0.062236458 -0.41472167 0.0026010363 -0.2330779
0.27522632 0.60916454 0.2775909 -0.9998778 0.59323037 0.3923317 0.20411165 -0.88023716
-0.12522195 -0.45423526 -0.10506236 0.80117494 -0.062326115 -0.12719928 0.112276755 -0.6770849
0.38062415 -0.60172373 -0.057739537 0.13527334 -0.3403786 -0.015257248 0.40034923 -0.051079288
-0.07262397 0.10615338 0.37167597 -0.53364146 0.16568257 0.16755226 -0.17838706 0.97160995
1.1988734 -0.036493443 -0.2533835 -0.55181897 -0.36017975 0.1837023 0.29912454 -0.13713472
0.3387101 -0.9030643 -0.25410953 0.40947986 0.1189314 0.2465572 -0.08234875 1.0364212
-0.011309546 0.35593992 0.553251 -0.635548 0.16166034 0.3462192 0.08665186 1.2491697
0.012378527 -0.26581997 0.11813075 -0.9254386 -0.73220813 -0.048200425 -0.036066838 0.83596647
-0.5382628 0.26684538 0.24525984 -0.37415957 0.2281363 0.6300839 -0.018642522 -0.48390448
0.496698 -0.60025966 -0.37334895 -0.15703385 0.40730172 0.05827695 -0.20147355 0.9623228
-1.1165615 -0.17363489 0.10954942 0.27543202 0.39687607 0.110904515 -0.017162837 0.9311914
-0.23107843 -0.5148789 -0.36886406 0.8057896 -0.51576596 0.6041267 -0.026022784 0.10916477
-0.58928823 8.877638e-05 -0.050000664 0.86445767 0.6849164 -0.8858549 0.09314302 -0.39072308
-0.07092902 -0.09597465 0.19023521 0.23378745 0.41212925 -0.8041192 0.13089973 -0.5618895
-0.39683712 -0.47902912 -0.13116977 1.0084319 1.0027065 -0.6204827 -0.48515707 -0.084073275
0.30878899 -0.5550051 0.012361273 -0.7783578 -0.39127627 -0.024326662 0.5208763 0.20584069
-0.053468328 0.89901096 0.6347227 -0.30565372 0.20032464 -0.40066066 -0.050842565 -0.79251426

en1.bias f4 [500]
00000000: 55b5 dcbe 4290 65bd 16de 91be c475 4f3f
00000010: 06fd 45bd 8567 04bf f5e9 44bf 9585 1c3e
00000020: 7f21 ba3e 9c07 ebbe c677 e3be e654 f63e
00000030: 76aa a5be 06ca 68be c8b9 75bf c810 793d
00000040: 8037 89bf fa92 6dbf baf0 043e 51dd eb3e
00000050: fe1d 55bd 8367 993e 3607 87bf 850f c23c
00000060: 2be6 ffbe 8527 8dbe 964d dd3e d5f0 09bf
00000070: 2187 003f cc0f 7a3f 3fc4 653e 2f54 2abd
00000080: ed41 4bbf 5bf3 423f 9060 da3e 6683 723f
00000090: 98ff 033f a7a0 25bf b057 dabd 055a a23e
000000a0: 253b 43be 9802 33bf 4576 00bf 5f7a 4ebf
000000b0: 6785 5a3f ee9c e9be da1f 513e 8dbf d0be
000000c0: 6b77 443f 572d 18bf 05b2 bcbb 4d20 1fbf
000000d0: 73bc b4bd 8fec 3cbf b0f3 783e 62c5 143f
000000e0: 314c 1b3f 5d79 693f 995d 7cbe af24 1d3d
000000f0: 8b6f 7b3f 8cb5 253f 8ca8 a1bd 65aa 823f
00000100: f8df 43bf 280f b4be c4fc 273f 3495 7e3f
00000110: f8a2 2e3f 0055 2dbf 8f65 473e 5bf9 16bf
00000120: af19 0b3f f2ef 4b3f a005 da3e 3e78 123f
00000130: 2896 13bf 75a7 85be ad95 1a3f 97fe 303f
00000140: a9e3 2abf 4a74 3b3f c116 8dbe 790f 22bc
00000150: 87fd e23e c417 ac3e f056 1ebf 2250 3a3f
00000160: 391d 693e 3b69 623f b18b 58be 3fee 0c3f
00000170: ae58 543e 4b3d 1ebf 944e ce3e 114d 68be
00000180: 11fc 083e 8f9f 87bd c04b b8be 09cd f4be
00000190: a4de d3be 9a8e a03e ca26 803f 8e4f 353e
000001a0: 1565 323f b19c 103f 3d62 44bd ea74 44bf
000001b0: 2786 f33e 5476 05bf 5bdb 92be 4b2c d5be
000001c0: 2e36 2fbf b073 97be a5f1 74bf a082 543f
000001d0: db64 ec3d bd75 843f 0e76 143f 770d 393f
000001e0: a482 0bbf a5ac 1e3f f9ec 443f 208b e9be
000001f0: 8cd6 30bf 31d3 76be 9a97 65bf bd7a f4be
00000200: 8174 ecbe 7d38 933d d209 8d3e 1a8e 11bf
00000210: 972a 24bf 3e6b e8bd 7bbf 0bbf a185 ce3e
00000220: b721 363f 1cb0 a5be d766 93be 3da8 3b3f
00000230: fa1c 75be 2e57 22bf 37c5 a2bd 17bb 5d3e
00000240: faa0 2d3f 931e 27bf 9c00 8b3e 5629 f7be
00000250: 08a5 5e3f a702 473c 6cd2 7bbe aab5 663f
00000260: bb83 783e bc1d 5d3f 87e4 d53e 73b7 7abf
00000270: dab4 2f3f 63b7 903e 1717 7cbe 5074 513f
00000280: 6e49 2abf 3752 79bf 77ff f43e 3119 e23d
00000290: e94e 553f a18c 16be d663 ecbe 989c d83e
000002a0: e034 173e 7f37 723e d15b c63e 7067 1cbf
000002b0: d2e3 a63d dd2a 69bd 0f0f 053e d49c 1abf
000002c0: 9504 303c 46d3 1d3f 0cba 1dbf f246 88be
000002d0: 427c 1b3f 5838 32bf 7405 7fbf dc52 07bf
000002e0: d626 f1be d839 f7bc a46a 1bbd 5ee3 443f
000002f0: 1c0b 4abf a363 253f 9b39 efbd 902c b83e
00000300: b13f 463f 7911 1dbf 2ad3 21bf b9ac e53e
00000310: 01e2 733d ef8f 253f e502 38bc 8f9c e73e
00000320: 5486 b93d 94d0 2f3f d8cb e13e 72f2 27bf
00000330: a9ee fc3e 26b4 48bf 8ef1 813f c296 4ebf
00000340: 7970 82bd 26cf 04be ed91 11be 1812 373f
00000350: 41e6 35bf 206c 0cbf 8348 0d3f 9ac4 153f
00000360: 04eb 473f 7f22 893f c77a 31be 09b7 2ebf
00000370: 9f14 d63e c435 283f 8b53 b0be 76e5 2ebf
00000380: ea07 fa3e 0598 243f 3f5d 11bf ce30 50be
00000390: 2efd 19be ea00 4cbf 67b6 16bf 7bf4 85be
000003a0: 609f e23e dca8 7b3f 8493 e23c 4fc6 75bf
000003b0: 3ce9 843f 8975 163e fa77 c83d e2a7 e1bd
000003c0: 7c3c 81bb faa5 f2bd e5d7 a83e b32c 523f
000003d0: a16a 843d 69f9 823e 206b 14bf 89ba 72bf
000003e0: cbdf 323f 16dd 073f 2762 31bf f4ea 863f
000003f0: 8fc4 48be c00e 2a3f 53f8 02bf e4dd 33bf
-0.43107095 -0.056045778 -0.2848975 0.8103907 -0.048337005 -0.5172046 -0.7691949 0.15285333
0.3635368 -0.45904243 -0.44427317 0.48111647 -0.32356614 -0.22733316 -0.95986605 0.06080702
-1.0720062 -0.92802393 0.12982455 0.4606729 -0.052030556 0.29961786 -1.0549076 0.02368904
-0.49980292 -0.27569214 0.43223256 -0.53883106 0.5020619 0.97680354 0.22438143 -0.04158419
-0.7939747 0.7615258 0.42651796 0.9473175 0.5156188 -0.6469826 -0.10661256 0.31709304
-0.1906553 -0.6992583 -0.50180465 -0.80655473 0.85359806 -0.4562754 0.20422307 -0.40771142
0.7674472 -0.59444183 -0.0057585263 -0.6215866 -0.08825006 -0.7379846 0.2431171 0.5811368
0.60663134 0.9120081 -0.2464508 0.038365062 0.98217076 0.64730144 -0.07893476 1.020825
-0.76513624 -0.35167813 0.65620065 0.99446416 0.6821742 -0.67707825 0.19472335 -0.58974236
0.54336065 0.79663 0.42582417 0.57214725 -0.57650995 -0.26104322 0.6038464 0.69138473
-0.6675363 0.7322432 -0.27556422 -0.009891384 0.4433405 0.33611882 -0.61851406 0.7277852
0.22765054 0.8844182 -0.21147038 0.55051035 0.20736954 -0.61812276 0.40294325 -0.22685649
0.13377406 -0.0662223 -0.35995293 -0.4781268 -0.413808 0.31358796 1.0011837 0.17706129
0.6968549 0.5648909 -0.04794525 -0.76740897 0.47563288 -0.5213368 -0.2868298 -0.41635355
-0.68442047 -0.2958045 -0.9568122 0.8301182 0.11542674 1.0348431 0.5799264 0.7228617
-0.54496217 0.61982185 0.7692409 -0.45613956 -0.6907737 -0.24104 -0.8968445 -0.47749892
-0.46182635 0.07188509 0.27546555 -0.56857455 -0.64127487 -0.1134858 -0.5458905 0.40336326
0.71145195 -0.32360923 -0.28789398 0.73303586 -0.23936835 -0.63414276 -0.07947772 0.216534
0.67823756 -0.6528103 0.27148902 -0.48273724 0.8697057 0.012146628 -0.24591988 0.9012095
0.24269001 0.86373496 0.41775915 -0.9793617 0.6863533 0.28264913 -0.24618183 0.81818104
-0.66518295 -0.97391075 0.47851154 0.11039961 0.8332353 -0.14702083 -0.4616992 0.42306972
0.14766264 0.23653983 0.38741925 -0.61095333 0.08148922 -0.056925643 0.12994026 -0.6039555
0.01074328 0.616505 -0.6161201 -0.26616627 0.6073648 -0.69617224 -0.99617696 -0.5286081
-0.47099942 -0.03017895 -0.037943497 0.76909435 -0.789232 0.6460516 -0.11680909 0.35971498
0.77440935 -0.61354786 -0.63212836 0.4485834 0.059541706 0.6467275 -0.011231159 0.45236632
0.09058824 0.6867764 0.44100833 -0.6560432 0.49400833 -0.78399885 1.0151842 -0.8069879
-0.06369109 -0.12969646 -0.14215823 0.71511984 -0.71054465 -0.54852486 0.5518877 0.58503115
0.7809298 1.0713652 -0.17331992 -0.6824804 0.41812608 0.6570704 -0.34438738 -0.6831888
0.48834163 0.64294463 -0.5678291 -0.20331118 -0.15037987 -0.79688895 -0.58872074 -0.26163086
0.44262218 0.98304534 0.027658232 -0.9600572 1.0383677 0.14693274 0.09788509 -0.11018349
-0.003943978 -0.11848064 0.32977214 0.82099456 0.0646565 0.2558091 -0.5797596 -0.9481588
0.6987273 0.53071725 -0.69290394 1.0540452 -0.19606231 0.66428757 -0.5116016 -0.70260453

en2.weight f4 [200, 500]
00000000: 1d0c b3be f3f9 fbbc 8d62 03be 647a b8bd
00000010: 5eb3 063e cbfe a33e 221c 353e 96a5 32be
00000020: 37e7 f6bd 565b ea3e fad3 fd3c e818 9fbe
00000030: 12af cd3e 323c 6b3e 5525 f83e 671b adbe
00000040: fef1 d53d f037 f43e fc5e 96be e831 99be
00000050: b395 b03d c354 e6bb 628a 9c3d f1a4 34ba
00000060: d1a0 ecbd 1d54 bc3d 63b5 0ebe cd65 853e
00000070: aa79 07be 8e15 42be cb6f fabd 612c eebe
00000080: 7d9e 853e 20f1 dabe bbbf 25bd 26fb 4cbd
00000090: b651 81be 6f53 dc3e b936 c7be cc30 b5be
000000a0: 968b a33b 0bdb f63e bc24 73be 9222 a13e
000000b0: 1f50 07bf 94c5 c33e 5e4b 18be a75b 6a3d
000000c0: 9627 083d bb07 c43e 349c 243e de9b fb3d
000000d0: 2b75 533e b2f9 4fbe 08e6 fe3e 9e18 823a
000000e0: 4080 753e f3ae 4c3e e381 8b3e 155f 26be
000000f0: 6d62 e83d 1484 c53e 588b a53d b874 8dbd
00000100: ea71 1e3f a0b1 8cbe 5d42 283e f027 b3be
00000110: 1790 21be 8719 073e 3b2b 61be 2487 1b3e
00000120: 75ba 51be be17 843d 7033 4bbe 27a5 2bbe
00000130: 0e3b eb3c 7c95 32be ff98 2dbd c343 18be
00000140: 0c56 523e fec2 d3bd 20b8 183e 6c74 de3d
00000150: 0736 db3d 4023 12bf 1d65 403e abc6 95bd
00000160: e166 db3c b36b 933e e542 1ebe ed7c 27be
00000170: e0bb 4c3e df28 1d3e 8aa5 41be 2e00 8a3b
00000180: 9e08 813d 9cc4 66be e86f 83ba db67 4f3e
00000190: b3b4 ca3e 89bd 84be ebd7 d5bc 4b49 bdbb
000001a0: 968b c63e 5d7a a4be 316e 733e 07cd b83e
000001b0: 5b23 e63c 1977 3b3e a40a f13d 2388 a63e
000001c0: c807 0c3f b847 b9be d64b 9bbd 91f5 5cbe
000001d0: 1de4 fd3d 330f 343e a0dc 3cbe f017 11bf
000001e0: e3a3 c03e 728a adbd 3fea 94be 9fd0 7cbe
000001f0: 8082 d03e 9d31 0abd 75c2 bf3e aba9 f6be
00000200: 5e49 973e 7c39 26bd 6df2 1fbd 6b0d 413e
00000210: 32e8 333e b39a d53d 2d7b 613e 94aa e0bd
00000220: fcff b9be b4bf c93d 3a0f 8fbe 19a4 cf3d
00000230: e854 7a3e 2bb0 d1bd 4851 13bb cbce cabe
00000240: 56ee e5bd 1926 e63d 15cd 263e 5c08 123f
00000250: 0698 90be 3c07 063e a2b0 c63e 658f ed3d
00000260: 035b 31be 0dda 023d 6072 94be fd21 a0bd
00000270: 4822 2e3d 1e15 56be 822f 8e3e e281 bebe
00000280: e170 803e c9aa 153e 9c72 493e 4b41 823e
00000290: 8f6e cb3d 5939 fabe 32e5 243e 4e75 96bd
000002a0: 6909 c03e 7a34 98be 3dcd fabc dfd6 513e
000002b0: 65a5 b7be b1b7 873e 97ff 77be 3e4d e63e
000002c0: 8959 05bf cc6f 59be 5406 883d 8d26 69be
000002d0: 415f 1fbe 3292 233e 582e 5f3e 8004 01be
000002e0: a47c 1dbd 995f 973d 8710 6e3e 6567 aebe
000002f0: a116 f13e 7b48 3fbe b725 0a3e 6a21 c13e
00000300: e11f 37be 96ee b3be 5248 063f f3e0 5cbe
00000310: 0b24 5e3e 562f 4cbd 8989 f53e 70cf c8bd
00000320: a429 443d ee45 63be 42db c8be d743 e73d
00000330: 3ac8 a4be aca0 1c3e 20b4 583d 5efe c93d
00000340: 2e7e d8bd 1305 963e 30a4 303e b4c8 393e
00000350: a523 2d3e a938 80bd f06e 453d c62b 4cbe
00000360: 35cb 8dbe 0691 483e 68ed 413e 2ec9 b13e
00000370: 6d80 f9be d6ba b5be e207 e13d 1ce3 0e3f
00000380: 09aa 6bbe 307e a3bd 8fef ae3e 42e9 e3bd
00000390: eca0 6ebe 507b 3a3e 243e a23d 3f75 45be
000003a0: 56e3 99bd ba3d c93d 82c0 be3e 3c5e 0fbe
000003b0: c7cc 933d 0aee c8bd 2d17 69bf ea87 24bd
000003c0: 91b8 c43c e1a4 de3e 7aea 49be 04c6 6bbc
000003d0: a21c b7bc 631b ebbd 3622 1c3e 75b2 c33d
000003e0: 77ba 85be 0f56 78be 6de2 983e 6584 813d
000003f0: 9306 07be adbe 82be 19fd 663e 525c cd3d
-0.3497018 -0.030758834 -0.12830563 -0.09007719 0.1315436 0.3203033 0.17686513 -0.17445979
-0.120558195 0.4577281 0.030984867 -0.3107369 0.4017263 0.22972181 0.48465982 -0.3380997
0.10446547 0.47698927 -0.29369342 -0.29920888 0.08622303 -0.0070291474 0.07643582 -0.0006891033
-0.11554111 0.09195731 -0.13936381 0.2605423 -0.13230005 -0.18953535 -0.12228354 -0.46518233
0.2609748 -0.4276209 -0.04046605 -0.0500442 -0.25257653 0.43032405 -0.38908938 -0.35388792
0.004991005 0.48213992 -0.23744482 0.31471688 -0.5285663 0.38236678 -0.148725 0.057216313
0.033240877 0.38287148 0.16075212 0.12285589 0.20650165 -0.20310095 0.49784875 0.0009925549
0.23974705 0.19988613 0.27247533 -0.16247208 0.11346898 0.3857733 0.08083218 -0.06907028
0.6189257 -0.27479267 0.16431566 -0.34991407 -0.15777622 0.13193332 -0.21989147 0.15188271
-0.20481284 0.06449841 -0.1984384 -0.1676222 0.028714683 -0.17439836 -0.042382237 -0.14869599
0.20540637 -0.10339926 0.14913988 0.108620495 0.10703664 -0.5708504 0.18788572 -0.073132835
0.026782455 0.28793105 -0.15455206 -0.16356249 0.19993544 0.15347622 -0.18910804 0.004211447
0.06300472 -0.22535938 -0.0010027857 0.20254461 0.39590988 -0.25925854 -0.026103934 -0.0057765595
0.3877837 -0.32124606 0.23772503 0.36093923 0.02809303 0.18307151 0.11769608 0.3252574
0.54699373 -0.3618753 -0.07582824 -0.21578051 0.12397025 0.17583923 -0.18443537 -0.5667715
0.37625036 -0.08473672 -0.29084966 -0.24688958 0.40724564 -0.03373872 0.37453046 -0.4817632
0.29548162 -0.040582165 -0.039049555 0.18852775 0.17569044 0.10429897 0.22019644 -0.10970035
-0.36328113 0.098510176 -0.27941304 0.10138721 0.24446452 -0.102386795 -0.0022478867 -0.39610896
-0.112270996 0.11237735 0.1628917 0.57044005 -0.28240985 0.13088697 0.38806635 0.11599616
-0.17319874 0.03194623 -0.2899351 -0.07818983 0.042513162 -0.20906493 0.2777062 -0.37208468
0.2508612 0.1461593 0.19672626 0.2544044 0.09933197 -0.48871878 0.16103056 -0.07346593
0.3750718 -0.29727536 -0.030615443 0.20492123 -0.35868374 0.26507333 -0.24218594 0.44980806
-0.52089745 -0.21234053 0.06641832 -0.22768612 -0.1556368 0.15973738 0.21795022 -0.12599373
-0.038448945 0.07391281 0.23248492 -0.3406326 0.47087577 -0.18679993 0.1349095 0.37720805
-0.17883255 -0.35142964 0.524541 -0.21570186 0.21693437 -0.04984983 0.47956493 -0.098051906
0.047891274 -0.22194645 -0.3922978 0.11292236 -0.3218401 0.15295666 0.052906156 0.0986297
-0.10570942 0.29300746 0.17250133 0.18142968 0.16908129 -0.06260807 0.0482015 -0.19938573
-0.27694097 0.19586572 0.1893822 0.347238 -0.48730794 -0.35494107 0.10987832 0.5581529
-0.23014082 -0.07983053 0.34167144 -0.11128475 -0.23303574 0.18211102 0.07922009 -0.19283007
-0.07514064 0.098262265 0.37256247 -0.14000791 0.072167926 -0.09811027 -0.9105099 -0.04016868
0.02401379 0.43485168 -0.19718352 -0.014390472 -0.02235252 -0.11479833 0.15247425 0.09555522
-0.26118824 -0.24251579 0.2986025 0.063240804 -0.13186102 -0.255361 0.22557487 0.10027374

en2.bias f4 [200]
00000000: c10b 1a3f 1044 373f 372a 323f 78bc 513f
00000010: b23d 0abf da35 53bf efaf 673f 1719 12be
00000020: 33d4 debe 220a 4d3f 55f5 e83e 7265 ce3e
00000030: 4cab 00bf 3d86 26bf 0758 933d bc5e 5cbf
00000040: 38c1 d83d 910a e63e 1d36 453f eaec 543e
00000050: e868 3f3f 1ff3 52bf 6713 55bf 5561 04bd
00000060: a12c 713c 603d 42be b8a2 7c3e 1713 3e3f
00000070: 7c84 733f d310 27bf 2668 a13e 1301 5ebf
00000080: 7956 6e3f f04a 6d3d 2727 ccbd fed6 e13e
00000090: 4b7e b8be 608e debe 03ad 463e d0da b2be
000000a0: d48a ec3d 3085 bfbe e412 143e 2264 74be
000000b0: aee1 913e 10e3 babe 37f3 d03e 99ac f33e
000000c0: fd14 d7be d05a babe 8c56 103e b895 383f
000000d0: 4a55 823f be71 ebbe 56e5 27bf 89bc 363f
000000e0: 0f06 4fbf f253 453f b2ce f73e 6f51 0a3f
000000f0: dae5 153f 41e5 163f 6b57 adbe 5809 05bf
00000100: 2637 b3be 4967 543c e7c4 f23e 2963 3b3f
00000110: 823c b63e 9485 063f 9797 f0be 442c 273f
00000120: f198 42bf 5818 6b3f 45f7 f63e 787f 8d3d
00000130: eddc 6cbf 0ec8 32bf f4c2 66bf c289 673f
00000140: ccaa 79bf 01ec 6a3f f1d0 8c3e 19eb 983d
00000150: e9bf fc3e 18c5 f43e 8d84 95be 956b 83bf
00000160: 798a f3be 645b a73c af28 c6be 8756 41bf
00000170: 1dd0 5e3f 79cc 1fbf 605b 443f ae5a 283f
00000180: 7c09 f13e bc86 093e 5abd 163f bb81 e33e
00000190: ec48 4a3f e1dd d03e df1e 08bf 72db 50bf
000001a0: 71b9 173f d13a 0cbd f037 b4be 8913 5abf
000001b0: 389c 013e 06cd 903e d0a4 5e3f 28af e03e
000001c0: 40d5 a5be 786f 513f 5e14 9d3e 88a3 63be
000001d0: 8b63 aabe 3ae9 e83e dd8a 0ebf 2554 4c3f
000001e0: cad4 363f 71d1 d23e dd5c 84bf a0d3 903e
000001f0: c225 94be 8ee6 38bf 9d1b 25bd b64e b0be
00000200: c3e8 363f 842c 893e 4dc3 5f3f 55b2 61bf
00000210: ba36 2a3f 6dd8 383f b967 763e 8273 3b3c
00000220: 0c97 00be 966f b1be d75f 803e 3fd5 fb3e
00000230: 8fde f7be 99ce b9be 8a3e 88be 5de2 2d3f
00000240: 7669 5f3f b2fa f23e 18bf 08bf 7737 86be
00000250: a6bd 6d3f f4e2 333f 7e7a 263f 5221 393f
00000260: 2d6a 46bf d584 d33e 878f 2f3f 6642 0ebf
00000270: e304 36bf 745c bf3e ea12 d03e 0e53 503f
00000280: 5c6e 96bd aec5 b1be 8159 0b3e ba24 46bf
00000290: ff44 3d3e fd90 6b3e 55ab b63e 6b8e a73e
000002a0: 713c 01bf 9c28 14bf c118 08bf dedd 54bf
000002b0: d620 bfbe eea0 52be 393a dcbd 6b95 50bf
000002c0: 84e1 503f a113 503f d709 083f 1be7 86bd
000002d0: 3f85 bf3e 05a7 f2be e286 09bf 0b99 a23e
000002e0: b4ba 36bf c325 0abf 41f0 363f 11ae 4c3f
000002f0: 41ce 79be f30b f73e 3371 39be 27be e1be
00000300: 70a1 593f 28fc a9be 1d9d 163f 6b18 e83d
00000310: 7877 0cbf ebac 423f 6c0e be3e 931d 8cbe
0.60174185 0.7158823 0.69595665 0.81928205 -0.5400039 -0.82504046 0.9050283 -0.14267384
-0.4352127 0.80093586 0.45499673 0.40311772 -0.5026138 -0.6504858 0.07194524 -0.86082053
0.105837286 0.44929937 0.77035695 0.207935 0.7476945 -0.82402223 -0.8323273 -0.032319386
0.014720113 -0.18968725 0.24671447 0.7424788 0.9512403 -0.65260047 0.3152477 -0.8672039
0.93100697 0.057932794 -0.09968405 0.4410934 -0.36033854 -0.43467999 0.19401936 -0.34932566
0.11549917 -0.37406301 0.14460331 -0.23866323 0.28492492 -0.3650136 0.40810558 0.4759262
-0.420082 -0.3639741 0.14095515 0.7210345 1.0182278 -0.45985216 -0.65584314 0.7138143
-0.8086862 0.77081215 0.48399884 0.5403051 0.5855385 0.58943564 -0.33855757 -0.5196738
-0.35003012 0.012964078 0.4741585 0.7319818 0.3559304 0.52547574 -0.46990654 0.6530192
-0.7601462 0.9183402 0.48235527 0.06909078 -0.92524606 -0.6983651 -0.90141225 0.90444577
-0.9752624 0.91766363 0.2750316 0.07466716 0.49365166 0.4780662 -0.2920269 -1.0267206
-0.47566584 0.02042932 -0.38702914 -0.75522655 0.87036306 -0.62421376 0.7670193 0.65763366
0.47077549 0.13430303 0.5888268 0.44434914 0.7901752 0.4079428 -0.53172106 -0.81584847
0.59267336 -0.03423578 -0.35198927 -0.8518606 0.12657249 0.2828142 0.86970234 0.43883634
-0.3238926 0.8181071 0.306796 -0.22230351 -0.3327907 0.45490438 -0.5568064 0.79815894
0.7141844 0.41175416 -1.034084 0.28286457 -0.28935057 -0.722268 -0.040309537 -0.34435052
0.71448916 0.26791775 0.8740738 -0.8816274 0.66489756 0.7220524 0.24063005 0.011441113
-0.1255762 -0.34655446 0.2507312 0.4918613 -0.48411986 -0.36290434 -0.26610214 0.6792353
0.87270296 0.4745689 -0.53416586 -0.2621419 0.92867506 0.7026818 0.6503066 0.7231647
-0.7750576 0.4131228 0.6857838 -0.55570066 -0.71101207 0.37375224 0.4063943 0.8137673
-0.07345268 -0.3472113 0.13608362 -0.7739979 0.18483351 0.23004527 0.3567759 0.32725844
-0.5048285 -0.57874465 -0.5316277 -0.8315104 -0.3732974 -0.20569202 -0.107532926 -0.81477994
0.8159411 0.8127995 0.53140014 -0.065870486 0.37406346 -0.4739305 -0.5372144 0.31757388
-0.71378636 -0.5396387 0.7146035 0.79953104 -0.24395086 0.48251304 -0.18109588 -0.44090387
0.8501196 -0.33200192 0.58833486 0.11332782 -0.54869795 0.760451 0.37120378 -0.27366313

en3.weight f4 [100, 200]
00000000: 7307 123e c541 b73d febe 45bd 3239 b1bc
00000010: 1efc e13e a3ab afbe ed9e 5a3e 5257 38be
00000020: cb28 b0bc 2496 0abe b72a 19be 54d2 47be
00000030: 6692 d9be 76d0 163e 30ed d73f 1d26 a7bd
00000040: 6061 4f3d 1dd7 dd3b dd9e 103e c5a0 a93c
00000050: 5502 70bd a174 76bd d688 ab3d 0c03 e63c
00000060: e337 553d caa7 aa3a 5130 bdbd 6e6e 77be
00000070: 0f51 bf3b f351 aebd 5c2f 813c f36c f73c
00000080: e715 013e a618 3abe cb3c 903d f76d 2b3e
00000090: c64c 0bbb a8ba 49bf dd59 183f 8431 e7bd
000000a0: 3545 1ebd a737 25bd 6837 4bbd 1235 783c
000000b0: 396b d4be fe0e eb3d 51c6 583f 9e0f a63f
000000c0: a965 283e 3dfe 4cbf 93a4 f1bd 35ef 323e
000000d0: d6b4 5a3d 88af 8ebe 8e6f aabd 0021 66be
000000e0: cff5 08be f1bf d63d 8dd7 453e c934 333d
000000f0: da4f 793c 8c27 59bf 9485 d4bf a6f9 473c
00000100: 27c6 a03e d1e6 52be dcc2 2dbe f29e 6f3d
00000110: 32ef 97bd 2fd9 d6bd b4e5 2cbd 5889 793c
00000120: cc26 be3e 2a5c 1e3e 2313 4f3d 0ca0 5e3d
00000130: 8eae f5bd a6b3 92be 2054 5d3f 6ba4 b43c
00000140: 1fe2 8cbe 57c4 dc3d c9f3 29bc bed5 d8bf
00000150: c308 9eba d32b 053c 06c7 303f ce85 a83f
00000160: ef7f 7d3d 5858 d73d 094c 90bd fd04 e93d
00000170: 4f68 ddbd 8053 33be dd35 1e3e 963c 513e
00000180: 7bdb 763c 97e9 40be 9ab4 47be 9b2a dbbe
00000190: 6310 1e3e 09d1 ed3d db52 ad3e e3b8 2abe
000001a0: a11a 933d e96b ad3d c162 4c3d fbf1 edbd
000001b0: 8b1d 2fbd c099 bd3c d6b9 50be 470f dcbe
000001c0: 8daa e33c d867 c03e 7fd4 ae3e 54be bebd
000001d0: c4f5 953c 23c9 76be 132d 953e 7bf9 95be
000001e0: 4188 ec3d c396 f53d 80ae f83d 6392 a83e
000001f0: 1e8e a63a 4f3f 21be 946f a7be d37a e73c
00000200: 1965 613e e11b 193c 4df6 aa3d bb19 fabd
00000210: 02ce 653f 45ab 3b3e 27f8 633b 4923 7cbd
00000220: 3ced d1bd d806 443e 5dbd eabc 0b0a 6fbe
00000230: c983 29bb 8176 933e ee1f 973d fb44 bebd
00000240: a15f 933d cfbd 5a3f 97b8 32be f21a 62bd
00000250: c0e2 a8bb 30cb 033e b97a 49be c854 713d
00000260: f278 b9bd 16eb a83d 22e4 593d 5e33 643d
00000270: 3e23 773d 337a 703e 6bdb 593f 0b71 80bc
00000280: c213 b53e cb5a dbbe e505 93bc 9e21 4fbd
00000290: 71a5 473d 20ae 34be 7053 ea3d 32f0 06be
000002a0: 388f b53d 267b 813e 124a efbd 5933 fcbd
000002b0: b804 c53e ae84 caba 0031 a73e 6a93 25be
000002c0: e75f 213e e054 f3bc a9ba f43f 6e43 943e
000002d0: 0223 33be b1c0 983e b373 9ebf 6c19 f9bb
000002e0: 1df1 05be 2390 c0bd 07a2 2a3e 5a6d 01be
000002f0: 93d4 3d3d add5 9fbe f1cb 4ebd 3e5d 9ebe
00000300: 351a 023e 66c9 4abe e5e7 c4bd 028a 3ebf
00000310: 5fb2 723e 48aa 7e3e b5c1 3b3e 2ffb 64bd
00000320: c6f8 afbe 9118 c2be 763c 6abe 770e 1ebf
00000330: 030e ca3d b571 2abe 2388 c5be 6d5b 65bc
00000340: 7bbb 33be 7e6d cebe e86d cc3e f1ae e63b
00000350: 7b22 383e 5738 a53d 27c8 85bd 1594 c83e
00000360: 3528 d73e 25ef a3be f10c 37bd 512f 5d3e
00000370: e862 d1be df6d 373e cb31 683c 41c9 b93d
00000380: c755 3d3e 99e1 073e f3d9 8f3d 3c68 8a3c
00000390: 8f95 78be c772 4c3e 53ac 76be 279b f33e
000003a0: 5f7e 17be d1a8 8e3d a93a 13be 04cf 4dbe
000003b0: d646 09be 97da 2cbe 280a 343e 47ac 41be
000003c0: b105 873d 31ad 98bd d241 393e c116 d5ba
000003d0: d0ff 993d 83bb e13d e892 073e 37c2 1b3e
000003e0: 473a 443e d8d2 e6bd c44b f03e 2177 a03e
000003f0: 872e 61be 7f8b 173e e74c ebbd 61c9 cebe
0.14260654 0.089480914 -0.048277847 -0.021633718 0.44137663 -0.34310636 0.21349688 -0.1800206
-0.021503827 -0.13533837 -0.149577 -0.19513828 -0.42494506 0.14727959 1.6869259 -0.081615664
0.050629973 0.0067700283 0.14123102 0.020706544 -0.058595974 -0.06016982 0.08375709 0.028077625
0.05205525 0.0013019976 -0.09237731 -0.2416322 0.0058385204 -0.08511724 0.015769653 0.030203318
0.12606011 -0.18173465 0.07042845 0.16741167 -0.0021255477 -0.7880044 0.5951212 -0.11288741
-0.03864022 -0.040336277 -0.049613386 0.015149372 -0.41488054 0.11477469 0.84677607 1.2973516
0.1644503 -0.80075437 -0.11798968 0.17474063 0.053395115 -0.27868295 -0.083220586 -0.22473526
-0.13375019 0.10485829 0.19320507 0.04375151 0.015216792 -0.8482597 -1.6603265 0.012205517
0.31401178 -0.20595862 -0.16968864 0.05850119 -0.0741867 -0.10490643 -0.04221125 0.015230499
0.37138975 0.15464845 0.05055536 0.05435185 -0.11996184 -0.28652686 0.8645649 0.022051057
-0.27516267 0.10779636 -0.010373064 -1.6940229 -0.0012057055 0.008128124 0.69053686 1.3165834
0.061889585 0.10514897 -0.070457526 0.113779046 -0.10810911 -0.17512321 0.15450235 0.20433268
0.015066977 -0.18839107 -0.19502488 -0.42805943 0.15435939 0.11612136 0.33852276 -0.16672091
0.071828134 0.08467848 0.049898867 -0.1161842 -0.042752784 0.023144603 -0.20383391 -0.42980406
0.027791286 0.37579226 0.34146497 -0.09313646 0.018305667 -0.24100165 0.2913595 -0.292919
0.11549426 0.11991646 0.12142658 0.32924184 0.0012707149 -0.15746807 -0.32702315 0.02825681
0.22011222 0.009345026 0.083477594 -0.12211939 0.8976747 0.18327053 0.0034785361 -0.061557088
-0.10250327 0.19143236 -0.028654749 -0.23343675 -0.0025865904 0.2880135 0.07379137 -0.09290501
0.07195974 0.85445875 -0.17453228 -0.05520148 -0.005153984 0.12870479 -0.19675721 0.058918744
-0.090562716 0.08247964 0.05319608 0.05571305 0.060336344 0.23484115 0.8510043 -0.015678903
0.35366637 -0.42842707 -0.017947147 -0.05056917 0.04874176 -0.17644548 0.11441696 -0.13177565
0.088652074 0.25289267 -0.1168405 -0.12314481 0.38480163 -0.0015450919 0.32654572 -0.16169515
0.1575924 -0.029703557 1.9119464 0.28957695 -0.17493823 0.29834512 -1.2379059 -0.0076019075
-0.13080259 -0.09402492 0.16663371 -0.1263937 0.046345305 -0.3121771 -0.050487462 -0.30930513
0.1270531 -0.1980339 -0.09614543 -0.74429333 0.23700856 0.24869645 0.18335612 -0.05590361
-0.34369487 -0.37909368 -0.22874627 -0.6174082 0.09865954 -0.16644938 -0.38580427 -0.013998848
-0.17551987 -0.4031791 0.39927602 0.0070398976 0.17981903 0.080673866 -0.06532317 0.39175478
0.42022863 -0.3201839 -0.044690076 0.21600081 -0.40895772 0.17913006 0.014172028 0.09071589
0.18489753 0.13269652 0.070239924 0.016895406 -0.24275802 0.19965659 -0.24089174 0.4757931
-0.147943 0.06965793 -0.14377846 -0.20098501 -0.13405928 -0.1688026 0.17582 -0.18913375
0.065928824 -0.07454909 0.18091515 -0.0016257392 0.075194955 0.11022093 0.13239634 0.15210806
0.19162856 -0.11270684 0.46932805 0.31340888 -0.21990405 0.14799307 -0.11489277 -0.40388015

en3.bias f4 [100]
00000000: e794 413e 2124 a8be b73b eabd 875a f93d
00000010: 4e4c 88be 5a9f 0abf 7b4d 56bd d119 8c3e
00000020: e7c4 f13d 2a52 a33d 1ebf 423e 234f 19bd
00000030: 9a43 0bbd 0c3d 2e3d 50ff 15bd 32d2 6bbd
00000040: 1e89 8c3d 417b e5be 08a1 05bc 7b7c d6bd
00000050: a47a b8be 51ed e13d 6398 f03e 57f8 1fbc
00000060: 15fd 8cbe d426 693d f42a 913e c6db d6be
00000070: 8686 023f c3dd 9c3d 624e 2f3e ed44 b43c
00000080: 28be 7dbd eb10 083d f2c5 173e 482f cabe
00000090: 176f 13be d4ea b23d 48ff 843e 7302 9cbd
000000a0: 88c2 b83c c8e9 c7be 5f04 f03d 4df6 a03d
000000b0: 0cac abbd fadf d7be d539 aabd 4375 343e
000000c0: aedb 6bbd 28c5 d63b 2307 4f3c b3c0 853e
000000d0: 6779 eb3e f21c e8be c92e debc 6c73 bc3e
000000e0: 6143 65be 5584 df3b 800c 24bd 8c46 b9be
000000f0: eab7 0cbf b003 e63c 7774 79be 23b5 3f3d
00000100: 0cea b6be 1830 1f3e dbcd d53e 1313 8e3e
00000110: 7d8f ecbc 2556 2fbd 4458 ccbc 60df eabe
00000120: 0104 5bbe 6a3e c33e 0044 83be b71f 9abe
00000130: 45f3 8a3e fdbf 3fbe 0d23 62be a849 2ebe
00000140: 1706 90be 5f9f 28be 9899 cb3e 7d02 543e
00000150: 44a9 bc3d 4ede b33c 8cf1 b4be 7a32 c43e
00000160: 76fd 543e 82f5 e13c dd1e e13e 8ee6 f93e
00000170: 0e28 c23d 1453 ce3b 00c6 873e e269 4fbe
00000180: b515 6dbe ee0c 9cbd 6efd 683e 03a2 313e
0.18904458 -0.32840064 -0.11437171 0.1217547 -0.26620716 -0.541494 -0.052319985 0.27363446
0.11805134 0.07974656 0.19018218 -0.037428986 -0.034000017 0.042538688 -0.036620438 -0.057573505
0.068620905 -0.44820598 -0.008156069 -0.104729615 -0.36031067 0.11031593 0.46991262 -0.009763799
-0.27536836 0.056921795 0.28353083 -0.4196455 0.50986516 0.07659485 0.17119744 0.022005523
-0.061948925 0.03321926 0.14821604 -0.39489198 -0.14397846 0.08736196 0.25976014 -0.07617655
0.022553697 -0.39045548 0.11719584 0.07859478 -0.08382425 -0.42163068 -0.08311812 0.17622857
-0.05758255 0.0065542646 0.012635979 0.2612358 0.4599106 -0.45334584 -0.027121918 0.3680681
-0.22388984 0.006821195 -0.040050983 -0.36186635 -0.5496813 0.02807793 -0.24360834 0.046803605
-0.3572544 0.1554569 0.41758618 0.27748927 -0.028877014 -0.042806763 -0.024944432 -0.45873547
-0.21388246 0.38133556 -0.25637817 -0.30102322 0.27138725 -0.18725581 -0.22083683 -0.17020285
-0.28129646 -0.16467045 0.3976562 0.20704074 0.09211972 0.02195659 -0.35340536 0.3831976
0.20799813 0.027582888 0.4396886 0.48808712 0.09480296 0.006296525 0.2651825 -0.20255235
-0.23152812 -0.07619654 0.22752926 0.17346959

en4.weight f4 [2, 100]
00000000: 4fbc 90bb c856 83bc a009 1c3d ed7e 873c
00000010: 0381 f4bd 0398 79bc 0bc4 843c 98cd c5bc
00000020: a08b 713b e439 8abc 7445 8c3e 3c7d c83c
00000030: 1e76 883c 26e1 013d 71e8 14bd 689f 73bc
00000040: e5a5 babc b0b0 883d 3f3e 8ebd bc7d cebd
00000050: 01d4 cc3d 3031 5dbd f3ba 113e c91a dc3a
00000060: 5d2c e93d 2ac8 8f3b 24d7 2dbe a020 693e
00000070: 592f b53d 8b36 8dbb d628 193e 6596 3238
00000080: 3f49 903b be87 55bc c6b5 063d 9e76 e63d
00000090: d986 1abe 600a eb3d 270d 563d 3786 51bd
000000a0: 4995 6b3c 4f44 c83c 4e65 6c3c d3c7 fbbd
000000b0: 6c3a 033c a2c6 50be 1456 3bbd efbf fdbc
000000c0: 5f3f 613c 2ddd 4e3c 9dcb 253b 2303 0cbe
000000d0: 3c37 903d e55d 913d b65b 8dbc 9076 01be
000000e0: 65cb 00be 5312 23bd 322c b93b 0909 fd3d
000000f0: e71e 87bc 50f3 c0bc e122 a3bd 9c87 34bc
00000100: 2182 813c c6e5 ad3d c129 cdbd 3e25 dcbd
00000110: 9132 1cbd bf29 44bd dfcc c2bd 78be 183e
00000120: 60a3 7c3c 39b7 7e3d 9474 b53d 3b56 2c3e
00000130: ad8f adbd d11a 8cbd 487f 053e debd 0f3e
00000140: 8de0 28be 9931 803c 7193 a53d 8541 bf3d
00000150: db38 d1bc ddcb 33bc 6c02 8cbe 87b6 96bd
00000160: 5f2a 0abd d985 87bc 0864 043e 1c1d 3e3d
00000170: 48ec edbc 2b5d 9b3b 7fbc bf3d 384d 70bd
00000180: 3e73 b23d aa91 bf3d 9ae2 2b3c c787 ca3d
00000190: 6aff 8cbb 78ed 013c 1e7e 163d 329f 883c
000001a0: bddd e3bd b31a 9f3d f718 d33c 9957 d8bc
000001b0: df41 923b 11e7 83bc 8ee7 8b3e 4e90 bc3c
000001c0: f233 803c bc6a 033d 8993 12bd b44b 70bc
000001d0: a151 a63c d312 243e eec2 9d3d ba56 adbd
000001e0: c056 c23d 214e 5bbd 385d 0e3e b1d6 66b9
000001f0: a94e d9bd c5c9 cbbb 279f 0e3e f1f9 593e
00000200: eb7c f8bd 1f52 8cbb 3072 09be ba53 663c
00000210: 0cf2 10bc d208 c8bb 830f f53c 27fe dc3d
00000220: c812 1c3e 5105 e23d 4726 8b3d 7a6a 5cbd
00000230: 7ee1 643c 6147 043e 89dd 563c ae69 eebd
00000240: 0b78 fa3b 4e08 49be 3bfc 30bd 11a2 ddbc
00000250: 5de1 5c3c 8095 f7bb df59 333b b57a e0bd
00000260: 3df9 893d d46d 83bd 3711 8e3c 3798 aabd
00000270: ebb5 f5bd 59b8 30bd d881 083a 7ee6 d93d
00000280: 7633 133c ae3a b6bc 1402 9cbd a92c 02bc
00000290: d842 843c 3662 963d 44a0 b2bd 6539 fc3d
000002a0: 37cf 453d fe54 38bd f81c b8bd 6fb1 103e
000002b0: 0d73 6a3c 474c 5f3d bd66 cdbd 7dd9 f5bd
000002c0: 2c2e a6bd 9ba0 8cbd 5951 15be b36b 81bd
000002d0: fad5 2b3e fcd2 773c c926 a3bd b181 9c3d
000002e0: db80 cfbc a93a 17bb 316c 68be 96f8 a7bd
000002f0: 4cc8 08bd 96d3 81bc 3fc8 063e a982 d5bd
00000300: 0857 c9bb e6d8 b0bb 162d 993d 6069 5cbd
00000310: 529c 43bd 6300 b53d 90a1 263c 13ba c73d
-0.0044169794 -0.016032591 0.038095117 0.016540015 -0.119386695 -0.015233996 0.016206762 -0.024145886
0.0036856905 -0.016873308 0.2739674 0.024473779 0.016657885 0.03170886 -0.036354486 -0.014869548
-0.022784183 0.066743255 -0.06945466 -0.10082576 0.10001374 -0.054001987 0.14231472 0.001679265
0.11385415 0.004387875 -0.16976601 0.22766352 0.088469215 -0.0043094805 0.14956984 4.2578573e-05
0.004403263 -0.013032852 0.032888196 0.11253093 -0.15090503 0.11476588 0.052258637 -0.051153388
0.014378854 0.024446635 0.01442845 -0.12293973 0.008009534 -0.20388272 -0.045736387 -0.03097531
0.013748019 0.012625975 0.0025298365 -0.13673072 0.07041785 0.07097987 -0.017255645 -0.12642884
-0.12577589 -0.039812397 0.0056510204 0.12355239 -0.016494228 -0.02355352 -0.07965637 -0.01101866
0.01580912 0.084910914 -0.100177296 -0.10749291 -0.03813416 -0.047891375 -0.09511732 0.14916408
0.015419811 0.062186453 0.08860126 0.1682977 -0.084746696 -0.06841052 0.13036835 0.14037272
-0.1649191 0.01564865 0.08084763 0.09338669 -0.025539806 -0.010973898 -0.27345598 -0.07359033
-0.033731814 -0.016543316 0.12928784 0.04641448 -0.029043332 0.004741331 0.09362125 -0.05866739
0.08713387 0.09353955 0.010491038 0.09889179 -0.0043029087 0.007930152 0.03674137 0.016677473
-0.111262776 0.07768764 0.02576874 -0.026408957 0.004463419 -0.016101392 0.273251 0.023018029
0.01564977 0.03208421 -0.03578523 -0.0146664865 0.020302596 0.16022806 0.077031955 -0.084638074
0.094892025 -0.053541306 0.13902748 -0.00022014488 -0.10610706 -0.006219121 0.139279 0.21286751
-0.12133201 -0.0042822505 -0.13422465 0.014058048 -0.008846771 -0.006104567 0.029914623 0.10790663
0.1524154 0.1103617 0.0679441 -0.05381248 0.013969777 0.12917854 0.013114342 -0.116412506
0.007643705 -0.19632074 -0.043209296 -0.027054818 0.013481465 -0.0075556636 0.00273668 -0.109609045
0.067369916 -0.064174324 0.017342193 -0.08329814 -0.11997589 -0.043144558 0.00052073365 0.10639666
0.008984437 -0.022244778 -0.07617584 -0.007945218 0.016145155 0.07342951 -0.087219745 0.12315635
0.04829332 -0.04500293 -0.089899 0.14130186 0.014309657 0.054516103 -0.100293614 -0.12004373
-0.08114275 -0.068665706 -0.14581813 -0.0631937 0.16780844 0.015125986 -0.07966382 0.07641924
-0.025329998 -0.0023075736 -0.22697522 -0.08201711 -0.033394143 -0.015847962 0.13162325 -0.10425312
-0.006144408 -0.00539695 0.074793026 -0.05381143 -0.0477565 0.088379644 0.010170355 0.09752288

en4.bias f4 [2]
00000000: 400a 5f3d 57ba c1bd
0.054453135 -0.0945937

de1.weight f4 [100, 2]
00000000: 8d50 403f 42fe 19bf ff92 31bf 8092 f63e
00000010: 5cf8 0fbf fd87 333f 4809 3cbf 75e0 1a3f
00000020: d9a1 e2be a0d7 1b3f f3c6 4bbf b2f3 28bf
00000030: beae 42bf 74e3 76bf a7c2 d3be b4cd b53e
00000040: 3993 583f 0ca2 1ebf 2647 6f3f 50f5 d13e
00000050: a50d 183f efab 74be 701f 0dbf 8c67 1dbf
00000060: 6b49 09bf d7ae 3b3f 94f7 45bf a267 3d3f
00000070: 7b65 8b3e d36e 8cbe 970a 28bf 96ea 283f
00000080: f037 e53e ca4b e33d c5a6 f63e 2c1a 0ebf
00000090: 2f02 aabe 830f a83e 8281 363f c4ad 7ebd
000000a0: 2d18 403f 0a72 b4bb a7f5 693f efd4 ea3d
000000b0: 4e54 40be 0f29 ffbe 80ad 51be 0345 db3e
000000c0: db6c 033f 5b31 0a3f b9e2 a63e ff5e 0d3f
000000d0: bf8c e93e 158a 08bf 5bf8 553f ae16 613f
000000e0: fae1 2f3f 99d0 e83e 9f60 7cbf bca8 30be
000000f0: 0ea5 273f 7eca 233f 6844 f73d 86e2 03bf
00000100: 732e 35bf d9e7 8f3e d6e7 3ebf 7249 103f
00000110: 3ecb 11bf 1736 0abf fd5f 02bf c773 f73e
00000120: 33e7 153f 9f6e 24bf a406 48bf 2b43 483f
00000130: 4213 fb3e 40b5 1dbf 1212 19bf 8eeb 5abf
00000140: 2d2e 20bf d196 123f f805 1cbf 72e2 0bbf
00000150: 3303 8b3e 521d b7bd 2aca edbc 5393 eebe
00000160: 5c96 f63d a9b7 05bf 14bf 75be d2ec 59bf
00000170: 0f76 203e 5671 30be 9f28 393e 9a85 08bf
00000180: 03e8 75be 1fd3 7f3e aff1 09bf 79c2 0d3f
00000190: deac 27bf aa7a cc3e 1aef 7fbe 678b 6f3e
000001a0: 1353 a0be 2fcf c23e f873 e4be 3d58 20bf
000001b0: 94e7 b2be 6bf0 153f 354a 23bf e89e 5abf
000001c0: 9f43 c0be 06d0 ed3d 2a1a 723f 45e4 a03e
000001d0: 0a7a eb3d 9be7 453f 96ef 403f bf3c 003f
000001e0: 64ff 893e 872e d5be d44a 2fbf 7dbd 1a3f
000001f0: 4fba 433f cc00 cc3d d6c2 a93e 113a 07bf
00000200: 6f11 503f 993e fbbd 1f19 e9bb 82ea 9cbe
00000210: 3b7b 823f 7a38 543e b175 5c3e f384 7cbe
00000220: 8dd2 1fbf 6bcd 2c3f 3664 0c3f c357 27bf
00000230: 590b dabe f0ca 0a3f 4cb9 2ebe 5736 58bf
00000240: 7b30 b3bd 7cf8 eb3d e2eb 543f 97e1 0dbf
00000250: 665e ccbe 4a15 f43e b307 abbe 0b8f 3a3f
00000260: 85ea 983e 8d64 15bf 2759 01bf ceac 24bf
00000270: c8a7 283f 1e37 35bf c0e9 edbe d9cb 0e3f
00000280: e56f dd3b 3b38 66bf 8b84 3ebf 7fd8 07be
00000290: c017 b4be 8096 e63e f229 9bbe 871a 21bf
000002a0: a65c 80be 2b34 7dbf 8bce 693d 4873 073f
000002b0: 2c85 5abf f60d e2be 6b40 333f 74c0 d5be
000002c0: 6057 033f d3b1 2abf eb06 a9be 0a24 173e
000002d0: 27b4 803e 6608 653f 87a9 333e 31f8 25bd
000002e0: 6781 673f f1f7 573f 5c5e c93e dbe2 8f3f
000002f0: cf5b 973e 46fe 5fbe c70e 403f b74a 493f
00000300: e7b6 463f 069e 433f 5b24 a83e 1cc9 543f
00000310: dbef 32be 9ca3 70bf 9890 733e 5e4f 83be
0.7512291 -0.6015359 -0.69364923 0.48158646 -0.5623834 0.70129377 -0.7345166 0.60498744
-0.44264105 0.6087589 -0.7960045 -0.6599685 -0.76047885 -0.96440816 -0.41359445 0.35508502
0.84599644 -0.61966014 0.9346794 0.4100747 0.5939582 -0.23893712 -0.55126095 -0.61486125
-0.5362765 0.7331366 -0.773309 0.73986256 0.2722586 -0.27428302 -0.6564116 0.6598295
0.4476924 0.1109844 0.4817411 -0.55508685 -0.3320479 0.32824335 0.71291363 -0.062177435
0.7503689 -0.0055067586 0.9139046 0.11466395 -0.1878216 -0.49836013 -0.20476341 0.4282609
0.51337975 0.5398156 0.3259485 0.5522308 0.45615193 -0.53335696 0.83582085 0.8792523
0.6870419 0.45471647 -0.9858493 -0.17251867 0.6548623 0.63980854 0.12073594 -0.5151752
-0.70774 0.28106573 -0.74572504 0.5636207 -0.5695075 -0.53988785 -0.50927716 0.4833052
0.58555907 -0.64231294 -0.7813513 0.7822749 0.4903813 -0.6160469 -0.597932 -0.8551568
-0.6257046 0.5726138 -0.6094661 -0.54642403 0.27150878 -0.08941139 -0.029027063 -0.46596774
0.120403975 -0.5223337 -0.23998672 -0.85126984 0.15670036 -0.17230734 0.18081902 -0.5332886
-0.24014287 0.2498288 -0.53884405 0.55374867 -0.6549815 0.39937335 -0.24993554 0.23393022
-0.3131338 0.38048694 -0.44619727 -0.6263464 -0.34942305 0.58569974 -0.63785106 -0.8539872
-0.3755159 0.11611943 0.94571173 0.31424156 0.114978865 0.77306527 0.7536558 0.5009269
0.2695266 -0.4163706 -0.68473554 0.60445386 0.7645616 0.099610895 0.3315646 -0.5282298
0.812766 -0.12267799 -0.0071135904 -0.30647665 1.0193857 0.20724669 0.2152927 -0.24660091
-0.6243065 0.6750094 0.5484041 -0.6536829 -0.42586783 0.5421591 -0.17062873 -0.84457916
-0.08749481 0.11522004 0.8317243 -0.5542235 -0.3991577 0.47672492 -0.33404312 0.72874516
0.29866424 -0.58356553 -0.5052666 -0.6432618 0.65881014 -0.7078723 -0.464674 0.55779797
0.0067577236 -0.8992955 -0.74420995 -0.1326618 -0.3517437 0.45036697 -0.3030544 -0.629311
-0.25070685 -0.98907727 0.05708174 0.5291028 -0.85359454 -0.44151276 0.7002017 -0.41748393
0.513052 -0.6667759 -0.3301309 0.14759842 0.25137445 0.8946594 0.17545138 -0.040519897
0.9043183 0.84362704 0.39329803 1.1241106 0.29562232 -0.21874341 0.7502255 0.7862963
0.77622837 0.76413 0.32840237 0.8311937 -0.1747431 -0.9399965 0.23785627 -0.2564649

de1.bias f4 [100]
00000000: 6790 423e f5fa 6cbe ff7d c03e 428b 98bc
00000010: b0f3 73be be0d 8abe 4dd3 81bf 0411 c83e
00000020: 805e 8a3e 543e 1ebf 6c24 bb3d 1473 13bf
00000030: 51fe 903c f2c5 573d 599d a13b 8cce 85be
00000040: ff4f bbbd 6986 69be 18f1 a5bd bac7 073f
00000050: 7b09 01bf e5a9 afbe 0810 e4bd d5fc 0e3e
00000060: a927 e93e 3fec 15bf 4aba fa3d df85 0d3f
00000070: d579 313f da98 143f 10c9 173f b33b ea3d
00000080: e115 a93e 8629 65be db7d 893e aa3e ae3e
00000090: 71d5 87be 2d44 28be 74e3 e2bd 1e02 253f
000000a0: 98e3 563d f070 36bf ba37 8bbe 2eea b23e
000000b0: 50ce c53e 19f4 183f 109f 763b 3ac1 a93e
000000c0: 00a5 6cbc 4f24 ba3e 380d 403e c95b d33c
000000d0: cfb7 ffbd 0626 c4be a336 a1be d862 4bbf
000000e0: 689e 40be bb53 17bf 291e 09bf 9179 0c3f
000000f0: 004e 133e 322b c8bd 967a c63e edac 34bc
00000100: feb0 a1be f01c 3cbe 7e9e 1dbf 7e9a eb3d
00000110: d10f a23d c401 373e 728b 37be 2c81 cc3e
00000120: 0a48 17bc e058 7e3e bb4a 203c c2ea 8cbc
00000130: c92b 203e 8b18 043e 00a4 c7be 335d 4a3e
00000140: e336 13bf 69eb adbc 367d 103d 3870 c3be
00000150: 145b 31bf d95c 733d 0ed2 15bf 257d e23d
00000160: 4ecd 653e e2b9 b5bd e80f 0cbf 54bc 14be
00000170: f0b3 833f 1d9e 593f f0c2 c6bc 8dd0 693f
00000180: e5a4 36bf 8564 2abf 6168 1d3f b81b 9e3c
0.19000398 -0.23142608 0.37596127 -0.01862109 -0.23823428 -0.2696361 -1.0142609 0.39075482
0.27025223 -0.61813855 0.09137806 -0.5759747 0.017699393 0.05267901 0.0049320874 -0.26134145
-0.091461174 -0.2280518 -0.081026256 0.53039134 -0.5040509 -0.34309307 -0.1113587 0.13963635
0.4553807 -0.5856361 0.12242563 0.55282396 0.69326526 0.5804573 0.5929117 0.11437168
0.33024505 -0.22379121 0.26853833 0.34032184 -0.2653003 -0.16432257 -0.110785395 0.64456356
0.052463144 -0.7126608 -0.27190953 0.3494429 0.38633966 0.59747463 0.003763143 0.33155233
-0.014443636 0.36355826 0.18755043 0.025800603 -0.124862306 -0.3831026 -0.31486997 -0.794477
-0.18810427 -0.5911214 -0.53561646 0.54872996 0.14385223 -0.09773864 0.387654 -0.011027557
-0.31580347 -0.18370414 -0.61569965 0.115040764 0.07913173 0.17871767 -0.17924288 0.399423
-0.009233484 0.2483859 0.009783442 -0.017201785 0.15641703 0.12899987 -0.3899231 0.19762115
-0.57505625 -0.021230416 0.03527566 -0.38171554 -0.692796 0.05941472 -0.58523643 0.11059026
0.22441599 -0.08873345 -0.5471177 -0.14524966 1.0289288 0.85006887 -0.024262875 0.9133385
-0.7134536 -0.6655963 0.61487395 0.019300327

de2.weight f4 [200, 100]
00000000: a0bf eebe 1a62 f93e b446 72be b5af 4b3e
00000010: d6bb fb3d 193f c03e b6c7 dd3f 991d 2ebe
00000020: 29c7 f1be 4ac9 173e fb11 b2be e2e4 b83f
00000030: 8c83 75be f94c 123d f240 3f3e 536b 993e
00000040: a8c2 bebd 0f4e b33d 38d9 343e d5a6 6cbf
00000050: 15ef 283e 6aba 18bc bacf b93e 070a bcbe
00000060: 6fef babf 1828 183d 9a50 68be aa43 29bf
00000070: a5ed 18c0 f9b2 e3bd 6771 b8bf 7e0a cdbb
00000080: 4090 89bd 5e89 123f a044 9c3d ba96 25be
00000090: 3b6f 283e 602e 9b3e 6ffe 183e 5f2f 08bd
000000a0: 7aba 4abc f20c fc3f 239a 0e3e 9e70 96bd
000000b0: b640 febd cbe4 9abd 098a cc3c c5fb 41be
000000c0: e4dd dd3c 33a6 47be 9959 36bc 4079 a2bd
000000d0: fce5 d53d e842 443f 9024 6c3e 095d e23f
000000e0: f5d2 3a3f 3e9e 3d3e b7fd b43d c446 9abf
000000f0: bb6e 93bd e40d 703e 63a8 43bf 7f2a 223e
00000100: be65 2fbc 3d8c 323f d89e bf3c 4ca9 7ebd
00000110: a10e 07be 482c 8fbd 3df1 943d 2673 0ebe
00000120: fc7e 10bd 9109 2abf 9fa2 0bbe 7ed0 5fbe
00000130: a99f 93bd 4aa3 823d 842c 8d3d 5536 abbd
00000140: 8d16 0f3f ef58 2a3e a6c2 bfbd e6b4 8c3f
00000150: 07cd 933f fd0d 6dbe 0882 943f 082f 92be
00000160: 7a6e 77be 5a09 9c3e f5a1 133e 69a4 cc3d
00000170: 3304 0cc0 b347 afbf 7d83 b43c 2a40 ecbf
00000180: a587 173e db13 0a3e c5fa 94bc ec40 0cbe
00000190: d9b7 0abf 37c2 1a3f 9972 d2bd 6a81 d03d
000001a0: 62df 3d3e 7e25 ea3e 9deb 9b3f 7fe7 48be
000001b0: 6c9b 03bf b791 563d af20 d6be c1e9 573f
000001c0: 8150 eabd d9aa 393d 6bbd 843d 3e30 d53e
000001d0: d9b2 82bc f816 023e bf4f 803e 497b 7bbf
000001e0: 43f4 683e 1774 223d 23cf 9a3e b6c4 8cbe
000001f0: 9c8b 42bf b8b2 eb3d 5a99 89be 94db 3fbf
00000200: e208 fabf 07c0 5abd a765 48bf f424 a7bd
00000210: 0f1a fabd 6eea fc3e b7da 243d 8e6c 2ebe
00000220: f50f d43d 9f45 ae3e 0243 293e 7369 2fbe
00000230: 0bf2 fd3d 9948 de3f e2c1 243e 3eee 85bd
00000240: 679c 36be e854 0ebe 3acc 01bd db3a 7dbe
00000250: 8664 e13d cd94 3cbe 893a d33c b457 913c
00000260: 4fc0 793e 06cd 3a3f 2879 403e a176 783f
00000270: ec0e 3c3f 4e8c 013e 9e3f 6e3e 2194 72bf
00000280: 8ae3 82be 54ba e13e fd9b 3cbf 799f 82bd
00000290: 4e5e 2e3e c9f8 ee3e 9969 5c3e c732 8ebe
000002a0: 03a6 193c 7f6f 93be 9f3f 983e 5daf 60bd
000002b0: abbc 823d 907a 0bbf 8d8a c23c 1f64 bf3d
000002c0: 1274 00be 3a20 133e f6ec a03d 18ce f0bd
000002d0: ac95 003f 56a7 2f3e d662 d7bc 94e9 2e3f
000002e0: eec1 333f 05ac 06be e75b 763f dca7 c7be
000002f0: fd6a bdbe baed da3e 5f5f 203e 2e20 203e
00000300: 9a9b bebf 179a 5bbf e541 d03c d9df bbbf
00000310: 4298 953d 557c 593e cc51 b2bd 2e9b 28be
00000320: bbaa 56bf bb62 7b3f 5088 1cbe 4a2c ad3e
00000330: 0ecf f83e 61c5 c13e ab27 f03f 9439 80be
00000340: 248a 79bf 4bb2 b53d b3d2 07bf 93ca b53f
00000350: b12c b83d 0e7f 573d bea9 dbbc ce9a 1d3f
00000360: b92f 8dbd ba80 713e ee62 ec3e 7bbe b4bf
00000370: 218e 333e ec08 293e 2809 b23e c3eb 13be
00000380: 5566 fdbf 7d26 433e f3f6 e6be 57a8 15bf
00000390: a6d9 3dc0 6bd5 1bbe 9831 e6bf e7e9 95bd
000003a0: f14f 61be 41f7 763f 270e adbd d552 e2bd
000003b0: dc4d 683e 2a02 523f 6a89 1dbd 41dc d4bd
000003c0: 2181 c33b ee65 1840 ee60 4c3e 076e 85be
000003d0: ee1c 93be 0b3e 99be d7fc 95be 9edb c3be
000003e0: f10b 4f3e 4f18 82be f743 a1bd 9757 253d
000003f0: 9810 d73e 4910 6a3f 4c3a c63e 7114 cf3f
-0.46630573 0.48707658 -0.23659784 0.19891246 0.12291686 0.3754814 1.7326572 -0.17003478
-0.4722226 0.1482288 -0.34779343 1.444485 -0.23975962 0.035717938 0.18677118 0.29964694
-0.093144715 0.08755123 0.17660987 -0.92442065 0.16497453 -0.009321788 0.36291295 -0.367264
-1.4604319 0.03714761 -0.22686997 -0.6611887 -2.3895047 -0.11118121 -1.4409608 -0.0062573543
-0.06716967 0.57240856 0.07630277 -0.16170779 0.16448681 0.3030882 0.14940809 -0.0332483
-0.012373561 1.969145 0.13925986 -0.07345699 -0.124146864 -0.0756317 0.024968164 -0.18943699
0.027083345 -0.19496994 -0.01112976 -0.07933283 0.10444257 0.7666459 0.23060822 1.7684642
0.72978145 0.18517396 0.08837455 -1.2052846 -0.071988545 0.23442799 -0.7642881 0.15836523
-0.01070541 0.69745237 0.023391172 -0.062173173 -0.13189174 -0.06990868 0.07272575 -0.13911113
-0.03527735 -0.6642085 -0.13636254 -0.21856877 -0.07208187 0.06378801 0.06893256 -0.083599724
0.55893785 0.16635488 -0.09363298 1.0992706 1.1546944 -0.23149867 1.1602182 -0.28551507
-0.24163237 0.30475885 0.1441725 0.09992296 -2.1877563 -1.3693756 0.022035355 -1.8457081
0.14797838 0.13484137 -0.018185982 -0.1369664 -0.5418678 0.604526 -0.10275764 0.10180934
0.18542245 0.4573173 1.2181278 -0.19619559 -0.5140903 0.05238506 -0.4182181 0.84341055
-0.11441136 0.04532895 0.06481441 0.41638368 -0.015954422 0.12704074 0.2506084 -0.98234993
0.22749428 0.039661493 0.30236158 -0.2749383 -0.75994277 0.11508697 -0.2687481 -0.74944425
-1.9533961 -0.053405788 -0.7828011 -0.08161345 -0.122120015 0.49397606 0.040247645 -0.17033598
0.10354606 0.34037492 0.16529468 -0.1713007 0.12399682 1.7365905 0.16089585 -0.06539582
-0.178331 -0.13899577 -0.031688906 -0.24729483 0.110055014 -0.18416138 0.025784748 0.017742015
0.24389766 0.7296909 0.18796217 0.97056013 0.7346027 0.12651178 0.23266456 -0.94757277
-0.25564224 0.4408747 -0.7367552 -0.06378073 0.17028162 0.46674183 0.21524657 -0.27773115
0.009377959 -0.28796002 0.2973604 -0.05485474 0.06383642 -0.5448389 0.023747707 0.093452685
-0.12544277 0.14367762 0.07857697 -0.11758059 0.5022838 0.17153677 -0.026292246 0.6832516
0.7021779 -0.13151558 0.9623398 -0.38995254 -0.36995688 0.42759496 0.15661381 0.15637276
-1.4891236 -0.85782 0.025422046 -1.4677688 0.073044315 0.21238835 -0.08707008 -0.16465446
-0.83854264 0.98197526 -0.15286374 0.33822852 0.4859547 0.378459 1.8762106 -0.2504393
-0.9747641 0.08871897 -0.53055876 1.4202446 0.08992899 0.052611403 -0.026814338 0.6156434
-0.06893868 0.23584262 0.46169227 -1.412063 0.17534687 0.1650731 0.3477261 -0.14445405
-1.9796854 0.19057651 -0.45110282 -0.5845999 -2.9664092 -0.15218131 -1.7983885 -0.07320004
-0.22003151 0.9647103 -0.08449965 -0.11050955 0.22685951 0.8203455 -0.038461126 -0.103935726
0.005966321 2.3812213 0.1995885 -0.26060507 -0.2873301 -0.29930148 -0.29294464 -0.38253492
0.20219399 -0.2540917 -0.078742914 0.040366735 0.42004848 0.914311 0.38716352 1.6178113
