jet_by_jet_compression/AE_2D_latent_space/models/AE_big_2D_v2_bs256_loss01247.pt (torch_old, 2653 bytes, 12 tensors)

en1.weight f4 [8, 4]
00000000: b503 88bd 0ffd dd3e 4edb 083f 8747 30bf
00000010: d560 f0be 9c1b a23f 8834 a1c0 4268 06bd
00000020: 0ed7 aebd ac79 33be 6e62 0dbd 11b7 c4bd
00000030: 40b1 0a3e 0683 863d 42d1 e73e 4bbc a5be
00000040: 95db 0c3d 598f 2b3d 9a18 043e 03c1 dabc
00000050: dc60 d6c0 d8b9 d940 e5f5 9cbf 8574 90bf
00000060: 6e70 d83d da09 98bd 2de4 303e e63f 4abe
00000070: b364 d5be 0fb3 9040 5d98 6cc0 e0cf b5bf
-0.06641332 0.4335713 0.5345963 -0.6885914 -0.46948877 1.2664676 -5.0376625 -0.03281427
-0.08537112 -0.17526883 -0.034517698 -0.0960523 0.13544178 0.065679595 0.4527684 -0.3237022
0.034389097 0.041884754 0.1290001 -0.026703363 -6.6993237 6.803936 -1.2262541 -1.1285559
0.10568319 -0.07423754 0.17274542 -0.19750938 -0.4167839 4.5218577 -3.6967995 -1.4204063

en1.bias f4 [8]
00000000: 774b 2b40 ac4c d63f d631 93be 06e4 883e
00000010: 0410 803e 5721 c2bf bdbc 1d40 4f27 cf40
2.676481 1.6742148 -0.2874896 0.26736468 0.2501222 -1.5166425 2.4646447 6.4735484

en2.weight f4 [6, 8]
00000000: a4ce 20be fffc e2bf 5fd5 31be 8633 9abf
00000010: 1cdf a7bf a437 fe3d 763e edbf 14c1 f8bf
00000020: 261b d9be ded8 1abc 5d4b a9bf 8a2e d7be
00000030: db9e b13e 94c8 b3bc 155e a83e 46c4 383e
00000040: a208 683e 644a ee3b b490 2c40 6d72 a83d
00000050: d701 823f 7630 4640 0bad 5b40 c078 a0bd
00000060: 62eb 02bf 530e 09bc a3a4 7ebf 22b8 ddbe
00000070: a07b c13e 7630 ce3a 382a 983e 115e 233e
00000080: ca88 303d 5fc1 80ba c98d f8bd d36a a3be
00000090: b41f 963f 4f6b ed3b df2e e6be 9ffa 583d
000000a0: b16d 77bf f28b a6c0 891f 85bf a8fd 923f
000000b0: 8735 1140 0d01 f5bd 523d 613f 56ce af40
-0.15703827 -1.7733458 -0.17366551 -1.2046974 -1.3114963 0.12412956 -1.8534687 -1.9433923
-0.42403525 -0.009451119 -1.3226124 -0.42027694 0.3469151 -0.021946229 0.3288428 0.18043622
0.22659543 0.0072720516 2.696332 0.0822495 1.0156811 3.0967078 3.4324367 -0.07835531
-0.51140416 -0.008365232 -0.99469966 -0.43304545 0.3778963 0.0015730995 0.2971971 0.15953852
0.043099202 -0.0009823254 -0.12136418 -0.31917438 1.1728425 0.007245458 -0.44957635 0.052973386
-0.9665175 -5.204583 -1.0400249 1.148366 2.268892 -0.11963091 0.8798419 5.4939375

en2.bias f4 [6]
00000000: 6293 e5bf 8c2a babf 128b a23f 42d2 3abf
00000010: 03a1 e43e a5bb 2240
-1.7935603 -1.4544234 1.2698691 -0.7297708 0.44654092 2.542703

en3.weight f4 [2, 6]
00000000: a8a8 00bf 3fda ff3e 24ea 503f 96af 0d3d
00000010: 64fb 9cbe 5066 febe ea81 22bf 9b00 2bbf
00000020: eb1c 1ebf 7621 c43e b205 a0be 797e 19bf
-0.5025735 0.49971196 0.8160727 0.03459128 -0.30660546 -0.49687433 -0.63479483 -0.667978
-0.61762875 0.3830678 -0.31254345 -0.59958607

en3.bias f4 [2]
00000000: 7548 3bbe 145a 243e
-0.18289359 0.16049987

de1.weight f4 [6, 2]
00000000: 6c22 d23f 89b8 21c0 c876 7bc0 5e48 42c0
00000010: e829 8ebe 5e97 b43f cd76 7d3f 14af 12c0
00000020: 1d02 9940 fb19 2bc0 89ae 84c0 c7c9 90c0
1.6416755 -2.5268881 -3.9291248 -3.035667 -0.27766347 1.4108694 0.990094 -2.291936
4.781508 -2.6734607 -4.1463056 -4.524631

de1.bias f4 [6]
00000000: b827 0939 611c 70bf f576 3c3d ac77 b73f
00000010: 7d7b b2bf 604f a2bd
0.00013080135 -0.937933 0.046011884 1.4333396 -1.3943936 -0.07925296

de2.weight f4 [8, 6]
00000000: 9070 44c0 3c53 3140 e9db e83f 2326 9b3f
00000010: 5310 62c0 7b98 7bbf 2f93 45bf 4ea7 27be
00000020: b37e e0bf 5b73 57bf cf9e 803d 6acc 35bc
00000030: 2ddf 12bf b131 d93f 5831 3bbf b844 6a3c
00000040: 9b96 c0bf 894e 283f 8b26 86be 609f a6bf
00000050: 79fa 2e40 3fe4 cd3e 5945 cf3e 8254 20c0
00000060: 276d d7bf 6855 8c3d a440 dfbf 183b e4be
00000070: 70aa 1abf 2aed 61bf b6a4 8dbf 25cc 21bd
00000080: 0d5e 1b40 700c 1fbf e5ce 82c0 7d2d 083c
00000090: 9917 0040 edfa 3340 bfd4 c83d f00b 8b3f
000000a0: 2e04 8dbf 5d0c d3be ab01 a53f 542c 0d40
000000b0: 86ef a4bf 752e c5bf 9e7b a2bf 3e8d 293f
-3.0693703 2.7707052 1.8192111 1.2121013 -3.5322464 -0.9827954 -0.7717771 -0.16372415
-1.7538666 -0.84160393 0.0628029 -0.011096099 -0.5737179 1.696829 -0.7312217 0.01429861
-1.5045961 0.65744835 -0.2620128 -1.3017387 2.7340376 0.402132 0.40482596 -2.505158
-1.6830186 0.068522274 -1.7441602 -0.44576335 -0.60416317 -0.8825251 -1.1065891 -0.039501328
2.4276154 -0.62128353 -4.0877557 0.0083116265 2.0014403 2.8121903 0.09806203 1.0863018
-1.10169 -0.4122037 1.2891134 2.2058306 -1.2885597 -1.5404803 -1.2693975 0.66231143

de2.bias f4 [8]
00000000: 0272 9d3f 8483 ea3e 32a1 54bc 3519 ac3e
00000010: aa9d 2f3e babb 33bf 8d30 6dbf 1265 ca3d
1.2300417 0.45803463 -0.012977885 0.3361298 0.17149988 -0.70208323 -0.9265221 0.09882559

de3.weight f4 [4, 8]
00000000: e766 69c0 0800 003f 0bf7 583f a1a4 8e3e
00000010: ca77 143f 7f3f 7040 221b 943e fe97 403e
00000020: 3667 0ac0 1419 2e3e 032f 9f3f d254 2cbf
00000030: bd73 b7bf e6d0 c13f 897e 51c0 8dcb 653f
00000040: 6b2f af3e 257f 95bf c0fc 24bf 84c3 3ec0
00000050: 61ae 533e ef28 64bc 18c7 babf 2c5e 883d
00000060: 84b9 e7be 4bc9 fd40 9b39 09c0 70ae 51bf
00000070: 5c12 713f a1d8 cb3f d100 efbf 67ed 3d40
-3.6469057 0.5000005 0.8475196 0.27859977 0.57995284 3.7538755 0.2892695 0.1880798
-2.1625495 0.17001754 1.2436222 -0.67316926 -1.4332196 1.5141876 -3.273348 0.8976372
0.34215865 -1.1679426 -0.64448166 -2.9806833 0.20671989 -0.013925775 -1.4592009 0.06658587
-0.45258725 7.930822 -2.144141 -0.81906796 0.9416864 1.5925485 -1.8672124 2.967615

de3.bias f4 [4]
00000000: 9989 c13f faec 00bf ee02 16bf ef7f 7140
1.5120116 -0.503616 -0.5859822 3.7734334
