jet_by_jet_compression/fastai_AE_3D/models/tmp.pth (torch_old, 116751 bytes, 104 tensors)

en1.weight f4 [50, 4]
-0.23347908 0.43650025 -0.28623194 -0.15203671 -0.4721536 -0.21717626 0.29694322 -0.33136478
-0.45147812 0.064747564 -0.50891894 0.19200955 0.3012991 -0.61492616 0.42376247 -0.03905063
0.35845608 0.46493736 0.3086802 -0.22636002 -0.01396539 -0.36816096 0.5216493 0.03195736
0.1120559 0.8467235 -0.01391158 -0.055299457 -0.21969964 0.70988333 0.025600797 -0.04239225
-0.69024944 -0.26611388 -0.059363138 0.10008049 0.6174987 -0.005982093 -0.13728052 0.45303184
-0.33159056 0.14790444 -0.424946 0.40477377 0.2529425 -0.3219308 -0.25590268 -0.1248761
0.32057887 0.4728071 -0.45999756 -0.16301973 0.037618283 0.05584541 -0.32533133 0.3818035
-0.19440037 -0.8472106 -0.03653519 0.07507695 -0.1766307 -0.7064439 -0.026002182 -0.02204046
-0.33725414 -0.32311937 -0.34508005 0.35229757 -0.5273855 -0.12849723 0.32245788 -0.2834746
0.22144891 -0.47901925 -0.2525054 -0.24899587 0.13369161 -0.4069378 0.2520861 -0.17654555
-0.7147052 0.22924979 -0.081814386 0.04092396 0.11338366 0.8069035 0.25270018 -0.11298749
-0.2050369 -0.2098159 -0.56640315 -0.47643143 -0.44252497 0.04059687 0.38618723 -0.37139374
0.22528447 0.14220256 -0.45414314 0.23268528 0.25564554 0.03505247 0.4831834 0.35368326
0.23493874 -0.38978702 -0.2620363 -0.045521647 -0.22195636 0.067482695 -0.437616 -0.20793737
-0.43746975 -0.011959395 -0.5583733 0.20294921 -0.3568842 -0.26175845 -0.31984204 -0.18814139
-0.04340815 0.55005693 0.15184885 -0.0031760652 -0.35647896 0.13140129 0.41403896 -0.31806782
-0.10309301 -0.6980374 0.3233061 0.2905098 0.24943553 0.6251383 0.2824308 0.10621029
0.14560318 -0.66794205 0.16637556 0.057368685 0.12249059 -0.34476236 0.40699655 0.29922137
0.06438904 0.31230617 0.5934269 -0.002872252 0.2500508 0.08408728 -0.2374327 0.42639992
-0.2575709 -0.41596693 0.23646842 0.5060625 -0.43242916 0.01610608 0.247017 0.1879179
0.0841506 0.835828 -0.15431012 -0.1281767 -0.33911344 0.019079925 0.5639303 -0.06941187
0.1151413 0.3212207 0.58768344 0.25063017 0.046679858 -0.12057786 0.44481307 0.4344376
-0.25518346 0.500353 -0.22812197 -0.10049674 0.5339185 -0.17316987 0.18599883 0.3711931
0.7421712 0.015207403 -0.18958312 -0.15372378 0.2745283 0.33145645 -0.04695513 -0.21205069
0.1642922 0.0036984342 -0.51912385 0.46664006 0.24436244 0.6607631 -0.0066246786 -0.0896016
00000000: 2415 6fbe f67c df3e fe8c 92be 83af 1bbe
00000010: 1ebe f1be 7463 5ebe f108 983e a5a8 a9be
00000020: 2428 e7be 5f9a 843d 8348 02bf 279e 443e
00000030: e043 9a3e cd6b 1dbf 65f7 d83e 8ef3 1fbd
00000040: 8e87 b73e 450c ee3e 550b 9e3e ecca 67be
00000050: 17cf 64bc 987f bcbe cf8a 053f b9e5 023d
00000060: 907d e53d dfc2 583f 65ed 63bc af81 62bd
00000070: f1f8 60be eaba 353f c3b8 d13c 7fa3 2dbd
00000080: 30b4 30bf 1440 88be c326 73bd 00f7 cc3d
00000090: 6514 1e3f 6f05 c4bb 4493 0cbe caf3 e73e
000000a0: 3dc6 a9be 4374 173e 8692 d9be 823e cf3e
000000b0: ae81 813e 1dd4 a4be ad05 83be 0abf ffbd
000000c0: ea22 a43e c613 f23e cd84 ebbe a5ee 26be
000000d0: a115 1a3d 28be 643d d491 a6be c07b c33e
000000e0: e410 47be cbe2 58bf eca5 15bd f2c1 993d
000000f0: aede 34be 82d9 34bf 8702 d5bc 328e b4bc
00000100: 93ac acbe e76f a5be 55ae b0be 5960 b43e
00000110: bc02 07bf c794 03be 3319 a53e 9523 91be
00000120: 81c3 623e 0342 f5be 6348 81be c6f8 7ebe
00000130: 74e6 083e 275a d0be 6e11 813e 5bc8 34be
00000140: ecf6 36bf 75c0 6a3e 4d8e a7bd e29f 273d
00000150: b135 e83d 3a91 4e3f eb61 813e fc65 e7bd
00000160: 31f5 51be fbd9 56be ccff 10bf d2ee f3be
00000170: a292 e2be e748 263d 55ba c53e 5227 bebe
00000180: f9b0 663e 8c9d 113e 7385 e8be 0d45 6e3e
00000190: f9e3 823e 2e93 0f3d d163 f73e f915 b53e
000001a0: c893 703e 2a92 c7be 9f29 86be e874 3abd
000001b0: 8748 63be 5e34 8a3d 340f e0be 89ed 54be
000001c0: 09fc dfbe 57f1 43bc 8df1 0ebf ebd1 4f3e
000001d0: 87b9 b6be 3405 86be 56c2 a3be 23a8 40be
000001e0: bfcc 31bd 88d0 0c3f 447e 1b3e 8825 50bb
000001f0: 6984 b6be 0f8e 063e eafc d33e c9d9 a2be
00000200: 6e22 d3bd 94b2 32bf 6188 a53e b3bd 943e
00000210: 076c 7f3e 1009 203f c59a 903e c884 d93d
00000220: 0019 153e 40fe 2abf 5b5e 2a3e 6dfb 6a3d
00000230: 59dc fa3d b184 b0be da61 d03e 8b33 993e
00000240: 67de 833d 98e6 9f3e d3ea 173f 643c 3cbb
00000250: a906 803e f435 ac3d 8f21 73be 1751 da3e
00000260: 55e0 83be 9ef9 d4be c724 723e 508d 013f
00000270: 5b67 ddbe e6f0 833c 06f2 7c3e 8d6d 403e
00000280: 2657 ac3d d3f8 553f 7903 1ebe c140 03be
00000290: 47a0 adbe 814d 9c3c bc5d 103f cf27 8ebd
000002a0: 34cf eb3d 0a77 a43e 6c72 163f 9952 803e
000002b0: 6133 3f3d 86f1 f6bd 8abe e33e 9b6e de3e
000002c0: 68a7 82be 2217 003f ce98 69be 3cd1 cdbd
000002d0: e2ae 083f 7153 31be 7a76 3e3e 060d be3e
000002e0: effe 3d3f 7928 793c 1422 42be c469 1dbe
000002f0: f98e 8c3e a9b4 a93e 0654 40bd d123 59be
00000300: 373c 283e 6e61 723b 4de5 04bf 72eb ee3e
00000310: 263a 7a3e c527 293f d513 d9bb 0b81 b7bd

en1.bias f4 [50]
0.13189182 0.21095613 -0.15743428 -0.14408615 -0.08250361 -0.3060905 -0.2361877 -0.25196642
-0.10292303 0.0613168 -0.14833088 0.287806 -0.07509902 -0.1320501 0.22696425 -0.22101122
0.10110907 -0.28871584 -0.18759543 0.040576067 -0.3131447 0.14062788 -0.40695494 -0.12515746
0.4001104 0.33075836 0.048213925 -0.14905804 -0.027261436 -0.2568304 -0.28786054 -0.10444454
-0.323054 0.18737513 -0.34908912 -0.22420044 -0.2724649 0.31787825 0.35418797 0.10216913
-0.06691188 -0.12277016 -0.26239684 -0.22053443 -0.24077953 -0.113134205 0.05302784 -0.33239666
0.13675019 -0.36950853
00000000: a60e 073e e204 583e 7436 21be 528b 13be
00000010: a7f7 a8bd e5b7 9cbe 30db 71be be01 81be
00000020: 4fc9 d2bd 5327 7b3d 0de4 17be 4f5b 933e
00000030: 84cd 99bd 2438 07be 5169 683e c450 62be
00000040: 4612 cf3d 90d2 93be 0419 40be 1733 263d
00000050: 8154 a0be c100 103e 665c d0be 4729 00be
00000060: 45db cc3e 2959 a93e f77b 453d aca2 18be
00000070: 6053 dfbc 467f 83be 7562 93be 05e7 d5bd
00000080: 5567 a5be 44df 3f3e cfbb b2be cd94 65be
00000090: 8580 8bbe f0c0 a23e 2058 b53e 0d3e d13d
000000a0: 1909 89bd ec6e fbbd e158 86be c7d3 61be
000000b0: e98e 76be e8b2 e7bd b833 593d e52f aabe
000000c0: 3e08 0c3e 3930 bdbe

bn1.weight f4 [50]
0.34227774 0.3026828 0.856906 0.28061563 0.9582604 1.383564 0.262953 0.6084872
1.2396895 0.6481946 0.38635302 1.009611 1.0685682 0.4130078 0.3052041 0.41021672
0.6561583 0.87367433 1.1858135 1.323997 1.3842185 0.47053823 0.86957914 0.2558101
0.46931338 0.30877635 0.45706153 0.3621132 0.6869761 0.64331913 0.4968614 0.30976257
1.3862514 0.30442324 0.29717433 1.3124963 1.2958901 0.5881018 0.7637957 1.1737777
0.34546632 1.0846648 0.49428865 0.47535306 0.2071332 0.358153 0.6379138 0.45005938
1.1670938 0.34631735
00000000: 073f af3e 3df9 9a3e 315e 5b3f daac 8f3e
00000010: 8e50 753f a018 b13f c7a1 863e d1c5 1b3f
00000020: 25ae 9e3f 15f0 253f 10d0 c53e ef3a 813f
00000030: d8c6 883f c275 d33e b643 9c3e ed07 d23e
00000040: fef9 273f 1fa9 5f3f bdc8 973f bc78 a93f
00000050: 122e b13f 63ea f03e bd9c 5e3f 8bf9 823e
00000060: d849 f03e ef17 9e3e f803 ea3e e766 b93e
00000070: aadd 2f3f 90b0 243f 9e64 fe3e 3399 9e3e
00000080: b070 b13f 5ddd 9b3e 3c27 983e e1ff a73f
00000090: badf a53f d78d 163f 1d88 433f 593e 963f
000000a0: f6e0 b03e 4cd6 8a3f 6713 fd3e 7a61 f33e
000000b0: ba1a 543e d45f b73e 524e 233f 2f6e e63e
000000c0: 5463 953f 8250 b13e

bn1.bias f4 [50]
0.9410903 0.21883844 0.28232536 0.41524392 0.27015454 -0.39848104 0.2712294 0.97629946
-0.68795455 1.1066632 0.20487109 -0.1394554 0.06406237 0.24431445 -0.31739762 0.49222893
0.36623582 0.24812649 0.20363283 0.52477896 -0.46527103 0.9981639 -0.0661167 0.21427247
-1.4930983 0.25813514 0.69324934 0.97840834 -1.3120859 -0.58941966 0.35777888 0.9297868
-0.08766185 -0.4826943 -0.4323387 -0.3390906 -0.08386614 0.4637929 0.42518517 0.050361436
0.71516186 -0.35765204 -1.142334 0.03297408 0.17462394 0.42342353 1.207699 -0.6769894
0.2851203 0.7565153
00000000: 4beb 703f 2f17 603e f38c 903e da9a d43e
00000010: b251 8a3e b505 ccbe 94de 8a3e c3ee 793f
00000020: ca1d 30bf 24a7 8d3f bac9 513e 65cd 0ebe
00000030: 2233 833d 912d 7a3e f181 a2be 6e05 fc3e
00000040: 4383 bb3e df14 7e3e 2085 503e ea57 063f
00000050: 0138 eebe ab87 7f3f 3168 87bd 3e6a 5b3e
00000060: d81d bfbf 4a2a 843e ca78 313f f878 7a3f
00000070: 6ef2 a7bf 35e4 16bf cb2e b73e 8206 6e3f
00000080: 0e88 b3bd b523 f7be 805b ddbe 489d adbe
00000090: 03c2 abbd 4376 ed3e dfb1 d93e cb47 4e3d
000000a0: d914 373f 2b1e b7be 0038 92bf d40f 073d
000000b0: 9ed0 323e f8ca d83e e195 9a3f 2d4f 2dbf
000000c0: 4afb 913e fdaa 413f

bn1.running_mean f4 [50]
0.13497128 0.20030148 -0.15922248 -0.15026854 -0.074341975 -0.31214738 -0.22383304 -0.24506554
-0.1132806 0.0709105 -0.1466158 0.28601006 -0.06521356 -0.12792596 0.21393588 -0.23254359
0.095917486 -0.29854253 -0.1925976 0.03494044 -0.31737834 0.15154395 -0.41361737 -0.13243797
0.4068291 0.33506033 0.045789547 -0.15084408 -0.029762726 -0.26466262 -0.28124633 -0.10930947
-0.33257455 0.19854592 -0.35655084 -0.22663157 -0.2688412 0.3247623 0.34826678 0.09828073
-0.055136904 -0.12781295 -0.25658798 -0.22003931 -0.2368924 -0.10788513 0.060776506 -0.32609853
0.14246278 -0.3584503
00000000: e935 0a3e d51b 4d3e 380b 23be ffdf 19be
00000010: 9b40 98bd c8d1 9fbe 7d34 65be 76f2 7abe
00000020: a9ff e7bd 8639 913d 7422 16be e96f 923e
00000030: b08e 85bd 06ff 02be 0212 5b3e e81f 6ebe
00000040: 6370 c43d 91da 98be 4e38 45be b51d 0f3d
00000050: 6a7f a2be 562e 1b3e a8c5 d3be d29d 07be
00000060: e74b d03e 078d ab3e d28d 3b3d df76 1abe
00000070: f6d0 f3bc dc81 87be 85ff 8fbe a5dd dfbd
00000080: 3647 aabe 9f4f 4b3e d58d b6be 1b12 68be
00000090: 8ea5 89be 3f47 a63e 0650 b23e 6847 c93d
000000a0: 3cd7 61bd 66e1 02be 805f 83be fc51 61be
000000b0: ec93 72be e1f2 dcbd c9f0 783d 63f6 a6be
000000c0: c3e1 113e cc86 b7be

bn1.running_var f4 [50]
0.3652718 0.5407122 0.45920295 0.63045055 0.4549951 0.39931756 0.72016764 0.5564504
0.51572645 0.7506489 0.4060714 0.23204505 0.5213946 0.2659016 0.7468685 0.52535164
0.40842324 0.54918665 0.37364647 0.2585641 0.5494426 0.73768866 0.6900897 0.5713266
0.35437965 0.47569746 0.27365002 0.3137564 0.5013941 0.3692471 0.32782033 0.480387
0.66145337 0.55686885 0.4950304 0.4066974 0.4621682 0.36406314 0.4835783 0.23628338
0.72850305 0.44763324 0.5453821 0.4160782 0.386606 0.593331 0.5390059 0.20008752
0.5597136 0.4862198
00000000: e804 bb3e 1d6c 0a3f a61c eb3e 3565 213f
00000010: 1ef5 e83e 5a73 cc3e e85c 383f 8973 0e3f
00000020: a606 043f 872a 403f 97e8 cf3e 389d 6d3e
00000030: 1e7a 053f 4124 883e c632 3f3f 727d 063f
00000040: da1c d13e 7f97 0c3f 974e bf3e 8462 843e
00000050: 45a8 0c3f 2ad9 3c3f b8a9 303f 7642 123f
00000060: 4071 b53e 9e8e f33e db1b 8c3e aea4 a03e
00000070: 5d5b 003f f50d bd3e 11d8 a73e 49f5 f53e
00000080: 0255 293f f58e 0e3f a074 fd3e a43a d03e
00000090: 4fa1 ec3e 7c66 ba3e 9397 f73e 45f4 713e
000000a0: 2d7f 3a3f 2f30 e53e 299e 0b3f 3408 d53e
000000b0: 39f1 c53e 8ae4 173f 4afc 093f bee3 4c3e
000000c0: 6449 0f3f cdf1 f83e

en2.weight f4 [50, 50]
0.29143777 0.15726563 -0.022108242 -0.11545258 0.29675996 0.050426077 -0.008050555 0.20622915
-0.31223714 0.2817171 0.294528 -0.009867901 0.14918472 0.3645166 0.09247562 0.1964684
0.026430793 -0.107893474 -0.039405122 0.042580158 -0.28816164 -0.121613115 -0.16843706 -0.058008067
-0.26225513 0.012697001 0.07729476 0.60418826 -0.15697102 -0.2926 -0.16608049 0.22190143
-0.08705458 -0.14519869 -0.21872075 -0.025135929 0.17366846 0.44986567 -0.02317816 -0.12281312
-0.0020407392 -0.15110783 -0.34239304 -0.14616942 0.2254883 -0.0849061 0.49781492 -0.084921226
0.28903538 -0.12630133 -0.041659307 0.11197988 0.064815536 -0.009068897 -0.28721395 0.11635318
-0.28339624 -0.08986827 0.16396408 0.10619952 0.010471352 0.15381037 0.0110966815 0.1337535
0.30832008 0.4315816 0.22938627 -0.056051895 0.33407795 0.11657723 0.011890357 -0.41248986
0.25350043 0.04666395 -0.11579715 -0.1638911 0.24434204 0.13495791 0.17768833 0.30859682
-0.24995932 -0.12562145 0.18275675 -0.5812663 -0.09936966 0.16395381 -0.38236195 0.1840738
-0.05970134 -0.016594406 0.03707875 0.06019476 -0.51131284 -0.16993268 -0.041659143 -0.1573215
0.09813915 -0.15549527 0.11779749 -0.08847969 -0.012657134 -0.1681801 -0.42079568 0.33253983
0.15148425 0.0605093 -0.232374 -0.09078001 -0.3463808 0.06917722 0.21477921 -0.106567964
0.37876934 0.021021022 0.13759978 0.13947938 -0.18749832 -0.26465178 -0.24446034 0.21386102
-0.044586275 -0.2360035 -0.4630533 0.1173904 -0.06691822 0.10511992 -0.1089629 -0.0682689
-0.37722465 -0.22255492 0.12977965 0.17054456 -0.25065088 -0.20009114 0.27061412 -0.025769612
0.13680986 0.17836367 0.023281755 0.041955255 -0.26638046 -0.0042359256 -0.09365538 0.21283086
-0.08061877 0.13164157 0.25227034 0.32503864 0.15833597 -0.22670558 -0.12990186 -0.2350985
-0.056114834 0.12430546 0.02181252 -0.049131136 -0.0024488475 0.037469093 -0.009540837 0.70198596
0.09419993 -0.12680787 -0.08716563 0.24739641 0.056390926 0.11628428 -0.18754935 -0.37093383
-0.05055333 -0.02854358 0.029750954 0.092404045 -0.09696535 -0.45906967 -0.04706875 0.22042105
0.041388348 -0.47386658 0.078391045 0.020923987 0.06967852 -0.34290248 -0.087154694 -0.10732645
0.021368524 0.016399166 0.11010198 0.39219216 0.057279535 0.16199006 -0.14606105 0.10608044
-0.16478492 0.29299077 -0.2619652 1.4771988 -0.03913673 0.014993665 -0.15608537 -0.10233361
-0.2615303 -0.2127914 0.06165439 0.09134316 0.0137177585 -0.20421037 0.051127627 -0.17529865
-0.046967477 0.2775978 0.1906872 -0.055489827 0.14943244 0.13160393 0.030302312 0.05859833
0.03427229 -0.0098417485 -0.07279379 -0.17248689 0.08782994 -0.1554833 0.2634743 -0.57464445
0.8700183 -0.06480613 0.21467021 -0.29028323 0.5938597 0.20804825 0.0062570916 -0.7808657
-0.025367768 -0.00013998988 0.10700239 -0.05559236 -0.15763286 0.1300586 -0.17806338 -0.1488359
0.04911135 -0.22026592 0.17979127 -0.0633441 -0.12738964 0.08110608 -0.10016298 0.20497343
0.25818938 -0.0873503 -0.45931366 0.037323907 -0.011724759 0.48793983 0.13638613 -0.15563773
00000000: 5537 953e 3e0a 213e 581c b5bc 6772 ecbd
00000010: ecf0 973e 938b 4e3d 7ae6 03bc bc2d 533e
00000020: 8cdd 9fbe 393d 903e 60cc 963e faac 21bc
00000030: e1c3 183e eba1 ba3e dc63 bd3d 032f 493e
00000040: 6485 d83c 41f7 dcbd 4467 21bd 8868 2e3d
00000050: ec89 93be 4c10 f9bd c47a 2cbe de99 6dbd
00000060: 4e46 86be 1507 503c b74c 9e3d 15ac 1a3f
00000070: 03bd 20be abcf 95be 0111 2abe 213a 633e
00000080: ac49 b2bd f7ae 14be 55f8 5fbe dde9 cdbc
00000090: 25d6 313e cb54 e63e 20e0 bdbc 7285 fbbd
000000a0: ecbd 05bb 03bc 1abe 244e afbe 70ad 15be
000000b0: 68e6 663e 40e3 adbd 99e1 fe3e 2eeb adbd
000000c0: 72fc 933e 2355 01be f3a2 2abd b555 e53d
000000d0: 02be 843d b695 14bc b50d 93be 934a ee3d
000000e0: 5019 91be db0c b8bd 33e6 273e 227f d93d
000000f0: 0990 2b3c 7780 1d3e dbce 353c adf6 083e
00000100: 21dc 9d3e 43f8 dc3e 3ce4 6a3e ac96 65bd
00000110: 440c ab3e 0bc0 ee3d c6cf 423c df31 d3be
00000120: cfca 813e b322 3f3d 0e27 edbd 12d3 27be
00000130: cd34 7a3e 6832 0a3e eef3 353e 6700 9e3e
00000140: 56f5 7fbe e9a2 00be 9624 3b3e decd 14bf
00000150: 5282 cbbd 82e3 273e f2c4 c3be d87d 3c3e
00000160: 6489 74bd fef0 87bc e3df 173d c88e 763d
00000170: 66e5 02bf d502 2ebe c7a2 2abd e318 21be
00000180: 2efd c83d 273a 1fbe cf3f f13d d734 b5bd
00000190: de5f 4fbc 6737 2cbe 8872 d7be a942 aa3e
000001a0: b01e 1b3e 9ad8 773d 73f3 6dbe dfea b9bd
000001b0: d358 b1be c9ac 8d3d 15ef 5b3e 4e40 dabd
000001c0: 0eee c13e 4734 ac3c f5e6 0c3e afd3 0e3e
000001d0: 8fff 3fbe 7080 87be d053 7abe 62fe 5a3e
000001e0: 19a0 36bd e7aa 71be 5215 edbe 616a f03d
000001f0: 6b0c 89bd 1d49 d73d f127 dfbd 91d0 8bbd
00000200: 9723 c1be 70e5 63be f5e4 043e 3ca3 2e3e
00000210: 5055 80be b1e4 4cbe ef8d 8a3e cb1a d3bc
00000220: e217 0c3e f7a4 363e 61b9 be3c 46d9 2b3d
00000230: 0563 88be 85cd 8abb 64ce bfbd 55f0 593e
00000240: 741b a5bd 0ccd 063e 9429 813e 776b a63e
00000250: d322 223e 8225 68be fe04 05be a9bd 70be
00000260: abd8 65bd dc93 fe3d 2cb0 b23c bb3d 49bd
00000270: d87c 20bb 3179 193d 2c51 1cbc 5ab5 333f
00000280: e5eb c03d ecd9 01be e583 b2bd 7c55 7d3e
00000290: 2cfa 663d 7426 ee3d f00c 40be 0aeb bdbe
000002a0: 0211 4fbd 3ad4 e9bc 46b8 f33c 553e bd3d
000002b0: c595 c6bd 2e0b ebbe 29cb 40bd 0eb6 613e
000002c0: d486 293d a49e f2be 7c8b a03d c868 ab3c
000002d0: 9db3 8e3d ea90 afbe 297e b2bd f8cd dbbd
000002e0: 0b0d af3c 8b57 863c 267d e13d 69cd c83e
000002f0: f29d 6a3d b9e0 253e 0791 15be b440 d93d
00000300: 61bd 28be e302 963e 4d20 86be da14 bd3f
00000310: d64d 20bd fda7 753c d8d4 1fbe 4994 d1bd
00000320: 4de7 85be fde5 59be 5089 7c3d 1f12 bb3d
00000330: 73c0 603c 861c 51be 346b 513d 7d81 33be
00000340: f860 40bd 4d21 8e3e 8143 433e 4d49 63bd
00000350: d104 193e 2ec3 063e 8e3c f83c cd04 703d
00000360: 1a61 0c3d 493f 21bc e914 95bd 67a0 30be
00000370: 2fe0 b33d 0437 1fbe 1ae6 863e e61b 13bf
00000380: 85b9 5e3f 14b9 84bd 82d2 5b3e 01a0 94be
00000390: 3007 183f 9a0a 553e 4a08 cd3b d1e6 47bf
000003a0: 11d0 cfbc 3fca 12b9 1224 db3d d1b4 63bd
000003b0: 826a 21be 152e 053e 3f56 36be 7068 18be
000003c0: fc28 493d 648d 61be 341b 383e 8dba 81bd
000003d0: 6e72 02be f21a a63d 4022 cdbd 8ee4 513e
000003e0: 6631 843e b7e4 b2bd 292b ebbe f4e0 183d
000003f0: 3419 40bc 40d3 f93e cea8 0b3e 7f5f 1fbe

en2.bias f4 [50]
0.011364913 -0.00028874935 -0.10511888 0.11090861 -0.07023919 -0.038553394 -0.07126973 -0.07514749
-0.1126599 -0.013770579 -0.09403279 -0.033655796 0.07723418 0.0030189941 0.07797859 -0.10573112
0.022280287 0.056926247 0.055259824 0.044456445 0.041775517 -0.09686845 0.009952971 -0.10305065
-0.033034056 -0.09566359 -0.027618887 -0.057626702 0.052442577 0.106949784 0.0988336 -0.08201157
0.088451535 0.048074633 -0.09560163 0.11769118 -0.10503253 -0.069538735 0.04293957 0.06616019
0.09370735 0.02492081 -0.09498824 0.05918096 -0.011379458 0.09824633 -0.015856378 -0.09673359
0.015312593 0.033638936
00000000: e633 3a3c 4863 97b9 9148 d7bd 0e24 e33d
00000010: 90d9 8fbd 2aea 1dbd ddf5 91bd ede6 99bd
00000020: 3cba e6bd ff9d 61bc 4394 c0bd a9da 09bd
00000030: f42c 9e3d 51da 453b 3db3 9f3d 8f89 d8bd
00000040: 2685 b63c 7f2b 693d 2058 623d f617 363d
00000050: ce1c 2b3d f762 c6bd c911 233c 380c d3bd
00000060: b84e 07bd 46eb c3bd 0141 e2bc fa09 6cbd
00000070: 07ce 563d 7d08 db3d 4569 ca3d aff5 a7bd
00000080: 1426 b53d e8e9 443d caca c3bd 1308 f13d
00000090: 4c1b d7bd 536a 8ebd 67e1 2f3d fe7e 873d
000000a0: a4e9 bf3d ba26 cc3c 3289 c2bd bc67 723d
000000b0: e870 3abc 5f35 c93d 3ce5 81bc 431c c6bd
000000c0: ace1 7a3c fbc8 093d

bn2.weight f4 [50]
0.8888989 0.34611282 0.8493259 0.4895545 0.4945899 0.5905737 0.8789012 0.7366955
0.4514686 0.98619163 0.6212125 0.65608513 0.6729433 0.60179615 0.5153302 1.0130247
0.42153853 0.39518464 1.0900475 0.4297186 0.8095597 0.5342078 0.1622492 0.47514516
1.5107163 0.4289079 0.44666526 0.43371996 0.2852125 0.46821284 0.5369271 0.3955594
0.7942989 0.43170822 0.6077315 0.78358984 0.38562536 1.0531458 0.6289002 0.7826096
0.45556465 0.6947413 0.86139977 0.5090451 0.5224377 0.50084406 0.54872406 0.523493
0.42667976 0.557364
00000000: e18e 633f b335 b13e 6c6d 593f e3a6 fa3e
00000010: e33a fd3e d72f 173f abff 603f 1498 3c3f
00000020: e426 e73e 0e77 7c3f c807 1f3f 32f5 273f
00000030: 0346 2c3f 500f 1a3f aeec 033f cbaa 813f
00000040: e6d3 d73e a455 ca3e ad86 8b3f 1404 dc3e
00000050: 4e3f 4f3f d8c1 083f a724 263e 3a46 f33e
00000060: 275f c13f d199 db3e 4fb1 e43e 8b10 de3e
00000070: 5f07 923e 98b9 ef3e 0e74 093f c386 ca3e
00000080: 2c57 4b3f dc08 dd3e 4b94 1b3f 5899 483f
00000090: b070 c53e 7bcd 863f 9aff 203f 1a59 483f
000000a0: c53f e93e 91da 313f b284 5c3f c850 023f
000000b0: 7abe 053f 5137 003f 2e79 0c3f a303 063f
000000c0: c575 da3e 68af 0e3f

bn2.bias f4 [50]
0.45085868 -0.17156428 -0.07150344 0.27006808 -1.2123492 1.265171 -1.1067854 0.434929
0.19549936 0.24694924 0.072498426 -0.53938526 -0.9636046 -0.4536172 1.068145 0.10255455
-1.0119016 -0.3146503 0.3390618 0.20663616 -0.65535617 -1.0141784 -0.10077012 0.22817782
0.24719213 0.2074152 0.33411604 -0.37812254 -0.19591174 0.22021435 -0.0927344 0.0802302
-0.41493192 -0.029803608 -0.3588786 -0.67311794 0.6148091 0.16784018 0.37784502 0.13448417
-0.27710578 -0.51364 0.0019144195 -0.8266965 0.9627088 -0.3741328 -0.8638275 0.369656
-0.7488035 0.89694554
00000000: f3d6 e63e 8cae 2fbe 6570 92bd 5d46 8a3e
00000010: 422e 9bbf 20f1 a13f 25ab 8dbf 04af de3e
00000020: fc30 483e 43e0 7c3e 0e7a 943d 2715 0abf
00000030: cbae 76bf 8340 e8be fab8 883f 1f08 d23d
00000040: fe85 81bf d819 a1be 8299 ad3e 6e98 533e
00000050: 6cc5 27bf 99d0 81bf 9160 cebd 72a7 693e
00000060: ef1f 7d3e a664 543e 4211 ab3e 4799 c1be
00000070: 169d 48be df7f 613e 88eb bdbd bb4f a43d
00000080: f571 d4be b226 f4bc f0be b7be 7551 2cbf
00000090: 2164 1d3f 4cde 2b3e e774 c13e 38b6 093e
000000a0: cfe0 8dbe e97d 03bf 42ed fa3a 62a2 53bf
000000b0: 1574 763f 568e bfbe cd23 5dbf 8d43 bd3e
000000c0: 96b1 3fbf 399e 653f

bn2.running_mean f4 [50]
2.8539023 0.37197775 0.31536928 0.55250657 -2.5519693 1.2234666 -1.6502557 -0.7932894
-0.71033067 1.0726194 -0.70160735 -1.946914 -1.4962342 1.281122 2.1259036 -0.95101786
-2.4183464 0.8052713 0.9300685 1.3669873 -0.70436466 -2.8274403 -0.6875508 -1.3579702
-3.0845852 -1.7852815 -1.0515958 1.1332484 -2.0151653 1.5902578 -1.2723706 0.054236203
-1.8968952 -0.70744914 1.2013018 -0.5040485 1.6009331 -1.068161 -0.4168236 -0.7476536
-0.80372864 0.7989865 0.26596832 1.1245401 2.3306196 -0.27962634 -0.9838751 1.304423
-0.15621206 1.6031611
00000000: 56a6 3640 de73 be3e 1578 a13e 1271 0d3f
00000010: 7753 23c0 8e9a 9c3f 943b d3bf 0415 4bbf
00000020: 3bd8 35bf 984b 893f 8a9c 33bf 7a34 f9bf
00000030: 9a84 bfbf cefb a33f ce0e 0840 e875 73bf
00000040: 30c6 1ac0 4326 4e3f f818 6e3f 71f9 ae3f
00000050: 3e51 34bf c8f4 34c0 5403 30bf f8d1 adbf
00000060: d869 45c0 1b84 e4bf b19a 86bf 490e 913f
00000070: 78f8 00c0 918d cb3f 0add a2bf c826 5e3d
00000080: 76cd f2bf 631b 35bf 42c4 993f 5309 01bf
00000090: 60eb cc3f 80b9 88bf e769 d5be 3a66 3fbf
000000a0: 29c1 4dbf 618a 4c3f 002d 883e eef0 8f3f
000000b0: df28 1540 2f2b 8fbe 3ddf 7bbf 55f7 a63f
000000c0: 0ef6 1fbe 6234 cd3f

bn2.running_var f4 [50]
0.9554809 3.7253387 1.3960662 1.3190738 1.9962916 0.56779724 2.2537057 2.3302338
3.4503324 1.8404608 4.932383 2.529065 2.89194 3.2809474 0.4372023 0.4272515
2.506277 3.0100474 4.411047 3.062374 0.23257723 0.16645771 3.7152355 2.4277961
1.2522573 2.2132487 1.6741018 2.8085911 2.3572905 2.7772193 2.2618716 3.7418258
0.3750538 2.5321882 2.5538838 0.65074265 2.3881204 0.5724473 1.4931866 2.5586927
3.297222 5.0640187 0.200505 1.6126302 2.5551345 2.9847634 1.137806 2.530031
1.1279228 1.5775915
00000000: 659a 743f f36b 6e40 4cb2 b23f 69d7 a83f
00000010: 7c86 ff3f 295b 113f b73c 1040 8d22 1540
00000020: 3fd2 5c40 3894 eb3f 15d6 9d40 33dc 2140
00000030: 8c15 3940 0bfb 5140 fbd8 df3e b5c0 da3e
00000040: d866 2040 9ea4 4040 4c27 8d40 f0fd 4340
00000050: ba28 6e3e e473 2a3e 6bc6 6d40 0361 1b40
00000060: f849 a03f dea5 0d40 f848 d63f f5bf 3340
00000070: d9dd 1640 f6bd 3140 81c2 1040 137a 6f40
00000080: 0d07 c03e 5f0f 2240 d572 2340 1297 263f
00000090: f7d6 1840 e88b 123f bd20 bf3f 9fc1 2340
000000a0: af05 5340 710c a240 2f51 4d3e ab6a ce3f
000000b0: 5387 2340 5d06 3f40 a1a3 913f 07ec 2140
000000c0: c65f 903f 85ee c93f

en3.weight f4 [20, 50]
0.15702291 0.09712496 0.2235744 0.22353594 0.0825523 0.5562516 0.5271672 0.092321016
-0.06606377 0.23644888 -0.07409689 -0.14668281 -0.032727793 0.14783563 0.019397244 0.19016853
-0.044996526 -0.05985935 -0.16041413 -0.18482406 -0.09457439 0.11721423 0.01736716 0.041115366
-0.18980575 0.106175736 0.4174112 -0.59547925 0.28906855 0.008628139 -0.068561554 -0.17446208
-0.3319623 -0.0041068792 -0.07927198 -0.23912051 0.24714312 0.036333084 0.3349458 0.18756069
0.24459314 0.009215382 -0.2749489 -0.35024276 -0.29896972 0.05634155 0.19161828 0.24151184
-0.13228373 -0.026914569 -0.11200559 0.053285297 -0.041200824 0.01567095 0.64514136 -0.057011817
0.026162276 0.40574214 -0.027596178 -0.15845823 -0.29796055 0.07568629 -0.001953992 0.15776676
-0.11629236 0.22349311 0.5998044 -0.041035756 0.1252548 0.22274776 0.16082388 0.14443746
-0.0042570443 0.26774403 0.27197894 0.9639469 0.11380098 -0.037485465 0.009714553 -0.02917099
0.13846633 -0.25967294 0.23478287 0.21405002 -0.073268816 0.1069744 -0.21962342 0.19722085
0.07413728 -0.052762154 0.15653166 -0.08423054 0.023644751 -0.00058152946 0.016929165 -0.115065865
0.018565359 -0.23017363 -0.16581538 -0.12497402 -0.09960506 0.35162702 0.036632746 0.027191207
-0.044311143 -0.04956147 0.92793113 0.050752703 0.0032104421 -0.07932905 0.119312614 -0.003151458
-0.010039649 0.049193572 0.056195393 -0.03189222 0.06151003 -0.8209891 -0.2553155 -0.251063
0.23824501 0.13548866 -0.15220293 -0.08316901 -0.108330436 -0.0141082695 0.3661545 -0.16239478
0.5245775 0.14549449 -0.25515562 0.13500881 0.04313496 -0.027420199 -0.65881854 0.10577323
0.0019543436 -0.40343964 0.018664379 -0.10920457 0.019538326 -0.16774821 0.18293956 -0.5333647
-0.23298497 0.025464451 0.052644633 -0.014112901 -0.0314429 0.15470083 0.23072326 -0.0315705
0.27985713 -0.22436509 -0.20160952 -0.28753126 -0.030034076 0.11474503 0.062272154 0.070761316
-0.09876288 0.025616841 -0.11001189 0.030646652 -0.43654746 0.1687034 -0.064860664 -0.012936444
0.1788849 0.086379476 -0.462693 0.3253968 0.096356824 -0.022587067 0.22385027 0.1537733
-0.14229648 0.4214305 -0.28089836 -0.028192274 0.038070742 -0.0107461 -0.008782664 0.033230983
0.1512085 -0.08634758 -0.03128078 0.18485944 -0.530598 0.07844342 -0.3240568 0.05301073
-0.005885846 0.16285731 0.6248886 -0.04868544 0.2947692 -0.08184218 0.097268574 0.16482493
0.21908952 -0.058884032 0.16132534 -0.057133745 -0.03421121 -0.48687723 -0.003170926 0.051942803
-0.14898682 0.006133011 0.011472643 -0.15303665 -0.30539504 0.27894774 0.0020981159 0.15519908
-0.019131707 -0.016056197 0.35926843 0.32799935 -0.43875408 0.30172965 -0.059324797 0.18999146
0.09067016 0.16086912 0.044932604 0.24339485 -0.07151391 0.09899406 0.124242604 -0.12690563
0.07282234 -0.028576398 -0.052174646 -0.18978065 0.077742256 -0.073399454 0.058435068 -0.3045509
-0.1551031 -0.10281109 0.24537152 -0.012458752 1.1551117 -0.190345 0.022440651 -0.13905337
-0.04477183 0.36751747 0.115319066 -0.14031066 0.103489205 0.07184533 -0.33157143 0.046863526
00000000: 9dca 203e 73e9 c63d b0f0 643e 9be6 643e
00000010: 2e11 a93d 8166 0e3f 6ef4 063f cd12 bd3d
00000020: 714c 87bd a81f 723e 1cc0 97bd 0534 16be
00000030: 940d 06bd 3962 173e f8e6 9e3c 8abb 423e
00000040: 474e 38bd 142f 75bd 9a43 24be 8542 3dbe
00000050: 38b0 c1bd 040e f03d 9345 8e3c 9668 283d
00000060: 705c 42be aa72 d93d ecb6 d53e 5471 18bf
00000070: cb00 943e 0a5d 0d3c 006a 8cbd 30a6 32be
00000080: f6f6 a9be 0093 86bb 5959 a2bd 02dc 74be
00000090: 1613 7d3e 00d2 143d 047e ab3e e90f 403e
000000a0: a076 7a3e 1dfc 163c 1ac6 8cbe 0553 b3be
000000b0: 8f12 99be 66c6 663d 9537 443e e14e 773e
000000c0: 6375 07be f17b dcbc 3063 e5bd af41 5a3d
000000d0: 32c2 28bd 5d60 803c fc27 253f 3985 69bd
000000e0: 4552 d63c 6fbd cf3e 6111 e2bc e042 22be
000000f0: 498e 98be 6a01 9b3d 8c0e 00bb 9c8d 213e
00000100: b02a eebd 61db 643e c88c 193f 1c15 28bd
00000110: cb42 003e fd17 643e 04af 243e 6ae7 133e
00000120: ad7e 8bbb bf15 893e d340 8b3e 39c5 763f
00000130: 7d10 e93d 5c8a 19bd ca29 1f3c 00f8 eebc
00000140: 1eca 0d3e daf3 84be ec6a 703e ee2f 5b3e
00000150: f60d 96bd 6515 db3d f6e4 60be 43f4 493e
00000160: 49d5 973d 211d 58bd d649 203e 1081 acbd
00000170: a3b2 c13c c871 18ba 08af 8a3c a7a7 ebbd
00000180: 6116 983c a3b2 6bbe 82cb 29be 61f2 ffbd
00000190: bdfd cbbd 7508 b43e 380c 163d 18c0 de3c
000001a0: 9a7f 35bd f800 4bbd e58c 6d3f 11e2 4f3d
000001b0: 4866 523b 4577 a2bd 2c5a f43d b188 4ebb
000001c0: 577d 24bc 337f 493d 242d 663d 6ba1 02bd
000001d0: f1f1 7b3d 572c 52bf b7b8 82be 548b 80be
000001e0: 80f6 733e 8abd 0a3e 16db 1bbe 8454 aabd
000001f0: 59dc ddbd 5f26 67bc 9a78 bb3e d14a 26be
00000200: b64a 063f 82fc 143e c2a3 82be c03f 0a3e
00000210: 49ae 303d 53a0 e0bc 55a8 28bf a39f d83d
00000220: 7214 003b a48f cebe 0ae6 983c a5a6 dfbd
00000230: d70e a03c 30c6 2bbe 8254 3b3e 978a 08bf
00000240: 9d93 6ebe d39a d03c e6a1 573d cc39 67bc
00000250: 45ca 00bd e569 1e3e b842 6c3e 1250 01bd
00000260: 6f49 8f3e f6bf 65be ba72 4ebe 4c37 93be
00000270: 060a f6bc 71ff ea3d 1611 7f3d 4feb 903d
00000280: 3144 cabd 69da d13c ea4d e1bd b00e fb3c
00000290: 2683 dfbe 96c0 2c3e abd5 84bd 61f3 53bc
000002a0: 9a2d 373e b9e7 b03d 19e6 ecbe 699a a63e
000002b0: ba56 c53d 8308 b9bc 0139 653e bf76 1d3e
000002c0: 2bb6 11be bdc5 d73e e9d1 8fbe 7cf3 e6bc
000002d0: 11f0 1b3d 6910 30bc 2ae5 0fbc 361d 083d
000002e0: 67d6 1a3e 00d7 b0bd 4620 00bd cb4b 3d3e
000002f0: 45d5 07bf f2a6 a03d c6ea a5be c721 593d
00000300: 0ede c0bb 11c4 263e b3f8 1f3f 626a 47bd
00000310: fdeb 963e df9c a7bd bf34 c73d dec7 283e
00000320: 0159 603e 6230 71bd 7832 253e 1305 6abd
00000330: 0e21 0cbd f947 f9be 4fcf 4fbb fac1 543d
00000340: 0090 18be 6df7 c83b c1f7 3b3c a4b5 1cbe
00000350: bd5c 9cbe 3dd2 8e3e 8b80 093b 82ec 1e3e
00000360: 19ba 9cbc 4988 83bc 08f2 b73e 88ef a73e
00000370: 60a4 e0be 4f7c 9a3e 8ffe 72bd 1f8d 423e
00000380: 47b1 b93d e0ba 243e 400b 383d 803c 793e
00000390: e375 92bd 66bd ca3d e872 fe3d 8df3 01be
000003a0: e123 953d 0d19 eabc 15b5 55bd dc55 42be
000003b0: 5537 9f3d 7452 96bd 9c59 6f3d 18ee 9bbe
000003c0: 59d3 1ebe 9f8e d2bd ac42 7b3e cb1f 4cbc
000003d0: b3da 933f cde9 42be 75d5 b73c 0264 0ebe
000003e0: ab62 37bd 402b bc3e 672c ec3d 99ad 0fbe
000003f0: 26f2 d33d a523 933d bbc3 a9be f8f3 3f3d

en3.bias f4 [20]
-0.08767929 0.035802905 0.082069024 -0.016059432 0.104279585 0.04432804 -0.025875498 0.052515987
0.06487583 -0.056902718 -0.05333823 0.074524455 -0.095872484 0.08379019 -0.086574055 0.07708458
0.040443335 -0.0935747 -0.041203264 0.080097765
00000000: 3391 b3bd 11a6 123d ce13 a83d 128f 83bc
00000010: 8990 d53d 5291 353d daf8 d3bc 011b 573d
00000020: 9fdd 843d d312 69bd 3079 5abd 47a0 983d
00000030: cb58 c4bd 319a ab3d bd4d b1bd 85de 9d3d
00000040: e9a7 253d 18a4 bfbd c1c4 28bd 4c0a a43d

bn3.weight f4 [20]
0.64086443 0.5073937 0.9349411 0.7394313 0.5420876 0.5549621 0.69541323 0.6752676
0.9600026 0.711378 0.50164956 0.71634716 0.6659539 0.49389744 0.7493184 0.49477178
0.5236466 0.4421426 0.54597604 0.66035324
00000000: b10f 243f 8ee4 013f 4d58 6f3f 5f4b 3d3f
00000010: 41c6 0a3f ff11 0e3f 9a06 323f 56de 2c3f
00000020: bbc2 753f de1c 363f 1b6c 003f 8762 373f
00000030: f47b 2a3f 20e0 fc3e 55d3 3f3f ba52 fd3e
00000040: b40d 063f 8460 e23e 16c5 0b3f e90c 293f

bn3.bias f4 [20]
0.44592327 -0.5820088 -0.03965096 -0.19412495 -0.053753786 0.84293175 -0.15236853 -0.2716698
-0.12071127 -0.24263903 0.053463556 -0.2729633 0.62388426 0.5928534 0.39374974 -0.16993052
0.5763093 -0.43883863 0.11209168 0.94372547
00000000: 0e50 e43e 87fe 14bf 0c69 22bd b1c8 46be
00000010: ee2c 5cbd 60ca 573f 7f06 1cbe 4e18 8bbe
00000020: 7837 f7bd 5e76 78be 9afc 5a3d d8c1 8bbe
00000030: e1b6 1f3f 3ec5 173f 9199 c93e 4402 2ebe
00000040: 0289 133f 75af e0be 5390 e53d fe97 713f

bn3.running_mean f4 [20]
0.7262937 -1.1122818 -0.18573299 -0.19885814 1.3127786 0.8870309 0.6194046 -0.8010478
-0.68639874 -0.48732537 0.24771716 -0.6092098 1.3805335 1.9660072 0.7354038 -0.09836013
1.5537684 -0.15995564 0.69721466 1.1106704
00000000: 62ee 393f 405f 8ebf ca30 3ebe 78a1 4bbe
00000010: 2109 a83f 7514 633f 4d91 1e3f 7811 4dbf
00000020: d4b7 2fbf b682 f9be 91a9 7d3e 2cf5 1bbf
00000030: 52b5 b03f 20a6 fb3f 6c43 3c3f 0971 c9bd
00000040: e2e1 c63f 69cb 23be a97c 323f 732a 8e3f

bn3.running_var f4 [20]
2.621268 2.626869 5.483061 2.246974 3.0658896 2.626476 3.312784 2.7522647
5.109705 3.6528745 2.2632227 2.024371 3.125143 2.036674 5.438981 2.6168764
1.0516905 3.7824416 2.8712077 3.8157825
00000000: dbc2 2740 9f1e 2840 3c75 af40 6cce 0f40
00000010: 8937 4440 2f18 2840 a704 5440 1b25 3040
00000020: b482 a340 b2c8 6940 a4d8 1040 4b8f 0140
00000030: 5802 4840 de58 0240 220c ae40 e77a 2740
00000040: cb9d 863f 8613 7240 dec1 3740 c835 7440

en4.weight f4 [3, 20]
0.20781386 0.14487363 0.4013465 0.10530112 0.16437583 -0.29419214 -0.14654112 -0.09242713
0.14253744 -0.11863324 0.23368725 0.0632441 -0.34451962 0.119459406 -0.16454802 0.016725056
0.30119756 0.1172046 -0.1459303 0.29332355 -0.3368499 0.043250754 -0.08610708 0.15016736
0.28509367 0.13184872 0.0043058223 -0.32859161 -0.2358219 -0.28676206 0.20092827 0.23562782
0.059658106 0.24229611 0.23091783 -0.14120318 -0.20969145 0.15592188 -0.27333075 -0.31915194
0.044787597 0.28246644 0.115854755 -0.2841797 -0.068796836 -0.23091008 -0.22774784 0.083954774
-0.21293715 -0.14888196 -0.27199492 -0.20240389 0.1962296 -0.057072997 0.17824306 -0.5411587
0.17834157 0.10353655 -0.274841 -0.17151932
00000000: 28cd 543e c159 143e 4a7d cd3e 1da8 d73d
00000010: 2352 283e 5aa0 96be e00e 16be 6f4a bdbd
00000020: 56f5 113e fcf5 f2bd b64b 6f3e 1f86 813d
00000030: e064 b0be 22a7 f43d 477f 28be fc02 893c
00000040: 9136 9a3e f708 f03d c16e 15be 812e 963e
00000050: 9777 acbe b427 313d e958 b0bd 79c5 193e
00000060: ccf7 913e 5a03 073e db17 8d3b 293d a8be
00000070: 4c7b 71be 7ad2 92be 24c0 4d3e 6b48 713e
00000080: 0f5c 743d 791c 783e b975 6c3e 9197 10be
00000090: 5bb9 56be fca9 1f3e 02f2 8bbe e267 a3be
000000a0: 3373 373d 719f 903e 4245 ed3d 0080 91be
000000b0: 5be5 8cbd b173 6cbe bb36 69be 7bf0 ab3d
000000c0: 320c 5abe 8374 18be eb42 8bbe f742 4fbe
000000d0: 6af0 483e 60c5 69bd 5985 363e 6089 0abf
000000e0: 2c9f 363e f90a d43d f6b7 8cbe c3a2 2fbe

en4.bias f4 [3]
0.05818072 -0.010421136 -0.1223029
00000000: e84e 6e3d 6abd 2abc f179 fabd

bn5.weight f4 [3]
0.23811951 0.25192618 0.19536398
00000000: 9ad5 733e 78fc 803e 7f0d 483e

bn5.bias f4 [3]
0.07074834 0.08431995 -0.24115317
00000000: 81e4 903d f0af ac3d dbf0 76be

bn5.running_mean f4 [3]
0.00042554078 -0.14058372 -0.1599824
00000000: 1e1b df39 2ef5 0fbe 6dd2 23be

bn5.running_var f4 [3]
0.503637 0.72582775 0.44246686
00000000: 5bee 003f d9cf 393f 048b e23e

de1.weight f4 [20, 3]
0.2090609 0.43959457 -0.1486401 0.19600788 0.3997967 0.47319233 0.37221995 -0.4622745
-0.33882743 0.56233436 -0.14541146 -0.1955133 0.93558496 -0.1270542 0.06504788 0.4959935
0.17666408 0.46633092 -0.39872125 0.20878503 -0.60662305 0.063562304 0.08383705 -0.6179235
0.14965463 0.32742375 0.21306567 0.06674324 0.14432944 -0.49552417 -0.26901934 -0.15825409
-0.7026999 0.32852688 0.47134754 -0.17727992 -0.4281302 -0.23909076 0.3576623 0.85572934
0.054301605 0.031964626 -0.7144101 0.2343584 -0.1275298 -0.17276715 -0.7259301 -0.35819533
0.4345471 -0.4031238 -0.101008214 -0.09915425 0.35447824 -0.29092956 0.13884391 0.29907483
0.42750603 0.38348544 0.49685287 0.029597377
00000000: 1014 563e 8a12 e13e 1c35 18be 4ab6 483e
00000010: 27b2 cc3e 4446 f23e 9d93 be3e 3eaf ecbe
00000020: ca7a adbe 25f5 0f3f bee6 14be a334 48be
00000030: 7f82 6f3f 7f1a 02be d337 853d dcf2 fd3e
00000040: 6ee7 343e edc2 ee3e 3125 ccbe becb 553e
00000050: a64b 1bbf f42c 823d c2b2 ab3d 3c30 1ebf
00000060: 103f 193e 16a4 a73e e32d 5a3e aeb0 883d
00000070: 19cb 133e 58b5 fdbe e7bc 89be 5c0d 22be
00000080: 24e4 33bf ad34 a83e 7754 f13e de88 35be
00000090: e233 dbbe 35d4 74be 831f b73e 1411 5b3f
000000a0: 5c6b 5e3d 57ed 023d 95e3 36bf a6fb 6f3e
000000b0: 2c97 02be dfe9 30be 8ed6 39bf 6165 b7be
000000c0: f57c de3e 3e66 cebe 65dd cebd 6211 cbbd
000000d0: 2c7e b53e b8f4 94be 192d 0e3e 5620 993e
000000e0: 12e2 da3e 3458 c43e 8063 fe3e 3376 f23c

de1.bias f4 [20]
-0.32792196 0.33906844 0.44901282 -0.4465678 0.45161808 -0.30443493 0.29636946 0.2767741
-0.0077460306 0.19378111 -0.23929928 -0.38027564 -0.12262547 -0.25300318 0.1696292 0.13960056
0.45258602 -0.15343797 -0.08615343 0.35258016
00000000: 63e5 a7be 619a ad3e 02e5 e53e 89a4 e4be
00000010: 7c3a e73e e5de 9bbe bdbd 973e 56b5 8d3e
00000020: 6ad2 fdbb 8e6e 463e df0a 75be 7db3 c2be
00000030: 1023 fbbd a289 81be 47b3 2d3e 73f3 0e3e
00000040: 5bb9 e73e d81e 1dbe 3671 b0bd 6385 b43e

bn6.weight f4 [20]
0.98631114 0.68460774 0.6220287 0.9220761 0.6349464 0.5005012 0.24816069 0.6483825
0.7580983 0.38792786 0.75125885 0.5927737 0.53527635 0.48859274 0.6071321 0.75117725
0.6143608 0.3081344 0.2172884 0.52584755
00000000: e37e 7c3f 7442 2f3f 463d 1f3f 2e0d 6c3f
00000010: d98b 223f d920 003f d61d 7e3e 65fc 253f
00000020: bb12 423f 7b9e c63e 8052 403f 04c0 173f
00000030: df07 093f d428 fa3e 026d 1b3f 274d 403f
00000040: c046 1d3f cbc3 9d3e da80 5e3e f29d 063f

bn6.bias f4 [20]
0.024137164 -1.0184944 -0.6238577 -0.3805467 0.93312865 0.9493903 0.5887977 -0.9891885
0.86961484 1.0963656 -0.3402789 1.1462669 0.2403113 -0.93940717 1.2783122 0.39367327
0.851315 0.62764335 -0.33607492 -0.9918013
00000000: 4dbb c53c 065e 82bf 23b5 1fbf 04d7 c2be
00000010: 85e1 6e3f 3e0b 733f 72bb 163f 753b 7dbf
00000020: 149f 5e3f b555 8c3f 0939 aebe e0b8 923f
00000030: 2a14 763e fd7c 70bf bc9f a33f 8b8f c93e
00000040: c8ef 593f 3cad 203f 0312 acbe b1e6 7dbf

bn6.running_mean f4 [20]
-0.24528547 0.2756995 0.51462805 -0.3759488 0.4890675 -0.3638905 0.424824 0.4287362
-0.020530092 0.3227908 -0.10928888 -0.28062692 -0.25173312 -0.19898005 0.16967274 0.1524691
0.47273043 -0.06558262 -0.15086506 0.4106702
00000000: 1d2c 7bbe 7c28 8d3e aabe 033f 5c7c c0be
00000010: 0e67 fa3e db4f babe 8882 d93e 5083 db3e
00000020: b92e a8bc d644 a53e d9d2 dfbd 55ae 8fbe
00000030: 2ae3 80be 6dc1 4bbe b1be 2d3e dc20 1c3e
00000040: b909 f23e 2e50 86bd 5f7c 1abe 5d43 d23e

bn6.running_var f4 [20]
0.013940288 0.028802058 0.019586183 0.014448056 0.04435514 0.0326555 0.022720473 0.010483221
0.013140268 0.006594339 0.030664384 0.019791307 0.013272947 0.040289097 0.026779404 0.049035117
0.014449754 0.0070730397 0.018647688 0.028080488
00000000: ce65 643c 4bf2 eb3c 3473 a03c 8ab7 6c3c
00000010: bcad 353d c6c1 053d 4920 ba3c d1c1 2b3c
00000020: 474a 573c 5315 d83b e033 fb3c 6121 a23c
00000030: c676 593c 2e06 253d 7b60 db3c 0cd9 483d
00000040: a9be 6c3c f5c4 e73b 09c3 983c 0d09 e63c

de2.weight f4 [50, 20]
0.0541218 0.17326023 -0.53243864 -0.45870104 0.29504144 -0.11615494 0.030495323 -0.16441628
-0.111921996 0.06415688 0.17502481 0.24289583 0.2236496 0.24261378 -0.20242316 0.17563978
0.16830121 -0.02551883 -0.13977844 0.33026624 0.07022039 0.09317747 0.045229632 -0.18487968
-0.33450085 -0.06029493 -0.036903437 -0.42400128 -0.06036905 -0.5262147 -0.023441015 -0.0041792016
0.06818935 -0.0035450186 -0.19254059 0.061463322 -0.5178063 -0.082828924 0.14665839 -0.1281817
0.0559345 -0.41005397 -0.10889412 0.013594302 -0.11998388 -0.5691633 0.0747613 0.23526636
-0.20940167 -0.3536273 0.171075 -0.75458264 0.04825318 -0.12542836 -0.054128107 0.4252973
-0.2579137 -0.32793802 -0.2575636 -0.38330317 0.021053744 -0.00841568 -0.0032282376 0.28909189
-0.13066901 0.1324821 0.10366394 -0.2131168 0.23977071 0.2758665 -0.23936132 0.034620013
0.025289485 0.01578559 -0.29757807 -0.17756031 -0.4564558 0.038784403 0.17934927 0.13497822
0.17226699 -0.11355087 -0.09479271 0.12630674 -0.19710931 -0.15421298 0.19935541 0.5112319
-0.11799945 0.6458013 -0.1746005 0.17784286 -0.03762757 0.10783478 0.071364745 -0.11530034
-0.2462645 0.36022654 -0.28627783 -0.029889395 0.3014956 -0.5622284 -0.16387238 0.31806052
0.2102343 -0.082569174 0.07011123 -0.32669023 -0.08638055 0.0719794 -0.21602327 -0.06606636
-0.0005882007 -0.5134688 0.41824287 -0.09219657 0.083896846 0.012300925 -0.33136502 -0.5880793
-0.03335695 0.46716994 0.21050115 0.16576082 -0.6227955 -0.41525215 0.26194987 0.15941982
-0.1566586 -0.09451051 -0.09275715 -0.045018923 -0.10551622 0.050429102 0.072040424 -0.112574
-0.13207111 0.062324367 0.09830064 0.072209306 -0.3744679 0.3688083 -0.06329708 0.07812229
-0.059051786 -0.31878072 0.005736335 0.16562524 -0.31256607 0.017218603 0.28558198 0.20044065
0.22485536 0.08853055 0.052230276 0.05706245 -0.17247787 0.1076654 0.19137779 0.17699008
0.13104416 0.078885704 -0.080677785 -0.2653282 0.14691569 0.39088798 -0.031997357 0.03538486
0.12733781 0.028532093 0.018748643 0.44949675 -0.0846417 0.14121479 0.40378025 -0.03240603
0.46639025 -0.028145682 0.19452834 0.3507511 0.2238529 0.38029698 0.18181121 0.25979033
-0.103942454 0.1260159 -0.08942173 -0.116027586 0.37022212 -0.103836 -0.3636448 0.1144375
0.021106888 0.1272892 -0.18478252 -0.19793528 -0.38348085 0.2153966 0.1110197 0.3801266
-0.21629053 -0.2781283 -0.06489079 -0.018358676 -0.13004741 -0.2957618 0.23332211 0.03973668
-0.16811405 0.002133583 0.12924291 -0.7815534 0.07716419 -0.29052687 0.15900515 0.28772667
0.18380159 -0.05793852 -0.36257333 -0.90663093 0.049907025 0.10175716 0.24744488 -0.061650194
-0.059917804 -0.044291362 0.05603746 0.7028397 -0.2773601 0.16614404 0.07620797 -0.3124731
-0.25965255 0.3491535 -0.3271886 -0.104185544 -0.12274335 0.07148873 -0.2431889 0.12357281
-0.13074587 0.019897649 0.045561686 -0.12278846 0.16642992 -0.09260664 0.23828043 0.4130033
-0.03363911 0.5715664 0.27242735 0.24366294 -0.4450494 0.06089794 0.002799761 -0.1270268
00000000: d2ae 5d3d 216b 313e e64d 08bf ddda eabe
00000010: ac0f 973e a4e2 edbd 54d1 f93c be5c 28be
00000020: 5c37 e5bd af64 833d b439 333e afb9 783e
00000030: 6704 653e bf6f 783e 0448 4fbe eada 333e
00000040: 2757 2c3e de0c d1bc 1422 0fbe a818 a93e
00000050: b5cf 8f3d d4d3 be3d b542 393d 1951 3dbe
00000060: b243 abbe d1f7 76bd 0f28 17bd b216 d9be
00000070: 8945 77bd 02b6 06bf 5f07 c0bc aff1 88bb
00000080: dca6 8b3d 8b53 68bb 5c29 45be f7c0 7b3d
00000090: f48e 04bf 36a2 a9bd 9e2d 163e 1042 03be
000000a0: 931b 653d 98f2 d1be e103 dfbd a3ba 5e3c
000000b0: 1cba f5bd b0b4 11bf 741c 993d aae9 703e
000000c0: 646d 56be a30e b5be 492e 2f3e 542c 41bf
000000d0: 20a5 453d 4b70 00be 6fb5 5dbd 91c0 d93e
000000e0: 440d 84be 7ee7 a7be 60df 83be 5040 c4be
000000f0: e778 ac3c ece1 09bc d790 53bb da03 943e
00000100: 19ce 05be 63a9 073e c34d d43d 4a3b 5abe
00000110: 7486 753e 603e 8d3e 221b 75be b7cd 0d3d
00000120: e52b cf3c c850 813c 275c 98be 5fd2 35be
00000130: 93b4 e9be 65dc 1e3d 56a7 373e bb37 0a3e
00000140: c266 303e 5c8d e8bd ae22 c2bd 8e56 013e
00000150: 06d7 49be 02ea 1dbe d323 4c3e 18e0 023f
00000160: b2a9 f1bd 3c53 253f 79ca 32be 701c 363e
00000170: 5e1f 1abd 7bd8 dc3d ae27 923d 9622 ecbd
00000180: c32c 7cbe 9d6f b83e 0293 92be 9bda f4bc
00000190: a25d 9a3e 33ee 0fbf 29ce 27be d4d8 a23e
000001a0: a947 573e 071a a9bd 7a96 8f3d f143 a7be
000001b0: 49e8 b0bd f069 933d 3435 5dbe cd4d 87bd
000001c0: 7b31 1aba b172 03bf ee23 d63e 8ed1 bcbd
000001d0: 1cd2 ab3d d289 493c ada8 a9be 5d8c 16bf
000001e0: 4ca1 08bd e630 ef3e 9d8d 573e 34bd 293e
000001f0: 876f 1fbf ee9b d4be 4b1e 863e f33e 233e
00000200: 1d6b 20be ba8e c1bd 76f7 bdbd c365 38bd
00000210: e318 d8bd bf8e 4e3d ee89 933d 338d e6bd
00000220: a63d 07be d647 7f3d d951 c93d 79e2 933d
00000230: 42ba bfbe 71d4 bc3e e6a1 81bd 94fe 9f3d
00000240: 49e0 71bd 3a37 a3be def7 bb3b aa99 293e
00000250: a908 a0be 070e 8d3c cd37 923e 5040 4d3e
00000260: 7c40 663e 814f b53d 6aef 553d 51ba 693d
00000270: 0a9e 30be ad7f dc3d 8af8 433e e33c 353e
00000280: 7130 063e d48e a13d 653a a5bd 19d9 87be
00000290: 1171 163e 7822 c83e a90f 03bd b7ef 103d
000002a0: d864 023e 23bc e93c c196 993c 7024 e63e
000002b0: a158 adbd 9c9a 103e 49bc ce3e 2fbc 04bd
000002c0: b4ca ee3e c691 e6bc 7032 473e a695 b33e
000002d0: b239 653e 49b6 c23e b82c 3a3e 3d03 853e
000002e0: c8df d4bd 500a 013e bd22 b7bd df9f edbd
000002f0: c18d bd3e f8a7 d4bd a72f babe 355e ea3d
00000300: 5ae8 ac3c 1a58 023e a137 3dbe 8caf 4abe
00000310: 9a57 c4be ed90 5c3e 4c5e e33d f49f c23e
00000320: 447b 5dbe d566 8ebe 76e5 84bd ef64 96bc
00000330: 262b 05be 176e 97be feeb 6e3e eec2 223d
00000340: 1726 2cbe 95d3 0b3b 4158 043e e213 48bf
00000350: 4208 9e3d f0bf 94be 3fd2 223e e950 933e
00000360: 7c36 3c3e f150 6dbd 36a3 b9be f718 68bf
00000370: 4f6b 4c3d 0f66 d03d 3162 7d3e ea84 7cbd
00000380: 5f6c 75bd dc6a 35bd 8987 653d 4ded 333f
00000390: 2502 8ebe aa21 2a3e ed12 9c3d 79fc 9fbe
000003a0: 2ef1 84be 3fc4 b23e 4485 a7be 3b5f d5bd
000003b0: de60 fbbd af68 923d 8306 79be be13 fd3d
000003c0: 3fe2 05be 6500 a33c e49e 3a3d 8478 fbbd
000003d0: 9b6c 2a3e 8da8 bdbd c9ff 733e 2b75 d33e
000003e0: 2ac9 09bd 2d52 123f 997b 8b3e c782 793e
000003f0: 84dd e3be 1e70 793d 327c 373b 5013 02be

de2.bias f4 [50]
-0.12699886 -0.11405365 0.04711981 -0.10302603 -0.12693135 -0.100163884 -0.017328486 -0.0014271
0.12234757 -0.14129248 -0.060634375 0.067775145 -0.111072384 0.16998866 -0.015726678 0.006205231
-0.041740663 -0.10692713 0.13878623 -0.081821196 0.0061246427 0.13287932 -0.06737738 -0.13052098
0.1780132 0.01358015 -0.16911604 0.16531366 -0.14589536 0.011162245 0.17056043 0.14845763
-0.1807201 0.09481952 -0.06353031 -0.14403003 0.16149075 0.15775384 0.15230273 -0.069508836
0.05720421 0.14449036 -0.015254977 0.11956325 0.17438914 0.067648366 -0.077806436 0.16628271
0.06223718 -0.04416304
00000000: fd0b 02be f694 e9bd b400 413d 50ff d2bd
00000010: 4bfa 01be b922 cdbd 78f4 8dbc 880d bbba
00000020: 5d91 fa3d faae 10be c05b 78bd b2cd 8a3d
00000030: eb79 e3bd 8211 2e3e 3cd5 80bc 4055 cb3b
00000040: 42f8 2abd 9cfc dabd fa1d 0e3e df91 a7bd
00000050: 3ab1 c83b 8411 083e 27fd 89bd 4ba7 05be
00000060: 1849 363e 477f 5e3c c12c 2dbe fc47 293e
00000070: 9865 15be d9e1 363c 65a7 2e3e 4705 183e
00000080: b10e 39be bd30 c23d 2e1c 82bd 9c7c 13be
00000090: d55d 253e 398a 213e 3ff5 1b3e a65a 8ebd
000000a0: f64e 6a3d 48f5 133e 03f0 79bc 94dd f43d
000000b0: 1193 323e 3a8b 8a3d fb58 9fbd 0446 2a3e
000000c0: 6aec 7e3d 4ee4 34bd

bn7.weight f4 [50]
0.7359778 0.53290313 0.7303623 0.7179309 0.43381193 0.64647704 0.6163553 0.70761895
0.6975219 0.60613126 0.45026684 0.55437595 0.44292825 0.42691776 0.49652615 0.5366318
0.4170147 0.5539638 0.74421495 0.78046733 0.65026164 0.5394715 0.5034054 0.9486758
0.6684941 0.68003654 0.76477975 0.45585272 0.49339673 0.7705132 0.98134804 0.35864407
0.89647347 0.69645846 0.3724138 0.52116895 0.768137 0.4698387 0.5806312 0.47835606
0.52400744 0.4825147 0.61126685 0.95825535 0.6509634 0.71875876 0.64334774 0.8656894
0.7969175 0.5264571
00000000: 0b69 3c3f 576c 083f 06f9 3a3f 52ca 373f
00000010: 991c de3e 857f 253f 76c9 1d3f 8426 353f
00000020: cc90 323f 6b2b 1b3f 6089 e63e 95eb 0d3f
00000030: 7ec7 e23e f794 da3e ad38 fe3e b460 093f
00000040: f382 d53e 92d0 0d3f df84 3e3f b5cc 473f
00000050: 8c77 263f ce1a 0a3f 2ddf 003f 6bdc 723f
00000060: 6e22 2b3f e016 2e3f 9bc8 433f 8765 e93e
00000070: 7f9e fc3e 5a40 453f a039 7b3f 32a0 b73e
00000080: 497f 653f 1a4b 323f 06ad be3e 546b 053f
00000090: a0a4 443f b38e f03e 3fa4 143f 16eb f43e
000000a0: 5a25 063f 2b0c f73e fc7b 1c3f 3950 753f
000000b0: 8aa5 263f 9300 383f 70b2 243f d29d 5d3f
000000c0: c902 4c3f e4c5 063f

bn7.bias f4 [50]
0.2354189 -1.0324281 -0.85358584 -0.5128056 0.77640796 1.5838462 -1.6058561 -0.5445291
1.055242 -0.4560415 0.6008034 -1.1572373 0.9617983 -1.3619119 0.81615794 1.3213989
1.1036886 0.23811576 -0.4669112 -0.72806215 -0.8004183 -0.6006367 1.0250026 0.5547459
0.080621175 0.25117168 0.69996035 1.2328432 0.96731156 -1.7569058 -0.14733534 0.6295328
0.25132856 -1.1262869 0.41502455 -1.6404983 0.42232385 0.032703485 1.1612693 0.4485463
0.70320463 -1.0074424 -1.2911954 -0.115922846 1.0588393 1.4485083 -0.4333546 0.28036913
-0.462639 0.9906756
00000000: a711 713e 9b26 84bf 9a84 5abf 3a47 03bf
00000010: acc2 463f 79bb ca3f b18c cdbf 4266 0bbf
00000020: 2b12 873f 467e e9be 40ce 193f 5a20 94bf
00000030: 6a38 763f 2153 aebf baef 503f 9923 a93f
00000040: ab45 8d3f 9ed4 733e fc0e efbe 4862 3abf
00000050: 37e8 4cbf 54c3 19bf 4933 833f d403 0e3f
00000060: b71c a53d 9399 803e 9a30 333f cecd 9d3f
00000070: bba1 773f 4ae2 e0bf 13df 16be 1029 213f
00000080: 23ae 803e 2b2a 90bf 197e d43e d9fb d1bf
00000090: d53a d83e 17f4 053d 79a4 943f dca7 e53e
000000a0: 3805 343f dff3 80bf e445 a5bf f568 edbd
000000b0: 0c88 873f b868 b93f a7e0 ddbe 8b8c 8f3e
000000c0: 05df ecbe eb9c 7d3f

bn7.running_mean f4 [50]
0.1328716 -0.9909205 -0.9981326 -0.22071674 0.20590036 1.783674 -1.3931576 -0.8420348
1.0452995 -0.86121094 0.48408097 -1.449851 0.41062796 -1.5220892 -0.21297652 0.29244986
0.9292679 -0.68160814 0.11381514 0.05316626 -0.47916675 -0.26325953 0.5294157 -1.2984198
-0.02764041 0.20645829 0.8588171 1.3222635 0.57328165 -1.4773221 0.5776447 0.78553694
1.0081544 -0.97594285 0.6867886 -2.070858 -0.47950324 -0.7389147 1.8498317 0.34038782
-0.22714444 -1.4212412 -0.15453608 1.067677 2.122675 1.9551502 -0.31524906 -1.6745151
0.044088062 -0.15398887
00000000: 7e0f 083e f7ac 7dbf 9e85 7fbf 9203 62be
00000010: 8bd7 523e 6e4f e43f fd52 b2bf 988f 57bf
00000020: 60cc 853f 5278 5cbf 76d9 f73e b894 b9bf
00000030: d43d d23e d2d3 c2bf 8416 5abe fdbb 953e
00000040: 80e4 6d3f df7d 2ebf ea17 e93d ddc4 593d
00000050: 5855 f5be f4c9 86be ca87 073f 9f32 a6bf
00000060: 246e e2bc cd69 533e 70db 5b3f ee3f a93f
00000070: 96c2 123f e418 bdbf 86e0 133f f318 493f
00000080: 340b 813f 64d7 79bf 61d1 2f3f f088 04c0
00000090: 7381 f5be 8429 3dbf 49c7 ec3f 5047 ae3e
000000a0: 8d98 68be 3beb b5bf b53e 1ebe a4a9 883f
000000b0: e8d9 0740 5d42 fa3f 5368 a1be 8356 d6bf
000000c0: af95 343d 42af 1dbe

bn7.running_var f4 [50]
0.08525007 0.17194954 0.93256795 0.27910024 0.18063514 0.036342513 0.048137408 0.1879616
0.21007729 0.8669455 1.3305438 0.1675696 0.22321132 0.09384297 0.3097274 0.04850491
0.16142347 0.4295859 0.28232905 0.24552852 0.67953724 0.64331245 0.4111174 0.13365795
0.2622491 0.6118871 0.79564023 0.07835146 0.38169858 0.06741107 1.4941124 0.8000463
0.527641 0.15402889 1.0810022 0.0780946 0.50256026 0.64519334 0.041774973 1.1558787
0.8855144 0.47681037 0.11836709 0.5227511 0.9294542 0.12538706 0.95106626 0.65920794
0.43918318 0.2433359
00000000: 9797 ae3d 8a13 303e c6bc 6e3f 3ae6 8e3e
00000010: 6bf8 383e e3db 143d bb2b 453d 0179 403e
00000020: 801e 573e 24f0 5d3f 424f aa3f 5d97 2b3e
00000030: 8291 643e be30 c03d 9794 9e3e 16ad 463d
00000040: 324c 253e aff2 db3e 6f8d 903e d46b 7b3e
00000050: 27f6 2d3f 20b0 243f fb7d d23e a1dd 083e
00000060: 8445 863e a2a4 1c3f 14af 4b3f bb76 a03d
00000070: ff6d c33e d10e 8a3d 133f bf3f d6cf 4c3f
00000080: 7b13 073f c0b9 1d3e 485e 8a3f 10f0 9f3d
00000090: caa7 003f 642b 253f 3c1c 2b3d d5f3 933f
000000a0: 12b1 623f 7d20 f43e 726a f23d 04d3 053f
000000b0: b6f0 6d3f 7765 003e 1479 733f dac1 283f
000000c0: 9edc e03e 0c2d 793e
