jet_by_jet_compression/fastai_AE_3D/models/tmp.pth (torch_old, 42742 bytes, 44 tensors)

en1.weight f4 [50, 4]
0	0x3e028d2c	0.12749165
1	0xbed9a5ac	-0.4250921
2	0xbef184a0	-0.47171497
3	0x3d80ca98	0.06288642
4	0x3e5bd490	0.21467805
5	0xbcc4da80	-0.02402997
6	0xbe9906ec	-0.29888093
7	0x3df90418	0.12158984
8	0xbeb141b6	-0.34620446
9	0xbdc03508	-0.09385115
10	0x3eeeb4cc	0.46622312
11	0x3e8d8616	0.27641362
12	0x3df835f8	0.12119669
13	0x3e971c42	0.29513747
14	0xbe9ab218	-0.30214
15	0xbd0cee90	-0.0344072
16	0x3d7f47a0	0.062324166
17	0xbe339530	-0.1753738
18	0x3e9099a0	0.28242207
19	0x3d7beef0	0.061507165
20	0xbe91bccc	-0.28464353
21	0xbed4288c	-0.41437185
22	0x3ea23540	0.31681252
23	0xbedd70c4	-0.43250096
24	0xbcf410a0	-0.029793084
25	0xbd35f330	-0.044421375
26	0x3ef3b762	0.47600847
27	0x3e157e50	0.14598966
28	0xbead1f28	-0.33812833
29	0x3ea47b6a	0.32125407
30	0xbe9534a2	-0.29141718
31	0xbee4adb4	-0.44663775
32	0xbe7dc0bc	-0.24780554
33	0x3e8451c8	0.25843644
34	0x3ed06668	0.4070313
35	0x3e23fa90	0.16013551
36	0x3e5e701c	0.21722454
37	0xbef2498a	-0.4732173
38	0x3de690a8	0.1125806
39	0xbd9b9f00	-0.07598686
40	0xbee51a78	-0.44746757
41	0x3eaee8e0	0.34162045
42	0x3ecd61de	0.4011373
43	0xbe8dabcc	-0.27670133
44	0x3c9505e0	0.018191278
45	0x3ec5d50a	0.38639098
46	0x3de29ea0	0.110654116
47	0x3c9f40a0	0.019439995
48	0xbe2020a4	-0.15637451
49	0x3ed0935a	0.4073742
50	0xbed55658	-0.41667438
51	0x3ec37d34	0.3818146
52	0xbd644190	-0.055726588
53	0x3e5463e0	0.20741224
54	0xbd574ec0	-0.052565336
55	0x3eb90b44	0.36141407
56	0xbec72332	-0.3889404
57	0xbefa1440	-0.48843575
58	0x3e5acd24	0.21367317
59	0x3ea52094	0.32251418
60	0xbe2020ac	-0.15637463
61	0x3ecb41ba	0.39698583
62	0x3eab8250	0.33497858
63	0xbe0dcbf4	-0.13847333
64	0xbe7cc390	-0.24683976
65	0x3eda6af6	0.4265973
66	0xbe178ca8	-0.1479975
67	0x3d9a14e8	0.07523519
68	0x3e7cb998	0.24680173
69	0xbe0ed434	-0.13948137
70	0xbe153f48	-0.14574921
71	0x3e8e3544	0.27775013
72	0xbec4dfca	-0.38451988
73	0x3e90e45a	0.28299218
74	0xbec23800	-0.3793335
75	0xbec54c86	-0.38534945
76	0x3e6f9958	0.2339834
77	0x3e0132b0	0.12616992
78	0xbef3a5d8	-0.47587466
79	0x3e2b5ae0	0.16733885
80	0xbee7edaa	-0.4529851
81	0xbd874f80	-0.0660696
82	0xbebc3a1c	-0.36763084
83	0xbd9c2228	-0.07623702
84	0xbeae550e	-0.34049267
85	0x3d2fb080	0.042892933
86	0x3da37800	0.079818726
87	0xbec7981e	-0.38983244
88	0x3eb87d56	0.36033124
89	0xbefc74b2	-0.4930778
90	0xbe0f0bec	-0.13969392
91	0xbd965600	-0.07340622
92	0x3eee63d6	0.46560544
93	0xbec00dfe	-0.37510675
94	0xbeb2e65e	-0.3494138
95	0xbe5e8f34	-0.21734315
96	0x3d01d860	0.031700492
97	0xbe955052	-0.29162842
98	0x3eb551e0	0.35414028
99	0xbdcb15a8	-0.0991624
100	0xbdf188e0	-0.11793685
101	0x3e3a49d8	0.18192232
102	0x3b41aa00	0.002955079
103	0x3e15d3b4	0.1463154
104	0x3e4e3ae0	0.20139647
105	0x3ea01aa0	0.31270313
106	0xbd948ec0	-0.0725379
107	0xbee2e13a	-0.4431246
108	0x3d3ada20	0.045618176
109	0xbe33b458	-0.17549264
110	0xbe3b52cc	-0.18293303
111	0xbe300d58	-0.1719259
112	0xbe88377a	-0.26604825
113	0x3c45fa00	0.01208353
114	0x3e652f9c	0.22381443
115	0x3e43103c	0.19049162
116	0xbecbe14c	-0.39820325
117	0xbe7339f8	-0.23752582
118	0xbe0ea744	-0.13930994
119	0xbe0441e8	-0.12915766
120	0xbbc1a480	-0.0059095025
121	0x3dc0da90	0.094166875
122	0x3ef394b4	0.4757439
123	0x3d0172b0	0.031603515
124	0x3e8c5436	0.27407998
125	0xbe84e932	-0.25959164
126	0xbe664a3c	-0.22489256
127	0x3ef0f76c	0.47063768
128	0xbe83ca96	-0.25740498
129	0xbc52bc00	-0.0128622055
130	0xbeb25fb8	-0.34838653
131	0xbe7e5d88	-0.24840367
132	0xbe8ab1c2	-0.27088743
133	0x3e18ee38	0.14934623
134	0x3da60440	0.081062794
135	0xbc5dbe00	-0.013534069
136	0xbd45de30	-0.048307598
137	0xbb0f3400	-0.0021851063
138	0x3eb5bd9a	0.35496217
139	0xbec69a90	-0.38789797
140	0x3d33cc30	0.0438959
141	0xbe99fd28	-0.30075955
142	0xbd41f1b0	-0.04734963
143	0xbec4cd0c	-0.38437688
144	0x3e1ee328	0.1551634
145	0xbed31a34	-0.4123093
146	0xbe9e48f4	-0.30915034
147	0x3eaf4fd4	0.34240592
148	0xbdac86c8	-0.08424145
149	0x3ed88a84	0.4229318
150	0x3e5c8718	0.21535909
151	0x3eb3f9ec	0.35151613
152	0x3d948110	0.07251179
153	0xbe63f1ac	-0.22260159
154	0xbcf95e40	-0.03044045
155	0xbe9182f2	-0.28420216
156	0x3e373a0c	0.17893237
157	0x3e564c6c	0.2092759
158	0x3eadfaf8	0.33980536
159	0xbe612450	-0.21986508
160	0x3ddce420	0.10785699
161	0x3e535144	0.20636469
162	0x3dd297d8	0.10282868
163	0x3ede22ea	0.43386012
164	0xbee481b6	-0.44630212
165	0xbd0892a0	-0.033342957
166	0x3e1a3128	0.15057814
167	0x3ec6d2c6	0.38832682
168	0x3eb70426	0.35745353
169	0x3ed556ac	0.41667688
170	0xbea4ea26	-0.3220989
171	0xbe38f874	-0.18063527
172	0xbeacf2f4	-0.3377911
173	0xbeccd4e0	-0.4000616
174	0xbe1456b4	-0.144862
175	0x3d02d6e0	0.031943202
176	0x3ebe4710	0.3716359
177	0xbdbe7530	-0.092996955
178	0x3b686f00	0.0035466552
179	0xbe2495e4	-0.16072804
180	0x3e850804	0.25982678
181	0xbe2eb584	-0.1706143
182	0xbeafdae8	-0.343467
183	0x3eee9952	0.4660135
184	0xbe8be154	-0.2732035
185	0x3eb4db5a	0.35323602
186	0x3ac28c00	0.0014842749
187	0x3e9c7fc4	0.30566227
188	0x3db9e850	0.09077513
189	0xbed85768	-0.42254186
190	0xbe8c8776	-0.27447098
191	0xbdf8fdb8	-0.12157768
192	0x3d0cc480	0.034367085
193	0xbe2f5be4	-0.17124897
194	0xbef06c06	-0.46957415
195	0xbeb2f2a8	-0.34950757
196	0x3e93cd04	0.28867352
197	0xbe728e18	-0.23687017
198	0xbdc77500	-0.09739113
199	0xbc4a8040	-0.012359679

en1.bias f4 [50]
0	0xbe8dda42	-0.2770558
1	0x3eaac4fa	0.33353406
2	0x3eb50280	0.3535347
3	0xbec1f9e4	-0.37885964
4	0x3bcf4d00	0.006326318
5	0x3eca48c4	0.3950864
6	0xbe845a60	-0.258502
7	0x3efb3486	0.4906351
8	0xbe959b42	-0.29220015
9	0xbdfaca08	-0.12245566
10	0x3edbde0e	0.42942852
11	0xbedf3426	-0.43594474
12	0xbde3a558	-0.11115521
13	0xbddad758	-0.10685605
14	0x3eb32a96	0.34993428
15	0x3e26e92c	0.16299886
16	0xbd8c32b0	-0.068456054
17	0x3dbdc690	0.092663884
18	0x3e6681a0	0.22510386
19	0x3ee9232a	0.4553464
20	0xbba3fc80	-0.0050044656
21	0xbd999f28	-0.0750106
22	0x3dcd8988	0.10035998
23	0x3ddc3828	0.107528985
24	0x3eea8dac	0.45811212
25	0x3e5bbbcc	0.21458358
26	0xbede2854	-0.43390143
27	0x3e73b984	0.23801237
28	0xbea825b4	-0.32841265
29	0xbd905890	-0.07048142
30	0xbeafa854	-0.34308112
31	0x3d904ac8	0.070455134
32	0xbe0a004c	-0.13476676
33	0x3e88f422	0.2674876
34	0x3eb882ec	0.36037385
35	0x3e905b08	0.2819445
36	0x3e487bc0	0.19578457
37	0xbe2b7a44	-0.1674586
38	0x3e6f37a8	0.23361075
39	0x3ef37e40	0.4755726
40	0xbe1e63f0	-0.1546781
41	0xbd8f3198	-0.06991881
42	0x3e9a2e78	0.30113578
43	0xbec3a5ba	-0.38212377
44	0xbef893bc	-0.48550212
45	0xbec27428	-0.37979245
46	0x3ea516d4	0.3224398
47	0x3efb4f7a	0.49084073
48	0xbec361ee	-0.38160652
49	0xbefa2f94	-0.48864424

bn1.weight f4 [50]
0	0x3f800000	1.0
1	0x3f800000	1.0
2	0x3f800000	1.0
3	0x3f800000	1.0
4	0x3f800000	1.0
5	0x3f800000	1.0
6	0x3f800000	1.0
7	0x3f800000	1.0
8	0x3f800000	1.0
9	0x3f800000	1.0
10	0x3f800000	1.0
11	0x3f800000	1.0
12	0x3f800000	1.0
13	0x3f800000	1.0
14	0x3f800000	1.0
15	0x3f800000	1.0
16	0x3f800000	1.0
17	0x3f800000	1.0
18	0x3f800000	1.0
19	0x3f800000	1.0
20	0x3f800000	1.0
21	0x3f800000	1.0
22	0x3f800000	1.0
23	0x3f800000	1.0
24	0x3f800000	1.0
25	0x3f800000	1.0
26	0x3f800000	1.0
27	0x3f800000	1.0
28	0x3f800000	1.0
29	0x3f800000	1.0
30	0x3f800000	1.0
31	0x3f800000	1.0
32	0x3f800000	1.0
33	0x3f800000	1.0
34	0x3f800000	1.0
35	0x3f800000	1.0
36	0x3f800000	1.0
37	0x3f800000	1.0
38	0x3f800000	1.0
39	0x3f800000	1.0
40	0x3f800000	1.0
41	0x3f800000	1.0
42	0x3f800000	1.0
43	0x3f800000	1.0
44	0x3f800000	1.0
45	0x3f800000	1.0
46	0x3f800000	1.0
47	0x3f800000	1.0
48	0x3f800000	1.0
49	0x3f800000	1.0

bn1.bias f4 [50]
0	0x00000000	0.0
1	0x00000000	0.0
2	0x00000000	0.0
3	0x00000000	0.0
4	0x00000000	0.0
5	0x00000000	0.0
6	0x00000000	0.0
7	0x00000000	0.0
8	0x00000000	0.0
9	0x00000000	0.0
10	0x00000000	0.0
11	0x00000000	0.0
12	0x00000000	0.0
13	0x00000000	0.0
14	0x00000000	0.0
15	0x00000000	0.0
16	0x00000000	0.0
17	0x00000000	0.0
18	0x00000000	0.0
19	0x00000000	0.0
20	0x00000000	0.0
21	0x00000000	0.0
22	0x00000000	0.0
23	0x00000000	0.0
24	0x00000000	0.0
25	0x00000000	0.0
26	0x00000000	0.0
27	0x00000000	0.0
28	0x00000000	0.0
29	0x00000000	0.0
30	0x00000000	0.0
31	0x00000000	0.0
32	0x00000000	0.0
33	0x00000000	0.0
34	0x00000000	0.0
35	0x00000000	0.0
36	0x00000000	0.0
37	0x00000000	0.0
38	0x00000000	0.0
39	0x00000000	0.0
40	0x00000000	0.0
41	0x00000000	0.0
42	0x00000000	0.0
43	0x00000000	0.0
44	0x00000000	0.0
45	0x00000000	0.0
46	0x00000000	0.0
47	0x00000000	0.0
48	0x00000000	0.0
49	0x00000000	0.0

bn1.running_mean f4 [50]
0	0x00000000	0.0
1	0x00000000	0.0
2	0x00000000	0.0
3	0x00000000	0.0
4	0x00000000	0.0
5	0x00000000	0.0
6	0x00000000	0.0
7	0x00000000	0.0
8	0x00000000	0.0
9	0x00000000	0.0
10	0x00000000	0.0
11	0x00000000	0.0
12	0x00000000	0.0
13	0x00000000	0.0
14	0x00000000	0.0
15	0x00000000	0.0
16	0x00000000	0.0
17	0x00000000	0.0
18	0x00000000	0.0
19	0x00000000	0.0
20	0x00000000	0.0
21	0x00000000	0.0
22	0x00000000	0.0
23	0x00000000	0.0
24	0x00000000	0.0
25	0x00000000	0.0
26	0x00000000	0.0
27	0x00000000	0.0
28	0x00000000	0.0
29	0x00000000	0.0
30	0x00000000	0.0
31	0x00000000	0.0
32	0x00000000	0.0
33	0x00000000	0.0
34	0x00000000	0.0
35	0x00000000	0.0
36	0x00000000	0.0
37	0x00000000	0.0
38	0x00000000	0.0
39	0x00000000	0.0
40	0x00000000	0.0
41	0x00000000	0.0
42	0x00000000	0.0
43	0x00000000	0.0
44	0x00000000	0.0
45	0x00000000	0.0
46	0x00000000	0.0
47	0x00000000	0.0
48	0x00000000	0.0
49	0x00000000	0.0

bn1.running_var f4 [50]
0	0x3f800000	1.0
1	0x3f800000	1.0
2	0x3f800000	1.0
3	0x3f800000	1.0
4	0x3f800000	1.0
5	0x3f800000	1.0
6	0x3f800000	1.0
7	0x3f800000	1.0
8	0x3f800000	1.0
9	0x3f800000	1.0
10	0x3f800000	1.0
11	0x3f800000	1.0
12	0x3f800000	1.0
13	0x3f800000	1.0
14	0x3f800000	1.0
15	0x3f800000	1.0
16	0x3f800000	1.0
17	0x3f800000	1.0
18	0x3f800000	1.0
19	0x3f800000	1.0
20	0x3f800000	1.0
21	0x3f800000	1.0
22	0x3f800000	1.0
23	0x3f800000	1.0
24	0x3f800000	1.0
25	0x3f800000	1.0
26	0x3f800000	1.0
27	0x3f800000	1.0
28	0x3f800000	1.0
29	0x3f800000	1.0
30	0x3f800000	1.0
31	0x3f800000	1.0
32	0x3f800000	1.0
33	0x3f800000	1.0
34	0x3f800000	1.0
35	0x3f800000	1.0
36	0x3f800000	1.0
37	0x3f800000	1.0
38	0x3f800000	1.0
39	0x3f800000	1.0
40	0x3f800000	1.0
41	0x3f800000	1.0
42	0x3f800000	1.0
43	0x3f800000	1.0
44	0x3f800000	1.0
45	0x3f800000	1.0
46	0x3f800000	1.0
47	0x3f800000	1.0
48	0x3f800000	1.0
49	0x3f800000	1.0

en2.weight f4 [50, 50]
0	0xbdd975d4	-0.10618177
1	0x3d86069e	0.06544231
2	0xbdf186d8	-0.117932975
3	0xbdb71c12	-0.08940901
4	0xbda97873	-0.08274927
5	0x3de11322	0.109899774
6	0xbe0d9837	-0.13827597
7	0xbb6c1540	-0.0036023408
8	0x3dcbaeda	0.0994546
9	0x3baaef00	0.0052164793
10	0xbd876d0d	-0.06612597
11	0xbdcc8e99	-0.09988136
12	0x3df19212	0.11795439
13	0x3d217550	0.03941852
14	0x3dab2e64	0.08358458
15	0x3d9e1daa	0.07720502
16	0x3dd5378e	0.10410987
17	0xbe05609d	-0.13025136
18	0xbdbdb3e0	-0.09262824
19	0x3ded9ed2	0.11602558
20	0xbc3868a0	-0.011255413
21	0x3dd9d0f6	0.10635559
22	0xbb98c340	-0.0046619475
23	0x3ca08850	0.019596249
24	0x3dde70f6	0.10861389
25	0x3dc5e2e6	0.09662418
26	0x3e03a971	0.12857606
27	0xbdcee6c4	-0.10102609
28	0xbd4fdfac	-0.05075042
29	0xbd86298f	-0.065508954
30	0xbd8d44bd	-0.068978764
31	0xbc688d90	-0.014193907
32	0x3dae5e54	0.085140854
33	0x3e032f25	0.12810953
34	0x3dc905f0	0.098155856
35	0xbdb9550c	-0.090494245
36	0x3e08d48b	0.13362329
37	0xbdd1b346	-0.10239272
38	0x3d64d758	0.05586943
39	0xbcfccc78	-0.030859217
40	0xbd7b3160	-0.061326385
41	0x3e067009	0.13128676
42	0x3d803f0c	0.06262025
43	0xbca3f29c	-0.020013146
44	0x3dfd05ee	0.123546466
45	0xbd8360bd	-0.06414936
46	0xbdb418a8	-0.08793765
47	0x3d94c51c	0.07264158
48	0xbde16d0e	-0.11007129
49	0x3db006b2	0.08595027
50	0xbdacb500	-0.084329605
51	0xbcf42974	-0.029804923
52	0xbcaf6660	-0.02141112
53	0xbe09cbab	-0.134566
54	0xbdca4a9c	-0.09877512
55	0x3e095491	0.13411166
56	0xbc2bf210	-0.010494724
57	0xbd7b6694	-0.061377123
58	0x3e08e9c5	0.13370426
59	0xbbfe45e0	-0.0077597946
60	0xbd2c5d64	-0.04208125
61	0xbd4625be	-0.048375838
62	0x3e0f7c07	0.14012156
63	0xbd42deb8	-0.047575682
64	0x3d2969e8	0.041360766
65	0xbcb094d8	-0.02155535
66	0x3c136b70	0.008997783
67	0xbdb4ff7b	-0.088377915
68	0x3b2b8900	0.0026174188
69	0xbde7214b	-0.11285647
70	0x3e04fb39	0.12986459
71	0xbc8e6150	-0.017380387
72	0x3d80cd44	0.06289151
73	0x3d3cdff8	0.04611203
74	0x3d38dfe4	0.045135394
75	0x3e05dcf7	0.13072573
76	0xbc9320dc	-0.017960005
77	0xbe0b6e77	-0.13616358
78	0x3a33c900	0.00068582594
79	0xbe01de1c	-0.12682384
80	0x3cf5f3f0	0.030023545
81	0xbd27222a	-0.040804066
82	0xbd85de9f	-0.06536602
83	0xbd0a5158	-0.03376898
84	0x3dd0fb10	0.10204136
85	0x3c3c4d90	0.011493102
86	0x3dcf7e6e	0.101315364
87	0x3d42ae78	0.047529668
88	0x3e08037d	0.1328258
89	0x3df45ab2	0.11931361
90	0xbde8e0cb	-0.11371001
91	0x3b1b0740	0.0023655444
92	0xbcb5b42c	-0.02218064
93	0x3d284618	0.04108247
94	0x3ce0d6a8	0.027446106
95	0x3df5d222	0.1200297
96	0x3bad7740	0.0052937567
97	0x3d815a56	0.06316058
98	0x3def8f96	0.11697309
99	0x3e00a799	0.12563933
100	0xb9d32800	-0.00040274858
101	0x3cb0d830	0.021587461
102	0x3d9a00a4	0.075196534
103	0xbd1553f6	-0.036457025
104	0x3d97f3ce	0.07419549
105	0xbce6d0f4	-0.028175808
106	0xbdb8df98	-0.09027022
107	0x3d41675c	0.04721771
108	0xbbb991c0	-0.0056631267
109	0x3d2912e0	0.041277766
110	0x3dfd8e3a	0.12380643
111	0xbd447a70	-0.047968328
112	0x3e004a49	0.12528338
113	0x3ddd9c8c	0.108208746
114	0xbd310bcc	-0.04322414
115	0xbc615460	-0.013753027
116	0x3bc28600	0.005936384
117	0xbe0d9071	-0.13824631
118	0xbb8d1a60	-0.0043061227
119	0xbd46ccd8	-0.048535198
120	0xbcb9ab44	-0.022664674
121	0x3e0d8713	0.13821058
122	0xbdcc19ff	-0.09965896
123	0x3d2ea3e8	0.042636782
124	0x3d5e24f0	0.054234445
125	0x3dad1a14	0.0845224
126	0x3d2595bc	0.040426
127	0x3cf2c548	0.029635087
128	0xbd1a6efa	-0.03770349
129	0xbdc3bdf9	-0.09557719
130	0xbd5da182	-0.054109104
131	0xbe0143eb	-0.12623565
132	0x3dc85dac	0.097834915
133	0xbd56d6d2	-0.052450962
134	0x3dff03da	0.124519065
135	0xbd360d0a	-0.04444603
136	0xbdaeb9b2	-0.08531512
137	0xbd36d33e	-0.04463505
138	0xbd20ed16	-0.039288603
139	0xbdaaccd3	-0.08339848
140	0xbe07faf4	-0.13279325
141	0xbda5e973	-0.081011675
142	0xbde60d09	-0.11232955
143	0xbd0f015c	-0.034913406
144	0xbb95bca0	-0.004569605
145	0xbd6c3446	-0.05766704
146	0x3db80bcc	0.08986625
147	0x3dd00b24	0.10158375
148	0x3de2f4aa	0.11081822
149	0x3c57dba0	0.013174921
150	0x3e098033	0.1342781
151	0xbde215fc	-0.110393494
152	0x3c16e000	0.009208679
153	0x3de875ae	0.113505706
154	0xbdc64c62	-0.096825376
155	0x3ddd3736	0.10801546
156	0x3cea2450	0.028581768
157	0x3df686a2	0.12037398
158	0x3d00094c	0.031258866
159	0x3d148870	0.03626293
160	0x3dd06858	0.10176152
161	0x3d22565c	0.03963314
162	0x3e0a25b3	0.13490944
163	0x3d7deb3c	0.061991915
164	0xbdba54cc	-0.09098205
165	0xbdd25cee	-0.10271631
166	0x3db1f286	0.08688836
167	0xbc9b89ac	-0.018986546
168	0xbcc423f0	-0.023942918
169	0x3d215d88	0.03939584
170	0xbdd7093f	-0.104998104
171	0xbd3d7d7e	-0.046262257
172	0xbc7fa460	-0.015603155
173	0xbb5f8d00	-0.0034111142
174	0xbb64a2c0	-0.0034887046
175	0x3c704670	0.014665231
176	0xbdeabeb8	-0.11462158
177	0xbd4ebf50	-0.05047542
178	0x3cd97938	0.02654706
179	0x3c0209b0	0.00793688
180	0xbbdb9480	-0.006701052
181	0x3e03054b	0.12794988
182	0xbd10ec20	-0.035381436
183	0x3d391cac	0.04519336
184	0x3d94154a	0.07230623
185	0x3d97af0a	0.07406433
186	0x3d9bd8dc	0.07609722
187	0xbc97fe14	-0.018553771
188	0x3ddb7e2a	0.10717423
189	0xbd53a1e4	-0.051668063
190	0x3d75b7a0	0.05998957
191	0x3d75bcb0	0.0599944
192	0xbda37370	-0.07981002
193	0xbdd27a9a	-0.10277291
194	0xbdbf0c04	-0.09328464
195	0x3d8cd3bc	0.068763226
196	0x3d7d4a28	0.0618383
197	0x3ca88d50	0.020575196
198	0x3b8b0640	0.0042426884
199	0xbd3035ce	-0.043020062
200	0x3dd76102	0.1051655
201	0xbdbeb667	-0.09312134
202	0xbd7f94a0	-0.0623976
203	0x3cf1cc10	0.02951625
204	0xbdbd0716	-0.09229867
205	0x3bcacfa0	0.0061893016
206	0xbdba4676	-0.090954706
207	0xbd43c440	-0.04779458
208	0x3d3c1e14	0.045927122
209	0xbcfd32f8	-0.030908093
210	0x3dd73992	0.105090275
211	0x3d83c0ac	0.064332336
212	0x3c83d280	0.016091585
213	0x3e0e6559	0.13905849
214	0x3e0f9eeb	0.14025466
215	0x3dc2dffe	0.09515379
216	0x3dc3ce12	0.09560789
217	0xbd86bc44	-0.065788776
218	0xbdc1300f	-0.094329946
219	0x3e0574cb	0.13032834
220	0xbc63f930	-0.013914391
221	0xbd18f8fe	-0.037346832
222	0x3cd02788	0.025409475
223	0x3d7bad28	0.06144443
224	0xbdc07844	-0.09397939
225	0xbdb722d6	-0.08942191
226	0x3d7964c8	0.060887128
227	0xbc68b6a0	-0.014203697
228	0x3d6b8b24	0.05750574
229	0xbe0cd917	-0.13754688
230	0xbd253b34	-0.040339664
231	0xbd8cc534	-0.06873551
232	0xbceae908	-0.028675571
233	0x3ba0f120	0.004911557
234	0x3ddf99fa	0.109180406
235	0x3da2da38	0.07951778
236	0x3dc23b44	0.0948396
237	0x3d94f06e	0.07272421
238	0xbcc19bd8	-0.023633882
239	0xba839380	-0.0010038465
240	0xbd4ac038	-0.04949972
241	0xbae79900	-0.0017669499
242	0xbe0f8149	-0.14014162
243	0x3dc0f45c	0.09421608
244	0xbd8089e5	-0.06276301
245	0x3cb51ee8	0.022109464
246	0x3d8111f2	0.06302251
247	0x3e07a077	0.13244806
248	0x3da0574a	0.07829149
249	0x3ddfb172	0.10922517
250	0x3dafbde8	0.085811436
251	0x3da2a256	0.079411194
252	0xbd60aeb8	-0.054854125
253	0xbc4c44a0	-0.012467533
254	0xbda89a13	-0.08232512
255	0xbca4515c	-0.020058326

en2.bias f4 [50]
0	0xbd99cf21	-0.0751021
1	0xbd14234a	-0.036166467
2	0x3dd7f070	0.10543907
3	0xbda4936c	-0.08035931
4	0x3dea6526	0.11445074
5	0x3da33876	0.079697534
6	0xbd18df92	-0.03732259
7	0xbdf259d6	-0.11833541
8	0xbda61f79	-0.08111472
9	0xbe097a9f	-0.13425682
10	0xbe0996a1	-0.13436367
11	0x3cd9d7f0	0.026592225
12	0x3ce01a78	0.027356371
13	0x3ca87a38	0.020566091
14	0xbd8cad15	-0.0686895
15	0x3dff3b26	0.124624535
16	0x3e092ee9	0.13396801
17	0x3dab714a	0.083712175
18	0xbd9458cc	-0.07243499
19	0xbb816000	-0.0039482117
20	0x3cb94b40	0.02261889
21	0x3df640e2	0.12024094
22	0x3d5e8580	0.054326534
23	0xbd3e85ce	-0.046514325
24	0xbd822ce0	-0.063562155
25	0x3d5c8a58	0.053842872
26	0x3dd536be	0.10410832
27	0x3e00a7b7	0.12563978
28	0xbe02ab4a	-0.12760654
29	0x3d74a4bc	0.059727415
30	0xbe0ecea5	-0.13946016
31	0x3d679da0	0.056546807
32	0xbdd4e534	-0.103952795
33	0xbdc1266a	-0.09431155
34	0x3dad5470	0.08463371
35	0x3dacb38e	0.08432685
36	0xbcc2224c	-0.023697995
37	0x3dff0c4a	0.12453516
38	0xbe0d540c	-0.13801593
39	0x3c9eabf0	0.019369096
40	0xbcb0662c	-0.021533094
41	0xbbad24e0	-0.005283937
42	0x3df1423e	0.11780213
43	0x3d8c5840	0.0685277
44	0xbdef8176	-0.116946146
45	0x3cc7bb78	0.024381384
46	0x3d88dab6	0.06682341
47	0xbd827e0f	-0.063717
48	0xbd387aec	-0.045039102
49	0x3deb4ff2	0.11489858

bn2.weight f4 [50]
0	0x3f800000	1.0
1	0x3f800000	1.0
2	0x3f800000	1.0
3	0x3f800000	1.0
4	0x3f800000	1.0
5	0x3f800000	1.0
6	0x3f800000	1.0
7	0x3f800000	1.0
8	0x3f800000	1.0
9	0x3f800000	1.0
10	0x3f800000	1.0
11	0x3f800000	1.0
12	0x3f800000	1.0
13	0x3f800000	1.0
14	0x3f800000	1.0
15	0x3f800000	1.0
16	0x3f800000	1.0
17	0x3f800000	1.0
18	0x3f800000	1.0
19	0x3f800000	1.0
20	0x3f800000	1.0
21	0x3f800000	1.0
22	0x3f800000	1.0
23	0x3f800000	1.0
24	0x3f800000	1.0
25	0x3f800000	1.0
26	0x3f800000	1.0
27	0x3f800000	1.0
28	0x3f800000	1.0
29	0x3f800000	1.0
30	0x3f800000	1.0
31	0x3f800000	1.0
32	0x3f800000	1.0
33	0x3f800000	1.0
34	0x3f800000	1.0
35	0x3f800000	1.0
36	0x3f800000	1.0
37	0x3f800000	1.0
38	0x3f800000	1.0
39	0x3f800000	1.0
40	0x3f800000	1.0
41	0x3f800000	1.0
42	0x3f800000	1.0
43	0x3f800000	1.0
44	0x3f800000	1.0
45	0x3f800000	1.0
46	0x3f800000	1.0
47	0x3f800000	1.0
48	0x3f800000	1.0
49	0x3f800000	1.0

bn2.bias f4 [50]
0	0x00000000	0.0
1	0x00000000	0.0
2	0x00000000	0.0
3	0x00000000	0.0
4	0x00000000	0.0
5	0x00000000	0.0
6	0x00000000	0.0
7	0x00000000	0.0
8	0x00000000	0.0
9	0x00000000	0.0
10	0x00000000	0.0
11	0x00000000	0.0
12	0x00000000	0.0
13	0x00000000	0.0
14	0x00000000	0.0
15	0x00000000	0.0
16	0x00000000	0.0
17	0x00000000	0.0
18	0x00000000	0.0
19	0x00000000	0.0
20	0x00000000	0.0
21	0x00000000	0.0
22	0x00000000	0.0
23	0x00000000	0.0
24	0x00000000	0.0
25	0x00000000	0.0
26	0x00000000	0.0
27	0x00000000	0.0
28	0x00000000	0.0
29	0x00000000	0.0
30	0x00000000	0.0
31	0x00000000	0.0
32	0x00000000	0.0
33	0x00000000	0.0
34	0x00000000	0.0
35	0x00000000	0.0
36	0x00000000	0.0
37	0x00000000	0.0
38	0x00000000	0.0
39	0x00000000	0.0
40	0x00000000	0.0
41	0x00000000	0.0
42	0x00000000	0.0
43	0x00000000	0.0
44	0x00000000	0.0
45	0x00000000	0.0
46	0x00000000	0.0
47	0x00000000	0.0
48	0x00000000	0.0
49	0x00000000	0.0

bn2.running_mean f4 [50]
0	0x00000000	0.0
1	0x00000000	0.0
2	0x00000000	0.0
3	0x00000000	0.0
4	0x00000000	0.0
5	0x00000000	0.0
6	0x00000000	0.0
7	0x00000000	0.0
8	0x00000000	0.0
9	0x00000000	0.0
10	0x00000000	0.0
11	0x00000000	0.0
12	0x00000000	0.0
13	0x00000000	0.0
14	0x00000000	0.0
15	0x00000000	0.0
16	0x00000000	0.0
17	0x00000000	0.0
18	0x00000000	0.0
19	0x00000000	0.0
20	0x00000000	0.0
21	0x00000000	0.0
22	0x00000000	0.0
23	0x00000000	0.0
24	0x00000000	0.0
25	0x00000000	0.0
26	0x00000000	0.0
27	0x00000000	0.0
28	0x00000000	0.0
29	0x00000000	0.0
30	0x00000000	0.0
31	0x00000000	0.0
32	0x00000000	0.0
33	0x00000000	0.0
34	0x00000000	0.0
35	0x00000000	0.0
36	0x00000000	0.0
37	0x00000000	0.0
38	0x00000000	0.0
39	0x00000000	0.0
40	0x00000000	0.0
41	0x00000000	0.0
42	0x00000000	0.0
43	0x00000000	0.0
44	0x00000000	0.0
45	0x00000000	0.0
46	0x00000000	0.0
47	0x00000000	0.0
48	0x00000000	0.0
49	0x00000000	0.0

bn2.running_var f4 [50]
0	0x3f800000	1.0
1	0x3f800000	1.0
2	0x3f800000	1.0
3	0x3f800000	1.0
4	0x3f800000	1.0
5	0x3f800000	1.0
6	0x3f800000	1.0
7	0x3f800000	1.0
8	0x3f800000	1.0
9	0x3f800000	1.0
10	0x3f800000	1.0
11	0x3f800000	1.0
12	0x3f800000	1.0
13	0x3f800000	1.0
14	0x3f800000	1.0
15	0x3f800000	1.0
16	0x3f800000	1.0
17	0x3f800000	1.0
18	0x3f800000	1.0
19	0x3f800000	1.0
20	0x3f800000	1.0
21	0x3f800000	1.0
22	0x3f800000	1.0
23	0x3f800000	1.0
24	0x3f800000	1.0
25	0x3f800000	1.0
26	0x3f800000	1.0
27	0x3f800000	1.0
28	0x3f800000	1.0
29	0x3f800000	1.0
30	0x3f800000	1.0
31	0x3f800000	1.0
32	0x3f800000	1.0
33	0x3f800000	1.0
34	0x3f800000	1.0
35	0x3f800000	1.0
36	0x3f800000	1.0
37	0x3f800000	1.0
38	0x3f800000	1.0
39	0x3f800000	1.0
40	0x3f800000	1.0
41	0x3f800000	1.0
42	0x3f800000	1.0
43	0x3f800000	1.0
44	0x3f800000	1.0
45	0x3f800000	1.0
46	0x3f800000	1.0
47	0x3f800000	1.0
48	0x3f800000	1.0
49	0x3f800000	1.0

en3.weight f4 [20, 50]
0	0x3d276f68	0.04087773
1	0xbdf6d400	-0.120521545
2	0x3dc27fca	0.0949703
3	0x3d7349b4	0.05939646
4	0x3c024050	0.007949904
5	0xbe0e8bde	-0.13920543
6	0xbdc78b2c	-0.09743342
7	0x3df02abe	0.117269024
8	0x3d8a51e2	0.06753899
9	0xbdb782b8	-0.089604795
10	0xbdc42259	-0.09576864
11	0x3cf42318	0.02980189
12	0x3c796cd0	0.015223697
13	0x3d1b13c8	0.03786066
14	0x3c734370	0.014847621
15	0xbdb4df04	-0.08831599
16	0x3ba4e0e0	0.00503169
17	0x3da0fe5a	0.07861014
18	0x3df6b42e	0.12046085
19	0x3cb5a070	0.02217123
20	0xbc133fa0	-0.008987337
21	0x3dbd28c8	0.09236294
22	0xbc9dcd04	-0.019262798
23	0x3da5c9d6	0.08095138
24	0xbd097600	-0.0335598
25	0x3d4a4fc4	0.049392477
26	0x3dd182f6	0.10230057
27	0x3e0c8e95	0.13726266
28	0xbda25784	-0.079268485
29	0x3d041fd0	0.0322569
30	0x3da40c0a	0.08010109
31	0xbc61f0d0	-0.013790324
32	0xbd7e5f58	-0.062102646
33	0x3d04ee24	0.03245367
34	0xbb2f46c0	-0.002674505
35	0x3d1899e8	0.03725615
36	0x3d95cf66	0.07314949
37	0xbdc2d2c3	-0.09512856
38	0x3d232934	0.039834216
39	0x3d96b28c	0.07358274
40	0xbd47711c	-0.048691854
41	0xbc34dfd0	-0.011039689
42	0x3e0a2ba3	0.13493209
43	0xbcfb65c8	-0.030688182
44	0x3d441a14	0.047876433
45	0x3e0f0dcb	0.13970105
46	0xbc9ab024	-0.018882819
47	0x3dd3da34	0.10344353
48	0x3ba3c540	0.0049978793
49	0x3db48fba	0.08816476
50	0xbde2d3e7	-0.110755734
51	0x3daa5646	0.083172366
52	0xbc9abdc8	-0.018889323
53	0xbe10587e	-0.14096257
54	0x3df9ba9a	0.121937945
55	0x3de08bce	0.10964166
56	0xbdb1d18e	-0.086825475
57	0xbd3171be	-0.043321364
58	0x3d0fb128	0.03508106
59	0x3dab00a6	0.08349733
60	0xbe037812	-0.12838772
61	0x3d967b86	0.07347779
62	0x3ba28f20	0.0049609095
63	0x3ca1a7e8	0.019733384
64	0xbd4fc9b4	-0.05072947
65	0xbd9b852e	-0.075937614
66	0x3dd7661a	0.10517521
67	0xbdbeab62	-0.093100324
68	0x3d656244	0.056001917
69	0x3d789ecc	0.060698316
70	0x3d2c41c0	0.04205489
71	0x3e00a3dd	0.12562509
72	0xbc8c33b8	-0.017114505
73	0xbde3dc58	-0.111260116
74	0x3dd5c20a	0.10437401
75	0x3ba16600	0.0049254894
76	0xbe0b7fe7	-0.1362301
77	0x3d31f798	0.043449014
78	0x3d96339a	0.07334061
79	0xbdcadbb4	-0.09905186
80	0x3d7b9bf0	0.06142801
81	0x3dc2e700	0.09516716
82	0xbce80e18	-0.028327033
83	0x3bf928e0	0.0076037496
84	0xbdcff1f0	-0.10153568
85	0xbd1a6eb6	-0.03770324
86	0xbbbacca0	-0.0057006627
87	0x3d6c27b8	0.057655066
88	0x3d81d616	0.06339662
89	0xbdb75c21	-0.08953119
90	0x3e0587c9	0.13040079
91	0xbddeb4fa	-0.10874362
92	0x3d8908f0	0.06691158
93	0xbd948f48	-0.07253891
94	0xbddbba94	-0.10728946
95	0xbdd4fd1a	-0.10399838
96	0x3dbc4028	0.09191924
97	0x3e02eb55	0.12785085
98	0xbd2e49d2	-0.04255087
99	0xbd96856c	-0.07349667
100	0x3ddd8e0e	0.108181104
101	0xbda7a6b9	-0.08186097
102	0x3dca96b6	0.09892027
103	0x3e072bf5	0.13200362
104	0xbbe9de40	-0.00713709
105	0xbbad0fe0	-0.0052814335
106	0x3da9177a	0.08256431
107	0x3dddc458	0.10828465
108	0xbcd1fd4c	-0.025633477
109	0xbe02b699	-0.12764968
110	0x3d15e898	0.03659877
111	0x3d53d968	0.051721007
112	0x3ccb4078	0.024811015
113	0x3d2c50c0	0.042069197
114	0x3dec38d6	0.11534278
115	0xbcc647fc	-0.024204247
116	0x3d42c3a0	0.047549844
117	0xbd15b656	-0.036550842
118	0x3d446e90	0.047957003
119	0xbda877ca	-0.08225973
120	0xbc489300	-0.012242079
121	0x3de0c4d2	0.109750405
122	0x3db55dcc	0.08855781
123	0x3da3935a	0.079870895
124	0xbd8cde6a	-0.068783596
125	0xbd785276	-0.060625516
126	0xbc921fdc	-0.017837457
127	0xbdf2cae0	-0.118551016
128	0x3ca75b08	0.02042915
129	0x3dbc0206	0.091800734
130	0xbc6cb390	-0.014447108
131	0xbd6e8a66	-0.058237456
132	0x3d06aaac	0.03287761
133	0xbdfbee72	-0.12301339
134	0xbdfe1d72	-0.1240796
135	0xbc0f5d20	-0.00875023
136	0xbc9ee520	-0.019396365
137	0xbd5d1816	-0.05397805
138	0xbd81ad86	-0.06331925
139	0x3e0df0ed	0.13861437
140	0x3db4080e	0.08790599
141	0xbd8cdeef	-0.06878459
142	0x3dbffb8c	0.09374151
143	0x3d6e7fa0	0.05822718
144	0x3d9931ba	0.07480188
145	0x3c07a770	0.008279666
146	0x3d988ec8	0.07449108
147	0x3d56e02c	0.05245988
148	0x3d8aa754	0.067701966
149	0x3c992158	0.018692657
150	0xbc52b410	-0.012860313
151	0xbddcb227	-0.10776167
152	0x3defd1fa	0.11709972
153	0x3c202370	0.009774074
154	0xbcc01fe0	-0.0234527
155	0xbdec6d3e	-0.11544274
156	0xbbaeec60	-0.0053382367
157	0xbd534f5a	-0.051589347
158	0x3dd6b6b8	0.104840696
159	0xbab8a080	-0.0014085919
160	0xbcb00a00	-0.021489143
161	0xbd58f676	-0.05296942
162	0x3c0c37a0	0.008558184
163	0xbd0e40e8	-0.03472987
164	0x3d3c78c0	0.046013594
165	0xbd86e2dd	-0.065862395
166	0xbde7b8f1	-0.11314572
167	0x3da9d724	0.08292988
168	0xbdd517de	-0.10404943
169	0x3d9c6134	0.076357275
170	0xbd7e3bc6	-0.062068723
171	0xbd61ed5c	-0.055158004
172	0x3ccb32c0	0.024804473
173	0x3c9d1330	0.019174188
174	0xbdbe9a92	-0.09306826
175	0xbe09bb38	-0.13450325
176	0xbde8125b	-0.11331626
177	0x3b914420	0.00443317
178	0x3dce316a	0.10068019
179	0x3dc82d70	0.097742915
180	0x3cbaaf30	0.022788614
181	0x3db43ae6	0.088002965
182	0x3c000b40	0.007815182
183	0x3d5611f0	0.0522632
184	0x3d8005d6	0.06251113
185	0x3d0d8c24	0.034557477
186	0xbc0a4b20	-0.008440763
187	0xbda55012	-0.08071913
188	0x3dd26b02	0.10274316
189	0xbce37690	-0.027766496
190	0xbd534fb4	-0.051589683
191	0xbd458492	-0.048222132
192	0x3dcb82fa	0.09937091
193	0xbdf87184	-0.121310264
194	0xbe0e4160	-0.13892126
195	0xbd8cdd90	-0.06878197
196	0xbca6ffb8	-0.020385608
197	0x3d89551a	0.06705685
198	0x3d7eb69c	0.06218587
199	0x3df4e372	0.11957444
200	0xbdd25aea	-0.10271247
201	0x3d03c858	0.032173485
202	0x3dce4dc4	0.10073426
203	0xbdd7ca11	-0.10536588
204	0x3dab6758	0.08369321
205	0xbc0a62e0	-0.008446425
206	0xbc737ab0	-0.014860794
207	0xbd5e41f8	-0.05426213
208	0x3dccb4fc	0.099954575
209	0xbe050754	-0.12991077
210	0xbd6590fe	-0.05604648
211	0x3df272de	0.118383154
212	0xbd67f6cc	-0.05663185
213	0x3e04ddeb	0.1297528
214	0xbda35bd4	-0.07976499
215	0xbd2330aa	-0.03984133
216	0x3e0b55ef	0.13607
217	0x3e06ecbf	0.13176249
218	0x37630000	1.3530254e-05
219	0xbd8feaa7	-0.07027178
220	0xbd8457c9	-0.06462056
221	0xbdd679ff	-0.10472488
222	0xbba971c0	-0.0051710308
223	0x3d5b4b70	0.05353874
224	0x3df540fe	0.11975287
225	0xbdac9485	-0.08426765
226	0x3cc71858	0.0243036
227	0x3d890956	0.06691234
228	0x3de87976	0.11351292
229	0x3db4db54	0.08830896
230	0xbdd6115c	-0.1045253
231	0x3dbf68ee	0.093461856
232	0xbdb338c4	-0.087510616
233	0x3cc2ae68	0.023764804
234	0x3d11d784	0.035605922
235	0x3ce8c080	0.028412104
236	0xbe0dc6ea	-0.13845411
237	0x3d96f722	0.073713556
238	0x3dcfeabc	0.10152194
239	0xbd5ef2ba	-0.0544307
240	0xbd7f6154	-0.06234868
241	0x3d401610	0.04689604
242	0x3e009613	0.12557249
243	0x3db45de0	0.08806968
244	0x3bd4b6a0	0.006491497
245	0x3d4470f4	0.047959283
246	0x3dc1271e	0.09431289
247	0xbe00c81a	-0.12576333
248	0xbcd57fd4	-0.02606193
249	0x3dceff42	0.1010728
250	0x3c32bb40	0.010908902
251	0xbe01fca0	-0.12694025
252	0x3dd04a84	0.10170463
253	0x3ccdea08	0.025136009
254	0xbd96f52c	-0.073709816
255	0x3d81d9ca	0.06340368

en3.bias f4 [20]
0	0x3d3ebab0	0.046564758
1	0x3d49bdb8	0.049253196
2	0x3daf0fc4	0.08547929
3	0xbd90aa2a	-0.07063706
4	0xbe05f33e	-0.13081071
5	0xbde4d076	-0.11172573
6	0x3d9d17a8	0.07670528
7	0xbb1c7b40	-0.0023877174
8	0xbd37521e	-0.044756047
9	0x3cc33f40	0.02383387
10	0xbdf11a68	-0.11772615
11	0xbde93221	-0.113865145
12	0x3d914ab4	0.070943266
13	0x3de5652e	0.11200939
14	0xbc02b6c0	-0.007978141
15	0xbdc06f93	-0.09396281
16	0xbd8e350d	-0.069437124
17	0xbd0e311a	-0.034714796
18	0xbd69f3dc	-0.057117328
19	0xbde91c63	-0.113823675

bn3.weight f4 [20]
0	0x3f800000	1.0
1	0x3f800000	1.0
2	0x3f800000	1.0
3	0x3f800000	1.0
4	0x3f800000	1.0
5	0x3f800000	1.0
6	0x3f800000	1.0
7	0x3f800000	1.0
8	0x3f800000	1.0
9	0x3f800000	1.0
10	0x3f800000	1.0
11	0x3f800000	1.0
12	0x3f800000	1.0
13	0x3f800000	1.0
14	0x3f800000	1.0
15	0x3f800000	1.0
16	0x3f800000	1.0
17	0x3f800000	1.0
18	0x3f800000	1.0
19	0x3f800000	1.0

bn3.bias f4 [20]
0	0x00000000	0.0
1	0x00000000	0.0
2	0x00000000	0.0
3	0x00000000	0.0
4	0x00000000	0.0
5	0x00000000	0.0
6	0x00000000	0.0
7	0x00000000	0.0
8	0x00000000	0.0
9	0x00000000	0.0
10	0x00000000	0.0
11	0x00000000	0.0
12	0x00000000	0.0
13	0x00000000	0.0
14	0x00000000	0.0
15	0x00000000	0.0
16	0x00000000	0.0
17	0x00000000	0.0
18	0x00000000	0.0
19	0x00000000	0.0

bn3.running_mean f4 [20]
0	0x00000000	0.0
1	0x00000000	0.0
2	0x00000000	0.0
3	0x00000000	0.0
4	0x00000000	0.0
5	0x00000000	0.0
6	0x00000000	0.0
7	0x00000000	0.0
8	0x00000000	0.0
9	0x00000000	0.0
10	0x00000000	0.0
11	0x00000000	0.0
12	0x00000000	0.0
13	0x00000000	0.0
14	0x00000000	0.0
15	0x00000000	0.0
16	0x00000000	0.0
17	0x00000000	0.0
18	0x00000000	0.0
19	0x00000000	0.0

bn3.running_var f4 [20]
0	0x3f800000	1.0
1	0x3f800000	1.0
2	0x3f800000	1.0
3	0x3f800000	1.0
4	0x3f800000	1.0
5	0x3f800000	1.0
6	0x3f800000	1.0
7	0x3f800000	1.0
8	0x3f800000	1.0
9	0x3f800000	1.0
10	0x3f800000	1.0
11	0x3f800000	1.0
12	0x3f800000	1.0
13	0x3f800000	1.0
14	0x3f800000	1.0
15	0x3f800000	1.0
16	0x3f800000	1.0
17	0x3f800000	1.0
18	0x3f800000	1.0
19	0x3f800000	1.0

en4.weight f4 [3, 20]
0	0x3e09fe74	0.13475972
1	0x3df6f694	0.1205875
2	0x3dbf7fdc	0.09350559
3	0xbdbd3276	-0.0923814
4	0x3e60ceba	0.2195386
5	0x3c379050	0.01120384
6	0xbe6263a7	-0.22108327
7	0x3cf700d0	0.030151755
8	0x3d1be588	0.038060695
9	0x3e2fe1f6	0.17176041
10	0xbda8f764	-0.08250311
11	0xbdb0e020	-0.086364985
12	0x3d89a16c	0.06720242
13	0x3dab3178	0.08359045
14	0x3cbf1758	0.02332656
15	0x3e401db8	0.18761337
16	0x3cd826c0	0.026385665
17	0xbd85db4e	-0.0653597
18	0xbd1440ec	-0.036194727
19	0x3dccc888	0.09999186
20	0xbd4c35bc	-0.049855933
21	0xbe519f1c	-0.20470852
22	0xbe072ba0	-0.13200235
23	0xbdb43a4c	-0.08800182
24	0x3d987a4c	0.07445201
25	0x3d227bc8	0.03966883
26	0xbbf53ec0	-0.007484287
27	0xbda9e990	-0.08296502
28	0x3e075e24	0.13219506
29	0x3e5ec6da	0.21755543
30	0x3de5e084	0.112244636
31	0xbd7e6f8c	-0.0621181
32	0xbe61696c	-0.22012872
33	0x3e629c80	0.22130013
34	0x3c111450	0.0088549405
35	0xbdf9b811	-0.12193311
36	0xbc8e50e0	-0.017372549
37	0x3deaa1e8	0.114566624
38	0x3c4f82b0	0.012665436
39	0xbd81da56	-0.063404724
40	0xbd1e8798	-0.03870353
41	0x3dd74280	0.10510731
42	0xbdd557a7	-0.10417109
43	0x3da40ab8	0.08009857
44	0x3e2966be	0.165431
45	0x3d9278d8	0.07151955
46	0x3d578ef8	0.05262658
47	0xbe014949	-0.12625612
48	0xbe00b161	-0.12567665
49	0xbe575b0d	-0.21030827
50	0x3d90f204	0.07077411
51	0x3d9663a0	0.07343221
52	0x3e0ee25c	0.13953537
53	0x3cf0d760	0.029399574
54	0xbe1cdb78	-0.15318096
55	0x3e4a63e8	0.19764674
56	0x3e5550b8	0.20831573
57	0x3e18e9f6	0.14932999
58	0x3ddd88c8	0.108171046
59	0xbcde2ec0	-0.027121902

en4.bias f4 [3]
0	0x3bf71540	0.007540375
1	0xbe296726	-0.16543254
2	0x3dc5fad4	0.09666982

bn5.weight f4 [3]
0	0x3f800000	1.0
1	0x3f800000	1.0
2	0x3f800000	1.0

bn5.bias f4 [3]
0	0x00000000	0.0
1	0x00000000	0.0
2	0x00000000	0.0

bn5.running_mean f4 [3]
0	0x00000000	0.0
1	0x00000000	0.0
2	0x00000000	0.0

bn5.running_var f4 [3]
0	0x3f800000	1.0
1	0x3f800000	1.0
2	0x3f800000	1.0

de1.weight f4 [20, 3]
0	0xbd3f6860	-0.0467304
1	0xbefd8115	-0.49512544
2	0x3f079e28	0.529757
3	0xbed03ade	-0.40669912
4	0x3e703948	0.23459351
5	0xbeda8770	-0.42681456
6	0x3eb21e8c	0.3478893
7	0xbc1b0f40	-0.009464085
8	0xbf096d56	-0.5368246
9	0xbcad4c00	-0.021154404
10	0xbf0d3646	-0.5516094
11	0xbf056a7b	-0.521156
12	0x3ec4b708	0.38420892
13	0xbf0c44d5	-0.5479253
14	0x3e0f91cc	0.14020461
15	0xbdc79740	-0.097456455
16	0x3c9199c0	0.017773509
17	0xbf00f602	-0.5037538
18	0xbec24ee0	-0.37950802
19	0x3e888298	0.26662135
20	0xbf0b2d56	-0.5436605
21	0x3e37c684	0.17946821
22	0xbeed14e4	-0.46305
23	0x3e51c124	0.20483834
24	0x3eba88fc	0.36432636
25	0xbe72dd14	-0.23717147
26	0x3cd4b280	0.025964022
27	0xbf0abf81	-0.5419846
28	0xbe3f9844	-0.18710428
29	0xbee91e3a	-0.45530874
30	0x3e80749c	0.25088966
31	0x3e92541c	0.28579795
32	0x3f01792c	0.5057552
33	0x3e53a090	0.20666718
34	0xbe0ab7c4	-0.13546664
35	0xbdd84530	-0.105600715
36	0x3ea91e20	0.33030796
37	0xbe571f38	-0.21008003
38	0xbe600a60	-0.21878958
39	0x3ea207c0	0.31646538
40	0x3ef9639c	0.48708808
41	0xbd94b1c8	-0.072604716
42	0x3ef1a8e0	0.47199154
43	0xbbd9b380	-0.0066437125
44	0x3dbea140	0.093081
45	0x3c90f680	0.017695665
46	0x3df36eb8	0.11886352
47	0xbe9303c9	-0.28713825
48	0x3d06e3e0	0.032932162
49	0x3ede41f8	0.43409705
50	0xbe723722	-0.23653844
51	0x3dbf9e48	0.09356362
52	0x3da4f090	0.08053696
53	0x3ee410c8	0.44544053
54	0xbec09752	-0.37615448
55	0x3d5517d0	0.052024662
56	0x3ec7ebb4	0.39047015
57	0xbd9f8524	-0.077890664
58	0x3f0296f8	0.5101161
59	0xbecdf590	-0.40226412

de1.bias f4 [20]
0	0xbe948b38	-0.29012465
1	0xbeb011b5	-0.3438851
2	0xbde99e98	-0.114072025
3	0xbed7ce24	-0.4214946
4	0xbe7004a0	-0.23439264
5	0xbf0d1e73	-0.55124587
6	0x3e334c10	0.17509484
7	0xbeb4bef8	-0.35301948
8	0xbf08132b	-0.5315425
9	0x3d1528c0	0.036415815
10	0xbd845a68	-0.06462556
11	0xbe2bf12a	-0.16791216
12	0xbe826c62	-0.25473315
13	0x3ec3ec64	0.3826629
14	0xbdd11c50	-0.10210478
15	0xbe3c3040	-0.18377781
16	0xbe9c9e9d	-0.30589762
17	0xbe765ee2	-0.24059632
18	0xbe87a834	-0.26495516
19	0xbeacfafb	-0.33785233

bn6.weight f4 [20]
0	0x3f800000	1.0
1	0x3f800000	1.0
2	0x3f800000	1.0
3	0x3f800000	1.0
4	0x3f800000	1.0
5	0x3f800000	1.0
6	0x3f800000	1.0
7	0x3f800000	1.0
8	0x3f800000	1.0
9	0x3f800000	1.0
10	0x3f800000	1.0
11	0x3f800000	1.0
12	0x3f800000	1.0
13	0x3f800000	1.0
14	0x3f800000	1.0
15	0x3f800000	1.0
16	0x3f800000	1.0
17	0x3f800000	1.0
18	0x3f800000	1.0
19	0x3f800000	1.0

bn6.bias f4 [20]
0	0x00000000	0.0
1	0x00000000	0.0
2	0x00000000	0.0
3	0x00000000	0.0
4	0x00000000	0.0
5	0x00000000	0.0
6	0x00000000	0.0
7	0x00000000	0.0
8	0x00000000	0.0
9	0x00000000	0.0
10	0x00000000	0.0
11	0x00000000	0.0
12	0x00000000	0.0
13	0x00000000	0.0
14	0x00000000	0.0
15	0x00000000	0.0
16	0x00000000	0.0
17	0x00000000	0.0
18	0x00000000	0.0
19	0x00000000	0.0

bn6.running_mean f4 [20]
0	0x00000000	0.0
1	0x00000000	0.0
2	0x00000000	0.0
3	0x00000000	0.0
4	0x00000000	0.0
5	0x00000000	0.0
6	0x00000000	0.0
7	0x00000000	0.0
8	0x00000000	0.0
9	0x00000000	0.0
10	0x00000000	0.0
11	0x00000000	0.0
12	0x00000000	0.0
13	0x00000000	0.0
14	0x00000000	0.0
15	0x00000000	0.0
16	0x00000000	0.0
17	0x00000000	0.0
18	0x00000000	0.0
19	0x00000000	0.0

bn6.running_var f4 [20]
0	0x3f800000	1.0
1	0x3f800000	1.0
2	0x3f800000	1.0
3	0x3f800000	1.0
4	0x3f800000	1.0
5	0x3f800000	1.0
6	0x3f800000	1.0
7	0x3f800000	1.0
8	0x3f800000	1.0
9	0x3f800000	1.0
10	0x3f800000	1.0
11	0x3f800000	1.0
12	0x3f800000	1.0
13	0x3f800000	1.0
14	0x3f800000	1.0
15	0x3f800000	1.0
16	0x3f800000	1.0
17	0x3f800000	1.0
18	0x3f800000	1.0
19	0x3f800000	1.0

de2.weight f4 [50, 20]
0	0x3e56e1f8	0.20984638
1	0xbc9e57e0	-0.019329011
2	0x3da809e4	0.082050115
3	0x3d4eecd8	0.05051884
4	0x3e295300	0.16535568
5	0xbd00f640	-0.031484842
6	0xbdbf7996	-0.093493626
7	0x3dc19378	0.094519556
8	0xbe0e26de	-0.13882014
9	0xbd5d5020	-0.05403149
10	0x3e36e3a0	0.1786027
11	0xbe5c075d	-0.21487184
12	0x3e50eabc	0.20402044
13	0x3da3c6d4	0.07996908
14	0xbda7a5ea	-0.081859425
15	0x3e1de234	0.15418321
16	0x3e4b5d8e	0.19859907
17	0x3cf20000	0.029541016
18	0x3e46f5b8	0.19429672
19	0xbe561662	-0.20906976
20	0x3e01a736	0.12661442
21	0xbe112ffc	-0.14178461
22	0xbdf679f4	-0.120349795
23	0x3ca677f0	0.020320863
24	0xbd5ff6a0	-0.05467856
25	0x3d895fa8	0.06707698
26	0xbe625737	-0.22103582
27	0x3e2d7e90	0.16942811
28	0xbd529ac0	-0.051417112
29	0xbd0f2c00	-0.03495407
30	0xbd8f9bae	-0.070121154
31	0xbdf53dd0	-0.119746804
32	0xbe3b11c7	-0.182685
33	0x3d5fa4b0	0.054600418
34	0x3d9b3dcc	0.07580146
35	0x3d70d138	0.058793277
36	0xbc14c380	-0.009079814
37	0xbe27e58a	-0.16396156
38	0x3e60a390	0.21937394
39	0x3e3c1c66	0.18370208
40	0x3e1634c0	0.1466856
41	0xbdbcad7c	-0.09212777
42	0x3dcc68cc	0.09980926
43	0xbe335b36	-0.17515263
44	0xbdf3040d	-0.11866007
45	0x3cf2f380	0.029657125
46	0x3de272e4	0.1105707
47	0x3e03dc90	0.12877107
48	0xbe283772	-0.164274
49	0xbe1429fe	-0.14469144
50	0x3d17dd68	0.037076384
51	0xbe585091	-0.21124484
52	0x3e01930a	0.12653747
53	0x3dfbc1bc	0.12292811
54	0x3e0a8a64	0.13529354
55	0xbd246f04	-0.040144935
56	0xbdc34ac0	-0.09535742
57	0xbd91abdc	-0.07112858
58	0x3e04100e	0.1289675
59	0xbd4355c8	-0.04768923
60	0x3e550e96	0.20806345
61	0xbe531b53	-0.20615892
62	0xbcc5e090	-0.024154931
63	0xbd9947ee	-0.074844226
64	0x3e139570	0.14412475
65	0x3d1a0480	0.037601948
66	0x3d92a300	0.07159996
67	0xbe017438	-0.1264199
68	0x3d9c7064	0.07638624
69	0x3e0014d0	0.1250794
70	0xbe4888c6	-0.19583425
71	0x3de60c00	0.112327576
72	0xbe26c77a	-0.16287032
73	0x3dfea364	0.12433508
74	0x3e2e44e2	0.17018464
75	0x3e44e5ea	0.1922833
76	0x3d6dce88	0.05805829
77	0x3df7a940	0.12092829
78	0x3e09a038	0.13440025
79	0xbe2192b0	-0.15778613
80	0xbda1adec	-0.07894501
81	0xbd967156	-0.07345836
82	0x3d6dc320	0.058047414
83	0x3d92a6f4	0.0716075
84	0x3e335ab2	0.17515066
85	0x3dd559c4	0.10417512
86	0xbe13b788	-0.1442548
87	0xbb30fe40	-0.0027007014
88	0x3dc2f1f8	0.09518808
89	0x3e1add96	0.15123591
90	0x3e2bc7c6	0.16775426
91	0x3e4f08b2	0.20218161
92	0xbd5d2850	-0.053993523
93	0x3e09331a	0.133984
94	0x3d77d9a0	0.060510278
95	0xbe15825a	-0.14600506
96	0xbc87b228	-0.016564444
97	0x3c063c70	0.00819312
98	0xbd4dd804	-0.050254837
99	0xbd8920de	-0.06695722
100	0x3e3b3e3e	0.18285462
101	0x3de19c48	0.110161364
102	0xbca695e8	-0.020335153
103	0x3e0e2c8e	0.13884184
104	0xbe5d0dd7	-0.2158731
105	0xbe0ef046	-0.13958845
106	0x3de2d134	0.110750586
107	0xbe4354c3	-0.19075303
108	0xbb832e20	-0.0040033013
109	0xbe396c47	-0.18107711
110	0xbbac69c0	-0.00526163
111	0xbdd35ad9	-0.10320062
112	0x3e5363cc	0.20643538
113	0x3d38d3d8	0.045123905
114	0x3db321a8	0.08746654
115	0x3d93897c	0.072039574
116	0xbdff2266	-0.12457733
117	0x3d0dc240	0.03460908
118	0x3d1c2038	0.038116664
119	0x3e2b23e4	0.1671291
120	0xbe17f9ce	-0.14841387
121	0x3d9276a4	0.07151535
122	0xbcc11d00	-0.023573399
123	0x3e28c83e	0.16482636
124	0xbda1b01a	-0.07894917
125	0xbcad9dd0	-0.021193415
126	0xbe3dfceb	-0.18553512
127	0x3e17b04a	0.14813343
128	0xbdc0f46e	-0.09421621
129	0x3e04a612	0.12953976
130	0xbe162345	-0.14661892
131	0x3e0dad22	0.13835576
132	0xbc0e3410	-0.008679405
133	0xbdb7da08	-0.08977133
134	0x3c9a4aa0	0.018834412
135	0x3d394b08	0.04523757
136	0x3e371e36	0.17882618
137	0xbe257a42	-0.16159919
138	0x3d54c9d8	0.051950306
139	0xbd079588	-0.03310159
140	0xbe22bc28	-0.15892088
141	0x3e4530d6	0.1925691
142	0xbe22adb2	-0.15886572
143	0x3e205a48	0.1565944
144	0x3dbb2d88	0.09139544
145	0x3db02d38	0.08602375
146	0x3d6843b0	0.056705177
147	0xbd36c84c	-0.04462461
148	0xbd8ab48a	-0.06772716
149	0x3e4fa63e	0.2027826
150	0xbe3dd42e	-0.18537971
151	0xbe23b174	-0.15985662
152	0x3d93dbb8	0.072196424
153	0x3e201606	0.15633401
154	0xbde45b01	-0.1115017
155	0x3da2a6a0	0.079419374
156	0xbe024ff2	-0.12725809
157	0xbdd9b052	-0.106293336
158	0x3df40f3c	0.11916968
159	0x3e1fc220	0.15601397
160	0xbe010d22	-0.12602666
161	0x3de39d20	0.111139536
162	0x3df2bed4	0.11852804
163	0xbd1de1a8	-0.03854528
164	0xbdd5c950	-0.10438788
165	0xbe107a3a	-0.14109126
166	0xbe1c5ee1	-0.15270568
167	0x3e595576	0.21224007
168	0x3da9f814	0.0829927
169	0xbd86b5f8	-0.065776765
170	0x3d804740	0.0626359
171	0x3d421b50	0.04738933
172	0x3e37037c	0.17872423
173	0xbda5acc6	-0.080895945
174	0xbe30dec1	-0.17272474
175	0x3d4fb430	0.05070895
176	0xbe32242c	-0.17396611
177	0xbc0ed7a0	-0.008718401
178	0x3e0aead6	0.13566145
179	0x3d85d540	0.06534815
180	0x3e28ccba	0.16484347
181	0xbe4f4f45	-0.20245083
182	0xbe150469	-0.14552464
183	0x3e4c492a	0.19949785
184	0x3e0f17a6	0.13973865
185	0x3dfe6208	0.12421042
186	0x3d729a28	0.059229046
187	0x3d7e6b00	0.062113762
188	0x3e64f1b6	0.2235783
189	0xbdbbbd02	-0.0916691
190	0x3e34b0d8	0.17645586
191	0x3da72abc	0.08162448
192	0x3e603fa0	0.21899271
193	0xbe15c392	-0.14625385
194	0xbde672b3	-0.11252346
195	0xbe587747	-0.2113925
196	0xbe61b20f	-0.2204058
197	0x3dd5db24	0.104421884
198	0xbe314686	-0.17312059
199	0xbd498e30	-0.049207866
200	0xbd9b1a60	-0.0757339
201	0xbe087acc	-0.13328093
202	0xbd63a808	-0.05558017
203	0xbc0bb760	-0.008527607
204	0xbdea45d8	-0.11439103
205	0xbe163140	-0.14667225
206	0xbe2575da	-0.16158238
207	0x3e3ae4b6	0.18251309
208	0xbdcbdfc8	-0.09954792
209	0xbdd11571	-0.10209168
210	0x3dd6e9a0	0.10493779
211	0x3e622ff8	0.22088611
212	0xbe3e1cf1	-0.18565728
213	0x3e1dde9a	0.15416947
214	0xbdb1a34a	-0.08673723
215	0x3d4493e8	0.047992617
216	0x3e1ce89a	0.15323105
217	0xbe5eed16	-0.21770129
218	0xbe13df4a	-0.14440647
219	0x3e2a6e9a	0.16643754
220	0x3d2d3ee0	0.04229629
221	0x3d36bef0	0.044615686
222	0x3e6450a2	0.22296384
223	0x3d1d36e8	0.03838244
224	0xbd13e9e8	-0.036111742
225	0x3b3cd680	0.0028814375
226	0xbdb997ae	-0.09062134
227	0xbd2b0ee8	-0.041762263
228	0xbe306170	-0.1722467
229	0xbd8a173a	-0.06742711
230	0xbd93accc	-0.07210693
231	0x3e63e69c	0.22255939
232	0xbdb7b7ca	-0.08970602
233	0xbd5d6268	-0.054048926
234	0x3e446e52	0.19182709
235	0x3d71a6e8	0.058997065
236	0xbb8a90c0	-0.0042286813
237	0x3c1018a0	0.008794934
238	0x3e54f3fa	0.20796195
239	0x3e4bf35e	0.19917056
240	0x3e1965b8	0.14980209
241	0x3e5522d6	0.2081407
242	0xbdb015bc	-0.085978955
243	0xbe01228e	-0.12610838
244	0x3e10f3ca	0.14155498
245	0x3e22d28a	0.15900627
246	0x3e2b140c	0.16706866
247	0xbe5580ad	-0.20849867
248	0x3a8c8080	0.0010719448
249	0xbcd41198	-0.025887296
250	0x3e41fec4	0.18944842
251	0xbcb67978	-0.022274718
252	0xbe354374	-0.17701513
253	0x3e2dead6	0.16984114
254	0x3e61cb2c	0.2205016
255	0x3e2706ca	0.16311184

de2.bias f4 [50]
0	0xbe64947b	-0.22322266
1	0x3e566258	0.20935953
2	0x3c9601b8	0.018311366
3	0xbdb78f26	-0.0896285
4	0x3cc4ac60	0.024007976
5	0xbd920fa4	-0.071318895
6	0xbe2a6bf1	-0.16642739
7	0xbe61d27c	-0.2205295
8	0x3e634728	0.22195113
9	0x3d444028	0.047912747
10	0xbd93f6a0	-0.07224774
11	0x3e5f9c44	0.21836954
12	0x3dd82d78	0.105555475
13	0xbe3baa35	-0.18326648
14	0x3d064ce8	0.032788187
15	0x3e079264	0.13239437
16	0xbe37d216	-0.17951235
17	0xbe29637c	-0.16541857
18	0xbe0ad6ac	-0.13558453
19	0xbb9e0840	-0.004822761
20	0xbe15a8a8	-0.14615119
21	0x3db4246c	0.087960094
22	0x3e12fc56	0.14354071
23	0xbe50e48f	-0.20399688
24	0x3d2d19b8	0.042260855
25	0x3e62bd8c	0.22142619
26	0xbe20a256	-0.15686926
27	0x3e57f0fc	0.21088022
28	0x3e196808	0.14981091
29	0x3be61280	0.0070212483
30	0xbdbba0c8	-0.09161526
31	0xbdd0022f	-0.101566665
32	0xbe036e62	-0.12835076
33	0xbe42b3ae	-0.19013855
34	0x3e4742fe	0.19459149
35	0x3e353218	0.1769489
36	0xbd59c2c4	-0.05316426
37	0x3d0d6648	0.03452137
38	0x3df22fe0	0.11825538
39	0xbe52eaef	-0.20597433
40	0xbc98b470	-0.018640727
41	0x3e4a22b6	0.19739804
42	0x3e5b167a	0.21395293
43	0x3de8af98	0.11361617
44	0x3d570b48	0.052500993
45	0x3d4a8c18	0.04945001
46	0x3df680f0	0.120363116
47	0x3e39c112	0.18140057
48	0x3e35eefc	0.17766947
49	0x3cc27578	0.023737654

bn7.weight f4 [50]
0	0x3f800000	1.0
1	0x3f800000	1.0
2	0x3f800000	1.0
3	0x3f800000	1.0
4	0x3f800000	1.0
5	0x3f800000	1.0
6	0x3f800000	1.0
7	0x3f800000	1.0
8	0x3f800000	1.0
9	0x3f800000	1.0
10	0x3f800000	1.0
11	0x3f800000	1.0
12	0x3f800000	1.0
13	0x3f800000	1.0
14	0x3f800000	1.0
15	0x3f800000	1.0
16	0x3f800000	1.0
17	0x3f800000	1.0
18	0x3f800000	1.0
19	0x3f800000	1.0
20	0x3f800000	1.0
21	0x3f800000	1.0
22	0x3f800000	1.0
23	0x3f800000	1.0
24	0x3f800000	1.0
25	0x3f800000	1.0
26	0x3f800000	1.0
27	0x3f800000	1.0
28	0x3f800000	1.0
29	0x3f800000	1.0
30	0x3f800000	1.0
31	0x3f800000	1.0
32	0x3f800000	1.0
33	0x3f800000	1.0
34	0x3f800000	1.0
35	0x3f800000	1.0
36	0x3f800000	1.0
37	0x3f800000	1.0
38	0x3f800000	1.0
39	0x3f800000	1.0
40	0x3f800000	1.0
41	0x3f800000	1.0
42	0x3f800000	1.0
43	0x3f800000	1.0
44	0x3f800000	1.0
45	0x3f800000	1.0
46	0x3f800000	1.0
47	0x3f800000	1.0
48	0x3f800000	1.0
49	0x3f800000	1.0

bn7.bias f4 [50]
0	0x00000000	0.0
1	0x00000000	0.0
2	0x00000000	0.0
3	0x00000000	0.0
4	0x00000000	0.0
5	0x00000000	0.0
6	0x00000000	0.0
7	0x00000000	0.0
8	0x00000000	0.0
9	0x00000000	0.0
10	0x00000000	0.0
11	0x00000000	0.0
12	0x00000000	0.0
13	0x00000000	0.0
14	0x00000000	0.0
15	0x00000000	0.0
16	0x00000000	0.0
17	0x00000000	0.0
18	0x00000000	0.0
19	0x00000000	0.0
20	0x00000000	0.0
21	0x00000000	0.0
22	0x00000000	0.0
23	0x00000000	0.0
24	0x00000000	0.0
25	0x00000000	0.0
26	0x00000000	0.0
27	0x00000000	0.0
28	0x00000000	0.0
29	0x00000000	0.0
30	0x00000000	0.0
31	0x00000000	0.0
32	0x00000000	0.0
33	0x00000000	0.0
34	0x00000000	0.0
35	0x00000000	0.0
36	0x00000000	0.0
37	0x00000000	0.0
38	0x00000000	0.0
39	0x00000000	0.0
40	0x00000000	0.0
41	0x00000000	0.0
42	0x00000000	0.0
43	0x00000000	0.0
44	0x00000000	0.0
45	0x00000000	0.0
46	0x00000000	0.0
47	0x00000000	0.0
48	0x00000000	0.0
49	0x00000000	0.0

bn7.running_mean f4 [50]
0	0x00000000	0.0
1	0x00000000	0.0
2	0x00000000	0.0
3	0x00000000	0.0
4	0x00000000	0.0
5	0x00000000	0.0
6	0x00000000	0.0
7	0x00000000	0.0
8	0x00000000	0.0
9	0x00000000	0.0
10	0x00000000	0.0
11	0x00000000	0.0
12	0x00000000	0.0
13	0x00000000	0.0
14	0x00000000	0.0
15	0x00000000	0.0
16	0x00000000	0.0
17	0x00000000	0.0
18	0x00000000	0.0
19	0x00000000	0.0
20	0x00000000	0.0
21	0x00000000	0.0
22	0x00000000	0.0
23	0x00000000	0.0
24	0x00000000	0.0
25	0x00000000	0.0
26	0x00000000	0.0
27	0x00000000	0.0
28	0x00000000	0.0
29	0x00000000	0.0
30	0x00000000	0.0
31	0x00000000	0.0
32	0x00000000	0.0
33	0x00000000	0.0
34	0x00000000	0.0
35	0x00000000	0.0
36	0x00000000	0.0
37	0x00000000	0.0
38	0x00000000	0.0
39	0x00000000	0.0
40	0x00000000	0.0
41	0x00000000	0.0
42	0x00000000	0.0
43	0x00000000	0.0
44	0x00000000	0.0
45	0x00000000	0.0
46	0x00000000	0.0
47	0x00000000	0.0
48	0x00000000	0.0
49	0x00000000	0.0

bn7.running_var f4 [50]
0	0x3f800000	1.0
1	0x3f800000	1.0
2	0x3f800000	1.0
3	0x3f800000	1.0
4	0x3f800000	1.0
5	0x3f800000	1.0
6	0x3f800000	1.0
7	0x3f800000	1.0
8	0x3f800000	1.0
9	0x3f800000	1.0
10	0x3f800000	1.0
11	0x3f800000	1.0
12	0x3f800000	1.0
13	0x3f800000	1.0
14	0x3f800000	1.0
15	0x3f800000	1.0
16	0x3f800000	1.0
17	0x3f800000	1.0
18	0x3f800000	1.0
19	0x3f800000	1.0
20	0x3f800000	1.0
21	0x3f800000	1.0
22	0x3f800000	1.0
23	0x3f800000	1.0
24	0x3f800000	1.0
25	0x3f800000	1.0
26	0x3f800000	1.0
27	0x3f800000	1.0
28	0x3f800000	1.0
29	0x3f800000	1.0
30	0x3f800000	1.0
31	0x3f800000	1.0
32	0x3f800000	1.0
33	0x3f800000	1.0
34	0x3f800000	1.0
35	0x3f800000	1.0
36	0x3f800000	1.0
37	0x3f800000	1.0
38	0x3f800000	1.0
39	0x3f800000	1.0
40	0x3f800000	1.0
41	0x3f800000	1.0
42	0x3f800000	1.0
43	0x3f800000	1.0
44	0x3f800000	1.0
45	0x3f800000	1.0
46	0x3f800000	1.0
47	0x3f800000	1.0
48	0x3f800000	1.0
49	0x3f800000	1.0
