jet_by_jet_compression/fastai_AE_3D/models/tmp.pth (torch_old, 638103 bytes, 48 tensors)

en1.weight f4 [200, 4]
0	0xbd7278fe	-0.05919742
1	0x3ea10223	0.31446943
2	0xbb2977d7	-0.0025858784
3	0x3cb3cb04	0.021947391
4	0xbcc00d0a	-0.023443718
5	0x3eaaf11f	0.33387086
6	0xbf05a2c7	-0.52201504
7	0xbe0d1056	-0.13775763
8	0x3c89a83d	0.016803855
9	0xbb81ac5e	-0.0039573153
10	0xbd8ca237	-0.068668775
11	0x3d6ed51d	0.05830871
12	0x3d88c589	0.06678302
13	0x3b5d724c	0.003379005
14	0xbf03c1d1	-0.51467615
15	0xbd91def4	-0.07122603
16	0xbc07e6b9	-0.008294755
17	0xbb27ee98	-0.002562439
18	0x3c9fe685	0.0195191
19	0xbc80b007	-0.015708936
20	0x3ce2c8df	0.027683673
21	0x3ea233b9	0.31680086
22	0xbe6308c4	-0.22171313
23	0x3c5a10af	0.013309642
24	0xbe2fc5d9	-0.17165317
25	0xbd637509	-0.055531535
26	0x3e79f5a5	0.24410112
27	0xbdc85b37	-0.09783023
28	0xbe05b5a9	-0.13057579
29	0x3e9a9642	0.30192763
30	0xbf2f9eac	-0.6860149
31	0xbdf03a8e	-0.117299184
32	0x3c9b9508	0.018991962
33	0xbb0d8d49	-0.0021599105
34	0xbd3665a7	-0.044530537
35	0x3c2fed11	0.010737673
36	0xbc2253e8	-0.0099077
37	0x3c1d4df7	0.009601108
38	0x3ace6f29	0.0015749681
39	0x3c4a6fd6	0.012355765
40	0xbd87fda1	-0.06640173
41	0xbc6b5ac4	-0.014364902
42	0xbf12ca1e	-0.57339656
43	0xbd6051ca	-0.0547655
44	0x3e2656c2	0.16244033
45	0xbf2f0231	-0.6836272
46	0xbe58ba01	-0.21164705
47	0x3d39d921	0.045373086
48	0xbe9863d9	-0.29763678
49	0x3d217089	0.039413963
50	0x3dae8532	0.08521499
51	0xbe6c9512	-0.23103741
52	0x3d1fb935	0.038994987
53	0xbe785abd	-0.24253364
54	0x3e3fc861	0.18728782
55	0x3de3d7ae	0.11125122
56	0x3e76bcf9	0.24095525
57	0x3de9b086	0.11410622
58	0x3d6bfb62	0.057612784
59	0xbee562d1	-0.44801953
60	0xbd2a1e0e	-0.04153257
61	0x3c06ecbf	0.008235156
62	0x3e4652c6	0.19367513
63	0x3dc8a5f2	0.097972766
64	0x3e3f09d0	0.18656087
65	0xbe1efce7	-0.15526162
66	0xbe528ce8	-0.20561564
67	0xbe2fff5d	-0.17187257
68	0x3b8b8ad5	0.0042584934
69	0x3ceababa	0.028653491
70	0x3bbd9144	0.0057851393
71	0xbbfd96fa	-0.007738945
72	0x3c986847	0.01860441
73	0x3c0901e5	0.008362268
74	0x3c0a9e10	0.008460537
75	0xbc837a69	-0.01604958
76	0xbc4e1e2e	-0.012580438
77	0x3cdf4352	0.02725378
78	0x3c501c25	0.012702023
79	0xbc8c3bca	-0.017118353
80	0xbbc1a21f	-0.005909219
81	0xbb162656	-0.0022911034
82	0x3a4b0deb	0.00077459094
83	0x3c91ffb4	0.017822124
84	0xbcba13f8	-0.0227146
85	0x3a062b26	0.0005118124
86	0x3bd73635	0.0065677413
87	0xbb91cac3	-0.00444922
88	0x3cecaf5c	0.028892212
89	0x3e6fab7a	0.23405257
90	0x3d4e96db	0.050436836
91	0xbd388772	-0.045051046
92	0x3e058168	0.13037646
93	0xbd8edb9c	-0.06975481
94	0x3f41ad21	0.756548
95	0xbd82db07	-0.063894324
96	0xbcf04c56	-0.029333275
97	0x3e29a6dc	0.16567558
98	0x3e1d8bd6	0.15385374
99	0x3e1fc50e	0.15602514
100	0x3d3bcf01	0.04585171
101	0xbe9d400a	-0.3071292
102	0x3e469c77	0.19395624
103	0xbd9ba3e5	-0.0759962
104	0x3e8627bb	0.26202187
105	0x3d9b03db	0.07569095
106	0xbe566b4a	-0.20939365
107	0xbe419141	-0.18903066
108	0x3ccb238d	0.024797225
109	0xbcbf6569	-0.023363786
110	0xbcaa7877	-0.020809395
111	0x3ca58f6a	0.020209987
112	0x3d61e4cc	0.05514984
113	0x3f53b3ca	0.8269621
114	0xbe770ea6	-0.24126682
115	0x3d2e3a88	0.04253629
116	0x3c71f1fb	0.014767165
117	0x3cd13bf5	0.025541285
118	0xba5477d9	-0.0008105017
119	0x3bb91372	0.00564807
120	0x3ca09055	0.019600073
121	0x3caea724	0.021319933
122	0xbc26b018	-0.01017382
123	0x3bf7da0d	0.0075638355
124	0x3bc3abbc	0.0059714
125	0xbd8cb808	-0.06871039
126	0xbc6601d6	-0.014038524
127	0x3d66f28f	0.056383666
128	0xbc18d76f	-0.009328707
129	0x3c82568e	0.015910413
130	0xbd092cb1	-0.033489887
131	0xbab6d7ee	-0.001394985
132	0x3c68246b	0.014168839
133	0xbc81a53b	-0.015825858
134	0xbc7ffad2	-0.015623765
135	0xbc1bb02f	-0.009502455
136	0xbbe8f410	-0.0071091726
137	0xbbf0d68c	-0.0073497947
138	0x3c8263f6	0.015916806
139	0x3c4eb5d4	0.012616593
140	0x3e1ff6cf	0.15621494
141	0xbdcabf49	-0.09899766
142	0xbea3d5b7	-0.3199899
143	0xbb223a0f	-0.0024753844
144	0xbc9b282d	-0.018940056
145	0x3bd3e10e	0.0064660376
146	0xbbcd2da3	-0.006261544
147	0x3bd33f50	0.0064467564
148	0x3d8a6ccb	0.06759032
149	0xbf182d29	-0.5944391
150	0xbb8a2495	-0.0042157867
151	0xbc0f708a	-0.008754859
152	0x3ca210cc	0.0197834
153	0xbd1f76e5	-0.038931746
154	0xbd1ffdc8	-0.039060384
155	0xbd1dcfbb	-0.038528185
156	0x3e1678af	0.14694475
157	0x3e1b6290	0.15174317
158	0x3e3e0ce9	0.18559612
159	0xbe53eb66	-0.20695266
160	0x3df3c65a	0.11903067
161	0x3f6101e8	0.87893534
162	0xbc2e82f5	-0.01065134
163	0xbdb11411	-0.086464055
164	0xbd029ecc	-0.03188972
165	0xbba1a54c	-0.004933035
166	0xbdaf33b0	-0.085547805
167	0x3c71c9dc	0.0147576
168	0xbcd0e9c0	-0.025502086
169	0x3c9d1c1e	0.019178446
170	0x3cb04f4b	0.021522185
171	0xbc6ef17d	-0.0145839425
172	0x3d5c203c	0.05374168
173	0x3e0bd33a	0.13654795
174	0x3f4a3399	0.7898498
175	0x3e0da363	0.13831858
176	0x3c2702b0	0.010193512
177	0xbb79ba44	-0.0038105408
178	0x3d0ce4bd	0.03439783
179	0x3b3e2ddc	0.0029019034
180	0xbb95da5d	-0.00457315
181	0xbc4b49a7	-0.012407697
182	0xbcd94efc	-0.02652692
183	0xbc358001	-0.011077882
184	0x3c077aba	0.008269006
185	0xbce840d0	-0.028351218
186	0x36a242e0	4.8357615e-06
187	0x3bd78551	0.006577172
188	0x3c98587d	0.018596882
189	0xbba3288c	-0.004979199
190	0xbce31b48	-0.02772297
191	0xbbd8b499	-0.006613326
192	0xbc7aeca4	-0.015315209
193	0xbee917b8	-0.45525908
194	0x3ebc2288	0.36745095
195	0xbe3566d9	-0.17715015
196	0x3ce6cf5a	0.028175045
197	0xbbb89152	-0.005632558
198	0x3c199fbb	0.009376462
199	0xbbd096ac	-0.0063656177
200	0x3d039722	0.032126553
201	0x3d116bf0	0.035503328
202	0x3e8e1c21	0.27755836
203	0x3d55cb79	0.052196
204	0x3c5d6c6f	0.013514622
205	0x3c844bf8	0.016149506
206	0x3cdea780	0.02717948
207	0xbc236718	-0.00997331
208	0x3d270108	0.040772468
209	0xbcc68eac	-0.024237953
210	0xbe8eaa0d	-0.27864113
211	0x3ce48253	0.027894175
212	0xbc3f6422	-0.011681588
213	0x3e855346	0.26040095
214	0xbea1b524	-0.31583512
215	0xbd87538f	-0.066077344
216	0xb9b8474b	-0.00035148332
217	0x3c629756	0.013830027
218	0x3cd3ab95	0.025838653
219	0x3caa689f	0.02080184
220	0xbce33283	-0.027734047
221	0xbc79489d	-0.015215066
222	0x3ae1a43f	0.0017215087
223	0xbb2ae11e	-0.0026074122
224	0xbe212939	-0.15738381
225	0xbe213908	-0.15744412
226	0xbcc39fc0	-0.023879886
227	0x3dfdf9de	0.12401174
228	0xbcb3bbce	-0.021940138
229	0x3baaa7d2	0.005207994
230	0x3cd98d74	0.026556708
231	0x3ac27f58	0.0014838977
232	0xbd567303	-0.052355777
233	0xbf2d13df	-0.67608446
234	0xbebffd7d	-0.37498084
235	0x3dcd6fca	0.10031088
236	0xbd4dd26c	-0.050249502
237	0x3f18337a	0.59453547
238	0x3e06c83d	0.13162322
239	0xbdad8531	-0.0847267
240	0x3be8099e	0.0070812246
241	0x3aa1fcde	0.0012358685
242	0x3c1461ef	0.009056552
243	0x3c09d609	0.008412846
244	0x3c1e5798	0.009664439
245	0x3d17d7a1	0.037070874
246	0xbbf97c4b	-0.007613694
247	0x3bd32d50	0.0064446107
248	0xbd103dbd	-0.03521513
249	0xbe3572f0	-0.17719626
250	0x3d6f931b	0.0584899
251	0x3cc00016	0.023437541
252	0x3b130edc	0.0022439277
253	0xbbee767d	-0.0072773085
254	0xbbc93ce4	-0.006141292
255	0xbcaeff21	-0.02136189

en1.bias f4 [200]
0	0x3ed33e6e	0.41258568
1	0xbecf6b95	-0.40511766
2	0xbe1b6b01	-0.15177538
3	0x3f247a34	0.6424897
4	0x3ca75fab	0.02043136
5	0xbf23553a	-0.6380192
6	0xbf39a742	-0.7252084
7	0xbf2de360	-0.6792507
8	0xbc59decb	-0.013297747
9	0xbc8e49bb	-0.017369142
10	0xbf40dcf5	-0.75337154
11	0x3ea90b27	0.3301632
12	0xbe522e4d	-0.20525475
13	0xbe3242a2	-0.17408231
14	0xbf067dec	-0.5253589
15	0x3f7b8aee	0.98258865
16	0x3c9eed02	0.019400124
17	0x3af4a8be	0.0018666012
18	0xbc01c6a8	-0.0079208985
19	0x3c66103a	0.014041955
20	0xbc524ac3	-0.012835207
21	0x3c2059de	0.009787051
22	0x3ea12009	0.31469753
23	0x3e483341	0.19550802
24	0x3f5c916c	0.86159396
25	0xbe33151c	-0.17488521
26	0x3ec07290	0.37587404
27	0x3c2292e8	0.0099227205
28	0x3ea1ba85	0.31587616
29	0xbc0b115c	-0.0084880255
30	0xbc6c8aab	-0.014437358
31	0xbdb8e576	-0.09028141
32	0x3d620807	0.055183437
33	0x3c5241bb	0.012833054
34	0x3c9f7fcc	0.019470118
35	0x3f3e51df	0.74343675
36	0x3be5ce65	0.0070131295
37	0xbf28f36e	-0.65996444
38	0x3c867204	0.016411789
39	0x3ed388fe	0.41315454
40	0x3ed278ef	0.4110789
41	0x3e4fcbde	0.20292613
42	0x3bf89f84	0.007587375
43	0x3eea1860	0.45721722
44	0x3cb691cb	0.022286316
45	0x3c008e2d	0.007846397
46	0xba2e7f42	-0.0006656536
47	0xbb95ff2b	-0.0045775375
48	0x3eaa4272	0.3325382
49	0x3b7fb2d5	0.0039016504
50	0xbe9d1663	-0.30681142
51	0x3bb498bc	0.0055113714
52	0x3f77f5a0	0.9685917
53	0xbf6a9211	-0.9162913
54	0xbc2933f2	-0.010327326
55	0x3c26b461	0.010174842
56	0xbf27acca	-0.6549803
57	0xbbf8eda3	-0.007596688
58	0xbe1bd365	-0.1521736
59	0xbe7d8fef	-0.24761938
60	0xbbb8cf83	-0.0056399717
61	0xbc920771	-0.017825814
62	0xbe1bfc0d	-0.15232868
63	0x3c53a4cc	0.012917709
64	0xbc2c312e	-0.010509772
65	0x3a97c093	0.0011577777
66	0x3bb34d94	0.0054718945
67	0x3ed1229c	0.40846717
68	0xbf051e85	-0.51999694
69	0x39fa9e7a	0.0004780179
70	0x3e7cfce7	0.2470585
71	0x3bcca88d	0.0062456788
72	0x3e944301	0.2895737
73	0xbc268826	-0.010164296
74	0x3c70d64c	0.01469953
75	0xbf14a431	-0.58063036
76	0xbdfeeef0	-0.124479175
77	0x3f0b2b17	0.54362625
78	0xbec8dce8	-0.39231038
79	0x3d4b7a2b	0.049677055
80	0xbca93a26	-0.02065761
81	0x3a36231d	0.00069479813
82	0xbd94db22	-0.07268359
83	0x3ce7be88	0.028289095
84	0xbec2dae9	-0.3805764
85	0xbc3cd2b4	-0.011524845
86	0x3c934eca	0.017981905
87	0xbc60590d	-0.013693106
88	0xbca2e284	-0.019883402
89	0x3d616acf	0.0550335
90	0x3f3637c1	0.71178824
91	0xbf16252a	-0.5865046
92	0x3b509401	0.0031826498
93	0xbc6917be	-0.014226852
94	0xbbc325b6	-0.005955423
95	0x3e8a55ef	0.27018687
96	0xbf26a3f4	-0.6509392
97	0xbf43f7d6	-0.7655004
98	0xbc021baa	-0.007941166
99	0x3d8a42cc	0.06751022
100	0xbebfa04f	-0.37426993
101	0xbf52da4b	-0.8236434
102	0x39855850	0.00025433535
103	0x3ef774e0	0.48331356
104	0x3c0649be	0.008196292
105	0xbe6cc5a8	-0.23122275
106	0xbf876809	-1.0578624
107	0x3e8b31c5	0.2718641
108	0xbed4666f	-0.414844
109	0x3e4b7abd	0.1987104
110	0xb6635275	-3.3873632e-06
111	0x3c84c4e7	0.016207172
112	0x3ca55d7d	0.02018618
113	0xbc05d4a0	-0.0081683695
114	0x3c970b25	0.018437931
115	0xbb36c294	-0.0027886974
116	0x3bf91b5b	0.007602138
117	0xbe9951cd	-0.29945222
118	0xbeadeb3c	-0.33968532
119	0xbaaf1246	-0.0013356886
120	0x3c111f77	0.008857599
121	0xbb687fd5	-0.0035476584
122	0x3eb1a46b	0.34695753
123	0xbbb54725	-0.0055321627
124	0xbc374cc5	-0.011187737
125	0x3ea8511c	0.32874382
126	0xbbc043d7	-0.005867462
127	0x3d9d5bb2	0.07683505
128	0x3bc6c9e9	0.00606655
129	0x3ba1ec31	0.0049414863
130	0xbba59bef	-0.005053989
131	0xbe9292b7	-0.2862756
132	0xbc6adc3d	-0.014334735
133	0x3e66b1db	0.22528784
134	0xbeefe2e2	-0.46852785
135	0x3c4d39be	0.012525974
136	0x3f1d0047	0.6132855
137	0xbf3bfc03	-0.73431414
138	0xbec791a7	-0.3897831
139	0x3b8769dc	0.0041324925
140	0x3f31bf87	0.6943287
141	0x3b65f060	0.0035085902
142	0x39fd37ea	0.0004829758
143	0xbeb5bd31	-0.35495904
144	0xbf72093b	-0.94545335
145	0x3f6bb456	0.92072046
146	0x3b6f44db	0.0036509547
147	0xbc5c9f2b	-0.013465683
148	0x3eb5fc64	0.3554412
149	0x3c6d196e	0.014471395
150	0x3e282c72	0.16423205
151	0x3d723f22	0.05914224
152	0xbf5395ec	-0.8265064
153	0x3c25bfe7	0.010116554
154	0xbb92bc37	-0.0044780034
155	0x39b9f5c7	0.00035469068
156	0xbe45d0e4	-0.19317967
157	0x3eb826c9	0.3596709
158	0x3e368f93	0.17828207
159	0xbc10de7c	-0.008842107
160	0x3c481efd	0.012214419
161	0x3f7a4358	0.9775901
162	0x3b1ff868	0.0024409536
163	0x3bc81d1d	0.006106986
164	0xbfa54607	-1.2911996
165	0xbbca1aeb	-0.0061677597
166	0xbf518a1f	-0.8185138
167	0x3f715a67	0.9427857
168	0xbb62add5	-0.0034588475
169	0xbf59777e	-0.84947956
170	0xbf8c81e0	-1.0977135
171	0x3c28709b	0.0102807535
172	0xbbefd31a	-0.0073188664
173	0x3e46800b	0.19384782
174	0xbf15e9f1	-0.5856009
175	0xbbd9118a	-0.0066244053
176	0x3ea95a26	0.3307659
177	0x3ed7f97a	0.42182523
178	0x3e99a120	0.3000574
179	0xbc8494fb	-0.01618432
180	0xbe750bc2	-0.23930266
181	0xba6cac4d	-0.00090283604
182	0x3c04527b	0.0080763055
183	0xbad58633	-0.0016290605
184	0xbf32b955	-0.69814044
185	0x3ed9487b	0.4243811
186	0xbed9b545	-0.4252111
187	0xbf3fef07	-0.749741
188	0x393a706e	0.00017780226
189	0x3f58663f	0.84531015
190	0x3ec4ed1c	0.3846215
191	0x3f4bdc55	0.79633075
192	0x3f349073	0.7053291
193	0x3ec929aa	0.392896
194	0xbf3b5154	-0.7317097
195	0x3c500d85	0.012698536
196	0xbc039374	-0.008030761
197	0xbdacbdf0	-0.08434665
198	0x3c26877c	0.010164138
199	0xbb71ec5c	-0.0036914563

en2.weight f4 [100, 200]
0	0x3ecc5bd3	0.39913806
1	0xbec3998f	-0.38203093
2	0xbd22555c	-0.039632186
3	0x3ddcf21f	0.107883684
4	0x3cc9aeda	0.024619509
5	0xbf2865f5	-0.65780574
6	0xbea50c78	-0.32236075
7	0xbec23ac3	-0.37935457
8	0xbbc226d2	-0.005925038
9	0xbd709c1d	-0.05874263
10	0xbe526fc5	-0.20550449
11	0xbd345f1b	-0.044036012
12	0x3e448880	0.19192696
13	0x3c9f7b40	0.01946795
14	0x3eea345c	0.45743072
15	0x3ee1285c	0.43976104
16	0x3eb52cc1	0.35385707
17	0xbe3927b1	-0.18081547
18	0x3dcdcb1f	0.10048508
19	0xbea57770	-0.32317686
20	0x3d7f38f4	0.062310174
21	0xbe2df906	-0.16989526
22	0x3eb5b736	0.3549134
23	0x3e26f552	0.1630452
24	0x3ee74061	0.45166305
25	0x3ecfb0cf	0.40564582
26	0xbe5010d2	-0.20318916
27	0xbda76e55	-0.08175341
28	0xbed55416	-0.41665715
29	0x3e9173a3	0.28408536
30	0x3e8aa0d6	0.27075833
31	0x3de123b8	0.10993141
32	0x3ea6a95e	0.32551092
33	0xbd16f668	-0.036856085
34	0x3e2d3b8e	0.1691725
35	0x3db1f427	0.086891465
36	0xbe0bd9ca	-0.13657299
37	0xbe444a4f	-0.19168971
38	0xbea72009	-0.32641628
39	0x3f3fc191	0.74904734
40	0xbd10c180	-0.035340786
41	0xbe6adde7	-0.22936212
42	0x3e4bea8f	0.19913696
43	0x3c16504b	0.009174417
44	0xbd911e7a	-0.07085891
45	0x3c9e8018	0.01934819
46	0x3e0d8638	0.13820732
47	0xbda930b2	-0.08261241
48	0x3f5b3802	0.85632336
49	0xbc55c1ef	-0.013046726
50	0xbf0aa37b	-0.541557
51	0xbe39fa2c	-0.18161839
52	0xbc27ea2d	-0.010248703
53	0xbf1b707e	-0.60718524
54	0x3d5922e0	0.053011775
55	0x3e1edc13	0.15513639
56	0x3ce376a9	0.027766543
57	0xbd90e5ba	-0.07075067
58	0xbe51fced	-0.2050664
59	0x3ed9bf4f	0.4252877
60	0x3e67046b	0.22560279
61	0x3c460c56	0.012087902
62	0x3ece5dc3	0.4030591
63	0xbdc94d8e	-0.098292455
64	0x3e9b0944	0.30280507
65	0x3e2505e4	0.16115528
66	0x3d503568	0.050832182
67	0x3dbc97b7	0.09208625
68	0x3e521388	0.20515263
69	0x3ec2fcbc	0.38083446
70	0x3e2b77e3	0.16744952
71	0xbe14d9a2	-0.14536145
72	0x3ec28764	0.3799392
73	0x3da7d21a	0.081943706
74	0x3dac0bf2	0.08400716
75	0xbe6f0895	-0.23343118
76	0x3e9c4380	0.30520248
77	0xbdfb5922	-0.1227286
78	0x3ea75d1d	0.32688227
79	0x3dcd1b53	0.10014977
80	0xbe1972d3	-0.14985208
81	0x3b88ee21	0.004178778
82	0x3d442188	0.04788354
83	0xbea7918a	-0.32728225
84	0x3eca748d	0.39542046
85	0x3d87472e	0.06605373
86	0x3cb4c4f1	0.022066565
87	0x3e022c6c	0.12712258
88	0xbd64f4a8	-0.055897385
89	0xbe99baf0	-0.30025434
90	0x3e52d09a	0.20587388
91	0xbebed14d	-0.3726906
92	0x3e4467b5	0.19180186
93	0xbf188202	-0.59573376
94	0x3ea52878	0.32257438
95	0x3c679cf3	0.014136541
96	0xbea8976e	-0.32928032
97	0xbefec133	-0.49756774
98	0xbe38c854	-0.18045169
99	0x3e712719	0.23550071
100	0xbe83a47f	-0.25711438
101	0xbe1c0fb3	-0.15240364
102	0x3e012952	0.12613419
103	0x3ecc7929	0.39936188
104	0x3ec6a3db	0.38796887
105	0x3ed1ca18	0.40974498
106	0xbf5c46cb	-0.8604552
107	0x3c941db0	0.018080562
108	0xbec4a9b7	-0.38410732
109	0x3e879505	0.2648088
110	0x3c9cab2e	0.019124594
111	0xbed054bd	-0.4068965
112	0x3d522849	0.05130795
113	0xbd7a9e35	-0.061186034
114	0x3d9bd721	0.07609392
115	0xbeaaf7b2	-0.33392102
116	0xbd054927	-0.032540467
117	0xbc13183c	-0.008977946
118	0xbbaed5de	-0.0053355535
119	0xbde5ca51	-0.112202294
120	0x3e0001d4	0.12500697
121	0x3e91fca1	0.28513053
122	0x3dde9f75	0.10870258
123	0xbea7c726	-0.32769126
124	0xbdd5f270	-0.10446632
125	0x3f26389a	0.6493012
126	0x3b000a8c	0.0019537536
127	0x3e7f7223	0.24945883
128	0x3d9784cb	0.07398375
129	0xbee7fde7	-0.453109
130	0xbdb59961	-0.08867145
131	0x3e4369ef	0.19083379
132	0x3e0b5e68	0.13610232
133	0x3ecaf227	0.39637873
134	0xbe4ba826	-0.19888362
135	0xbe058863	-0.13040309
136	0xbd4596d7	-0.048239555
137	0xbf02ff8c	-0.51171184
138	0xbf2c58e5	-0.6732314
139	0xbe441fbe	-0.19152734
140	0x3e942c6a	0.28940135
141	0xbded21de	-0.11578725
142	0xbeb14af7	-0.34627506
143	0xbf24c125	-0.64357215
144	0xbed140e0	-0.40869808
145	0x3e741f59	0.23840083
146	0xbe551746	-0.2080966
147	0xbe29baa1	-0.165751
148	0x3e12a847	0.14322005
149	0xbea0660f	-0.31327865
150	0x3d5aa0ac	0.053375885
151	0xbd882a1b	-0.06648656
152	0xbe8ce7e9	-0.27520683
153	0xbf2955f9	-0.6614681
154	0x3da527cc	0.08064231
155	0xbebe4585	-0.37162414
156	0xbe65fcb2	-0.22459677
157	0xbe194cef	-0.14970754
158	0x3dc24752	0.094862595
159	0xbec1df47	-0.3786566
160	0x3dd4fb09	0.10399444
161	0x3d9dcad6	0.077047035
162	0xbe712e1b	-0.23552744
163	0xbe35d3b6	-0.17756543
164	0xbf11ab07	-0.5690159
165	0x3e322d65	0.17400129
166	0xbe37d65c	-0.17952865
167	0x3e9e7849	0.30951145
168	0xbddb9ee0	-0.107236624
169	0xbf11b8ec	-0.56922793
170	0xbe821d0b	-0.25412783
171	0x3d9f2ee6	0.07772617
172	0x3d542ecc	0.05180244
173	0x3e304ed6	0.17217574
174	0xbea5fe11	-0.324204
175	0x3e8d3e1b	0.27586445
176	0xbed8e945	-0.4236547
177	0x3f8e58bb	1.1120828
178	0x3e6eb556	0.23311362
179	0x3eb5fafb	0.35543045
180	0xbcc44b65	-0.023961732
181	0xbe489482	-0.19587901
182	0x3ec94368	0.3930924
183	0x3c6aa960	0.014322609
184	0xbe96ae41	-0.2942982
185	0x3dae0c1f	0.08498406
186	0x3dcf4d0b	0.10122117
187	0xbcb21f3d	-0.021743411
188	0x3d9a76ec	0.07542214
189	0x3eef6f40	0.46764565
190	0x3f174198	0.59084463
191	0x3ed06daf	0.40708682
192	0xbdf9d909	-0.12199599
193	0x3ece3bff	0.40280148
194	0xbe8f7d31	-0.280252
195	0x3ee5c15d	0.44874087
196	0xbe0445ee	-0.12917301
197	0x3e89a229	0.2688153
198	0x3e9dc9e5	0.30818096
199	0xbe42227b	-0.18958466
200	0xbdc32f13	-0.09530463
201	0x3eaa80e1	0.33301452
202	0xbd86104e	-0.065460786
203	0xbe1ac6a6	-0.15114841
204	0x3c1d070d	0.009584201
205	0x3c9356d3	0.017985737
206	0x3ec9d833	0.3942276
207	0x3e82177f	0.2540855
208	0xbb99274f	-0.0046738754
209	0x3cddca0d	0.027073884
210	0x3e51af20	0.20476961
211	0x3e29cb02	0.16581348
212	0x3d5242a7	0.051333096
213	0x3e876881	0.26446918
214	0x3e866c5c	0.26254547
215	0xbe569c9f	-0.20958184
216	0xbef09bd1	-0.46993878
217	0xbc2b3978	-0.010450713
218	0x3b94def6	0.0045431806
219	0x3d03b6cd	0.032156754
220	0x3c9fdd2a	0.019514639
221	0xbd7ea382	-0.062167652
222	0x38dbea44	0.00010486369
223	0xbc2d16b4	-0.010564495
224	0xbf2de1bf	-0.67922586
225	0x3e4e938c	0.20173472
226	0xbe8da042	-0.2766133
227	0x3d022400	0.031772614
228	0xbd72264c	-0.059118554
229	0xbb1093a2	-0.0022060652
230	0x3d104f2e	0.03523176
231	0xbdc6bf39	-0.097044416
232	0xbe7fa52f	-0.24965356
233	0xbd6dba53	-0.05803902
234	0xbdd1ed24	-0.10250309
235	0xbd86c5cb	-0.06580695
236	0xbc23ea93	-0.010004657
237	0xbefad775	-0.48992506
238	0xbd99aeb7	-0.07504027
239	0xbed380fa	-0.4130934
240	0xbeea5887	-0.45770666
241	0x3c9ceade	0.019154962
242	0xbcecb6e5	-0.028895805
243	0xbeb29c44	-0.34884846
244	0x3c0e533a	0.008686835
245	0x3d1f2ef0	0.038863122
246	0x3cd31d28	0.025770739
247	0x3cc132fc	0.023583882
248	0xbd938312	-0.07202734
249	0x3c6b1592	0.0143484045
250	0x3e3b3bf4	0.18284589
251	0x3cfcfbd4	0.0308818
252	0xbedd8a45	-0.43269554
253	0x3e506fbc	0.20355123
254	0x3d1bd58a	0.038045444
255	0xbd795d95	-0.060880262

en2.bias f4 [100]
0	0x3d09409d	0.033508886
1	0xbf0a9c5a	-0.54144824
2	0xbc427d02	-0.0118706245
3	0x3f1c81f5	0.611358
4	0xbe752bcc	-0.23942488
5	0x3e56fa50	0.20993924
6	0x3f68eed9	0.9098945
7	0xbe09a2f2	-0.13441065
8	0xbd005a34	-0.031336024
9	0x3e0670ef	0.13129018
10	0xbd1be501	-0.038060192
11	0xbf0a8aa9	-0.5411783
12	0x3e0c2829	0.13687195
13	0x3efd3d75	0.4946095
14	0x3dc7581c	0.097336024
15	0xbe3e07f6	-0.18557724
16	0xbf11e388	-0.5698781
17	0xbd7238e9	-0.059136305
18	0x3ee0f9cf	0.4394059
19	0xbe073b6b	-0.1320626
20	0x3cd660e8	0.026169255
21	0x3e7be703	0.24599843
22	0x3f17ff22	0.59373677
23	0xbf9d2aae	-1.227865
24	0xbd8e8b81	-0.06960202
25	0xbe7da7d8	-0.24771059
26	0xbe9cd3e3	-0.30630407
27	0x3efa8852	0.4893213
28	0x3ea753e0	0.3268118
29	0x3ed17ed2	0.4091707
30	0x3ec760aa	0.38940936
31	0x3f27d11a	0.6555344
32	0xbee7ff7c	-0.45312107
33	0xbe9290ab	-0.28625998
34	0x3f026623	0.509371
35	0x3e86375d	0.26214114
36	0x3f46eafb	0.777023
37	0xbf4b621e	-0.7944659
38	0xbd0e830c	-0.034792945
39	0x3da182e1	0.07886291
40	0x3c8c84a1	0.017153086
41	0xbe0add0a	-0.13560882
42	0x3c5abbd1	0.013350443
43	0xbe02d34c	-0.12775916
44	0xbf584daa	-0.84493506
45	0x3f716198	0.9428954
46	0xbe293643	-0.16524605
47	0xbee83dc3	-0.4535962
48	0x3ddaa154	0.10675302
49	0xbe72a430	-0.23695445
50	0x3e10b5bb	0.14131825
51	0x3f36105b	0.71118706
52	0x3def830e	0.116949186
53	0xbd27ab53	-0.040934872
54	0x3e16edc8	0.14739144
55	0x3f19b524	0.60042024
56	0xbf108a02	-0.56460583
57	0x3d9bc45b	0.07605811
58	0x3df24db8	0.1183123
59	0x3d24096b	0.040048044
60	0x3ee84938	0.4536836
61	0x3f9521da	1.1650956
62	0xbeabfcfe	-0.33591455
63	0x3e8e78bb	0.27826485
64	0xbd81ae9a	-0.06332131
65	0x3eaf2b8f	0.3421292
66	0xbe7e51c3	-0.24835877
67	0xbe655809	-0.22396864
68	0xbe406ef2	-0.18792322
69	0xbf38fb7f	-0.7225875
70	0xbe4e1cef	-0.20128225
71	0x3e6b5366	0.22981033
72	0x3e2d9af0	0.16953635
73	0xbe03cddc	-0.12871498
74	0xbf17d468	-0.5930848
75	0x3f04fdd8	0.51949835
76	0xbf296f20	-0.6618519
77	0xbe91b6a7	-0.28459665
78	0xbe8a1547	-0.26969358
79	0x3e61cd22	0.22050908
80	0x3e3234b2	0.17402914
81	0x3f539e17	0.826631
82	0xbd87d285	-0.0663195
83	0xbed1afe8	-0.40954518
84	0xbdb0278b	-0.08601292
85	0x3e90bd9b	0.28269657
86	0xbe6bd428	-0.2303015
87	0xbdc3deeb	-0.095640026
88	0x3e3aa1a1	0.18225719
89	0xbdcf0f90	-0.1011039
90	0xbf30ffb7	-0.6914019
91	0xbee5c488	-0.44876504
92	0xbe3e2261	-0.18567802
93	0x3c3928ac	0.011301201
94	0xbf36219d	-0.7114504
95	0x3f23323f	0.63748544
96	0xbe5aefab	-0.21380489
97	0x3ea735a6	0.32658118
98	0x3b940bb1	0.0045179953
99	0x3f6c6c40	0.92352676

en3.weight f4 [50, 100]
0	0xbd9fb926	-0.07798986
1	0x3d4d5acf	0.05013543
2	0x3e40ce2c	0.18828648
3	0xbb833b94	-0.004004905
4	0xbe3d01f7	-0.18457781
5	0x3e9205d8	0.28520083
6	0xbda0765b	-0.078350745
7	0xbe070cad	-0.13188429
8	0xbc2ca83d	-0.010538158
9	0x3da76a95	0.08174626
10	0xbe0cf8a7	-0.13766728
11	0x3d6c29a0	0.057656884
12	0x3de72f6a	0.112883404
13	0x3d802cfd	0.06258581
14	0x3e182e0e	0.14861318
15	0xbd737321	-0.059435967
16	0x3e8d2b6e	0.27572197
17	0xbd591dd3	-0.05300696
18	0xbd08a892	-0.033363886
19	0xbe06f82a	-0.13180605
20	0xbd80efd7	-0.06295746
21	0xbe363c83	-0.17796521
22	0xbcd94126	-0.026520323
23	0x3c397f20	0.011321813
24	0xb9ab83a6	-0.00032713747
25	0x3d37182a	0.04470078
26	0xbebc0294	-0.36720717
27	0xbd956eb7	-0.07296508
28	0xbe00b933	-0.12570648
29	0xbdf0c66e	-0.117565975
30	0x3dad6f51	0.084684975
31	0x3db075eb	0.08616241
32	0x3e44a50f	0.1920359
33	0x3c2901cf	0.010315373
34	0x3df15be3	0.11785104
35	0x3e44483c	0.1916818
36	0xbe7691dc	-0.24079078
37	0x3a776b9f	0.0009438339
38	0x3e440296	0.19141611
39	0xbe133f21	-0.1437955
40	0xbe25e441	-0.16200353
41	0x3e2e31ec	0.17011231
42	0xbdc6bae0	-0.09703612
43	0x3d9988d3	0.074968
44	0xbd50346e	-0.05083125
45	0x3df745da	0.1207387
46	0x3e03046c	0.12794656
47	0x3db5f44b	0.08884486
48	0xbe51ded3	-0.20495157
49	0x3ddf093d	0.10890434
50	0xbcab6ea3	-0.02092678
51	0x3ce9379c	0.0284689
52	0x3dadf35d	0.084936835
53	0x3c8d5111	0.01725057
54	0x3d3dbd78	0.04632327
55	0xbcb45d74	-0.022017218
56	0xbc61f77b	-0.013791914
57	0xbd7a81cb	-0.061158936
58	0xbe581111	-0.2110026
59	0x3dcc013c	0.09961173
60	0xbdf07f98	-0.117430866
61	0x3e287544	0.16450983
62	0xbdaf82d9	-0.08569879
63	0x3e5f9cb9	0.21837129
64	0xbde38310	-0.111089826
65	0x3c9d283c	0.019184224
66	0x3c2670b8	0.01015871
67	0x3d7b87a9	0.061408672
68	0xbf117368	-0.5681672
69	0x3ce2f070	0.02770254
70	0x3d234b8b	0.039866965
71	0xbdfb7bca	-0.1227947
72	0xbedccc59	-0.43124655
73	0xbc4f8c89	-0.012667784
74	0xbe0f3d7a	-0.13988295
75	0xbe384108	-0.17993557
76	0xbaca9dac	-0.0015458367
77	0x3eb5d7f2	0.35516316
78	0xbcaf5a38	-0.021405324
79	0xbd35db3a	-0.044398524
80	0x3d148c3c	0.03626655
81	0x3d10f5ba	0.035390593
82	0xbe0eef4c	-0.13958472
83	0xbe1fc885	-0.15603836
84	0xbd56f891	-0.052483145
85	0x3e000ea5	0.12505586
86	0xbd708675	-0.05872198
87	0x3de6c559	0.1126811
88	0xbd857c37	-0.06517833
89	0xbd025046	-0.031814836
90	0x3e02d8d2	0.12778023
91	0x3c9cb48f	0.019129066
92	0xbe8a643c	-0.27029598
93	0xbd18f5c0	-0.03734374
94	0xbd4cac80	-0.049969196
95	0xbd2a0ff9	-0.04151914
96	0xbe7b9c8a	-0.24571434
97	0x3e0cbc30	0.13743663
98	0x3e06febb	0.1318311
99	0xbd8abd87	-0.06774431
100	0x3f14b81e	0.5809344
101	0x3d9d9554	0.07694498
102	0xbef206ae	-0.4727072
103	0x3cadca8c	0.021214746
104	0x3e387c1e	0.18016097
105	0x3e37d198	0.17951047
106	0x3b677eb1	0.0035323317
107	0x3ee07f80	0.43847275
108	0xbcdff56c	-0.027338706
109	0x3eda84c0	0.42679405
110	0x3ec19b77	0.37813923
111	0xbda3d775	-0.080000795
112	0x3d8b7b39	0.06810612
113	0x3e4935a6	0.19649372
114	0xbe34b885	-0.17648514
115	0x3e789077	0.24273859
116	0xbdd7711c	-0.10519621
117	0x3e95a895	0.2923018
118	0x3ea81975	0.32831922
119	0x3e866073	0.2624546
120	0x3dd7c75d	0.105360724
121	0xbe9758c6	-0.29559916
122	0x3e912b35	0.28353277
123	0x3e3af89a	0.18258896
124	0xbe84460b	-0.2583469
125	0x3c5068fc	0.012720343
126	0x3bde2183	0.0067788973
127	0x3e150456	0.14552435
128	0x3da9894e	0.08278142
129	0x3ed805ec	0.42192018
130	0xbe44f2db	-0.19233267
131	0x3dc19756	0.09452693
132	0xbe527622	-0.20552877
133	0xbd81d76c	-0.063399166
134	0x3e62f834	0.22164994
135	0x3e8ecd16	0.27890843
136	0x3e547a53	0.20749788
137	0x3e73912b	0.23785846
138	0x3e48c43b	0.19606106
139	0x3edf38d0	0.43598032
140	0x3f2dcf99	0.67894894
141	0xbd079aac	-0.03310649
142	0x3d8f504c	0.06997737
143	0x3ea94db4	0.33067095
144	0x3d960ac0	0.07326269
145	0xbd75e320	-0.060031056
146	0x3e1eb64b	0.15499227
147	0xbdfe33cf	-0.124122255
148	0x3e78ebb3	0.24308662
149	0xbe540a0c	-0.20706958
150	0xbce5e424	-0.028062887
151	0x3e88f1d1	0.2674699
152	0xbedd0ae0	-0.4317236
153	0x3d8192f9	0.06326861
154	0x3f0fb3ee	0.56133926
155	0xbc71db16	-0.014761707
156	0xbe04eb45	-0.12980373
157	0x3e6d0e96	0.23150095
158	0x3f407d64	0.7519133
159	0xbed5e81a	-0.41778642
160	0x3ecffc7e	0.40622324
161	0x3d89e513	0.067331456
162	0xbdfe5f32	-0.12420501
163	0x3d562abd	0.052286852
164	0xbe82339d	-0.25430003
165	0x3dd9de4e	0.106381044
166	0xbeaa6b91	-0.33285192
167	0xbf04a9a9	-0.5182138
168	0x3e6b484a	0.22976795
169	0xbdeda68c	-0.11604032
170	0xbeb07860	-0.3446684
171	0x3efcdc77	0.4938695
172	0xbcb642b8	-0.02224861
173	0xbd98d244	-0.0746198
174	0xbe8f6492	-0.28006417
175	0x3e21ad0d	0.1578867
176	0xbdd11339	-0.102087446
177	0xbe916cd2	-0.28403336
178	0xbeaf42af	-0.34230563
179	0x3f0fbeab	0.5615031
180	0x3e23e5e1	0.1600566
181	0xbe0a3a58	-0.13498819
182	0x3f08ee18	0.534883
183	0x3d726801	0.059181217
184	0x3d27e8b2	0.0409934
185	0xbe7397d5	-0.23788388
186	0x3e7caaa8	0.24674475
187	0xbf928ea4	-1.144978
188	0xbec6886d	-0.3877596
189	0xbf1efd8a	-0.6210562
190	0xbef6e1a0	-0.48219013
191	0xbf065c94	-0.52485013
192	0x3e8cbafd	0.2748641
193	0x3f3f404f	0.747075
194	0xbd54b4f8	-0.051930398
195	0x3e6aa3d8	0.22914064
196	0x3c03844a	0.008027146
197	0x3edf1eb7	0.4357812
198	0xbe5e340b	-0.2169954
199	0xbdf25b6f	-0.11833846
200	0x3ccff2c2	0.02538431
201	0x3e360c7c	0.177782
202	0x3b5ef6e0	0.003402166
203	0xbd56c00d	-0.052429248
204	0x3e8dd4b1	0.27701333
205	0xbc84cbd3	-0.016210472
206	0xbce1c915	-0.027561704
207	0x390bd24d	0.00013334416
208	0x3ccb551d	0.024820859
209	0x3c55e533	0.013055134
210	0x3e62018d	0.22070904
211	0xbcee1486	-0.02906252
212	0xbdab5fe4	-0.08367899
213	0x3cbfc8b8	0.02341114
214	0x3b83bffe	0.00402069
215	0xbae7c2ce	-0.0017681958
216	0xbac6cf3e	-0.0015167964
217	0x3df2b45f	0.11850809
218	0x3ec550e1	0.38538268
219	0x3ad6c015	0.0016384149
220	0x3ce2f615	0.027705232
221	0xbe419cf2	-0.18907526
222	0x3e2503c8	0.16114724
223	0x3dee8bc1	0.1164775
224	0xbdfe4782	-0.12415983
225	0x3e31a262	0.173471
226	0x3ca53fbb	0.02017199
227	0x3df5dff7	0.120056085
228	0x3da03c82	0.07824041
229	0xbda4405f	-0.0802009
230	0x3d8f906c	0.07009968
231	0xbe4c9b6b	-0.19981162
232	0xbd647d6c	-0.055783674
233	0x3ebc3cf0	0.36765242
234	0xbe1c663c	-0.15273374
235	0x3bef3511	0.007300027
236	0x3cf060d1	0.02934304
237	0x3e842601	0.25810245
238	0x3c4deefe	0.012569187
239	0x3d64bd14	0.05584438
240	0x3c274e45	0.010211532
241	0x3b85aa0f	0.0040791105
242	0xbc2984e4	-0.010346625
243	0x3ceacd48	0.028662339
244	0x3d4365b8	0.04770443
245	0xbd175ec7	-0.03695562
246	0xbc664881	-0.014055372
247	0xbd2c0b47	-0.042002942
248	0x3e92894f	0.28620383
249	0xbdec6923	-0.11543491
250	0xbe8f4f4f	-0.27990195
251	0xbcc89f7b	-0.024490109
252	0xbe2834fb	-0.1642646
253	0x3d2b8ed3	0.041884255
254	0x3dbb398b	0.09141835
255	0xbe995548	-0.29947877

en3.bias f4 [50]
0	0x3e22305c	0.1583876
1	0xbe8e01c0	-0.2773571
2	0xbec515e2	-0.38493258
3	0x3eef0a6f	0.46687648
4	0x3d645d71	0.055753175
5	0x3e794e31	0.24346234
6	0xbf6a380f	-0.9149179
7	0x3de190cc	0.11013946
8	0xbdffccde	-0.12490247
9	0xbc2e743b	-0.010647829
10	0xbf1b5e99	-0.6069122
11	0x3e9db013	0.30798396
12	0x3e00f4ef	0.12593435
13	0x3fc1a741	1.5129167
14	0xbdb8dd28	-0.09026557
15	0x3ed476e0	0.41496944
16	0x3f5bdf9e	0.8588809
17	0x3c3b068c	0.011415135
18	0xbe242d48	-0.16032898
19	0x3ec77beb	0.3896173
20	0x3eafee79	0.34361628
21	0x3dad2be8	0.0845564
22	0x3e8dbe47	0.27684233
23	0xbf793d52	-0.9735919
24	0xbc533bb2	-0.01289265
25	0x3eae17f6	0.34002656
26	0xbe318ce2	-0.17338899
27	0x3d916130	0.07098615
28	0xbca7cd34	-0.02048359
29	0xbea212a0	-0.31654835
30	0xbeef9a5e	-0.4679746
31	0xbec70fb3	-0.38879165
32	0x3d38181c	0.044944867
33	0xbea3b461	-0.31973556
34	0xbf7f36f3	-0.9969322
35	0x3e2aa76d	0.1666543
36	0xbedff340	-0.43740273
37	0xbc6a80b2	-0.01431291
38	0xbe20057f	-0.15627097
39	0x3e6a495d	0.22879548
40	0x3dade07e	0.08490084
41	0xbf18fcf0	-0.5976095
42	0xbdd688cb	-0.1047531
43	0x3f2fbf4f	0.6865129
44	0xbd53d0b6	-0.051712714
45	0xbcaa6c02	-0.020803455
46	0xbcf442cc	-0.029817007
47	0xbea80d5a	-0.32822686
48	0x3d429f7e	0.047515385
49	0x3dc42ccf	0.09578859

en4.weight f4 [3, 50]
0	0x3e26bda4	0.1628328
1	0xbce77514	-0.02825407
2	0xbd46dfd0	-0.048553288
3	0x3d3a749e	0.04552137
4	0xbd44a6e8	-0.048010737
5	0xbe072cdf	-0.1320071
6	0xba139ac9	-0.000563067
7	0x3d05c617	0.032659616
8	0xbc8587dc	-0.016300134
9	0xbbe016d4	-0.006838659
10	0x3c2f477c	0.010698196
11	0x3de111b8	0.10989708
12	0xbe64b8bc	-0.22336096
13	0x3d9b28fb	0.07576176
14	0x3ca21e6f	0.019789902
15	0xbd72c3aa	-0.05926863
16	0x3da9618a	0.08270557
17	0xb9b9ced4	-0.0003544005
18	0x3edad94d	0.42743912
19	0x3e55d753	0.20882921
20	0x3ea22e5f	0.31676003
21	0xbce5cec7	-0.0280527
22	0x3ef24329	0.47316864
23	0xbdec6596	-0.115428135
24	0xbd6964b0	-0.05698079
25	0xbc132b80	-0.008982539
26	0xbbdf0131	-0.006805562
27	0x3d21ae4f	0.039472874
28	0x3d1089b1	0.035287563
29	0xbc33978c	-0.010961425
30	0xbcb915e1	-0.02259344
31	0x3b429636	0.0029691583
32	0x3d50b8d2	0.05095751
33	0x3d8bb903	0.068223976
34	0x3d66a08d	0.056305457
35	0xbd20db2e	-0.039271526
36	0x3c8ae23b	0.016953578
37	0x3e1931f0	0.14960456
38	0x3ca589f2	0.020207379
39	0x3a319370	0.0006773984
40	0xbda5c106	-0.08093457
41	0x3cfc4551	0.030794771
42	0xbe0ba3bb	-0.13636677
43	0x3ca795c6	0.02045716
44	0xbd9e4d79	-0.077296205
45	0x3cd0017c	0.025391333
46	0xbc8d1fa1	-0.017226996
47	0x3de97135	0.11398546
48	0x3d989392	0.07450022
49	0x3dbc7c5a	0.09203406
50	0xbb735a93	-0.0037132844
51	0x3e61d5bb	0.22054188
52	0x3ebb6f8f	0.3660855
53	0xbe16aa5b	-0.14713423
54	0xbde895f9	-0.1135673
55	0xbc847f4f	-0.016173987
56	0x3b4a9bab	0.003091554
57	0xbd184818	-0.03717813
58	0x3d85b428	0.06528503
59	0x3d1fad76	0.038983785
60	0x3d0592ed	0.032610822
61	0x38cf7f90	9.8942895e-05
62	0xbe07c4b4	-0.1325863
63	0xbcfc276c	-0.030780517
64	0xbdee56ce	-0.116376504
65	0xbe7a9015	-0.24469025
66	0xbd8e812c	-0.06958231
67	0xbd845d6c	-0.06463131
68	0x3b76c366	0.0037653088
69	0xbcb51fa6	-0.022109818
70	0xbc80d5b1	-0.015726896
71	0x3dd08b8c	0.101828665
72	0xbcbc1171	-0.022957535
73	0x3d4362bb	0.04770158
74	0x3e00778f	0.12545608
75	0xbdbc7d8c	-0.09203634
76	0xbd44cea2	-0.048048623
77	0x3d39b8d7	0.045342293
78	0x3d5f2b99	0.054484937
79	0x3cdfb461	0.027307691
80	0x3ebe46a2	0.37163264
81	0xbcf7fdec	-0.030272447
82	0x3c6a5743	0.014303031
83	0xbe3afc10	-0.18260217
84	0x3cb42219	0.021988915
85	0xbd5aa4cf	-0.05337983
86	0xbc1a8317	-0.009430668
87	0x3cc50571	0.024050446
88	0x3e62b217	0.22138248
89	0xbdf084aa	-0.11744054
90	0x3c0960f5	0.008384933
91	0xbc2cca93	-0.010546344
92	0xbb8a2822	-0.00421621
93	0xbee767ad	-0.45196286
94	0x3db223d2	0.086982384
95	0xbe0eaa12	-0.13932064
96	0xbd391b17	-0.04519185
97	0xbd7580e7	-0.059937384
98	0xbc3faf43	-0.0116995005
99	0xbe253152	-0.16132095
100	0xbabed6ce	-0.0014559866
101	0x3e0caaab	0.1373698
102	0x3e80d98c	0.25165975
103	0xbdd85ab2	-0.10564174
104	0xbe0e59ff	-0.13901518
105	0xbb281455	-0.0025646884
106	0x3e079e4e	0.13243982
107	0x3e1d0558	0.1533407
108	0xbda47e0f	-0.08031856
109	0xbe4846cf	-0.19558261
110	0x3d4d880c	0.050178573
111	0xbbfaa55d	-0.0076491074
112	0xbe07a4a3	-0.13246398
113	0xbdad49b4	-0.084613234
114	0xbe07578f	-0.13216995
115	0xbeb2e781	-0.34942248
116	0xbdc2f6fd	-0.095197655
117	0x3e367e71	0.17821671
118	0x3a976d63	0.0011552986
119	0xbc9aae89	-0.018882053
120	0xbc830cec	-0.015997373
121	0x3d831e90	0.06402314
122	0xbcc531e4	-0.024071641
123	0x3da9f646	0.08298926
124	0x3e415073	0.18878345
125	0x3e13acd8	0.14421403
126	0x3e72d734	0.23714906
127	0x3b451194	0.0030070292
128	0x3d849dd9	0.064754196
129	0xbd0784f6	-0.033085786
130	0x3e584b14	0.2112239
131	0x3e3c456d	0.18385859
132	0x3c014b9f	0.007891565
133	0x3db21aaa	0.08696492
134	0x3db1ca7e	0.086812004
135	0xbe4c115a	-0.19928494
136	0x3eac731b	0.33681569
137	0x3ca40554	0.020022072
138	0x3e4e64f2	0.20155695
139	0x3d9b1f0c	0.07574281
140	0xbb4573ee	-0.0030128914
141	0x38e2ac24	0.000108085835
142	0x3b02083c	0.0019841334
143	0xbe12a87b	-0.14322083
144	0x3dd66672	0.10468759
145	0x3df255b3	0.11832752
146	0x3d42da51	0.047571484
147	0xbdf7d27a	-0.12100692
148	0xbc3197db	-0.010839428
149	0x3e30fff3	0.17285137

en4.bias f4 [3]
0	0x3cf26542	0.0295893
1	0xbe2025ce	-0.15639421
2	0xbe47c72e	-0.19509575

de1.weight f4 [50, 3]
0	0x3dc45e43	0.095882915
1	0x3f53e7c7	0.8277554
2	0xbd859806	-0.06523137
3	0xbec2ae1b	-0.38023457
4	0xbed30bfb	-0.41220078
5	0xbe4d3bef	-0.20042394
6	0x3ed9fa51	0.4257379
7	0x3ede0d70	0.43369627
8	0xbe15045a	-0.14552441
9	0x3c66e406	0.014092451
10	0x3e1dc6d6	0.15407881
11	0xbe44a3bb	-0.19203083
12	0xbe81eba2	-0.25375086
13	0xbeca7ca0	-0.39548206
14	0x3eefb8a1	0.46820548
15	0xbebc0ceb	-0.36728606
16	0xbf699b5f	-0.912527
17	0xbf1d5a7c	-0.61466193
18	0xbca74aaf	-0.020421354
19	0xbc7440d8	-0.014908038
20	0x3d1de9ee	0.03855317
21	0x3c95a177	0.018265469
22	0x3d52c06b	0.051453035
23	0x3d2b8fc9	0.04188517
24	0x3e760f05	0.24029167
25	0x3f4d1e1f	0.80124086
26	0xbeab661f	-0.3347635
27	0x3c1d485d	0.009599772
28	0xbbf7ccf7	-0.0075622755
29	0xbcf97d51	-0.030455263
30	0x3d3d7d44	0.04626204
31	0xbeb457a6	-0.3522312
32	0x3ea2bf99	0.31786802
33	0x3da465c0	0.0802722
34	0xbc7461ce	-0.014915897
35	0xbcdb7b2b	-0.02679213
36	0x3f095fe5	0.5366195
37	0xbf5ded80	-0.8669052
38	0x3eb94574	0.361858
39	0xbc80ba01	-0.015713694
40	0xbcc3c65f	-0.023898302
41	0xbc164074	-0.00917064
42	0xbe4725a0	-0.19447947
43	0x3ec85c8e	0.39133114
44	0xbec6299e	-0.38703626
45	0xbebb0d77	-0.3653371
46	0xbd8395db	-0.06425067
47	0xbe9c3ec6	-0.30516642
48	0x3e1de0f6	0.15417847
49	0x3ed62777	0.41826984
50	0x3e946e28	0.28990293
51	0x3d05ff03	0.0327139
52	0xbe375a3f	-0.1790552
53	0xbdbdccf1	-0.09267605
54	0x3e5bc94f	0.21463512
55	0x3e898ee8	0.2686684
56	0xbe8c639e	-0.27419752
57	0xbe3bbb5a	-0.18333188
58	0xbe44ce30	-0.1921928
59	0x3e33ba0f	0.17551444
60	0xbcdc34cd	-0.026880646
61	0xbbcfd326	-0.0063423095
62	0xbc428334	-0.011872102
63	0xbeb0d551	-0.34537748
64	0x3f29856e	0.6621922
65	0xbd94e130	-0.072695136
66	0x3df29d20	0.118463755
67	0x3e8e45b9	0.2778757
68	0x3ebe5bbf	0.37179372
69	0xbd3ae9e1	-0.0456332
70	0x3c8005d7	0.015627785
71	0x3cdd4caa	0.027014095
72	0xbe4ffb0d	-0.20310612
73	0x3f02ee7e	0.5114516
74	0x3ef60245	0.48048607
75	0xbf0d3c43	-0.5517008
76	0x3ec4e9dc	0.3845967
77	0x3e89d066	0.26916808
78	0x3ddf5cfe	0.10906409
79	0x3eb93cf1	0.36179307
80	0xbe55b4d3	-0.2086976
81	0xbd433157	-0.047654476
82	0xbcd11142	-0.025520924
83	0x3caded4f	0.021231322
84	0xbedfdc97	-0.43722984
85	0xbe037086	-0.12835893
86	0xbe93787a	-0.28802854
87	0x3df3a2c1	0.11896277
88	0xbedab36b	-0.4271501
89	0xbe8828ef	-0.2659373
90	0x3e546d63	0.20744853
91	0x3e5f3984	0.21799284
92	0xbe8d54aa	-0.27603656
93	0x3e9153dd	0.28384295
94	0xbef7d770	-0.48406553
95	0x3f212cd8	0.6295905
96	0x3d71c6da	0.05902753
97	0x3e318b88	0.17338383
98	0x3e87aa4d	0.26497117
99	0x3c956d56	0.018240612
100	0xbc8aa753	-0.01692549
101	0xbd9dec6d	-0.0771111
102	0x3e3bc645	0.18337353
103	0xbed4600f	-0.41479537
104	0xbeaa5cb3	-0.3327385
105	0xbec5768a	-0.38567
106	0x3e8f0e42	0.27940565
107	0xbe6c9739	-0.23104562
108	0x3d5f0701	0.05445004
109	0xbdaa0d60	-0.08303332
110	0xbf8b1c6f	-1.0868052
111	0xbf540386	-0.82817876
112	0xbf1ac3c8	-0.6045499
113	0xbd1731c9	-0.036912713
114	0xbc81a32d	-0.015824879
115	0x3bc472ef	0.0059951465
116	0xbc89a2a9	-0.016801195
117	0xbc839dbf	-0.01606643
118	0xbdde0eeb	-0.10842689
119	0x3f1d325b	0.6140496
120	0xbe0a1a85	-0.13486679
121	0x3ec34b99	0.38143614
122	0x3ed4d1af	0.41566226
123	0x3d7622d9	0.060091827
124	0xbefa050a	-0.4883197
125	0x3ec1464e	0.3774895
126	0x3f4eafcc	0.80736995
127	0x3e88e0fa	0.26734143
128	0x3f824430	1.0177059
129	0xbdc0ca29	-0.09413559
130	0xbe6083e8	-0.21925318
131	0x3db0443e	0.08606766
132	0xbf1e309f	-0.6179294
133	0x3ec54018	0.38525462
134	0x3f16a08b	0.5883872
135	0xbeb72daa	-0.35777026
136	0xbeab8bb9	-0.33505037
137	0x3d5c19b5	0.053735454
138	0x3c3a8d7c	0.011386272
139	0x3d452e90	0.04814011
140	0x3cb1441a	0.021638919
141	0x3daf2152	0.08551277
142	0xbf80a3f9	-1.005004
143	0xbf2a8809	-0.66613823
144	0x3dd74a70	0.10512245
145	0x3e870277	0.26369068
146	0xbe1b8208	-0.15186322
147	0xbc917e4b	-0.017760416
148	0xbcb6cda2	-0.02231485
149	0xbcd9257d	-0.026507134

de1.bias f4 [50]
0	0x3e98d55f	0.2985029
1	0x3ec02647	0.37529203
2	0xbeaeb4df	-0.3412237
3	0x3c92733a	0.01787721
4	0x3e745926	0.23862132
5	0xbef73a47	-0.4828665
6	0x3c82c80a	0.015964527
7	0xbc3125fc	-0.010812279
8	0x3cd64917	0.026157899
9	0x3d2c1ebd	0.0420215
10	0x3ddda7f8	0.10823053
11	0x3d891aee	0.066945896
12	0xbe51350c	-0.20430392
13	0xbd2fef9a	-0.04295311
14	0xbdece7bd	-0.11567638
15	0x3e818447	0.25296232
16	0xbe9c62db	-0.3054417
17	0x3e156001	0.14587404
18	0xbdaedaa6	-0.08537798
19	0x3d42c249	0.047548566
20	0xbd0eabd6	-0.034831844
21	0xbf039e83	-0.51413745
22	0xbeb8246b	-0.35965285
23	0xbd7b745f	-0.061390277
24	0xbf083449	-0.5320478
25	0x3e1c1045	0.15240581
26	0xbdd572a9	-0.1042226
27	0xbc868ade	-0.016423639
28	0x3e9e106f	0.30871913
29	0x3ead535b	0.33852658
30	0xbd96ee31	-0.0736965
31	0x3e778a6d	0.24173899
32	0xbe80fddf	-0.25193688
33	0x3cdf7df3	0.027281737
34	0x3ec9f1a6	0.39442176
35	0x3d95c854	0.073136
36	0xbf098e00	-0.537323
37	0xbe0318ea	-0.12802473
38	0xbd54e413	-0.05197532
39	0xbec4b70a	-0.38420898
40	0xbe78bf6e	-0.24291775
41	0x3e17c288	0.14820302
42	0x3f115720	0.5677357
43	0x3c35f063	0.011104676
44	0x3ed1ffa8	0.41015363
45	0x3e247674	0.16060811
46	0x3be8e843	0.007107766
47	0xbf672932	-0.90297234
48	0xbdd2e7d2	-0.102981225
49	0x3d4dc32f	0.05023497

de2.weight f4 [100, 50]
0	0x3d3dafd4	0.04631026
1	0x3ca6d21a	0.020363856
2	0xbdb7c924	-0.089739114
3	0xbc523e1b	-0.01283219
4	0xbd42ccc7	-0.047558572
5	0xbd201a81	-0.039087776
6	0x3d968e25	0.07351331
7	0xbc3bd98e	-0.011465443
8	0x3ad5884f	0.0016291233
9	0x3e3dd018	0.18536413
10	0x3e11bc21	0.14231922
11	0x3e18a19c	0.14905399
12	0xbd98a27f	-0.07452869
13	0x3d038bb9	0.03211567
14	0x3dc33e81	0.09533406
15	0x3c258673	0.010102856
16	0xbdd5da44	-0.104420215
17	0xbf72be92	-0.9482204
18	0xbe044247	-0.12915908
19	0x3d4a47a3	0.049384724
20	0x3e2a4150	0.16626477
21	0xbd4f27e3	-0.05057515
22	0xbdc208bf	-0.094743244
23	0xbdff0369	-0.12451822
24	0xbbe84386	-0.0070881275
25	0xbcf8cb17	-0.030370278
26	0xbc29a360	-0.010353893
27	0x3ea206e2	0.31645876
28	0xbdb3fa46	-0.0878797
29	0xbba2f565	-0.004973101
30	0xbddc8592	-0.10767664
31	0xbdadca38	-0.08485836
32	0xbc56724b	-0.013088773
33	0xbeedd11f	-0.4644861
34	0x3d3db281	0.046312813
35	0xbe93f8ba	-0.289007
36	0x3c25f897	0.010130069
37	0x3df75d96	0.12078397
38	0x3f2b56dd	0.6692942
39	0xbd5ed526	-0.054402493
40	0xbdc41322	-0.09573962
41	0xbd9e2777	-0.07722371
42	0xb71d9619	-9.392877e-06
43	0xbe65c764	-0.22439343
44	0xbcadafd5	-0.021202007
45	0xbd2261f5	-0.0396442
46	0xbcdcffbf	-0.026977418
47	0x3d54fa08	0.05199626
48	0xbe4dc6c9	-0.20095362
49	0x3ecbca14	0.3980261
50	0xbee62402	-0.44949347
51	0x3dc965ea	0.09833892
52	0x3d062608	0.032751113
53	0xbe308c0a	-0.1724092
54	0xbd8dd008	-0.069244444
55	0x3f6a73c9	0.91582924
56	0x3d942d67	0.07235222
57	0xbea98c73	-0.33114967
58	0xbe9dac28	-0.30795407
59	0x3e69a273	0.22815876
60	0x3e5cd688	0.21566212
61	0xbe1218d8	-0.1426729
62	0x3e0a2526	0.13490734
63	0xbca27b14	-0.019834079
64	0xbe5e05a8	-0.21681845
65	0x3e5ca198	0.21546018
66	0xbe84c8e0	-0.25934505
67	0xbe994a23	-0.29939374
68	0xbd54b58e	-0.051930957
69	0x3db1ea71	0.08687294
70	0x3da9da61	0.082936056
71	0x3dd10142	0.10205318
72	0xbca1b385	-0.019738922
73	0x3e512029	0.20422424
74	0xbd82effe	-0.06393431
75	0xbf01c92d	-0.50697595
76	0xbea79ffd	-0.3273925
77	0x3eb4f880	0.3534584
78	0x3d1c8b54	0.03821881
79	0x3e2390c4	0.15973192
80	0xbd420f09	-0.04737762
81	0x3c9da570	0.019243926
82	0xbe682176	-0.22669014
83	0x3d8e760a	0.06956108
84	0x3dc44f6d	0.09585462
85	0x3c4d2d75	0.012523045
86	0x3fac8563	1.3478206
87	0x3ecc91b9	0.39954928
88	0x3d8ccedc	0.06875393
89	0xbcd7167a	-0.026255835
90	0xbea3e0e8	-0.32007527
91	0x3e41035d	0.18848939
92	0xbf701265	-0.9377807
93	0x3e460741	0.19338705
94	0xbf361109	-0.71119744
95	0x3ea1b880	0.31586075
96	0xbd9ec36e	-0.07752119
97	0x3f660846	0.89856374
98	0xbe61d8a0	-0.22055292
99	0xbd9f89fe	-0.07789992
100	0x3e77193e	0.24130723
101	0x3e375d4e	0.17906687
102	0xbe45123f	-0.19245242
103	0xbea5bf3a	-0.32372457
104	0xbe8637ca	-0.2621444
105	0x3de60296	0.11230962
106	0x3d6174aa	0.0550429
107	0x3eb88d21	0.36045173
108	0x3dac8d44	0.08425382
109	0xbccb72a2	-0.024834935
110	0x3dfa4722	0.12220599
111	0xbe0d2624	-0.1378408
112	0xbec84918	-0.39118266
113	0xbda26b5d	-0.07930634
114	0x3c93b815	0.018032113
115	0x3e7bd01b	0.24591105
116	0x3de2f8ce	0.11082612
117	0xbeb48d21	-0.35263923
118	0xbe00acef	-0.12565969
119	0x3e25334e	0.16132852
120	0xbdb16942	-0.086626545
121	0x3f0bc93e	0.54603946
122	0x3de23c91	0.110467084
123	0x3d549b70	0.05190605
124	0x3f102270	0.5630255
125	0x3e05283e	0.13003632
126	0x3cd4e1d9	0.025986599
127	0x3ecb68c9	0.39728382
128	0x3edd66fe	0.4324264
129	0xbe3764f5	-0.17909606
130	0xbe2b0515	-0.16701157
131	0xbf3e8d6e	-0.74434555
132	0x3d0a7d71	0.033811036
133	0xbe11d1c4	-0.14240175
134	0xbea624be	-0.32449907
135	0x3ebcad85	0.36851135
136	0x3e8f5e7e	0.2800178
137	0xbe667422	-0.22505239
138	0x3bf0497f	0.00733298
139	0x3d199693	0.037497114
140	0xbae534cb	-0.0017487047
141	0xbda0e52f	-0.07856213
142	0x3cfb4839	0.030674087
143	0xbe70f1eb	-0.23529784
144	0xbda8944b	-0.0823141
145	0xbd44082e	-0.047859363
146	0x3d10d279	0.035356972
147	0x3d8cd703	0.06876948
148	0xbea131bd	-0.3148326
149	0x3da4fdb5	0.08056203
150	0x3f18361c	0.59457564
151	0x3e230133	0.15918426
152	0xbf351fda	-0.70751727
153	0xbe9aada4	-0.30210602
154	0x3f50c1df	0.81545824
155	0xbf2800b3	-0.65626067
156	0x3ce3c225	0.027802536
157	0xbda73769	-0.081648655
158	0x3e149aba	0.14512148
159	0x3d30a274	0.043123677
160	0x3ea62070	0.32446623
161	0x3cce4968	0.025181487
162	0xbeeba0f1	-0.46021226
163	0xbe15a3be	-0.14613244
164	0xbf0cd780	-0.55016327
165	0xbe364e03	-0.17803197
166	0x3e3f7e7f	0.18700598
167	0xbd2c242d	-0.042026687
168	0xbf2039e8	-0.6258836
169	0x3eaab48a	0.33340865
170	0x3d5e9aba	0.054346777
171	0xbf498c93	-0.78730124
172	0xbe140ef7	-0.14458834
173	0xbd069c3e	-0.032863848
174	0xbd579058	-0.05262789
175	0x3f1a90bc	0.603771
176	0xbe4647a2	-0.19363263
177	0x3e836145	0.25660148
178	0xbd8812cf	-0.066442125
179	0xbd08bedc	-0.033385143
180	0xbf212c8d	-0.62958604
181	0x3f55a0ca	0.8344847
182	0x3eb274fc	0.34854877
183	0xbe01f913	-0.1269267
184	0x3e4d8d63	0.20073466
185	0xbda2a9dc	-0.07942554
186	0xc00336a4	-2.05021
187	0xbe2dc2c0	-0.16968822
188	0x3d9f42cf	0.077764146
189	0x3b3ba023	0.0028629384
190	0x3ebe550d	0.37174264
191	0x3f0a84fa	0.54109156
192	0x3fcc0514	1.593905
193	0x3eb119e4	0.34590065
194	0x3f95a0f7	1.1689748
195	0x3ece2c91	0.40268376
196	0xbd249002	-0.0401764
197	0xbf908367	-1.1290101
198	0xbe692f62	-0.22771981
199	0xbb70bd3b	-0.0036733884
200	0xbe08d4ad	-0.1336238
201	0x3e006a35	0.12540515
202	0xbeff0cd1	-0.49814466
203	0xbe6599f1	-0.22422005
204	0x3f541ef6	0.8285974
205	0xbd1ece6d	-0.03877108
206	0xbbaad6de	-0.0052136024
207	0xbdd21d73	-0.10259523
208	0xbe9e3344	-0.30898488
209	0xbe0c8f50	-0.13726544
210	0x3f265972	0.6498023
211	0xbdebcafc	-0.115133256
212	0x3e9f023d	0.31056395
213	0x3e6cb839	0.2311715
214	0xbf3c59a0	-0.73574257
215	0xbe382d04	-0.17985922
216	0xbd8c00a3	-0.06836059
217	0x3d2e2818	0.042518705
218	0xbe6840cb	-0.22680967
219	0x3d909e61	0.070614584
220	0xbb095a94	-0.002095853
221	0xbf2f5cf4	-0.6850121
222	0x3db818f9	0.08989138
223	0x3c3bf6c2	0.011472406
224	0xbd3d8085	-0.046265144
225	0x3c40415d	0.011734334
226	0xbedb4124	-0.42823136
227	0xbe1d0068	-0.15332186
228	0xbe9e6275	-0.30934492
229	0x3d6010f2	0.05470366
230	0xbe57c36e	-0.21070644
231	0x3f6ada0c	0.91738963
232	0x3c2dd37d	0.010609505
233	0xbe252eac	-0.16131085
234	0xbd984c71	-0.07436455
235	0xbed602f7	-0.41799137
236	0xbeb9da14	-0.36299193
237	0x3d2ac1e9	0.041688833
238	0xbcd0001b	-0.025390675
239	0x3e0d8665	0.13820799
240	0x3d93d3e3	0.072181486
241	0x3faab3db	1.3336138
242	0x3ece8f97	0.40343925
243	0xbccaa7cc	-0.024738215
244	0x3e0e812f	0.13916467
245	0x3e77d5e1	0.24202682
246	0x3c894b8f	0.016759662
247	0xbcf14c48	-0.029455319
248	0xbe4a63a7	-0.19764577
249	0xbd853653	-0.06504502
250	0x3cfe0dde	0.031012472
251	0xbd3b4196	-0.045716844
252	0xbd230cb9	-0.039807055
253	0xbe1b1aa3	-0.1514688
254	0xbe26dee3	-0.16295962
255	0xbd956e8b	-0.07296475

de2.bias f4 [100]
0	0xbd5f74b0	-0.05455464
1	0xbe82e8e7	-0.25568315
2	0x3d6005d1	0.054693047
3	0x3efc954f	0.49332663
4	0x3df0a730	0.117506385
5	0xbe326be4	-0.1742397
6	0x3ecdb89a	0.40179902
7	0xbe8aade5	-0.27085796
8	0x3ea6aba8	0.32552838
9	0xbde03e82	-0.109494224
10	0xbe117fa3	-0.14208846
11	0xbdc196cc	-0.0945259
12	0x3c98cc3e	0.018652078
13	0xbe74ba8e	-0.2389929
14	0xbe47f0f2	-0.19525507
15	0xbd7d96f9	-0.061911557
16	0x3d798ae2	0.060923465
17	0xbe8e02a6	-0.27736396
18	0x3e52e2d5	0.20594342
19	0xbdf9ffbf	-0.12206983
20	0x3e40fc0b	0.18846147
21	0x3ea910f9	0.33020762
22	0xbdb8223f	-0.08990907
23	0xbe46c913	-0.19412641
24	0xbbe99d2a	-0.007129331
25	0x3de1d551	0.11027015
26	0xbe0904cb	-0.13380735
27	0xbea0b2ae	-0.31386322
28	0x3f3ea57d	0.74471265
29	0x3e522e06	0.20525369
30	0x3e9cadd4	0.3060137
31	0xbd609222	-0.054826863
32	0xbdac3b7b	-0.084097825
33	0x3e81605f	0.25268838
34	0xbe292111	-0.1651652
35	0x3e584990	0.21121812
36	0xbd96ea92	-0.073689595
37	0x3cb65ddf	0.022261558
38	0x3f33edc8	0.702847
39	0xbde4b736	-0.11167757
40	0x3e91b57e	0.2845878
41	0x3e695eee	0.22790119
42	0x3d4dcc25	0.050243516
43	0x3e68c64a	0.22731891
44	0xbe4e0ebf	-0.20122813
45	0xbb827d3e	-0.003982215
46	0xbeacad25	-0.3372585
47	0x3de0cbe0	0.10976386
48	0x3eb1cf68	0.3472855
49	0x3d5ee9b3	0.05442209
50	0xbeb60c6a	-0.35556346
51	0xbebe5655	-0.3717524
52	0xbe61d8e5	-0.22055395
53	0xbec1f2e2	-0.37880617
54	0x3dd32b4a	0.10310991
55	0x3d052080	0.032501698
56	0xbe0aca16	-0.13553652
57	0xbdc0760d	-0.093975164
58	0x3d4d5b73	0.05013604
59	0x3e4e6795	0.20156701
60	0xbf172a02	-0.59048474
61	0xbe703092	-0.23456028
62	0x3c231ef9	0.009956115
63	0xbf0aa9ea	-0.5416552
64	0xbe481bdb	-0.19541876
65	0x3d249c3d	0.040188063
66	0x3d0e38e5	0.034722228
67	0xbd5f3f9e	-0.05450403
68	0x3dc401bd	0.09570644
69	0xbe187b2d	-0.14890738
70	0xbdff7cf0	-0.12475002
71	0x3e307df0	0.17235541
72	0xbe048995	-0.12943108
73	0x3cf80c82	0.030279402
74	0x3ec7ee8f	0.39049193
75	0xbe75bf0d	-0.23998661
76	0xbe79fd19	-0.24412955
77	0xbe7e82bb	-0.24854557
78	0xbe2e1dad	-0.17003508
79	0x3e5e95e9	0.21736874
80	0x3eb449e4	0.35212624
81	0x3e2267c6	0.15859899
82	0xbdea420b	-0.11438378
83	0x3e84c7e9	0.2593377
84	0xbe9728aa	-0.29523212
85	0x3ef6d942	0.4821263
86	0x3eb54ade	0.35408682
87	0x3e4a165b	0.1973509
88	0x3e289105	0.1646157
89	0x3e3af911	0.18259074
90	0x3de75be9	0.11296827
91	0x3dace8ac	0.08442816
92	0x3e8402d7	0.25783417
93	0x3c86153c	0.016367547
94	0x3e9d596a	0.3073228
95	0xbdb0d676	-0.08634655
96	0x3f3d9ea9	0.7407022
97	0xbe1ffd3b	-0.15623944
98	0xbdc803f1	-0.09766377
99	0xbdbe10ff	-0.092805855
