jet_by_jet_compression/fastai_AE_3D/models/tmp.pth (torch_old, 33694 bytes, 16 tensors)

en1.weight f4 [50, 4]
0	0x3c49f400	0.012326241
1	0x3ef5f510	0.4803853
2	0xbdfcd7b0	-0.123458266
3	0x3e825d5e	0.2546186
4	0x3edd6e8a	0.43248397
5	0xbee104c6	-0.43948954
6	0x3dda8bb8	0.106711805
7	0x3eb7dfb8	0.3591287
8	0xbe31d7b0	-0.17367435
9	0xbec77388	-0.3895533
10	0xbe8250ac	-0.25452173
11	0x3bdaa800	0.006672859
12	0x3dc6d2b8	0.0970816
13	0x3e1e793c	0.15475935
14	0x3e09e25c	0.13465255
15	0xbbca9100	-0.006181836
16	0x3d6c2220	0.05764973
17	0x3ea8310e	0.32849926
18	0x3e9abf82	0.30224234
19	0x3dd1e5b0	0.102488875
20	0x3e062310	0.13099313
21	0xbe18e30c	-0.14930362
22	0xbd156870	-0.036476552
23	0x3c9db020	0.019249022
24	0xbda9ce90	-0.08291352
25	0xbd264100	-0.040589333
26	0xbe982fee	-0.29724067
27	0x3e846e04	0.25865185
28	0x3eabe88e	0.33575863
29	0xbe8538cc	-0.26019895
30	0xbe7f02b0	-0.24903369
31	0x3e8ba54c	0.2727455
32	0x3eaeb35c	0.34121215
33	0x3e47ff20	0.19530916
34	0xbebef52c	-0.37296426
35	0x3dfd19a8	0.12358409
36	0xbdc44800	-0.095840454
37	0xbd0d36a0	-0.034475923
38	0x3ecca978	0.39973044
39	0x3e8a8228	0.27052426
40	0xbef7ffd8	-0.4843738
41	0xbd99d600	-0.075115204
42	0x3db3ade0	0.087733984
43	0xbec93b0e	-0.39302868
44	0x3e427dfc	0.18993372
45	0xbef903fa	-0.48635846
46	0x3e8284c0	0.25491905
47	0x3d737100	0.059433937
48	0xbeea9d12	-0.4582296
49	0xbe914c56	-0.28378552
50	0x3e73c5bc	0.23805898
51	0x3e8bd0b6	0.2730767
52	0xbe8fd19e	-0.28089613
53	0xbd95dac8	-0.0731712
54	0x3e032238	0.12806022
55	0x3e34d60c	0.17659777
56	0xbedcc196	-0.43116444
57	0x3e707d80	0.23485374
58	0xbe312aa4	-0.17301422
59	0xbed5ec56	-0.41781873
60	0x3e8676e6	0.26262587
61	0xbcfe0f40	-0.031013131
62	0x3c91ac60	0.01778239
63	0x3d8187b8	0.063247144
64	0xbe360b44	-0.17777735
65	0x3ea5a6d8	0.32353854
66	0xbe60ca84	-0.21952254
67	0x3ebe75be	0.37199205
68	0x3e33c648	0.17556107
69	0xbea8a634	-0.32939303
70	0x3e9dfe88	0.30858254
71	0x3cd96a60	0.026539981
72	0xbe3d6844	-0.18496805
73	0x3e990256	0.29884595
74	0x3eb42ce0	0.35190487
75	0x3e28876c	0.1645791
76	0x3e923556	0.28556317
77	0x3ed37cdc	0.41306198
78	0x3ca68d60	0.020331085
79	0x3cfe43a0	0.031038105
80	0x3e9aec18	0.3025825
81	0x3eb5e1bc	0.35523784
82	0x3eb41df8	0.35179114
83	0x3e9c72ec	0.30556428
84	0xbdd8ea80	-0.10591602
85	0x3efcb508	0.49356866
86	0x3ed407ea	0.41412288
87	0x3bae8980	0.00532645
88	0x3cfcda40	0.030865788
89	0xbec9ff56	-0.39452618
90	0xbe98e9d4	-0.29865897
91	0x3e5b3bd8	0.21409547
92	0xbeffcbfe	-0.4996032
93	0x3e245024	0.16046196
94	0x3eac8806	0.33697528
95	0x3e651040	0.2236948
96	0x3ed0537a	0.40688688
97	0x3e61a024	0.22033745
98	0xbea036ea	-0.31291896
99	0xbd39cda0	-0.045362115
100	0x3d8e0e58	0.069363296
101	0xbe3c0198	-0.18359983
102	0xbed1880e	-0.40924114
103	0x3ec1fefc	0.3788985
104	0xbe12b438	-0.1432656
105	0x3cbdfee0	0.023192823
106	0xbd6bc700	-0.057562828
107	0x3eba22aa	0.36354572
108	0x3ec5169a	0.38493806
109	0xbcdadcc0	-0.02671659
110	0xbe8ff264	-0.28114617
111	0x3efb0c66	0.49032897
112	0xbedc364c	-0.43010175
113	0xbe6de538	-0.23231971
114	0xbdb0ce00	-0.086330414
115	0x3ee73166	0.45154876
116	0xbd824a90	-0.06361878
117	0xbe01cc9c	-0.12675709
118	0x3eb314aa	0.34976703
119	0xbe019318	-0.12653768
120	0xbe1de5bc	-0.15419668
121	0xbed48528	-0.4150784
122	0xbef812de	-0.48451895
123	0xbda8d9c0	-0.082446575
124	0xbee7723c	-0.4520434
125	0x3e521d90	0.2051909
126	0x3ec89374	0.39174998
127	0xbeec03c8	-0.46096635
128	0xbe23bfd8	-0.15991151
129	0x3ef774b6	0.4833123
130	0xbd04d7a0	-0.0324322
131	0x3eab6c80	0.33481216
132	0xbe28d634	-0.16487962
133	0xbeadc162	-0.33936602
134	0xbe90ef8a	-0.28307754
135	0xbdda0f18	-0.1064741
136	0xbea01230	-0.31263876
137	0x3eecd72c	0.46257913
138	0xbde50b68	-0.11183816
139	0x3d9315c0	0.07181883
140	0x3ebe972a	0.37224704
141	0xbde03630	-0.109478354
142	0x3e507974	0.2035883
143	0x3eada8ec	0.3391794
144	0x3e2a1cc0	0.1661253
145	0x3e5f0074	0.21777517
146	0xbeaa8db8	-0.33311248
147	0xbe67bb90	-0.22630143
148	0x3efec930	0.4976287
149	0x3dee5f30	0.11639249
150	0xbe4fafc8	-0.20281899
151	0x3ee0c894	0.4390303
152	0x3e84051e	0.25785154
153	0x3ec4f2fa	0.38466626
154	0xbe666e64	-0.22503048
155	0x3eff8ffc	0.4991454
156	0x3e940bba	0.28915197
157	0xbdf6d1f8	-0.12051767
158	0xbe1e5bd0	-0.15464711
159	0x3e984f6a	0.29748088
160	0x3d0fd1a0	0.035112023
161	0x3ec524a0	0.38504505
162	0x3d8d8a00	0.06911087
163	0x3ef30e9c	0.47472084
164	0xbec89d5e	-0.39182562
165	0xbcf6b860	-0.030117214
166	0x3ebd53be	0.36977953
167	0xbeb58e1c	-0.35459983
168	0xbeedc6dc	-0.4644078
169	0x3ea21b02	0.3166123
170	0x3e84f420	0.25967503
171	0x3ea78f34	0.32726443
172	0x3e81d6aa	0.25359088
173	0x3e402608	0.18764508
174	0x3c0d9f40	0.008643925
175	0xbe8fc39a	-0.2807892
176	0x3ea6f26e	0.32606834
177	0x3ed43e72	0.41453892
178	0x3edf8790	0.43658113
179	0x3e94df12	0.2907644
180	0x3dbd70f0	0.09250057
181	0x3efe646e	0.49685997
182	0xbde68c90	-0.11257279
183	0x3e687b30	0.22703242
184	0xbeaa6762	-0.33282
185	0xbef585b0	-0.47953558
186	0xbe9d1516	-0.3068015
187	0x3ddcbed0	0.10778582
188	0xbe72abf0	-0.23698401
189	0x3ed4b67e	0.4154548
190	0xbdce0f58	-0.1006152
191	0xbed5884a	-0.41705543
192	0xbedf9056	-0.43664807
193	0xbedad228	-0.42738461
194	0xbe0c73f0	-0.13716102
195	0x3ea25730	0.31707144
196	0x3deee1f8	0.11664194
197	0x3ea0fba2	0.3144198
198	0xbe6595c4	-0.22420412
199	0x3e91325e	0.2835874

en1.bias f4 [50]
0	0x3e7bae18	0.2457813
1	0xbedcf58c	-0.43156087
2	0x3e422db4	0.18962747
3	0xbeca937a	-0.3956564
4	0xbe9429b8	-0.2893808
5	0x3eb8c3e4	0.36086953
6	0xbeb2f30a	-0.3495105
7	0xbc7f5880	-0.015585065
8	0xbec99916	-0.39374608
9	0x3e3429b4	0.17594033
10	0x3e53cb84	0.20683104
11	0x3ed3da6a	0.41377574
12	0x3ea2ced2	0.31798416
13	0xbe4c8e24	-0.19976097
14	0x3ed5e9de	0.4177999
15	0x3e593288	0.21210682
16	0xbe89e99e	-0.26936048
17	0x3ea48e62	0.3213988
18	0xbca644e0	-0.020296514
19	0x3db5ba88	0.08873469
20	0xbe80e10a	-0.2517169
21	0x3e2f02b8	0.17090881
22	0xbe7e5ac4	-0.24839312
23	0xbcbe6f80	-0.023246527
24	0xbead7b1c	-0.33882987
25	0x3da0a8b0	0.078446746
26	0x3d324120	0.04351914
27	0x3d87b848	0.06626946
28	0x3efb98b4	0.4913994
29	0x3ec04304	0.3755113
30	0x3e441100	0.1914711
31	0x3dff4470	0.12464225
32	0xbe6474e0	-0.2231021
33	0x3e6095e8	0.21932185
34	0x3ede3384	0.43398678
35	0xbe6d2214	-0.23157531
36	0x3e9996c4	0.29997838
37	0xbe2e46c8	-0.17019188
38	0xbe2c4a78	-0.16825283
39	0xbe1ed5bc	-0.1551122
40	0xbc7d1ac0	-0.015448272
41	0xbeb82ba2	-0.3597079
42	0x3e42093c	0.18948835
43	0xbed9540a	-0.4244693
44	0xbe9aeeba	-0.3026026
45	0xbe8a8c50	-0.27060175
46	0x3eeaff34	0.4589783
47	0x3eaf6ee4	0.3426429
48	0xbea5a528	-0.32352567
49	0x3e1e65b0	0.15468478

en2.weight f4 [50, 50]
0	0xbdbceb0c	-0.09224519
1	0xbd432b48	-0.047648698
2	0xbd897c42	-0.067131534
3	0xbd789c1e	-0.06069576
4	0xbca98a24	-0.020695753
5	0xbc4cbbb0	-0.01249592
6	0x3d3cdc0c	0.04610829
7	0x3d950382	0.0727606
8	0x3daa21b4	0.083072096
9	0x3de40936	0.11134569
10	0xbd9abec2	-0.075559154
11	0x3dba9c94	0.09111896
12	0x3de8b27a	0.11362167
13	0xbd8f7a4f	-0.070057504
14	0x3d2a95cc	0.041646764
15	0x3ddd9e12	0.10821165
16	0xbd9fe00f	-0.07806408
17	0x3d8a7568	0.06760675
18	0x3e0a76af	0.13521837
19	0xbd8af0bf	-0.067842
20	0xbcf1c4d0	-0.029512793
21	0xbda0a727	-0.07844382
22	0x3d3b6798	0.04575309
23	0x3d74f8b8	0.05980751
24	0x3d883f3e	0.066526875
25	0xbde2f919	-0.11082668
26	0xbc339ab0	-0.010962173
27	0x3de1139e	0.1099007
28	0xbd675a30	-0.056482494
29	0x3c9d5218	0.019204184
30	0xbd7dcf7a	-0.061965443
31	0xbdb6c386	-0.08924012
32	0x3de0419e	0.109500155
33	0x3cc9bca8	0.024626091
34	0x3b8be9a0	0.0042697936
35	0xbdd7bd86	-0.105341956
36	0xbd59dc80	-0.0531888
37	0x3e009399	0.12556304
38	0x3d957be8	0.07299024
39	0xbdfe8970	-0.12428558
40	0xbd230016	-0.039795004
41	0xbd09dba2	-0.033656724
42	0x3d35d9d8	0.044397205
43	0xbdcd138e	-0.100134954
44	0xbd8c7ba1	-0.06859518
45	0x3d739960	0.05947244
46	0xbdf8ba33	-0.1214489
47	0x3de77f82	0.11303617
48	0x3dd45128	0.10367042
49	0x3cd60530	0.02612552
50	0x3d422e78	0.047407597
51	0x3ca49ee8	0.020095304
52	0xbdd5e7bb	-0.1044459
53	0x3dddb33e	0.10825203
54	0xbd38806c	-0.045044348
55	0x3d8598c0	0.065232754
56	0xbe042a72	-0.12906817
57	0x3db947a6	0.09046869
58	0xbd53786a	-0.051628508
59	0xbcae1f98	-0.0212553
60	0x3c36dd50	0.011161163
61	0x3d8d4724	0.068983346
62	0xbd898ed2	-0.06716694
63	0xbcd96474	-0.026537158
64	0x3a206b00	0.000611946
65	0x3c89dc60	0.016828716
66	0xbdf6a278	-0.12042707
67	0xbcfb012c	-0.030640207
68	0xbb5bfbc0	-0.0033566803
69	0xbb81aa00	-0.003957033
70	0xbd949787	-0.07255464
71	0x3c4c0bf0	0.012454018
72	0x3e0336ab	0.12813823
73	0x39084c00	0.00012998283
74	0x3dc9cdb4	0.09853688
75	0x3dca9f50	0.09893668
76	0xbc98486c	-0.018589221
77	0x3c4f7180	0.012661338
78	0x3d85db1e	0.06535934
79	0x3de820fa	0.11334415
80	0x3d9ba6d6	0.07600181
81	0x3c1222a0	0.008919388
82	0xbca2e994	-0.01988677
83	0xbda9fc7e	-0.08300112
84	0x3be65b60	0.0070299357
85	0x3b8255e0	0.0039775223
86	0x3d0b4db0	0.034009635
87	0x3dfd5886	0.123704
88	0xbc4151b0	-0.011799261
89	0x3df00eba	0.11721559
90	0x3cdbceb0	0.026831955
91	0xbdeff53c	-0.117166966
92	0x3d6fbe3c	0.05853103
93	0xbe04c0ab	-0.12964122
94	0x3d9c0096	0.07617299
95	0xbb3b73c0	-0.0028602928
96	0xbc49c6d0	-0.012315467
97	0x3e003233	0.1251915
98	0x3dcdb038	0.10043377
99	0x3e01e4c7	0.12684928
100	0xbd156564	-0.036473647
101	0x3db16fec	0.086639255
102	0x3e074a45	0.13211925
103	0x3ddb6542	0.10712673
104	0x3dd16c0c	0.102256864
105	0xbda4828e	-0.08032714
106	0x3dbe21c6	0.092837855
107	0xbd9736a9	-0.073834725
108	0xbdd84c94	-0.10561481
109	0xbd880b81	-0.06642819
110	0x3d0c2c78	0.034222096
111	0xbcdf8f74	-0.027290083
112	0xbda75c02	-0.08171846
113	0x3cff9bb0	0.031202167
114	0x3e0e8d33	0.1392105
115	0xbd57d7b6	-0.052695952
116	0x3db36252	0.087589875
117	0xbd71b24e	-0.059007935
118	0x3db6b15c	0.08920547
119	0x3d6a533c	0.057208285
120	0x3e0e9033	0.13922195
121	0xbdfe3457	-0.12412327
122	0xbd8ff642	-0.07029392
123	0xbdf630b6	-0.120210096
124	0xbe0f53b6	-0.13996777
125	0x3ce2a2d0	0.027665526
126	0xbd2b0876	-0.041756116
127	0xbd99ea38	-0.07515377
128	0xbdfa0db3	-0.12209644
129	0xbd58e730	-0.052954853
130	0x3c2679d0	0.010160878
131	0x3dd9c77e	0.10633753
132	0xbdd44145	-0.10364012
133	0xbd53e8c2	-0.051735647
134	0xbdbdfba3	-0.092765115
135	0xbc95f948	-0.018307343
136	0x3e0dec27	0.13859616
137	0x3d8018fa	0.06254764
138	0x39b00e00	0.00033579767
139	0xbda40664	-0.080090314
140	0xbe0ea25c	-0.13929123
141	0xbc374980	-0.011186957
142	0xbe108306	-0.14112481
143	0x3e0e40cf	0.1389191
144	0xbd8ba490	-0.06818497
145	0xbe0ec923	-0.13943915
146	0x3b571e80	0.0032824576
147	0xbddf6d20	-0.10909486
148	0xbcffe7c0	-0.031238437
149	0x3cda92f8	0.026681408
150	0xbd0bd5b4	-0.03413935
151	0x3de9116e	0.113802776
152	0x3c17a540	0.009255707
153	0xbe0fda45	-0.14048107
154	0x3db29cc6	0.087213084
155	0x3e085fa7	0.13317738
156	0xbe0edb92	-0.13950947
157	0xbdcde242	-0.10052921
158	0x3c1edbc0	0.009695947
159	0x3dd2f402	0.10300447
160	0xbc9ac960	-0.018894851
161	0xbdc0528e	-0.09390746
162	0xbb82c2a0	-0.0039904863
163	0x3d8f84f6	0.07007782
164	0xbd990fcb	-0.074737154
165	0x3d5e03b0	0.054202735
166	0x3e0a6fc3	0.13519196
167	0xbd7f8818	-0.06238565
168	0xbc4ff920	-0.012693673
169	0xbe0a399c	-0.13498539
170	0x3dff9422	0.12479426
171	0x3deea406	0.11652379
172	0x3cd99ee8	0.02656503
173	0xb9541400	-0.00020225346
174	0x3cfd0720	0.030887187
175	0x3dc82fea	0.09774764
176	0x3d263334	0.040576175
177	0xbc9ba65c	-0.019000225
178	0xbd5462b8	-0.051851958
179	0xbc674670	-0.014115915
180	0xbb409780	-0.0029387176
181	0x3dd1b89e	0.10240291
182	0x3dcd6cf8	0.1003055
183	0xbdbbe3ff	-0.09174346
184	0xbe0a82d1	-0.13526465
185	0xbe10cbdb	-0.14140265
186	0xbd456a36	-0.048196994
187	0x3cb71f18	0.022353694
188	0x3db3b874	0.08775416
189	0x3d2115f8	0.03932759
190	0xbb744040	-0.0037269741
191	0x3df32eba	0.11874147
192	0x3d96f932	0.07371749
193	0xbe0b4b00	-0.13602829
194	0xbdac249a	-0.08405419
195	0x3de021c2	0.10943939
196	0xbe0baff2	-0.13641337
197	0xbc061190	-0.008182898
198	0x3e04f041	0.12982275
199	0x3c15ad20	0.0091355145
200	0x3d609020	0.05482495
201	0xbdcb75ca	-0.09934576
202	0xbd8f4e6b	-0.06997379
203	0x3d3c67f0	0.04599756
204	0xbd6234b0	-0.055226028
205	0x3c6da350	0.014504269
206	0x3cf19840	0.029491544
207	0x3d298720	0.04138863
208	0x3cb4af20	0.022056162
209	0xbd9ddfa7	-0.07708674
210	0x3d9d376a	0.07676585
211	0x3d2d37dc	0.0422896
212	0x3ceaf6f8	0.028682217
213	0xbe0ec5bd	-0.13942619
214	0xbbf80fe0	-0.007570252
215	0xbd96a441	-0.07355548
216	0xbdfd6a5f	-0.12373804
217	0xbe0fe5c1	-0.14052488
218	0x3d9f7228	0.077854455
219	0xbd011ba0	-0.031520486
220	0x3e049d63	0.12950663
221	0xbde20644	-0.11036351
222	0x3c1b04f0	0.009461626
223	0x3c98d2e0	0.01865524
224	0x3daf9238	0.08572811
225	0x3d102630	0.03519267
226	0xbdd77992	-0.105212346
227	0xbd06a414	-0.03287132
228	0xbde8ef63	-0.113737844
229	0x3dee8eae	0.11648308
230	0x3dd1b4b6	0.10239546
231	0x3cf03848	0.029323712
232	0xbb412040	-0.0029468685
233	0x396fbc00	0.00022862852
234	0xbd9bbaee	-0.076040134
235	0xbbcfe380	-0.006344259
236	0xbd85f313	-0.06540503
237	0x3d5a0690	0.053228915
238	0xbd8b3cb3	-0.06798687
239	0x3e0cbd49	0.13744082
240	0xbe04d596	-0.12972102
241	0xbddbf6d5	-0.10740439
242	0xbdd791a1	-0.105258234
243	0x3de4ef4a	0.11178453
244	0xbdc1c9c8	-0.09462315
245	0x3dc9e73a	0.09858556
246	0xbd1efb44	-0.038813844
247	0x3d3ee450	0.046604455
248	0x3d0c6d5c	0.03428398
249	0x36b10000	5.275011e-06
250	0xbd41ec46	-0.04734447
251	0xbcfe7654	-0.031062283
252	0x3dbf8fee	0.09353624
253	0x3de262fe	0.110540375
254	0x3d5f1638	0.05446455
255	0xbc864150	-0.016388565

en2.bias f4 [50]
0	0xbcda9548	-0.026682511
1	0x3d2bf684	0.041983142
2	0x3dd579b6	0.10423605
3	0xbca5ef54	-0.020255722
4	0x3ad0e100	0.0015936196
5	0xbd02a11e	-0.031891935
6	0x3e029037	0.12750326
7	0xbdd2ac3b	-0.102867566
8	0xbc2d5590	-0.010579482
9	0xbd9f1d45	-0.077692546
10	0xbdd2f7be	-0.10301159
11	0xbc8e8810	-0.017398864
12	0xbc1e8660	-0.009675592
13	0xbd7240ca	-0.05914382
14	0x3df74cc2	0.12075187
15	0x3dcfedfa	0.10152812
16	0xbd3ff7c8	-0.046867162
17	0x3dd222b4	0.10260525
18	0x3d9e75e6	0.07737331
19	0xbdfd0ecd	-0.12356339
20	0x3d8b65a8	0.06806499
21	0x3dfe7636	0.12424891
22	0x3da8e646	0.08247046
23	0xbc9c8418	-0.019105956
24	0xbdc29eea	-0.09502967
25	0x3d5803a8	0.052737862
26	0xbe0c5549	-0.13704409
27	0x3dc8c3c0	0.09802961
28	0xbdbae110	-0.091249585
29	0xbd777b38	-0.060420245
30	0xbd5778c8	-0.05260542
31	0x3d87e086	0.06634621
32	0xbd28e504	-0.04123403
33	0x3d031774	0.03200479
34	0x3e076f45	0.1322604
35	0xbdd85b9b	-0.10564347
36	0xbdfea970	-0.124346614
37	0x3d4d1f58	0.05007872
38	0x3d386514	0.04501827
39	0x3c2a49b0	0.010393545
40	0x3ddcbaa8	0.10777789
41	0xbc85c598	-0.016329572
42	0xbd3b8b50	-0.045787156
43	0xbe087184	-0.13324553
44	0xbcd80528	-0.026369646
45	0x3cef6d08	0.029226795
46	0xbe088180	-0.1333065
47	0x3df1241a	0.11774464
48	0x3de1acae	0.11019264
49	0xbcacfeac	-0.02111753

en3.weight f4 [20, 50]
0	0x3d3ed490	0.046589434
1	0x3c8374b8	0.016046867
2	0x3cbc0078	0.022949442
3	0xbaf2bc00	-0.0018519163
4	0x3df84a62	0.121235624
5	0xbdb10960	-0.08644366
6	0xbe0de76a	-0.13857809
7	0x3d6ea9d8	0.058267444
8	0xbdf2426c	-0.11829075
9	0x3e0208eb	0.12698714
10	0xbdfa14a8	-0.12210971
11	0xbddcd4fc	-0.10782811
12	0x3e0c91f9	0.13727559
13	0x3e01fdab	0.12694423
14	0x3d33b61c	0.043874845
15	0x3c9136d0	0.017726332
16	0x3cd84150	0.02639833
17	0x3deade72	0.11468209
18	0xbbf61520	-0.0075098425
19	0xbd9678e4	-0.07347277
20	0x3b3dc600	0.0028957129
21	0xbdae18b0	-0.085008025
22	0xbd698416	-0.057010733
23	0xbd9f72ed	-0.07785592
24	0xbe092f82	-0.13397029
25	0x3c2f7ba0	0.010710627
26	0xbc2b10d0	-0.01044102
27	0x3d5322ec	0.051546976
28	0xbcb45ac0	-0.02201593
29	0x3d5f5104	0.054520622
30	0xbdd12c18	-0.10213488
31	0xbd0fc90c	-0.035103843
32	0xbd9eaee1	-0.07748199
33	0x3d122a58	0.035684913
34	0xbda6c268	-0.08142549
35	0xbdbb41d0	-0.09143412
36	0xbcefa364	-0.029252715
37	0x3d209960	0.03920877
38	0xbdbe6f15	-0.09298531
39	0xbce37a18	-0.02776818
40	0x3d234570	0.039861143
41	0x3da7e396	0.081977054
42	0x3e086f79	0.13323773
43	0xbce76910	-0.02824834
44	0xbcea84d4	-0.02862779
45	0x3d7225e0	0.05911815
46	0xbda46a1e	-0.08028053
47	0x3dadde98	0.08489722
48	0x3cf48758	0.029849693
49	0xbdff59f7	-0.12468331
50	0x3dfa2112	0.12213339
51	0xbdd9b25a	-0.10629721
52	0x3db0d3be	0.086341366
53	0x3d336238	0.04379484
54	0x3dd3e8d4	0.10347143
55	0xbdde9bb8	-0.10869545
56	0xbcecb580	-0.02889514
57	0x3c82b130	0.01595363
58	0xbdb2cffc	-0.08731076
59	0xbdcf301a	-0.101165965
60	0x3d93bc4c	0.07213649
61	0x3d864f1c	0.06558058
62	0xbc481510	-0.012212053
63	0xbb1712c0	-0.0023051947
64	0xbdc81142	-0.09768917
65	0x3d21bb5c	0.03948532
66	0x3cb0d788	0.021587148
67	0x3e094041	0.13403417
68	0xbd210bc6	-0.03931787
69	0x3c070380	0.008240581
70	0xbd98fdba	-0.074702695
71	0xbe01ca09	-0.12674727
72	0x3df72cae	0.12069069
73	0x3d60e7e8	0.054908663
74	0xbdc975d1	-0.09836925
75	0xbdeb0822	-0.114761606
76	0x3d1bb210	0.03801161
77	0xbce69850	-0.0281488
78	0x3dbca8e8	0.09211904
79	0xbb94bee0	-0.0045393556
80	0x3ba48200	0.00502038
81	0xbdb90768	-0.09034616
82	0x3d569554	0.052388504
83	0xbe023907	-0.12717067
84	0x3dcca52a	0.0999244
85	0x3e1032f1	0.14081933
86	0xbd8d1f1d	-0.068907
87	0x3dca02ee	0.0986384
88	0xbd39e4a8	-0.04538408
89	0xbca41138	-0.020027742
90	0x3d4f402c	0.05059831
91	0xbda65116	-0.08120935
92	0xbd943a23	-0.07237651
93	0xbcc0c464	-0.023531146
94	0xbc213c90	-0.009841099
95	0xbdf33c5e	-0.118767485
96	0xbd8431d5	-0.06454817
97	0x3d121f4c	0.03567438
98	0xbd67068a	-0.05640272
99	0xbd1fcf10	-0.03901583
100	0xbda3c354	-0.0799624
101	0xbd07ec68	-0.03318444
102	0x3dff38aa	0.1246198
103	0xbdfbb415	-0.12290207
104	0x3da5d07c	0.08096406
105	0xbdb16b6c	-0.08663067
106	0x3cf13d20	0.029448092
107	0x3d59411c	0.05304061
108	0x3d52715c	0.05137764
109	0x3d483530	0.04887885
110	0x3dc98a3a	0.09840818
111	0xbe0b79d6	-0.13620695
112	0xbe10a3da	-0.14125004
113	0xbd5a6b96	-0.05332526
114	0xbdccdd06	-0.100030944
115	0x3d2d9410	0.04237753
116	0x3c906938	0.017628297
117	0x3dea77e6	0.1144865
118	0x3c84a290	0.016190797
119	0xbda3872a	-0.07984765
120	0x3ce2f6c0	0.02770555
121	0x3d08b9a8	0.03338018
122	0xbe06b695	-0.13155587
123	0xbdd0ac88	-0.10189158
124	0xbd20678c	-0.03916125
125	0xbdfbb8e8	-0.122911274
126	0xbcfb885c	-0.03070467
127	0xbd803714	-0.06260505
128	0xbd3abaf2	-0.04558844
129	0xbdabbd34	-0.08385697
130	0xbde9c346	-0.114141986
131	0x3c332900	0.010935068
132	0xbdadccb0	-0.08486307
133	0xbdb1cbb7	-0.08681434
134	0xbde5d3e2	-0.11222054
135	0x3dd76174	0.105166346
136	0x3dc0b676	0.09409802
137	0x3dd78c2a	0.10524781
138	0x3d5e66e4	0.054297343
139	0xbc8d8ef0	-0.017280072
140	0xbcd03a34	-0.025418378
141	0xbe0a680b	-0.13516252
142	0xbe06c8d4	-0.13162547
143	0x3d2b8914	0.041878775
144	0xbb810200	-0.003937006
145	0x3e0a04c5	0.13478382
146	0x3d0a14d0	0.033711255
147	0x3d4c5380	0.04988432
148	0x3d06f078	0.032944173
149	0x3d980456	0.07422702
150	0x3d487924	0.048943654
151	0x3d297438	0.0413706
152	0x3def06ca	0.11671217
153	0x3d29094c	0.04126863
154	0x3e0f724d	0.14008446
155	0x3dc80750	0.0976702
156	0x3df4846e	0.119393215
157	0x3d33fa4c	0.043939874
158	0x3d89e9ea	0.06734069
159	0x3d539144	0.051652208
160	0xbdafb47a	-0.08579345
161	0xbd996ef2	-0.07491864
162	0x3cac6758	0.021045372
163	0x3b91c240	0.004448205
164	0x3dc23126	0.094820306
165	0xbe0ad92a	-0.13559404
166	0xbcd37fb4	-0.02581773
167	0xbdee1e34	-0.116268545
168	0x3c722360	0.014778942
169	0xbde3d4b5	-0.11124555
170	0x3bac0e00	0.0052506924
171	0x3df53d5a	0.119745925
172	0x3cf147d8	0.029453203
173	0xbd2c4b06	-0.042063735
174	0xbe02b888	-0.12765706
175	0xbe0aa1ab	-0.13538234
176	0xbdda1305	-0.10648159
177	0x3df56552	0.11982216
178	0x3dcca842	0.0999303
179	0x3d6de9a4	0.058084145
180	0x3d3da114	0.046296194
181	0xbc28a4a0	-0.010293156
182	0xbb9118e0	-0.004428014
183	0xbde1b7aa	-0.11021359
184	0x3d6e84e4	0.058232203
185	0xbdde5bd9	-0.10857362
186	0x3dc80262	0.097660795
187	0xbda4cc2a	-0.08046754
188	0x3e1001e5	0.14063223
189	0xbde05d6c	-0.10955319
190	0x3d1adbbc	0.03780721
191	0xbe079502	-0.13240436
192	0xbdab273f	-0.08357095
193	0x3da6e630	0.081493735
194	0x3c84a088	0.016189829
195	0x3dc05df0	0.09392917
196	0xbd2542b6	-0.040346824
197	0xbe103e44	-0.14086252
198	0x3d428600	0.047491074
199	0x3d22f610	0.039785445
200	0xbe03d144	-0.12872797
201	0x3d9ac76a	0.075575665
202	0x3de9363a	0.11387296
203	0x3c397ff0	0.011322007
204	0x3e1031bb	0.1408147
205	0xbcd87cf4	-0.02642677
206	0x3d3aab44	0.045573488
207	0x3c813b78	0.015775427
208	0xbdc699cb	-0.096973024
209	0x3d85ba40	0.06529665
210	0xbdca1264	-0.09866789
211	0x3d190824	0.03736128
212	0xbd379c80	-0.044826984
213	0xbd6b22b6	-0.05740615
214	0x3d768530	0.06018561
215	0xbd032284	-0.03201534
216	0xbe077798	-0.13229215
217	0xbde0c77c	-0.109755486
218	0x3b23a700	0.0024971366
219	0xbd9c75bb	-0.07639643
220	0xbde63d40	-0.11242151
221	0xbcb29fb8	-0.021804675
222	0x3cff18c8	0.031139746
223	0x3da51580	0.080607414
224	0x3d33febc	0.043944106
225	0x3d00bff8	0.031433076
226	0xbe0c6b6e	-0.13712856
227	0x3dc6eed2	0.0971352
228	0xbd2fd0e2	-0.042923816
229	0x3dd62996	0.10457151
230	0x3bc7d420	0.0060982853
231	0xbe0c9425	-0.13728388
232	0xbdef6d32	-0.11690749
233	0x3d87435e	0.06604646
234	0xbdc16722	-0.09443499
235	0x3dfd517e	0.12369059
236	0x3df2ac1a	0.11849232
237	0xbde4aafa	-0.11165424
238	0xbd95678d	-0.07295141
239	0xbd3965fc	-0.045263276
240	0x3d463628	0.04839149
241	0xbde2b5c6	-0.11069827
242	0x3e052701	0.1300316
243	0x3dd7306e	0.10507284
244	0xbdf3b740	-0.119001865
245	0xbbc6a560	-0.0060621947
246	0xbd6ad3d6	-0.05733093
247	0x3e0f7237	0.14008413
248	0xbe0d051d	-0.13771482
249	0x3d415338	0.047198504
250	0x3cceb600	0.025233269
251	0xbc12c070	-0.0089570135
252	0xbdbfb17f	-0.093600266
253	0x3cd42a98	0.025899217
254	0x3dfe4752	0.12415947
255	0xbe0fef34	-0.14056093

en3.bias f4 [20]
0	0x3d75dda4	0.060025826
1	0xbd19b04e	-0.037521653
2	0xbdb6a37e	-0.089179024
3	0xbd7d22fc	-0.06180094
4	0xbdcf726b	-0.10129245
5	0xbcd7ea9c	-0.026356988
6	0x3c315c10	0.010825172
7	0xbcddd3f4	-0.027078606
8	0xbdf774aa	-0.12082799
9	0x3dcb7fa2	0.099364534
10	0x3d81e68c	0.063428015
11	0xbdb847f0	-0.08998096
12	0x3d80ad5e	0.06283067
13	0xbdd27f3b	-0.102781735
14	0x3db7ecaa	0.08980687
15	0xbe034f00	-0.12823105
16	0x3d95a574	0.07306948
17	0xbc99bd2c	-0.018766962
18	0xbdab5e4e	-0.083675966
19	0xbd20bc1e	-0.039241903

en4.weight f4 [3, 20]
0	0x3e292504	0.16518027
1	0x3e5429a2	0.20719007
2	0xbdf36470	-0.11884391
3	0xbe05a0ab	-0.13049571
4	0xbd102028	-0.035186917
5	0xbcd6b830	-0.026210874
6	0xbe45d352	-0.19318894
7	0xbd2b1ccc	-0.04177551
8	0x3dfb5148	0.122713625
9	0x3e02b750	0.1276524
10	0xbe02ba7f	-0.12766455
11	0x3df35248	0.11880928
12	0x3e448f5a	0.1919531
13	0xbe3ee4d0	-0.18641973
14	0x3d957e30	0.07299459
15	0xbdb6407e	-0.0889902
16	0xbdc52400	-0.09626007
17	0x3dc7e958	0.09761304
18	0xbd486264	-0.048921958
19	0x3de231e8	0.11044675
20	0x3d780c28	0.060558468
21	0x3e4144a6	0.18873844
22	0xbd7d4f48	-0.061843187
23	0xbe4f3ea9	-0.20238747
24	0xbc8e6ed8	-0.017386839
25	0x3d31a8f0	0.043374002
26	0xbe5b0eb6	-0.2139233
27	0x3d0d5de8	0.034513384
28	0x3e64f54c	0.22359198
29	0x3e5c9a20	0.21543169
30	0x3e4ebc0a	0.20188919
31	0xbd83ef54	-0.064421326
32	0xbce1e488	-0.027574793
33	0x3e35eb24	0.1776548
34	0x3e074b06	0.13212213
35	0x3db16dac	0.086634964
36	0xbdb4eccc	-0.08834228
37	0xbe3b5d3e	-0.18297288
38	0x3db59260	0.088658094
39	0xbe20f02a	-0.15716615
40	0x3cbabd80	0.022795439
41	0x3dba5944	0.09099057
42	0x3e1fcb34	0.1560486
43	0xbda282b4	-0.07935086
44	0x3e2720fe	0.1632118
45	0x3e3ba7d6	0.18325743
46	0x3db0838c	0.086188406
47	0x3dca76dc	0.09885952
48	0x3e60e87c	0.21963686
49	0x3ddb737c	0.10715386
50	0x3dc0759c	0.09397432
51	0xbe5deefe	-0.216732
52	0x3df602ac	0.12012228
53	0x3dd4774c	0.103743166
54	0xbe37970f	-0.17928718
55	0x3e23a6c8	0.15981591
56	0xbd994a60	-0.07484889
57	0xbdeb6601	-0.11494065
58	0xbe02aad8	-0.12760484
59	0xbe122b80	-0.14274406

en4.bias f4 [3]
0	0xbdd3a1fc	-0.103336304
1	0x3e3360dc	0.17517418
2	0x3c06db50	0.008230999

de1.weight f4 [20, 3]
0	0x3e90791a	0.28217393
1	0xbf000e22	-0.50021565
2	0xbe1b8e8a	-0.15191093
3	0xbeb18ea9	-0.34679154
4	0xbeff5d6f	-0.49875972
5	0x3d6d8a10	0.057992995
6	0xbe1dcccc	-0.15410155
7	0xbde17b28	-0.11009818
8	0x3e121610	0.14266229
9	0xbefdd332	-0.49575192
10	0x3e8e18fe	0.27753443
11	0xbdcf356c	-0.10117611
12	0xbd517110	-0.051133215
13	0x3b8f9680	0.0043819547
14	0xbd3e5c90	-0.046474993
15	0xbeec8140	-0.4619236
16	0xbcf1db20	-0.029523432
17	0x3edfd428	0.4371655
18	0x3e6ab290	0.22919679
19	0xbe895559	-0.26822928
20	0x3e3ad894	0.1824668
21	0xbebb533a	-0.36586934
22	0xbebd655a	-0.36991388
23	0xbec0ee26	-0.37681693
24	0x3e837652	0.2567621
25	0x3c933380	0.017968893
26	0x3e7776f0	0.24166465
27	0xbe6bbf6e	-0.23022243
28	0xbcc59660	-0.024119556
29	0x3c122e00	0.0089221
30	0x3f083768	0.53209543
31	0x3df79950	0.12089789
32	0x3eeb9e24	0.4601909
33	0xbe3fbac4	-0.18723589
34	0x3e9295c6	0.28629893
35	0xbe9b07d5	-0.30279413
36	0xbec0dc12	-0.376679
37	0xbecae4b8	-0.39627624
38	0x3e0221bc	0.12708181
39	0x3f08ef9c	0.53490615
40	0xbf0b8428	-0.5449853
41	0x3f0bc7ea	0.5460192
42	0x3dc7a538	0.0974831
43	0x3d823210	0.06357205
44	0xbdfc95d4	-0.12333265
45	0xbe9da203	-0.30787668
46	0xbed5cfdf	-0.41760156
47	0xbe9035f1	-0.28166154
48	0xbe72c1f6	-0.23706803
49	0xbef2a0ec	-0.473884
50	0xbee57416	-0.4481513
51	0x3cfb4b20	0.03067547
52	0xbf05324c	-0.5202987
53	0xbdddb19c	-0.10824892
54	0xbe28caae	-0.16483566
55	0x3e9116c4	0.2833768
56	0x3f1156f6	0.56773317
57	0x3f003f14	0.5009625
58	0xbf0e2413	-0.55523795
59	0xbe7c8c5a	-0.24662915

de1.bias f4 [20]
0	0x3ed3d318	0.4137199
1	0xbe8326e2	-0.25615603
2	0x3d5a4730	0.053290546
3	0x3d30dc60	0.043178916
4	0xbec5caa3	-0.38631162
5	0x3ef03620	0.46916294
6	0x3e558e40	0.20855045
7	0x3e0ab9c8	0.13547432
8	0xbee72e6a	-0.451526
9	0xbed6f0ea	-0.41980678
10	0x3df9bc90	0.121941686
11	0x3e2e9f3c	0.1705293
12	0xbeb13c00	-0.3461609
13	0x3f0dcb80	0.5538864
14	0x3f0110c8	0.5041623
15	0xbcf2d880	-0.02964425
16	0x3f0b948c	0.5452354
17	0xbe83493d	-0.25641814
18	0xbedf61ae	-0.4362921
19	0x3ea33e1a	0.31883317

de2.weight f4 [50, 20]
0	0x3c882488	0.016618982
1	0x3dfda664	0.12385252
2	0xbd9be970	-0.07612884
3	0x3e5be3fe	0.21473691
4	0x3d76c3b8	0.060245246
5	0xbe181716	-0.14852557
6	0xbe483527	-0.19551526
7	0x3e592e6c	0.21209115
8	0xbe3da6d8	-0.18520677
9	0xbd610ca0	-0.05494368
10	0x3bddf320	0.0067733675
11	0x3e60d3fe	0.21955869
12	0xbc0e2720	-0.00867632
13	0x3d7d6af8	0.06186959
14	0xbd15d824	-0.03658308
15	0xbdfed8bc	-0.124436826
16	0xbca88028	-0.020568922
17	0x3c5c8c40	0.013461173
18	0x3e5ca064	0.21545559
19	0xbd1808e4	-0.037117854
20	0x3e038458	0.12843454
21	0x3e3ae664	0.1825195
22	0xbe2f009a	-0.17090073
23	0x3e5027ae	0.20327637
24	0xbd95511e	-0.072908625
25	0x3e1feda2	0.15617993
26	0x3e0c28a2	0.13687375
27	0x3d642a40	0.055704355
28	0x3cc21ac0	0.023694396
29	0xbe227146	-0.15863523
30	0x3d48ef70	0.04905647
31	0xbe0bc7d4	-0.13650447
32	0xbe04de94	-0.12975532
33	0x3d0dcb58	0.03461775
34	0xbd45aee4	-0.04826249
35	0xbde9b545	-0.114115275
36	0x3e0c3c04	0.13694769
37	0x3cf04f80	0.029334784
38	0x3d7c8f98	0.06166038
39	0x3e3441a8	0.17603171
40	0xbdfe7e62	-0.12426449
41	0xbe593ad9	-0.21213855
42	0x3e40a95c	0.18814605
43	0x3e415300	0.18879318
44	0x3df20e68	0.11819154
45	0x3ca9fc68	0.02075024
46	0xbd562668	-0.05228272
47	0x3d799d70	0.06094116
48	0xbdf7872d	-0.120863296
49	0x3dbccde0	0.09218955
50	0x3e467e26	0.1938406
51	0x3d7ba880	0.06143999
52	0x3e025880	0.12729073
53	0x3d4ac1c0	0.04950118
54	0xbe03dcff	-0.12877272
55	0xbd352a24	-0.04422964
56	0xbdcc6775	-0.0998067
57	0x3e4569fc	0.19278711
58	0xbe17e3ca	-0.14832988
59	0x3d039e68	0.03213349
60	0x3e31681a	0.17324868
61	0xbdd51618	-0.10404605
62	0xbe0a933d	-0.1353273
63	0xba718200	-0.0009212792
64	0x3e045cce	0.12926027
65	0xbe40cbb9	-0.18827714
66	0xbe11b9da	-0.14231053
67	0xbde5ba99	-0.11217231
68	0x3ca39508	0.019968525
69	0x3e2889b0	0.16458774
70	0x3d832458	0.064034164
71	0x3d379e60	0.044828773
72	0x3d2d0ef8	0.042250603
73	0x3e452048	0.19250596
74	0xbda08dda	-0.07839556
75	0xbdfa148a	-0.12210949
76	0xbe5e243d	-0.21693511
77	0xbe2a7b64	-0.16648632
78	0x3d5b4cc0	0.05353999
79	0x3d149c40	0.036281824
80	0x3e38d7c6	0.18051061
81	0xbe12b35e	-0.14326236
82	0x3db5781c	0.088608
83	0xbaa7c380	-0.0012799352
84	0x3e0b3654	0.13594943
85	0x3d25a7e8	0.04044333
86	0xbda1df7c	-0.079039544
87	0x3e5b7798	0.2143234
88	0x3d8bc788	0.06825167
89	0xbe3ed3f3	-0.1863554
90	0xbe0109c2	-0.12601379
91	0x3cfe3930	0.031033128
92	0x3e3a5c16	0.1819919
93	0x3e5b08f6	0.21390137
94	0x3dc6a274	0.09698954
95	0xbdbaedf0	-0.09127414
96	0x3e560808	0.20901501
97	0x3dcdbaf4	0.10045424
98	0xbe4fe6d9	-0.20302905
99	0x3e23141c	0.1592564
100	0x3d8f096c	0.06984219
101	0xbdc16a1a	-0.094440654
102	0xbe54e2c3	-0.20789628
103	0x3e5fbc26	0.21849117
104	0x3df280cc	0.11840972
105	0xbe428cf2	-0.18999079
106	0xbe585ed9	-0.21129932
107	0xbd55c530	-0.052190006
108	0x3e343828	0.17599547
109	0x3e1eb518	0.1549877
110	0xbde214bf	-0.11039113
111	0xbc7e3160	-0.015514702
112	0x3d8909ec	0.066913456
113	0xbdec6540	-0.115427494
114	0xbc1837a0	-0.009290606
115	0x3e649136	0.22321019
116	0x3e3a6924	0.1820417
117	0x3e57117a	0.2100276
118	0x3e3639d4	0.17795497
119	0xbdbdc558	-0.09266156
120	0xbdcdc062	-0.1004646
121	0x3e61c71c	0.2204861
122	0xbdaadcf0	-0.08342922
123	0xbca7f380	-0.020501852
124	0x3db9c4a4	0.09070709
125	0xbe02dd5a	-0.12779751
126	0xbdbc9aa2	-0.09209181
127	0xbd97c820	-0.07411218
128	0xbc8c1738	-0.017100915
129	0x3e481d92	0.1954253
130	0x3e53732e	0.20649406
131	0xbdd79033	-0.10525551
132	0x3e07b3f4	0.1325224
133	0xbd9c95c0	-0.0764575
134	0xbd98d396	-0.07462232
135	0x3e17c0f4	0.148197
136	0x3e39b22e	0.18134376
137	0xbd851998	-0.06499022
138	0xbe18be26	-0.14916286
139	0xbdbed44c	-0.09317836
140	0xbe110046	-0.1416026
141	0xbd8fcef2	-0.070218936
142	0x3e18a1d6	0.14905486
143	0x3b055340	0.002034381
144	0x3cc7aa80	0.024373293
145	0x3e5bad1e	0.21452758
146	0x3d634098	0.055481523
147	0x3e19a124	0.15002877
148	0x3d177450	0.03697616
149	0xbe3d0f6b	-0.18462913
150	0x3dd5a66c	0.10432133
151	0xbe0e6ebe	-0.13909432
152	0xbe1ceaa6	-0.15323886
153	0x3d72b4b8	0.059254378
154	0xbe512419	-0.20423926
155	0x3e04f402	0.12983707
156	0xbd15e700	-0.036597252
157	0xbe0dd8e8	-0.13852274
158	0x3d040088	0.03222707
159	0xbe07d280	-0.13263893
160	0xbe5f4c56	-0.21806464
161	0x3b38f8c0	0.0028224438
162	0x3dca15dc	0.098674506
163	0x3e096b2a	0.13419786
164	0xbe110bd6	-0.14164671
165	0x3d60ee18	0.054914564
166	0x3e64eb10	0.22355294
167	0x3bbd4680	0.0057762265
168	0x3d48cf58	0.049025863
169	0x3dad8f38	0.084745824
170	0x3e3a1ffc	0.18176264
171	0x3dfc84b8	0.123300016
172	0x3da48228	0.08032638
173	0x3deec87c	0.11659333
174	0xbd740b7c	-0.059581265
175	0xbe4b1f94	-0.19836265
176	0x3e35a878	0.17740047
177	0x3ddfca6c	0.10927281
178	0xbe248cee	-0.16069385
179	0x3dd7df8c	0.10540685
180	0x3d659d70	0.056058347
181	0x3e0d4e50	0.13799405
182	0xbc1d84b0	-0.009614155
183	0x3d547208	0.05186656
184	0xbe512684	-0.20424849
185	0xbe5af1b5	-0.21381266
186	0x3df25488	0.11832529
187	0x3bd92f20	0.006627932
188	0x3d255ba0	0.040370584
189	0x3c9616d8	0.01832144
190	0xbe2511c6	-0.16120061
191	0xbd8d18f4	-0.06889525
192	0x3dada590	0.08478844
193	0xbe3b2138	-0.1827439
194	0x3d4c5fa0	0.049895883
195	0x3e3d387c	0.18478578
196	0x3ddbc2ac	0.1073049
197	0xbe1a55a1	-0.15071727
198	0x3e4596a6	0.19295749
199	0xbe4b8a7e	-0.1987705
200	0xbdb829f4	-0.08992377
201	0x3e59968c	0.21248835
202	0x3d1d31d8	0.038377613
203	0x3ded37b8	0.11582893
204	0xbce13ea8	-0.027495697
205	0x3de3bc84	0.11119941
206	0x3e4c1b74	0.19932348
207	0xbe5c25c9	-0.21498789
208	0x3d9e4fd4	0.0773007
209	0x3d8594d0	0.06522524
210	0x3c581ab0	0.013189957
211	0xbd9e7a60	-0.07738185
212	0x3e13e92e	0.1444442
213	0x3e2317ec	0.15927094
214	0xbdbcc028	-0.092163384
215	0xbe2ce30c	-0.16883487
216	0x3e3f7300	0.18696213
217	0xbdfc4bcd	-0.12319145
218	0xbe0e74ae	-0.13911697
219	0xbcedba58	-0.02901952
220	0xbe1ebc2c	-0.1550147
221	0x3e05939c	0.1304459
222	0x3d55a3c8	0.052158147
223	0xbca9c520	-0.02072388
224	0xbdddd792	-0.108321324
225	0x3b369340	0.0027858764
226	0xba959e00	-0.0011414886
227	0xbda8fd46	-0.08251433
228	0xbe163df6	-0.14672074
229	0x3dd9d794	0.106368214
230	0xbc986878	-0.018604502
231	0xbe4dcdfd	-0.2009811
232	0xbd9a9230	-0.07547414
233	0xbd9756a2	-0.07389571
234	0xbdc986fe	-0.09840201
235	0x3e637658	0.22213113
236	0x3d90468c	0.07044706
237	0xbc6a96a0	-0.014318138
238	0x3dd9b814	0.10630813
239	0x3dd28a64	0.10280302
240	0x3dce6cbc	0.10079333
241	0xbdddbd65	-0.1082714
242	0xbe1aeff4	-0.15130597
243	0x3cf2e700	0.029651165
244	0xbd47fe8c	-0.04882674
245	0xbd06ee4c	-0.0329421
246	0x3e513eba	0.20434085
247	0xbbb46660	-0.005505368
248	0x3d4595b0	0.048238456
249	0x3df448bc	0.119279355
250	0x3c81c130	0.01583919
251	0xbe2efa95	-0.17087777
252	0xbe41ea61	-0.18937065
253	0xbe553f25	-0.20824869
254	0x3e37823a	0.17920771
255	0x3d205310	0.039141715

de2.bias f4 [50]
0	0x3e58f988	0.21188939
1	0xbda75ec8	-0.08172375
2	0x3df62f54	0.12020746
3	0x3d489ee8	0.04897967
4	0x3e24188a	0.16024986
5	0x3e300cac	0.17192334
6	0x3d5f6870	0.05454296
7	0xbe2bc4d8	-0.16774309
8	0x3d9a6a24	0.07539776
9	0xbda5be28	-0.0809291
10	0xbd9d2822	-0.0767367
11	0xbe579d9a	-0.21056214
12	0x3e1a8116	0.15088305
13	0x3e470c14	0.19438201
14	0x3dee2dcc	0.11629829
15	0xbe2317ba	-0.1592702
16	0x3d6412f8	0.055682153
17	0x3dc145ac	0.09437117
18	0x3e21713a	0.15765849
19	0xbd19d468	-0.037556082
20	0x3e5dbf3c	0.21654981
21	0x3e4b4a7c	0.19852632
22	0x3d5605a0	0.05225146
23	0x3db3080c	0.08741769
24	0xbdd4825c	-0.103764266
25	0xbd9fbffe	-0.078002915
26	0xbe0817b5	-0.13290294
27	0x3e019206	0.1265336
28	0x3ddb42f4	0.1070613
29	0x3d10af68	0.03532353
30	0x3c312e30	0.010814235
31	0xbce4b340	-0.027917504
32	0x3e1d4790	0.1535933
33	0xbc9f0828	-0.019413069
34	0x3c791510	0.015202776
35	0xbdc37914	-0.09544578
36	0x3ce0b580	0.027430296
37	0xbdb1611a	-0.08661099
38	0xbc72dba0	-0.0148228705
39	0xbdb9fd3a	-0.09081502
40	0xbde0910e	-0.10965167
41	0x3d85b700	0.06529045
42	0x3e249d4e	0.16075632
43	0xbca08fd8	-0.01959984
44	0x3defc1e8	0.117069066
45	0xbc37d5e0	-0.011220425
46	0x3da5b450	0.080910325
47	0xbd1d0c90	-0.03834206
48	0x3e1bf494	0.15230018
49	0x3dda456c	0.106577724

de3.weight f4 [50, 50]
0	0x3cecac70	0.028890818
1	0x3e050bbf	0.12992762
2	0xbe09651c	-0.13417476
3	0x3df7f6b2	0.121076
4	0xbdb7be9a	-0.08971901
5	0x3e0a425d	0.13501878
6	0xbd85b840	-0.065292835
7	0xbd1fffec	-0.039062425
8	0xbbb581e0	-0.005539164
9	0x3b03a800	0.002008915
10	0xbc3d03a0	-0.011536509
11	0x3d8e8560	0.06959033
12	0xbe0e3b0f	-0.13889717
13	0x3d7bbda8	0.061460167
14	0x3de1fcba	0.11034532
15	0x3c7307f0	0.014833435
16	0x3cbba5f8	0.022906289
17	0x3d6c3e14	0.05767639
18	0x3da80e4a	0.082058504
19	0xbd688094	-0.056763247
20	0x3e0d0af7	0.13773714
21	0xbddaaf1d	-0.106779315
22	0x3c6f83c0	0.014618814
23	0xbdfa5ada	-0.1222436
24	0x3dec58da	0.115403846
25	0x3d820200	0.06348038
26	0x3ddaf7d6	0.10691802
27	0x3c833e88	0.016021028
28	0x3e0f413f	0.13989733
29	0x3ded1716	0.11576669
30	0x3e02275b	0.12710325
31	0xbb9c0c00	-0.0047621727
32	0x3d8da2fa	0.06915851
33	0x3cb714a0	0.022348702
34	0xbe103c8b	-0.14085595
35	0xbd9f4b68	-0.077780545
36	0x3e0d29e1	0.13785507
37	0x3e028de9	0.12749447
38	0xbddcfcd2	-0.10790409
39	0xbdf85da6	-0.12127237
40	0xbd686148	-0.0567334
41	0xba64f300	-0.00087337196
42	0xbd2f7e24	-0.042844906
43	0x3ab21280	0.0013585836
44	0x3df721ce	0.120669946
45	0xbd91e16e	-0.071230754
46	0x3df32716	0.118726894
47	0xbdcbd2b6	-0.09952299
48	0xbcd61b98	-0.026136205
49	0x3cb5c718	0.022189662
50	0x3be5fe40	0.0070188344
51	0x3d1941a4	0.037416115
52	0xbcad00c8	-0.021118537
53	0x3d69f1a8	0.057115227
54	0x3ca4c690	0.020114213
55	0x3d18f07c	0.03733872
56	0x3d12232c	0.035678074
57	0x3d861744	0.06547406
58	0x3d2b579c	0.041831598
59	0xbdcaaa9e	-0.09895824
60	0xbd1b8758	-0.03797087
61	0xbd871ae9	-0.065969296
62	0xbdbe071c	-0.092787
63	0x3c5042d0	0.012711242
64	0x3d8afcaa	0.06786473
65	0xbdde0d70	-0.10842407
66	0xbcba3c48	-0.022733822
67	0xbc8cf710	-0.017207652
68	0x3cbd4700	0.023105145
69	0xbe09fa5f	-0.13474415
70	0xbd8fb46d	-0.07016835
71	0x3e076c25	0.13224848
72	0xbd97af42	-0.07406475
73	0xbca233c8	-0.019800082
74	0xbdd91429	-0.10599548
75	0x3d6a03bc	0.057132468
76	0x3dbbc428	0.09168273
77	0xbd97838f	-0.0739814
78	0xbbbde140	-0.005794674
79	0xbe070e54	-0.1318906
80	0x3dd160c2	0.10223533
81	0x3dccb6ee	0.099958286
82	0x3cb44d40	0.022009492
83	0xbc4a2110	-0.012336984
84	0x3dd95198	0.10611266
85	0x3c1ea470	0.00968276
86	0x3d3c9ae0	0.046046138
87	0x3db337c6	0.08750872
88	0x3db32420	0.08747125
89	0xbe0ba788	-0.13638127
90	0x3dd428b2	0.103593245
91	0xbc8fd3e8	-0.0175571
92	0x3ce35310	0.027749568
93	0x3e05ed71	0.13078858
94	0xbc6ca890	-0.014444485
95	0x3e108ce3	0.14116244
96	0x3d9862d0	0.07440722
97	0x3d9cf3e6	0.076637074
98	0x3d29ff98	0.04150352
99	0x3d9fdbd4	0.07805601
100	0xbdafd05e	-0.08584665
101	0x3dbe5c1a	0.09294911
102	0x3de6f446	0.1127706
103	0x3d02a39c	0.03189431
104	0xbe0ba65d	-0.13637681
105	0xbd08ab86	-0.033366702
106	0xbcea6c30	-0.028616041
107	0x3c4f88b0	0.012666866
108	0x3d0c2450	0.034214318
109	0x3cf91718	0.03040652
110	0x3de8de52	0.11370529
111	0xbcfa1ec8	-0.030532256
112	0xbd6955aa	-0.05696646
113	0xbdd05106	-0.10171704
114	0x3d052224	0.032503262
115	0x3d839a46	0.0642591
116	0xbddf86dc	-0.10914394
117	0x3e053183	0.13007168
118	0x3c8bcc48	0.017065182
119	0xbd9c99ad	-0.07646499
120	0x3dc889c6	0.09791903
121	0xbde02ca6	-0.10946016
122	0x3d8a9c76	0.06768124
123	0x3cf4c5e0	0.02987951
124	0x3d98aa08	0.07454306
125	0xbbb55100	-0.0055333376
126	0x3d163c20	0.036678433
127	0x3d3139e0	0.043268085
128	0xbd233b66	-0.03985157
129	0xbd4c877a	-0.049933888
130	0x3e0ee8cb	0.13955991
131	0x3c3ecd40	0.011645615
132	0x3d50c8f4	0.050972894
133	0x3dc6cfd8	0.09707612
134	0x3ca61de0	0.020277917
135	0x3dc02480	0.09381962
136	0x3d891ff6	0.06695549
137	0xbdf2d5a6	-0.118571565
138	0x3de1e22e	0.110294685
139	0xbe05f163	-0.13080363
140	0xbda9baae	-0.082875594
141	0x3d094230	0.033510387
142	0xbb8b8780	-0.004258096
143	0xbde9d542	-0.11417629
144	0x3dbc2568	0.09186822
145	0xbda334de	-0.07969068
146	0xbd751154	-0.05983098
147	0xbdefd5ed	-0.11710725
148	0x3dc51a94	0.0962421
149	0x3d7e2490	0.062046587
150	0xbd9b6150	-0.0758692
151	0xbd20c7d2	-0.039253063
152	0xbda29832	-0.07939185
153	0xbd38f650	-0.045156777
154	0x3df1ac72	0.118004695
155	0x3d878aec	0.06618294
156	0xbc2c2280	-0.010506272
157	0x3c047310	0.008084074
158	0xbb8c8040	-0.0042877495
159	0xbda776f3	-0.08176985
160	0x3cf30040	0.029663205
161	0x3d6d5560	0.057942748
162	0x3b5cf280	0.0033713877
163	0x3e0c1697	0.13680492
164	0xbbecc360	-0.007225439
165	0x3de04f3a	0.10952611
166	0xbc007d90	-0.007842436
167	0x3c635860	0.013876051
168	0x3de7d0ba	0.11319108
169	0xbd03d7a0	-0.032188058
170	0x3e0b67ff	0.1361389
171	0x3c3a4820	0.011369735
172	0x3d3c7eb0	0.046019256
173	0x3ddf031e	0.108892664
174	0xbcfda930	-0.030964464
175	0x3daa79bc	0.08324
176	0xbd913934	-0.07090989
177	0x3d1a8a58	0.03772959
178	0xbd00722e	-0.03135889
179	0x3dac0c58	0.08400792
180	0xbdad4b08	-0.08461577
181	0x3d44c8dc	0.048043117
182	0xbe0b4d31	-0.13603665
183	0x3e026f8b	0.12737863
184	0xbdc1372c	-0.09434351
185	0xbd62af6c	-0.055343077
186	0x3dbcbd4e	0.092157945
187	0x3d5ea234	0.054353908
188	0x3df27f8a	0.118407324
189	0x3d27efac	0.041000053
190	0x3da2d3be	0.07950543
191	0x3dc70604	0.09717944
192	0x3d8c23fa	0.068427995
193	0x3d590f74	0.052993253
194	0x3dbe3160	0.09286761
195	0x3c9bb380	0.01900649
196	0xbcd54574	-0.026034094
197	0x3d9001fe	0.0703163
198	0xbcc5d84c	-0.02415099
199	0x3ddaa186	0.106753394
200	0xbdc1aea2	-0.09457137
201	0x3dc10136	0.09424059
202	0x3e02defb	0.12780373
203	0xbdaa825e	-0.08325647
204	0x3d21c1e0	0.039491534
205	0x3dc16018	0.094421566
206	0x3e0634f3	0.13106136
207	0x3d7bafac	0.06144683
208	0xbd46ba6e	-0.048517637
209	0xbdd4bd80	-0.10387707
210	0x3e03c893	0.12869482
211	0x3da4ccf6	0.08046906
212	0xbdb5712a	-0.08859475
213	0xbd0b3966	-0.033990286
214	0x3cd1d1e8	0.025612786
215	0xbd562048	-0.05227688
216	0x3dc706cc	0.09718093
217	0xbdfca1ff	-0.12335586
218	0x3e0c8679	0.13723172
219	0xbd8abaa2	-0.06773879
220	0x3db9286e	0.090409145
221	0x3c6b9650	0.014379099
222	0xbd37e254	-0.044893578
223	0xbe01ba64	-0.12668759
224	0xbd839010	-0.06423962
225	0xbd867cd6	-0.06566779
226	0x3df43ede	0.119260535
227	0xbe0544a6	-0.13014469
228	0xbd3efad0	-0.046625912
229	0xbdef4afd	-0.11684225
230	0x3e0f81ab	0.14014308
231	0x3c8a0838	0.016849622
232	0x3dec1d7a	0.1152906
233	0x3d76fc00	0.06029892
234	0x3c427b70	0.01187025
235	0xbe04e9ae	-0.12979767
236	0x3d719344	0.058978334
237	0x3e038819	0.12844886
238	0x3cba8118	0.022766635
239	0x3e05dbe3	0.13072161
240	0x3d78ca8c	0.06074004
241	0x3c176cd0	0.0092422515
242	0x3cba19b8	0.022717342
243	0xbd9f63f4	-0.077827364
244	0xbdef670d	-0.11689577
245	0xbc45af10	-0.012065664
246	0xbc830610	-0.015994102
247	0xbd24c74e	-0.040229134
248	0xbc8e6e40	-0.017386556
249	0x3df53182	0.119723335
250	0x3e0f2f77	0.1398295
251	0x3d443564	0.04790248
252	0x3dcf16f4	0.101118
253	0x3e1081eb	0.1411206
254	0x3d83d9c2	0.064380184
255	0x3de9347e	0.11386965

de3.bias f4 [50]
0	0xbd682608	-0.056676894
1	0x3d8731c6	0.066012904
2	0xbdffdb1e	-0.12492965
3	0x3e0c14e9	0.13679852
4	0xbd2c0df2	-0.042005487
5	0x3cf46220	0.029831946
6	0x3db00002	0.085937515
7	0x3dc2ba50	0.095081925
8	0x3d34fec0	0.04418826
9	0xbd778c66	-0.06043663
10	0xbd3f3488	-0.046680957
11	0x3df7ec72	0.12105645
12	0x3ddfd226	0.109287545
13	0x3c336e40	0.010951579
14	0x3b1738c0	0.0023074597
15	0xbc97ac04	-0.01851464
16	0xbde9b9f9	-0.114124246
17	0xbce5e550	-0.028063446
18	0xbd438ca6	-0.047741555
19	0x3c919c78	0.017774805
20	0xbd5a4f0a	-0.053298034
21	0x3d119cf8	0.035550088
22	0xbd8fb4be	-0.07016896
23	0xbe0f43a5	-0.13990648
24	0xbe096dad	-0.13420744
25	0xbdb5d104	-0.08877757
26	0x3ddaaccc	0.1067749
27	0xbd7fda7a	-0.062464215
28	0x3e0dd157	0.13849388
29	0xbde9c1fe	-0.11413954
30	0x3db9ceec	0.0907267
31	0xbdac9f69	-0.084288426
32	0xbd21d068	-0.039505392
33	0x3e045cf1	0.1292608
34	0xbdb0da71	-0.086354144
35	0x3cbbcad0	0.022923857
36	0x3deec17e	0.116579995
37	0x3e0dbfd7	0.13842712
38	0xbd0cf3e8	-0.034412295
39	0xbdcea1f6	-0.10089485
40	0xbd2d77e6	-0.042350672
41	0xbcd0df2c	-0.025497042
42	0xbdfc42a4	-0.12317398
43	0x3dcd7bc0	0.10033369
44	0x3de90fd2	0.113799706
45	0xbe0abeae	-0.13549301
46	0x3d122f1c	0.03568946
47	0x39be1800	0.00036257505
48	0xbd934172	-0.07190217
49	0x3de84506	0.1134129

de4.weight f4 [4, 50]
0	0x3dd931f4	0.10605231
1	0x3d8b1f62	0.06793095
2	0xbdb85c74	-0.09002009
3	0x3e0d0293	0.13770513
4	0xbe08d860	-0.1336379
5	0xbe0db769	-0.13839497
6	0x3d261660	0.040548682
7	0xbc75b510	-0.014996782
8	0x3d8c3b72	0.06847276
9	0xbd7796dc	-0.060446605
10	0xbd76cc62	-0.06025351
11	0xbd2abf08	-0.041686088
12	0x3d894ba6	0.06703882
13	0x3ce2db30	0.027692407
14	0x3c73db60	0.014883846
15	0x3dc583a4	0.09644249
16	0x3cd86100	0.02641344
17	0x3ca648d0	0.020298392
18	0xbd92cb75	-0.071677126
19	0xbc032ef0	-0.008006796
20	0x3dde6f02	0.10861017
21	0xbafe5400	-0.0019403696
22	0x3defb846	0.11705069
23	0xbd1910ce	-0.03736954
24	0xbdd699ca	-0.10478552
25	0xbcea3be4	-0.028593011
26	0x3dcc6fec	0.09982285
27	0x3dde67de	0.10859655
28	0xbd1f1552	-0.038838692
29	0x3bbf4180	0.0058366656
30	0x3de009ae	0.10939346
31	0xbcb419f0	-0.021985024
32	0x3d4accb8	0.04951164
33	0x3ce0a908	0.02742435
34	0xbd07c400	-0.033145905
35	0x3dda9cb8	0.10674423
36	0x3d94f850	0.07273924
37	0xbd85df17	-0.06536692
38	0xbccdd500	-0.02512598
39	0xbdddaafe	-0.1082363
40	0xbddc52c2	-0.10757972
41	0x3e0dceeb	0.13848464
42	0x3da8f39e	0.08249591
43	0x3db43290	0.087987065
44	0xbdcadce0	-0.0990541
45	0xbd7cb8c2	-0.061699636
46	0xbc0b53c0	-0.008503854
47	0xbd32c410	-0.04364401
48	0x3d8a4544	0.067514926
49	0x3d366190	0.044526637
50	0xbd6cb3fa	-0.057788827
51	0xbdf92125	-0.12164525
52	0x3d3cf524	0.04613222
53	0x3cfe7a70	0.031064242
54	0x3df12c96	0.11776082
55	0x3d564fd4	0.052322224
56	0x3dacaed0	0.0843178
57	0xbdd63bbc	-0.10460612
58	0xbdb788ba	-0.089616254
59	0x3e04b23b	0.12958615
60	0xbd3372d2	-0.043810673
61	0xbd75bab2	-0.0599925
62	0x3e0ee9c9	0.1395637
63	0xbd5accec	-0.053418085
64	0x3e0268f5	0.1273535
65	0xbd612872	-0.054970212
66	0x3d1d3dbc	0.038388953
67	0xbce53d68	-0.027983382
68	0xbccb2220	-0.024796546
69	0xbe04829a	-0.12940446
70	0xbdc3d276	-0.095616266
71	0xbd75484e	-0.05988341
72	0x3d6f62d8	0.058443874
73	0xbd4ffd9e	-0.050778978
74	0x3de490b2	0.11160411
75	0xbe037905	-0.12839134
76	0xbcc8763c	-0.024470441
77	0x3d40e434	0.04709263
78	0xbd6f992a	-0.058495678
79	0xbd37a82c	-0.044838116
80	0xbd839a4f	-0.064259164
81	0xbdd2dc3a	-0.10295911
82	0x3de69ce6	0.11260395
83	0xbc9dcd8c	-0.019263051
84	0xbd43982e	-0.04775255
85	0x3de0f122	0.109834924
86	0x3e102287	0.14075671
87	0xbb206a80	-0.0024477541
88	0xbde18af3	-0.110128306
89	0xbda790e0	-0.081819296
90	0x3d1979b8	0.037469596
91	0xbb20c740	-0.0024532825
92	0xbda40712	-0.08009161
93	0x3dedeefe	0.1161785
94	0xba598f00	-0.0008299202
95	0xbd18a8a0	-0.03727019
96	0xbd9384bf	-0.07203054
97	0x3d837446	0.06418662
98	0xbc4f7250	-0.012661532
99	0xbe0623a9	-0.13099541
100	0xbdc7f344	-0.09763196
101	0x3dbc1cbe	0.0918517
102	0x3e05f051	0.13079955
103	0x3c841df8	0.016127571
104	0x3e0bf90f	0.13669227
105	0xbced645c	-0.02897852
106	0x3dbe4f7e	0.09292506
107	0xbe0a8ac4	-0.13529497
108	0xbc19d710	-0.009389654
109	0xbc61cae0	-0.013781279
110	0xbdbbf156	-0.091768906
111	0x3db5b2f2	0.08872022
112	0xbd9fe875	-0.078080095
113	0xbcc5ae30	-0.02413091
114	0x3c686ea0	0.014186531
115	0xbe0ff189	-0.14056982
116	0xbce219c0	-0.02760017
117	0x3dd4a2b4	0.10382596
118	0xbd1882ba	-0.037234046
119	0x3e0810a5	0.132876
120	0x3da54d7c	0.080714196
121	0x3cfd4fb8	0.030921802
122	0xbc9918d8	-0.018688604
123	0xbddf9c93	-0.10918536
124	0xbbf851c0	-0.0075781047
125	0x3d74e1f0	0.059785783
126	0x3dbe5dec	0.09295258
127	0xbd2eefa8	-0.042709023
128	0xbdc6febc	-0.097165555
129	0x3d25e8d0	0.04050523
130	0x3bd44f60	0.006479189
131	0xbe0a24b0	-0.13490558
132	0xbd9026d4	-0.07038656
133	0x3de17c4e	0.11010037
134	0xbd5d6a2e	-0.05405634
135	0x3dd19b74	0.102347285
136	0xbe0f116a	-0.13971487
137	0xbdce283a	-0.10066266
138	0xbcb48094	-0.022033967
139	0x3d7d849c	0.061894044
140	0x3c6f88e0	0.014620036
141	0x3dfd724e	0.123753175
142	0xbde27d00	-0.11058998
143	0xbe0cfe87	-0.1376897
144	0x3d48755c	0.048940048
145	0xbc7b6420	-0.015343696
146	0x3de11a32	0.109913245
147	0xbcca11e4	-0.024666734
148	0xbda7dcaf	-0.08196389
149	0x3c2bf2b0	0.010494873
150	0xbd0163b6	-0.031589232
151	0xbc86fb88	-0.016477361
152	0xbcfda6c8	-0.030963317
153	0x3c9cf1b0	0.019158214
154	0x3dda2e60	0.106533766
155	0xbde68222	-0.112552896
156	0x3e0a7fa7	0.13525258
157	0x3dbcdde8	0.09222013
158	0xbe0136cd	-0.12618561
159	0x3dbc49f2	0.091937914
160	0x3ddf8ce2	0.10915543
161	0x3d3b7fb8	0.0457761
162	0xbdd94e25	-0.10610608
163	0x3cae2530	0.021257967
164	0x3dc9f1b6	0.09860556
165	0x3ceb2448	0.028703824
166	0x3cd812b8	0.026376113
167	0x3d7f491c	0.062325582
168	0xbdaff32e	-0.08591305
169	0xbdae90d0	-0.085237145
170	0xbdb37ee7	-0.08764439
171	0xbdf49bec	-0.11943802
172	0x3def22de	0.11676572
173	0xbd2356c2	-0.03987766
174	0x3ccbb800	0.024868011
175	0xbe04f29b	-0.12983172
176	0xbd29d6be	-0.04146456
177	0x3cd8a2b8	0.026444778
178	0xbd631fe4	-0.055450335
179	0x3dc7fa28	0.097645104
180	0xbd314622	-0.043279774
181	0xbd44290c	-0.047890708
182	0x3cf60f38	0.030036554
183	0xbde8a994	-0.113604695
184	0xbdd07815	-0.10179154
185	0xbd835a2a	-0.06413682
186	0xbce4b5e4	-0.027918763
187	0xbe0e5df5	-0.1390303
188	0x3cd97570	0.026545256
189	0xbd555b12	-0.052088805
190	0xbdbe6ca6	-0.09298067
191	0xbd98627b	-0.07440659
192	0x3d6f8cec	0.058484003
193	0xbe0b2569	-0.1358849
194	0x3db5b844	0.088730365
195	0xbe0938e5	-0.1340061
196	0x3dd46136	0.10370104
197	0xbdc24a83	-0.09486868
198	0x3dcf6df6	0.10128395
199	0xbe0a5001	-0.13507082

de4.bias f4 [4]
0	0x3d3a7644	0.045522943
1	0xbd1b6b34	-0.037944034
2	0xbd9c3c50	-0.07628691
3	0xbdb21940	-0.08696222
