first_tutorials/models/AE_2D_v2_bs512_loss00448.pt (torch_old, 3917 bytes, 20 tensors)

en1.weight f4 [8, 4]
000000 e3 19 06 be ff 08 d9 3d 01 81 98 bb 33 2e 61 bd
       -0.13095812 0.10597419 -0.0046540503 -0.0549757
000010 6f 93 3b bf e6 5d b3 be 38 b2 82 c1 04 2b d0 3f
       -0.7327184 -0.35032576 -16.33702 1.6263127
000020 18 86 ce 3d 32 1f 21 3e 1b 0e fb 3b 56 0c 6b 3d
       0.1008417 0.15734556 0.0076615936 0.05738481
000030 58 bc 9b bc d4 a6 be be 52 20 2b 3d ec e8 b1 3d
       -0.019010708 -0.37236655 0.04177887 0.086870044
000040 bf 42 d8 be c7 a9 81 3c ac f2 f3 bd 2b 5a 76 bb
       -0.42238423 0.015828026 -0.1191152 -0.0037590365
000050 c4 c0 3a 3f 21 c8 e7 bc a1 4a 41 be 4a db 85 bb
       0.72950387 -0.028293671 -0.18876125 -0.004084979
000060 06 75 81 c0 16 28 3b bd 5a 68 da 40 65 58 0d bf
       -4.045535 -0.045692526 6.825238 -0.55213004
000070 aa 82 5d 3c 03 4c 67 3e 9e e1 e8 bd 62 c1 1f 3e
       0.013519922 0.2258759 -0.11371158 0.15601113

en1.bias f4 [8]
000000 58 32 83 3f 84 82 85 c0 ab 81 82 bf dc d8 18 bf
       1.0249739 -4.172182 -1.0195822 -0.597059
000010 eb 24 37 bf 20 82 e9 3f 19 76 8f c0 b6 ce 68 c0
       -0.7154071 1.8242836 -4.483166 -3.6376166

en2.weight f4 [6, 8]
000000 ce 80 8b be e5 fd 52 bc ad 20 73 bf e7 64 3c 3e
       -0.27246708 -0.012877916 -0.94971734 0.18397866
000010 d1 a2 10 3f 1c 0f dc be b0 cd 05 bb 0f 3e 2e bf
       0.5649844 -0.42980278 -0.0020416789 -0.68063444
000020 a3 b5 09 be 88 7c 40 41 5d d2 4a bf de 30 11 bf
       -0.13448195 12.030403 -0.7922724 -0.5671519
000030 f8 96 64 3e 3b e6 31 40 09 9e 38 41 d2 f9 0d c0
       0.22323215 2.7796772 11.538583 -2.2183728
000040 bd 42 1f 3f 41 d2 01 3c 42 5e 8a 3d 15 b0 ec 3d
       0.6221121 0.007923664 0.067562595 0.115570225
000050 c8 56 06 bf 57 f0 78 bf 75 59 6d be b0 fe e6 bd
       -0.5247617 -0.9724173 -0.23178656 -0.112790465
000060 18 8f 68 3f af 9d a3 3f 8c df 04 bd 32 b9 05 3f
       0.90843344 1.2782496 -0.032439753 0.5223571
000070 3b 44 76 40 f5 78 7d 3f 1f bd a1 bf 74 3b cc be
       3.8479145 0.9901269 -1.263584 -0.3988911
000080 8c f9 82 bf b2 b0 2c 3c 40 5f 30 bf 7d 5c 96 3c
       -1.0232406 0.010540174 -0.6889534 0.018354649
000090 1c 46 18 bf 2f 28 3f 3e 82 35 6a bd 33 e0 1f bf
       -0.5948198 0.18667673 -0.057179935 -0.62451476
0000a0 61 74 3f 3f f6 cb 0f 3d ac 82 f5 3e 47 fc 80 3e
       0.74786955 0.03510662 0.47951257 0.25192472
0000b0 c3 fe 36 3f ca 60 62 be fc 0c ba 3f 49 a6 aa bf
       0.71482486 -0.22107235 1.4535213 -1.3331996

en2.bias f4 [6]
000000 7b 2d c3 be 51 15 4a 40 ec 91 4b 3f b0 1a f8 3f
       -0.38120636 3.157551 0.79519534 1.9383144
000010 a2 ee 62 bf d6 f6 69 3f
       -0.88645375 0.91392267

en3.weight f4 [4, 6]
000000 61 a6 f9 bf 19 ba df be 7a e7 7a bf 59 fc bb 3d
       -1.95039 -0.4369667 -0.98009455 0.09178991
000010 52 21 08 bf e7 68 11 be 7a d5 34 3f 20 c4 67 3f
       -0.5317584 -0.14200173 0.7063824 0.9053364
000020 74 e0 7a 3f 0f ce 61 bd 7c ab 39 bf fd 6a 83 3d
       0.9799874 -0.055128153 -0.7252729 0.06416891
000030 b4 43 56 bf b2 de 77 bd 53 49 85 3e 31 39 54 bb
       -0.83697057 -0.060515113 0.26032504 -0.0032382722
000040 7d 87 64 bf f4 e3 83 bd e5 1c 2d be 87 bf 93 3e
       -0.8926924 -0.06439963 -0.16905554 0.2885706
000050 d8 c3 93 bf 68 7d e8 3e 43 bf 87 bd b0 d6 8b bf
       -1.1544142 0.45408177 -0.06628277 -1.0924892

en3.bias f4 [4]
000000 27 6c d9 bf a7 b7 1e 3f b2 5a ab 3d 9c b3 5d bf
       -1.698613 0.6199898 0.08366908 -0.8660219

en4.weight f4 [3, 4]
000000 b1 f3 8c 3e ef e8 cb be 70 30 4f 3f d5 53 26 bf
       0.27529672 -0.39826152 0.80933285 -0.6497167
000010 4f c6 29 3f 6c 6f ab 3e 80 79 ec 3e ba 6e 13 be
       0.6631822 0.33483446 0.46186447 -0.14397708
000020 5f f2 4e bd d0 08 31 bf cd cc 6d be f2 c2 48 bf
       -0.05052411 -0.6915407 -0.23222657 -0.7842246

en4.bias f4 [3]
000000 ef 8f be 3d 29 91 8b 3e a5 7b 90 3c
       0.09304797 0.27259186 0.017637083

en5.weight f4 [2, 3]
000000 3f 87 b2 3e 8a 84 17 3f 8d 82 7e 3f 5a 78 82 3d
       0.3486881 0.59186614 0.99417955 0.063706115
000010 d4 84 db 3e 3b f8 28 bf
       0.42874777 -0.6600377

en5.bias f4 [2]
000000 25 39 85 3d f5 d6 8a bd
       0.0650504 -0.06779281

de1.weight f4 [3, 2]
000000 5f 48 a0 be 49 6e 90 bf f8 27 92 bf 20 79 55 be
       -0.31305215 -1.1283656 -1.1418447 -0.20846987
000010 b4 84 40 bf 03 89 17 3f
       -0.7520249 0.5919344

de1.bias f4 [3]
000000 a2 44 2e be 65 80 9d 3e b4 f6 20 3e
       -0.17018369 0.3076202 0.1571911

de2.weight f4 [4, 3]
000000 6a f8 45 3f 61 e8 41 bf 15 3f 3c bf cc 09 c6 3f
       0.77332175 -0.7574521 -0.73533756 1.547174
000010 90 ce 4f 3f a5 ce 88 3d d3 0a 11 bf 90 9f 5f 3f
       0.81174564 0.06680039 -0.5665714 0.8735285
000020 62 5f 70 3f 92 7f ba 3e 66 d2 b2 3f 59 b1 09 3f
       0.9389554 0.36425453 1.3970459 0.53786236

de2.bias f4 [4]
000000 f6 82 ac be af d5 ea be e8 dd 00 bf b1 fa 3e 3f
       -0.33693665 -0.45866153 -0.503386 0.74601275

de3.weight f4 [6, 4]
000000 49 1c ec 3d 20 b0 7d 3f 78 1a e1 bf 90 73 94 3f
       0.115288325 0.9909687 -1.7586203 1.1597767
000010 97 21 0b 3e b3 e1 c5 bf b4 1d 85 3c dd b6 14 bf
       0.13587032 -1.5459503 0.016249515 -0.5809153
000020 ed 49 44 c0 ec 2d 77 bf bb dd 91 40 52 cd 92 3f
       -3.067012 -0.96554446 4.5583167 1.1468909
000030 2c ed eb 3e db 5f 2d 40 88 63 0f bf 2f 05 14 3e
       0.46079385 2.7089756 -0.5601125 0.14455102
000040 48 f0 c6 bf 1e 39 9b bf 93 ef 6e 3e 62 c2 08 40
       -1.5542078 -1.2126806 0.23333578 2.1368642
000050 dc 03 82 3f 66 aa 54 3e 38 cc 40 3f 6b a9 b8 3f
       1.0157428 0.20768127 0.75311613 1.4426702

de3.bias f4 [6]
000000 49 94 a5 3e 72 80 93 3e 2f b6 6d 3e f0 6e 53 be
       0.32339695 0.28808933 0.23214029 -0.20647788
000010 53 db 57 3f 0d 81 86 3f
       0.8431904 1.0508133

de4.weight f4 [8, 6]
000000 c1 f9 ef bf f9 9c 54 bf 16 9a 87 3e e9 1b ea be
       -1.8748094 -0.8305202 0.26484746 -0.4572442
000010 be 7a 29 c0 9a ef fb 3f d2 33 1f 3f 43 be eb 3e
       -2.6481166 1.9682496 0.62188447 0.46043596
000020 48 c4 dd be a3 dc 0e be e0 f4 24 3f 98 33 4f be
       -0.43313813 -0.13951354 0.6443615 -0.20234525
000030 fb b6 06 40 d2 fe 44 c0 c8 1b 4f 40 be 33 fd bf
       2.1049182 -3.078053 3.2360706 -1.9781415
000040 5a de a3 be 4e 09 11 c0 5e 41 b1 bf dd 58 f5 3e
       -0.32005578 -2.266193 -1.3848073 0.4791936
000050 75 d7 12 3e 7d 2e a1 bf 41 48 82 bf d6 06 d2 3e
       0.14340003 -1.2592312 -1.01783 0.4102084
000060 e6 c9 82 3f 13 53 81 3f c5 1f 45 c0 a3 ea 0b bf
       1.0217865 1.0103477 -3.080064 -0.546549
000070 1b 8e a3 bf 72 e4 77 3e 71 85 65 c0 4a 38 5a 40
       -1.2777742 0.24208239 -3.5862696 3.4096856
000080 78 a0 a4 3d a9 ac 66 bf 0e a2 52 bf d0 ca 9a bf
       0.080384195 -0.9010721 -0.82278526 -1.2093143
000090 6b 48 74 3e 7e 2a bd 3f c3 7b 6d c0 d9 25 c7 3e
       0.2385575 1.4778593 -3.7106788 0.38896063
0000a0 12 58 be bf 83 9e 02 bc 92 50 92 be 1d 8e c5 3f
       -1.4870627 -0.007972362 -0.28577095 1.5433995
0000b0 73 d7 9d 3e ee fa 0e bf 3f ec 8b 3e d6 5f 13 c0
       0.30828437 -0.5585164 0.2732868 -2.3027244

de4.bias f4 [8]
000000 30 b4 d8 3f 52 cb b1 bf bc 1d 47 bf eb 09 6e 3f
       1.6929989 -1.3890173 -0.77779746 0.92983884
000010 d4 0e a5 3e f4 e8 21 bf 3a b2 93 3e 0b f5 40 bf
       0.32237875 -0.63246083 0.28846914 -0.75373906

de5.weight f4 [4, 8]
000000 6b d8 82 40 05 01 cf c0 d9 1a 4b bf 2c a1 eb 3f
       4.088918 -6.4688745 -0.7933784 1.8408561
000010 11 87 e2 3e 13 ab f0 bc a5 ab 23 40 d7 25 c7 be
       0.44243672 -0.02937845 2.5573514 -0.38896057
000020 a1 e2 69 3f 2f 0d f0 be b3 73 69 c0 8e be 68 3f
       0.91361433 -0.46885058 -3.6476867 0.90915763
000030 ac 09 5e c0 cc 59 e6 bf a7 40 81 3e 96 ed 6b 40
       -3.4693403 -1.7996154 0.25244638 3.686376
000040 44 72 de bf 40 9c a7 c0 e0 d9 28 bd 2c 1d f4 3e
       -1.7378621 -5.2378235 -0.041223407 0.47678506
000050 54 d5 06 40 c0 80 20 3e 86 a9 00 3f ab 73 06 be
       2.1067705 0.15674114 0.5025867 -0.13130061
000060 de f2 05 3f b3 98 a6 c0 ce 5f bf bf f2 59 99 c0
       0.5232371 -5.20614 -1.4951112 -4.7922297
000070 e8 f7 63 bf 77 ad c3 40 a1 3e 7a 3f 73 08 7a bc
       -0.8905015 6.114925 0.97751814 -0.0152608035

de5.bias f4 [4]
000000 95 fa e3 3f 2b d7 06 3f e8 24 e9 bf 46 72 04 41
       1.7810847 0.5267207 -1.8214388 8.277899
