first_tutorials/models/AE_2D_v2_bs64_loss00991.pt (torch_old, 3917 bytes, 20 tensors)

en1.weight f4 [8, 4]
00000000: 442b 44c0 2fb7 0440 6b07 2a3d 076f 903c
00000010: 121b 81c0 a135 42c0 da96 dbbd 6b62 aa3f
00000020: b03c 1e3e 8570 37bf 02bc 04bb 5a83 09bf
00000030: cad8 e2ba 76be 5f3c e2e8 53be e914 dbbb
00000040: 3e2e 8fbe a95f 343f 7383 5e3b 715a eb3c
00000050: 8f23 893f 7249 d93e f310 093d 2297 873d
00000060: df4e ef3e cf44 15bf 2fa0 e13b 8b34 083e
00000070: d31c d6ba 88e1 d13a d615 83bd 1b41 1b3b
-3.0651407 2.0736806 0.04151098 0.017631067 -4.0345545 -3.0345232 -0.10722132 1.3311285
0.15452838 -0.71656066 -0.0020253663 -0.5371605 -0.001730704 0.013656249 -0.20694306 -0.0066858423
-0.27964967 0.70458466 0.0033952862 0.02872965 1.0713977 0.42438847 0.03346343 0.06620623
0.4673986 -0.5830812 0.0068855505 0.13301294 -0.0016335495 0.0016012648 -0.06400649 0.002368993

en1.bias f4 [8]
00000000: c8b5 373f f881 913f de16 cb3f 57e7 eabf
00000010: 1617 6a3d e1d3 d03d 9113 b1bf 7bca 823f
0.7176175 1.1367788 1.5866354 -1.8351849 0.057150923 0.10196663 -1.3834096 1.0218042

en2.weight f4 [6, 8]
00000000: 4661 19bd ec4e 30bf 5542 eb3e b42d 89bf
00000010: e14c e7bc 1453 9fbf 488b 15bd babf 0840
00000020: a652 97bd fe90 99bd 671a 18be 22d9 873c
00000030: 74e4 26bf b498 f7bd 254c 373f 5881 4ebe
00000040: 322e 27b9 0506 6939 89ed f8ba c3e7 06bf
00000050: 0c1e 6a3b 64f0 d5b8 8388 d3ba 7773 3ebf
00000060: b4c7 8ec0 6e93 95bf 01d5 16c0 4591 ee3f
00000070: 9f5c 0d40 bb7f 16be ada6 263f 27b1 87bf
00000080: 79d1 223d b0f8 9b3c 067a 58bf 0dbc 363e
00000090: bc0a 0b3e 2fed a9bb 68d2 2cbf 2cb8 d6bd
000000a0: 527d 3ebe 7bc6 81c1 24c6 7abe ab65 63be
000000b0: d95b 023f d08f 9c3f 6e42 6dbf 636a 8d3d
-0.037446283 -0.68870425 0.45949045 -1.0717072 -0.0282349 -1.2447228 -0.036509782 2.136702
-0.07388811 -0.07498358 -0.14853822 0.01658303 -0.6519234 -0.12089673 0.7160056 -0.20166528
-0.0001594357 0.00022222854 -0.001899169 -0.5269739 0.0035723476 -0.00010201408 -0.0016138706 -0.74394935
-4.461878 -1.1685617 -2.3567507 1.8638083 2.2087781 -0.14697163 0.6509808 -1.0600938
0.03975055 0.019039482 -0.84561193 0.17845173 0.13578314 -0.005185745 -0.67508554 -0.10484347
-0.18602493 -16.221914 -0.24489647 -0.22206752 0.509214 1.2231388 -0.9267949 0.06905057

en2.bias f4 [6]
00000000: fe0a c13f e2a1 79be 145b b13d cf65 00c0
00000010: 61e6 3d3e c7d1 483f
1.508148 -0.2437816 0.0865995 -2.006214 0.18544914 0.78445095

en3.weight f4 [4, 6]
00000000: ce2c fabe 6ec5 edbd 9092 723d 3fd4 1ec0
00000010: 1be3 c93f eb2b aa3c 933d c53d 305b 3c3b
00000020: 1620 bbbf d02e 33bb 79ab 373c 7dd6 ab3a
00000030: 85a4 143f f75b 7c3f aa08 923d 2ca3 973d
00000040: 4bce 093f 1ab7 733d 3662 c0be e2eb 373f
00000050: 6e50 59bc 1775 453f f869 fcbf 5b70 2cc0
-0.48862308 -0.11609922 0.059221804 -2.4817045 1.5772432 0.020772895 0.09630885 0.0028740875
-1.4619167 -0.0027341135 0.011210316 0.0013110187 0.58063537 0.9857783 0.07130559 0.074041694
0.53830403 0.05950079 -0.3757493 0.71844304 -0.013263805 0.7713179 -1.9719839 -2.6943576

en3.bias f4 [4]
00000000: 0d16 1bbe 2b7f 7ebd f69f 063f 170b 56bf
-0.1514513 -0.062132996 0.5258783 -0.8361067

en4.weight f4 [3, 4]
00000000: e63b 663c 6226 8bbf 65f4 803e 6b6e fbbc
00000010: 0bc9 b83c 2ac3 e53e 595f 183f 7d76 193b
00000020: 5073 293f 30b0 17bc ff0c 1c3e 9585 5f3f
0.014052367 -1.0871089 0.25186458 -0.0306923 0.022556802 0.4487546 0.5952049 0.0023416572
0.6619158 -0.009258315 0.15239333 0.87313205

en4.bias f4 [3]
00000000: 0671 07be dca1 63be 3b45 9a3d
-0.13226709 -0.22229713 0.07532736

en5.weight f4 [2, 3]
00000000: 0816 85bf 2962 c33e e7f1 ebbd 779c 23be
00000010: d301 cdbe c2ef 97bf
-1.0397348 0.38160828 -0.115207486 -0.15977655 -0.40040454 -1.1870043

en5.bias f4 [2]
00000000: 1674 20be cc62 d93d
-0.15669283 0.10614547

de1.weight f4 [3, 2]
00000000: 09ce afbd 4c03 2dbf 3425 6dbf e517 b03e
00000010: afc6 ddbd 1778 11c0
-0.0858422 -0.67583156 -0.9263489 0.3439323 -0.108289115 -2.2729547

de1.bias f4 [3]
00000000: 9ecd 34bf 408a cebb e50a 3c3e
-0.70626247 -0.006303102 0.18363531

de2.weight f4 [4, 3]
00000000: 00ed 7a3e da38 9e3c 458e dfbf a7c1 77be
00000010: e7d5 223f 9ffe 73c0 70f1 1bbf bb67 64bf
00000020: f603 bfbc 0d54 e13f 9103 b9be 5357 303f
0.24504471 0.019314218 -1.7465292 -0.24194966 0.6360764 -3.8124158 -0.6091528 -0.8922078
-0.023317318 1.7603775 -0.36135533 0.68883246

de2.bias f4 [4]
00000000: b2dd 47bf 7eb8 60be cb27 5d3e e2fe 64be
-0.78072655 -0.21945378 0.21597211 -0.22362855

de3.weight f4 [6, 4]
00000000: a055 5440 2c12 cb3f 6116 7fbf 203d 143f
00000010: 45de dfbc bf39 a93e 2891 203f 51ce 39c0
00000020: 4d7b 19be 3408 bfbd ad26 c9bf e359 ecbd
00000030: f5bb 8c3e 32e9 543e d046 93bf 541b b5bc
00000040: 4c0b 00c0 535e d4c0 27d1 073f b08c 963f
00000050: 94f2 ba3e b83c 693f 6a80 7d3f a614 e8bd
3.3177261 1.5864921 -0.9964352 0.5790577 -0.027327666 0.3305187 0.6272149 -2.9032176
-0.14988442 -0.093277365 -1.5714928 -0.11540582 0.2748715 0.20792082 -1.1505985 -0.022107758
-2.0006895 -6.636514 0.53053516 1.1761684 0.36513197 0.91108274 0.9902407 -0.113320634

de3.bias f4 [6]
00000000: 2783 adbf cf54 5c3f 9d96 e13e 9590 d83d
00000010: 329b c7be f5b8 9b3f
-1.355565 0.8606691 0.4406022 0.10574452 -0.38985592 1.216582

de4.weight f4 [8, 6]
00000000: ad28 5a3f 9318 81bf 615c c43e 1f21 a2bf
00000010: f946 533f fa60 a03f b4aa 2d40 d59a cdbe
00000020: 69c8 3bbe db92 73be 7c82 f83e 2148 3d3f
00000030: f2cb d1bf 5616 c5bf 5ccf 683c 8180 b73e
00000040: f7e1 3640 f362 3abf d032 1bc1 c93f 053f
00000050: 926c 4d40 ab56 20bf 11e6 9e3f 2b89 a33f
00000060: bbdb cb3f 5e28 733f aceb 11bf 4722 763f
00000070: 845d 56bf 285f 23be 51ac dc3d 5a4e 06be
00000080: 98bc d33f 97ec 6a3f b99e d33c d5c6 ea3d
00000090: 2f6b 34bf bb8e a1c0 cfdf c9be 68e9 8c3d
000000a0: c0dc 913f 9c8d febe 570b 1c3f ca68 d23f
000000b0: b1cd 0a3f 1086 b23d 0978 babf 8930 933f
0.85218316 -1.0085624 0.3835173 -1.2666358 0.8253017 1.2529595 2.713544 -0.4015719
-0.18338169 -0.2378649 0.48537052 0.73938185 -1.6390364 -1.5397441 0.014209595 0.35840228
2.8575418 -0.72807235 -9.699905 0.52050453 3.2097516 -0.62632245 1.2413961 1.2776235
1.5926431 0.9498347 -0.5700023 0.96146053 -0.83736444 -0.15954268 0.10775054 -0.13115826
1.6541929 0.9176726 0.02583252 0.114637055 -0.7047605 -5.048673 -0.39428565 0.06880456
1.1395493 -0.49717414 0.60954803 1.6438229 0.5422011 0.08716977 -1.4567882 1.1499187

de4.bias f4 [8]
00000000: 81ac 0e3f fa8e ca3e 2121 34be 70df a63f
00000010: ac8b ff3e ebc2 fd3e b4b8 64be 5b20 b93e
0.5573197 0.39562207 -0.17590763 1.3036938 0.4991125 0.49562773 -0.22336084 0.36157498

de5.weight f4 [4, 8]
00000000: 6d23 3b3f 6ea3 5140 587d a1bf bdc0 2540
00000010: 6633 9f3e 498f b63d afed 85bd 64fb 8bbf
00000020: cf03 bbbf 836a 2b3f 946e 1b3e b961 4cbf
00000030: eee1 13c0 b86e 4cbe 0211 e9be 8138 1c40
00000040: 4578 5cbf 0727 c0bd 83f1 913d 8537 053d
00000050: 4e5b 07bf 19aa 0041 9049 aabe 0d50 a43e
00000060: 0f24 4140 065b 6a3f 690b 79c0 ee6e 3a3f
00000070: f995 2ac0 b2a0 063f ef8e 9340 b320 503f
0.7310093 3.2756 -1.2616377 2.5898888 0.310939 0.08914048 -0.06539475 -1.0936093
-1.4610537 0.669594 0.15178901 -0.7983661 -2.3106647 -0.19964111 -0.45520788 2.4409487
-0.86121017 -0.09382444 0.07126143 0.03252365 -0.52873695 8.041528 -0.3325925 0.32092324
3.0178258 0.9154514 -3.8913214 0.72825515 -2.6654036 0.5258895 4.611198 0.81299895

de5.bias f4 [4]
00000000: 68f0 163f b8a5 0c3b 8595 543f 3eea 3d40
0.5896058 0.002146108 0.8304065 2.967422
