first_tutorials/models/AE_big_model_loss48eneg6.pt (torch_old, 3365 bytes, 16 tensors)

en1.weight f4 [8, 4]
0.004174357 0.20641932 0.10173907 -0.04419286 -0.0053978665 0.2917412 -0.04198118 0.030210977
0.021887325 0.41066796 -0.016981969 0.023544088 -0.018152991 0.4530661 0.011055576 -0.06323771
0.0069250567 0.018572751 -0.08932145 -0.09999617 -0.10489303 0.05869501 -0.038530525 -0.04320626
0.062955305 0.063078344 0.031085411 0.08705526 -0.009411868 0.1268183 0.085373126 -0.035349358
00000000: 0bc9 883b 965f 533e 935c d03d 9303 35bd
00000010: 96e0 b0bb 1a5f 953e 75f4 2bbd 037d f73c
00000020: 0c4d b33c 1243 d23e c51d 8bbc 88df c03c
00000030: 95b5 94bc 48f8 e73e 7222 353c c682 81bd
00000040: 96eb e23b e225 983c 2aee b6bd cbca ccbd
00000050: 28d2 d6bd 2e6a 703d 2fd2 1dbd 0cf9 30bd
00000060: b6ee 803d 382f 813d d5a6 fe3c 074a b23d
00000070: 3c34 1abc a8dc 013e 1bd8 ae3d 7dca 10bd

en1.bias f4 [8]
-0.5085511 0.42051053 -1.0092223 0.21612309 1.759789 0.38529548 0.39987925 0.60581076
00000000: 6830 02bf 284d d73e 322e 81bf 5f4f 5d3e
00000010: c440 e13f 7345 c53e f9bc cc3e 6a16 1b3f

en2.weight f4 [6, 8]
0.24786942 -0.1473326 -0.17032497 -0.09785878 -0.12867764 0.08324611 0.19857949 0.35795367
-0.038117893 0.1515516 0.38414437 -0.048795152 0.22002052 0.32463905 0.51044446 0.0040623522
-0.1316316 0.63935196 0.09885045 0.35540873 0.41083682 0.13387804 -0.11598752 0.4517555
0.17996101 -0.1796578 0.5390109 0.3796759 -0.15554522 0.22809611 -0.847222 0.11625469
0.37113577 -0.112612166 0.65601283 -0.036863416 -0.5275942 -0.3094131 0.023310916 -0.17125274
0.16385908 0.115007944 0.3232398 -0.54808205 -0.315317 -0.24659488 0.08684586 -0.30769688
00000000: 7bd1 7d3e 5bde 16be ab69 2ebe 2f6a c8bd
00000010: 12c4 03be f07c aa3d 6c58 4b3e b445 b73e
00000020: 8221 1cbd 5830 1b3e 92ae c43e 6ddd 47bd
00000030: 0f4d 613e 1737 a63e 7dac 023f 7b1d 853b
00000040: 6fca 06be 92ac 233f 1b72 ca3d 22f8 b53e
00000050: 3459 d23e 5317 093e dd8a edbd 7f4c e73e
00000060: b347 383e 37f8 37be 9efc 093f e164 c23e
00000070: 3f47 1fbe 0792 693e 8ae3 58bf f016 ee3d
00000080: 8205 be3e 35a1 e6bd 75f0 273f 18fe 16bd
00000090: 6a10 07bf 656b 9ebe 89f6 be3c e15c 2fbe
000000a0: adca 273e 4989 eb3d b07f a53e 1b4f 0cbf
000000b0: 3b71 a1be 5e83 7cbe 3edc b13d 728a 9dbe

en2.bias f4 [6]
-0.0113486275 -0.10658721 0.54683757 -0.05586259 -0.16518788 -0.32663307
00000000: 98ef 39bc 654a dabd 8cfd 0b3f 2cd0 64bd
00000010: 0327 29be 733c a7be

en3.weight f4 [4, 6]
-0.6776974 -0.09422241 -0.5469092 0.3441157 -0.7174951 0.25570205 -0.420217 0.017257098
0.25300592 0.19962217 -0.47164074 -0.66785765 0.2432532 -0.073929645 -0.4119181 -0.4471208
-0.627688 -0.013800058 -0.63340104 0.5304844 0.5111549 -0.43509495 0.21400794 0.4617546
00000000: 947d 2dbf aef7 c0bd 3e02 0cbf ef2f b03e
00000010: c2ad 37bf 61eb 823e af26 d7be c25e 8d3c
00000020: fe89 813e c169 4c3e e57a f1be b8f8 2abf
00000030: 5e17 793e 6d68 97bd eee6 d2be 04ed e4be
00000040: 29b0 20bf a319 62bc 9226 22bf d3cd 073f
00000050: 0cdb 023f c4c4 debe e624 5b3e 196b ec3e

en3.bias f4 [4]
-0.07824756 0.10397927 0.08151053 -0.11166355
00000000: 4240 a0bd 15f3 d43d feee a63d dcaf e4bd

en4.weight f4 [3, 4]
-0.73003286 -0.37740105 -0.7376799 0.032018617 0.036631294 -0.714975 0.3404993 0.48337728
-0.27649102 -0.5048726 0.6382645 -0.455609
00000000: 6fe3 3abf b63a c1be 97d8 3cbf f425 033d
00000010: b20a 163d 9a08 37bf ed55 ae3e 3a7d f73e
00000020: 3b90 8dbe 553f 01bf 4d65 233f 9545 e9be

en4.bias f4 [3]
0.22576204 0.17118679 0.016706634
00000000: 2a2e 673e 974b 2f3e 5adc 883c

de1.weight f4 [4, 3]
0.26809245 0.9891776 0.7785389 1.444982 -1.1760244 -0.40154144 1.1691569 0.7095572
-0.26897788 -0.21282212 -0.4787506 1.0707626
00000000: 6a43 893e be3a 7d3f 534e 473f 2cf5 b83f
00000010: f887 96bf d796 cdbe efa6 953f 8aa5 353f
00000020: 78b7 89be 0bee 59be cc1e f5be c00e 893f

de1.bias f4 [4]
-0.15950803 0.06256976 0.27189344 0.06450239
00000000: 1356 23be 9324 803d 9e35 8b3e d419 843d

de2.weight f4 [6, 4]
0.472128 -1.0816805 -0.4423731 0.9007353 1.1655866 -0.5306021 0.7660409 -1.140612
-1.4012017 2.6759305 0.14528653 -1.229756 1.4230962 0.27711347 0.5026193 0.5599626
0.30118135 -0.7690764 0.024675023 -1.1257664 -0.6746374 1.0014632 2.1044786 -0.37069252
00000000: c3ba f13e 8274 8abf ba7e e2be 9796 663f
00000010: f131 953f 8ad5 07bf 421b 443f 93ff 91bf
00000020: 945a b3bf 7242 2b40 fec5 143e a568 9dbf
00000030: 0428 b63f d1e1 8d3e a9ab 003f b559 0f3f
00000040: 7134 9a3e 31e2 44bf 4623 ca3c 1d19 90bf
00000050: 09b5 2cbf f22f 803f c7af 0640 69cb bdbe

de2.bias f4 [6]
0.47397703 0.01683939 -0.49438685 0.34584072 0.60886943 0.641269
00000000: 1ead f23e c3f2 893c 4620 fdbe 0912 b13e
00000010: dede 1b3f 352a 243f

de3.weight f4 [8, 6]
0.44819772 -0.42353725 0.058981195 -1.1582551 0.3122736 -0.22900195 0.13413046 0.15865971
0.43220854 1.9071044 -0.29402742 -0.3327988 -0.19390787 0.88334227 0.32930726 1.1154014
1.4867474 -0.48596096 0.30083877 0.6706198 0.13710889 -0.08628928 1.5690191 0.49484465
1.006221 -1.4879775 -0.4674803 -0.12976488 -1.5796766 1.3158188 -0.88570154 -0.6203213
0.4168521 -0.69972914 -0.6700054 0.5640971 -0.05007812 2.1567476 -1.6173784 0.78774196
-0.17320013 1.9310771 1.3140038 -1.5020416 -0.17546983 -1.3422514 -0.695689 -2.1115777
00000000: 2c7a e53e e0d9 d8be 4496 713d b441 94bf
00000010: 53e2 9f3e 7d7f 6abe 7f59 093e b177 223e
00000020: 704a dd3e ff1b f43f c38a 96be 9b64 aabe
00000030: c98f 46be b822 623f f69a a83e 79c5 8e3f
00000040: bd4d be3f e0cf f8be 8a07 9a3e bdad 2b3f
00000050: 4666 0c3e 6fb8 b0bd 9ed5 c83f 475c fd3e
00000060: dacb 803f 0c76 bebf 9459 efbe 16e1 04be
00000070: d832 cabf c06c a83f 56bd 62bf 60cd 1ebf
00000080: a36d d53e 7321 33bf 7985 2bbf ab68 103f
00000090: b71e 4dbd 2708 0a40 4106 cfbf 75a9 493f
000000a0: 605b 31be 892d f73f 4731 a83f e642 c0bf
000000b0: 5dae 33be e5ce abbf ad18 32bf 1724 07c0

de3.bias f4 [8]
-0.52787447 0.56542146 0.25888455 0.41109028 -0.18563762 -0.41285595 -1.2623348 -0.45010024
00000000: c822 07bf 76bf 103f 848c 843e 6d7a d23e
00000010: ca17 3ebe db61 d3be 3094 a1bf 8a73 e6be

de4.weight f4 [4, 8]
-0.4864764 -0.28831 0.14417604 0.89881456 0.79342663 -3.90826 3.9025989 -3.378468
-4.03785 -2.3417368 -0.14469017 0.16375968 0.09799903 1.1415604 -0.23082237 -0.28879645
-2.185813 6.2256136 -0.53638065 -2.5993304 1.1555794 0.10552293 -0.2336559 0.38087136
-1.2697479 2.2956884 4.044974 2.982284 -3.0128653 1.147902 -0.8834812 1.4511954
00000000: 6f13 f9be 5e9d 93be e2a2 133e b618 663f
00000010: 021e 4b3f ef20 7ac0 2ec4 7940 d238 58c0
00000020: 1136 81c0 04df 15c0 a929 14be 9eb0 273e
00000030: b7b3 c83d a71e 923f b35c 6cbe 21dd 93be
00000040: 5ce4 0bc0 3a38 c740 3e50 09bf 6e5b 26c0
00000050: 07ea 933f 681c d83d 7e43 6fbe 9201 c33e
00000060: 1987 a2bf 8fec 1240 6d70 8140 bedd 3e40
00000070: c9d2 40c0 74ee 923f d32b 62bf c5c0 b93f

de4.bias f4 [4]
1.1165981 -0.24958292 -0.28869352 1.8553928
00000000: b0ec 8e3f aa92 7fbe a3cf 93be 837d ed3f
