jet_by_jet_compression/AE_3D_latent_space/models/AE_3D_bs256_loss52eneg7.pt (torch_old, 128699 bytes, 16 tensors)

en1.weight f4 [100, 4]
0.04038088 0.441291 -0.09793333 0.40301052 -0.10073847 -0.12944457 -0.17379406 0.17845435
0.05777347 0.37993503 -0.044502143 -0.005967782 0.22206879 0.4186368 0.194317 -0.19090687
-0.09368868 0.48219928 -0.18853787 0.011856703 -0.042814527 0.27803594 -0.14185044 0.042644314
-0.07487504 0.43371564 -0.025747232 0.07881632 -0.030741053 -0.28765115 0.3251708 0.013551147
0.06832444 0.28127715 0.0020629957 0.109428674 0.009301165 0.015996553 0.4580243 -0.07222922
0.054397386 -0.1411514 -0.39746088 0.05126018 0.044066265 0.14440143 0.28887132 -0.038827255
-0.510996 -0.0207529 -0.06495792 0.01037505 0.013484559 0.3524013 0.019831292 -0.09208125
0.07986112 -0.39204344 -0.050493542 0.018244546 0.074409336 0.1814908 -0.119539216 0.011212322
0.19023061 -0.024862902 0.33112583 -0.1349748 0.079314075 0.34883997 -0.48563185 -0.16001111
-0.15318914 0.021737782 -0.33072597 0.12039651 0.053404313 0.37765998 0.22294137 -0.07529617
-0.0010281986 0.43131262 -0.008706355 0.0009459918 -0.05891419 -0.14362074 0.11111116 0.07223273
-0.2717806 0.29565182 0.06742242 0.091253325 -0.108788215 0.44246086 0.305624 0.047867786
0.008085387 0.015223958 -0.4353121 -0.0023228994 0.046750553 0.035768 0.1576636 -0.085745946
0.08502261 0.46514615 -0.03785973 -0.21659969 0.11427629 -0.16442846 -0.29787293 -0.025578177
0.029670773 -0.13034184 -0.401583 -0.20675875 0.13433254 -0.4630188 -0.36429211 -0.23962505
-0.028362315 0.3668058 0.24081533 -0.026996447 0.051756285 -0.3962519 0.2247133 0.11291584
0.025452878 -0.43129337 0.10134083 0.020961268 -0.1392744 0.21737231 0.46321046 0.044353046
-0.008946552 0.32768384 0.15632096 0.011647242 -0.21814851 -0.15100902 0.3530725 0.12637074
0.032060355 -0.38394266 0.10349171 0.0046719885 -0.08387094 0.43972537 -0.08315118 0.112392426
-0.071989916 -0.038931277 0.46768832 -0.000119672055 0.0015995238 -0.54021406 0.071108356 0.15237302
0.15019411 -0.4340957 0.30497396 -0.43586642 0.17581578 -0.11289149 -0.44936714 0.0063629267
-0.017398983 0.24739103 0.34817284 -0.103645466 0.07174652 -0.29718986 -0.096266516 -0.09477407
0.060188673 0.4513395 0.21106216 -0.03813944 -0.3188229 -0.3679571 0.010447446 0.22164257
-0.101507634 -0.013927363 0.16766593 -0.0362638 0.13667962 0.13622582 -0.17640819 -0.12064354
0.14581056 -0.14288744 0.17301004 0.10218353 -0.033578888 -0.4269884 -0.19084571 -0.00031632304
0.31817093 -0.49929163 -0.07836612 -0.15620145 -0.089076616 0.41561446 0.18790129 0.076179825
-0.043061428 0.40289247 -0.31895965 0.039637785 0.14901018 0.1095398 -0.31513095 -0.044393323
0.013516079 0.046291508 0.15047735 -0.06864236 0.16201697 0.47832698 -0.33417752 -0.058832068
0.028662935 -0.12569235 0.36526603 -0.05296775 -0.1261321 0.022593403 0.15199326 -0.03530261
0.019588372 -0.41670358 0.025809666 -0.3272435 0.13094373 0.23294711 0.18231459 -0.1498757
0.09167221 -0.058776677 -0.13508846 -0.28383222 -0.14411604 -0.37819946 0.26831484 0.084944814
0.047636777 0.52713096 0.120855585 -0.070712544 -0.23187634 0.012652216 -0.07689369 0.087127134
00000000: 6c66 253d e5f0 e13e 4591 c8bd 6557 ce3e
00000010: f94f cebd 1e8d 04be 12f7 31be bdbc 363e
00000020: e0a3 6c3d d886 c23e e147 36bd 628d c3bb
00000030: 0066 633e 9057 d63e 09fb 463e 177d 43be
00000040: dadf bfbd d3e2 f63e 1210 41be 9e42 423c
00000050: 495e 2fbd ba5a 8e3e 3e41 11be ceab 2e3d
00000060: 1658 99bd fa0f de3e dceb d2bc 736a a13d
00000070: a9d4 fbbc 0347 93be c97c a63e a105 5e3c
00000080: afed 8b3d 8f03 903e 5333 073b 241c e03d
00000090: ea63 183c 340b 833c 2982 ea3e eaec 93bd
000000a0: cbcf 5e3d fe89 10be fe7f cbbe 32f6 513d
000000b0: d47e 343d f8dd 133e f1e6 933e 5409 1fbd
000000c0: a2d0 02bf fc01 aabc a808 85bd 1dfc 293c
000000d0: 57ee 5c3c f16d b43e 3c75 a23c 1895 bcbd
000000e0: 3a8e a33d ebb9 c8be 51d2 4ebd 9675 953c
000000f0: ec63 983d b9d8 393e fad0 f4bd e3b3 373c
00000100: d0cb 423e 49ad cbbc 5389 a93e d536 0abe
00000110: 6b6f a23d 279b b23e bda4 f8be f4d9 23be
00000120: 9ddd 1cbe 6f13 b23c ea54 a9be 7292 f63d
00000130: 7bbe 5a3d a65c c13e be4a 643e e134 9abd
00000140: 9fc4 86ba 02d5 dc3e 19a5 0ebc 6ffc 773a
00000150: 0150 71bd 5111 13be 3f8e e33d c1ee 933d
00000160: d426 8bbe ad5f 973e c414 8a3d 06e3 ba3d
00000170: 5bcc debd 3b8a e23e c07a 9c3e 0311 443d
00000180: 9278 043c e86d 793c 3ae1 debe c93b 18bb
00000190: 827d 3f3d 7781 123d 9172 213e 929b afbd
000001a0: 5620 ae3d a327 ee3e ce12 1bbd 4fcc 5dbe
000001b0: b009 ea3d ef5f 28be cd82 98be 5389 d1bc
000001c0: 1f10 f33c 5578 05be 499c cdbe 91b8 53be
000001d0: 788e 093e cd10 edbe 7f84 babe 4560 75be
000001e0: 1658 e8bc f8cd bb3e 4b98 763e a727 ddbc
000001f0: 66fe 533d 87e1 cabe 3e1b 663e 6c40 e73d
00000200: 8e82 d03c 7cd2 dcbe c88b cf3d f7b6 ab3c
00000210: f39d 0ebe d996 5e3e ec29 ed3e 8aab 353d
00000220: 8f94 12bc 2dc6 a73e 9a12 203e 13d4 3e3c
00000230: 5362 5fbe 1ca2 1abe ebc5 b43e 5567 013e
00000240: b851 033d 2294 c4be 76f3 d33d 7b17 993b
00000250: 87c4 abbd af23 e13e 2a4b aabd 002e e63d
00000260: 736f 93bd 6776 1fbd d874 ef3e 72f8 fab8
00000270: 1da7 d13a 784b 0abf 42a1 913d ac07 1c3e
00000280: 7ccc 193e cb41 debe 8c25 9c3e e229 dfbe
00000290: 0d09 343e a733 e7bd 7313 e6be 1980 d03b
000002a0: 5088 8ebc 1354 7d3e b643 b23e 1344 d4bd
000002b0: d7ef 923d 4529 98be 6127 c5bd e818 c2bd
000002c0: 6688 763d f915 e73e ae20 583e 1a38 1cbd
000002d0: c13c a3be df64 bcbe c42b 2b3c 45f6 623e
000002e0: 3ce3 cfbd 982f 64bc 9eb0 2b3e 5a89 14bd
000002f0: bef5 0b3e c87e 0b3e 59a4 34be f613 f7bd
00000300: 5d4f 153e 1651 12be 8b29 313e 9945 d13d
00000310: 048a 09bd 399e dabe 0f6d 43be 29d8 a5b9
00000320: 4de7 a23e 27a3 ffbe 6b7e a0bd 46f3 1fbe
00000330: cd6d b6bd 6bcb d43e 3269 403e 2b04 9c3d
00000340: 2e61 30bd ec47 ce3e ae4e a3be 3b5b 223d
00000350: 2096 183e 6756 e03d d858 a1be c6d5 35bd
00000360: 8b72 5d3c 2a9c 3d3d bc16 1a3e 5e94 8cbd
00000370: c7e7 253e 46e7 f43e 5119 abbe e5f9 70bd
00000380: 88ce ea3c 7fb5 00be 2604 bb3e b6f4 58bd
00000390: c628 01be cd15 b93c 1fa4 1b3e 7899 10bd
000003a0: cb77 a03c 2c5a d5be cb6e d33c 768c a7be
000003b0: 1d16 063e b089 6e3e adb0 3a3e 0479 19be
000003c0: a4be bb3d d0bf 70bd a154 0abe 7552 91be
000003d0: 2893 13be 5ca3 c1be 9060 893e 8cf7 ad3d
000003e0: c81e 433d 0ef2 063f 2283 f73d bdd1 90bd
000003f0: fe70 6dbe 3d4b 4f3c 707a 9dbd b66f b23d

en1.bias f4 [100]
0.26581946 0.60321754 -0.13077489 -0.3003809 0.50916314 -0.1830958 -0.303068 0.25457245
-0.15265004 0.59526515 0.6660417 -0.10708699 -0.49563333 -0.6735924 -0.6597812 0.060775742
-0.4266429 0.028586894 -0.3091955 0.10613998 0.45361647 0.021972116 -0.7099993 0.34743938
0.2287338 0.35770497 -0.15965588 -0.39449257 -0.10738578 0.0980158 -0.2219959 -0.42240083
-0.5593952 0.51053035 -0.35378268 -0.1868189 0.07256082 -0.43746534 -0.071086206 0.35415253
-0.42207283 0.47622654 -0.0394789 0.5921925 -0.11073418 0.18472275 -0.60232186 0.23876944
0.031568896 0.10483284 -0.1784378 -0.4705021 0.048933577 0.199683 0.11318179 -0.51537246
-0.579193 -0.27043363 0.16324398 -0.15721291 -0.5488063 0.2544328 0.18191005 0.6457321
0.74958986 -0.15546165 -0.005632424 0.10338809 -0.7375375 0.4836253 0.035954107 -0.22175267
0.2548733 0.18103537 0.37406293 -0.62518495 0.31622127 0.36675462 0.046972185 -0.294454
0.7105909 -0.03906286 -0.7110454 0.5099217 -0.28715774 -0.42680854 -0.6356331 0.5318313
-0.0044618035 -0.10899837 0.49969643 -0.30548018 0.12898737 0.32822904 -0.1402575 0.12553972
-0.7131347 -0.7697691 -0.44770157 -0.15444519
00000000: 7d19 883e 776c 1a3f dae9 05be 86cb 99be
00000010: 8458 023f 777d 3bbe bb2b 9bbe 5257 823e
00000020: 4b50 1cbe 4c63 183f b581 2a3f 6c50 dbbd
00000030: a7c3 fdbe 8d70 2cbf 6ce7 28bf fcef 783d
00000040: f070 dabe 102f ea3c df4e 9ebe eb5f d93d
00000050: 6b40 e83e defe b33c 84c2 35bf 93e3 b13e
00000060: 3139 6a3e 1b25 b73e d57c 23be eefa c9be
00000070: 13ed dbbd 82bc c83d e552 63be ec44 d8be
00000080: 8634 0fbf 1eb2 023f 0123 b5be 744d 3fbe
00000090: c49a 943d 75fb dfbe a595 91bd 7b53 b53e
000000a0: ee19 d8be f7d3 f33e a1b4 21bd ed99 173f
000000b0: 9ac8 e2bd f627 3d3e c431 1abf fa7f 743e
000000c0: 634e 013d 9ab2 d63d 66b8 36be a7e5 f0be
000000d0: 936e 483d b379 4c3e dbcb e73d 73ef 03bf
000000e0: fe45 14bf 4776 8abe 6e29 273e 6cfc 20be
000000f0: 927e 0cbf 0445 823e a146 3a3e b34e 253f
00000100: 1fe5 3f3f 5731 1fbe 3290 b8bb 23bd d33d
00000110: 42cf 3cbf bc9d f73e 9d44 133d 2213 63be
00000120: c17e 823e 5661 393e 2d85 bf3e 1f0c 20bf
00000130: c1e7 a13e 43c7 bb3e e865 403d adc2 96be
00000140: 49e9 353f 6100 20bd 1207 36bf 3b8a 023f
00000150: 5706 93be a686 dabe dab8 22bf 1926 083f
00000160: 5234 92bb 8a3a dfbd 36d8 ff3e e667 9cbe
00000170: 4415 043e a30d a83e a99f 0fbe 7c8d 003e
00000180: ff8f 36bf 960f 45bf 2439 e5be e126 1ebe

en2.weight f4 [100, 100]
0.0063844915 0.036975335 0.1602181 0.0031699422 0.07393023 -0.10848944 -0.09864408 0.038233913
0.02617754 -0.08518879 -0.052346177 -0.066364326 -0.016657937 -0.11005355 -0.09561315 0.100090206
0.037361067 0.068748616 -0.006698225 -0.05586055 -0.13578098 0.0064963065 0.05428941 0.10551548
-0.010453409 0.1589788 0.03657317 -0.07064464 0.06668608 0.15502228 0.022014018 -0.11673912
0.034333374 0.043841545 0.03731596 0.0546205 0.015729621 -0.08324345 0.031316288 -0.02552591
-0.04501409 0.013959868 0.12668294 0.0070946454 -0.08669022 -0.044880766 -0.12103101 0.08853386
-0.11547047 0.18062325 -0.0034610284 -0.089772776 0.17972204 -0.06591411 0.07538394 0.025382275
0.08600571 0.044491645 0.047842227 -0.052852318 -0.097413845 0.13990946 0.16523398 0.022343857
-0.021020208 -0.1510374 -0.0818103 -0.06650743 -0.048215445 -0.09358345 -0.121330425 -0.0039942227
-0.096451394 0.021726223 -0.08956119 -0.0134535795 -0.04792089 0.019522121 -0.10554201 0.06757322
-0.10156514 0.012608464 -0.063300066 -0.019401133 0.010246533 -0.07789657 0.047166582 0.032624066
-0.00720354 0.027055066 0.12470588 -0.10400916 0.054720182 0.03460599 -0.06512582 -0.069166996
-0.096360765 0.019902984 -0.03636683 0.018074812 -0.015016184 -0.036544178 0.08401212 -0.10006344
-0.13468279 0.05294559 0.14709873 -0.016948093 -0.0007883813 -0.096264996 0.0011207539 -0.15568556
0.03874268 0.18915609 0.13114308 -0.05379931 -0.0017558354 -0.17715171 0.015198278 -0.041910917
-0.06359776 0.07693208 0.0865182 -0.09121305 0.0909543 -0.08483346 -0.035171222 -0.01885707
-0.09773864 0.028853947 -0.001287881 0.13541979 0.06272035 -0.082770064 -0.054334827 0.033830117
-0.07029139 0.15046293 -0.10471397 -0.019270165 -0.051739767 -0.036933538 -0.1717462 -0.23992306
-0.03288033 0.13462344 0.08935359 -0.026327113 0.13589951 -0.013999948 0.013897821 0.008108154
0.095457755 -0.034580804 -0.015076831 -0.120200336 0.013158022 -0.026098533 -0.017005855 0.08102809
0.05366139 0.012516076 0.011505606 -0.06532572 -0.033425365 -0.12495903 0.067230664 -0.0744704
0.08999602 0.026693186 0.079255976 -0.08467133 0.046705104 0.06199106 -0.090741746 0.110033855
-0.04228339 0.019479318 -0.18725756 -0.007928099 0.033163603 -0.061221417 0.099955626 0.062517636
0.0636327 -0.12779419 0.021305617 0.014620784 0.1283597 -0.1356695 -0.19737549 0.11940406
0.08960001 -0.14964704 0.066444665 -0.084184945 0.11222131 -0.04166584 0.031101733 0.11961803
-0.18453169 -0.042217907 -0.12523328 -0.08462705 0.060937714 0.028892696 0.09161944 -0.008468863
-0.056356087 -0.06984348 -0.15902461 0.0078238165 0.06959813 0.076041654 -0.061838012 -0.15499935
-0.04688706 -0.08298437 0.026078256 0.04208354 0.07646433 0.06454969 -0.112319455 -0.09417777
0.07942387 0.0013883534 0.03184897 -0.06780349 0.035536245 0.09883095 -0.05462878 -0.0052152816
-0.006097413 0.08489998 0.09772748 0.045278754 -0.019586643 0.07216894 0.012216918 -0.005819438
0.097194605 -0.047185224 -0.014847146 -0.13880266 0.07081497 0.021902578 0.19849801 0.08637895
-0.12596132 -0.1192203 -0.029253324 -0.094750606 -0.10394081 0.05177784 0.06544356 -0.029319366
00000000: ff34 d13b 7373 173d 3710 243e cebe 4f3b
00000010: bc68 973d b62f debd e805 cabd 2a9b 1c3d
00000020: 4872 d63c 7677 aebd f268 56bd 05ea 87bd
00000030: 3a76 88bc c163 e1bd d4d0 c3bd 18fc cc3d
00000040: eb07 193d 13cc 8c3d c97c dbbb 08ce 64bd
00000050: 2b0a 0bbe f8de d43b 935e 5e3d 8018 d83d
00000060: c644 2bbc 57cb 223e c0cd 153d 23ae 90bd
00000070: b692 883d 29be 1e3e be56 b43c eb14 efbd
00000080: 27a1 0c3d 3193 333d 9fd8 183d bfb9 5f3d
00000090: 68db 803c 8b7b aabd 8245 003d b71b d1bc
000000a0: b260 38bd eeb7 643c 2cb9 013e 337a e83b
000000b0: a48a b1bd e5d4 37bd 1bdf f7bd 3e51 b53d
000000c0: c87b ecbd 4df5 383e 6cd2 62bb cada b7bd
000000d0: 0e09 383e fafd 86bd e562 9a3d 7dee cf3c
000000e0: c323 b03d df3c 363d 36f6 433d ac7b 58bd
000000f0: e980 c7bd 6d44 0f3e 1933 293e 770a b73c
00000100: 9232 acbc 8ca9 1abe 298c a7bd 0c35 88bd
00000110: 8f7d 45bd aea8 bfbd 167c f8bd f8e1 82bb
00000120: 4f88 c5bd 31fb b13c db6b b7bd 676c 5cbc
00000130: b248 44bd dbec 9f3c 6926 d8bd d463 8a3d
00000140: 6201 d0bd bb93 4e3c 77a3 81bd 20ef 9ebc
00000150: 13e1 273c 3d88 9fbd bf31 413d d0a0 053d
00000160: ac0b ecbb 96a2 dd3c cc65 ff3d c102 d5bd
00000170: 4522 603d 03bf 0d3d b060 85bd 6da7 8dbd
00000180: cb58 c5bd 950b a33c 63f5 14bd a111 943c
00000190: 7106 76bc 59af 15bd 8c0e ac3d 10ee ccbd
000001a0: 49ea 09be 7add 583d 0da1 163e bad6 8abc
000001b0: 60ab 4eba 9526 c5bd 43e6 923a 096c 1fbe
000001c0: a5b0 1e3d 22b2 413e 5f4a 063e aa5c 5cbd
000001d0: 0f24 e6ba 4267 35be 3302 793c c8aa 2bbd
000001e0: 8b3f 82bd 918e 9d3d 7430 b13d e8cd babd
000001f0: 3f46 ba3d 2abd adbd b30f 10bd 247a 9abc
00000200: 322b c8bd 1d5f ec3c 1ece a8ba 7cab 0a3e
00000210: 8773 803d 5a83 a9bd 328e 5ebd 7391 0a3d
00000220: eff4 8fbd f412 1a3e 4774 d6bd 77dc 9dbc
00000230: 14ed 53bd 9f47 17bd 3cde 2fbe 64ae 75be
00000240: 86ad 06bd bada 093e 04ff b63d f5ab d7bc
00000250: 3e29 0b3e 0a60 65bc b0b3 633c 10d8 043c
00000260: 5b7f c33d 9aa4 0dbd d004 77bc 982b f6bd
00000270: bf94 573c 97cc d5bc dd4f 8bbc 0ef2 a53d
00000280: 0ccc 5b3d 3a10 4d3c 0282 3c3c 7ec9 85bd
00000290: 09e9 08bd 85ea ffbd 3bb0 893d f083 98bd
000002a0: d54f b83d abab da3c f550 a23d 2a68 adbd
000002b0: da4d 3f3d 56ea 7d3d cfd6 b9bd 6e59 e13d
000002c0: 5931 2dbd 1793 9f3c 72c0 3fbe dbe4 01bc
000002d0: 8fd6 073d 4fc3 7abd 89b5 cc3d 3f09 803d
000002e0: dc51 823d 7bdc 02be 1e89 ae3c 038c 6f3c
000002f0: ba70 033e f2ec 0abe cd1c 4abe 1e8a f43d
00000300: 3680 b73d 133d 19be 2414 883d 2869 acbd
00000310: 49d4 e53d cda9 2abd 10c9 fe3c 4cfa f43d
00000320: e0f5 3cbe afec 2cbd 273d 00be f250 adbd
00000330: d399 793d 60b0 ec3c f9a2 bb3d fcc0 0abc
00000340: a4d5 66bd 190a 8fbd 59d7 22be 772f 003c
00000350: 7789 8e3d babb 9b3d db49 7dbd 26b8 1ebe
00000360: a50c 40bd b6f3 a9bd 11a2 d53c ca5f 2c3d
00000370: 5599 9c3d a132 843d be07 e6bd 46e0 c0bd
00000380: fba8 a23d 69f9 b53a 1174 023d 8edc 8abd
00000390: 748e 113d e267 ca3d 6dc2 5fbd f4e4 aabb
000003a0: cfcc c7bb 0ae0 ad3d 5825 c83d 3776 393d
000003b0: 2b74 a0bc 4fcd 933d 7829 483c fcb0 bebb
000003c0: f70d c73d 4b45 41bd 7241 73bc 4922 0ebe
000003d0: 7007 913d 096d b33c 1043 4b3e 72e7 b03d
000003e0: 01fc 00be c629 f4bd aba4 efbc 9b0c c2bd
000003f0: ebde d4bd 0015 543d 4607 863d 2b2f f0bc

en2.bias f4 [100]
-0.028063405 -0.13068278 0.095497034 -0.0012057859 0.11926787 0.071120135 0.04051774 0.06855765
0.063904 0.016571386 0.05604033 -0.08963067 0.093614124 -0.07977359 -0.08708416 0.12674889
-0.06536922 0.037864268 -0.058564514 0.011170557 -0.14350185 -0.07505686 -0.087102026 0.13996229
0.17327811 0.002656581 -0.09919382 -0.06197643 0.04390644 -0.119000494 -0.12633038 -0.15254156
-0.24586657 0.04388286 -0.028669037 -0.07509011 0.08765937 0.037812233 -0.06569836 -0.19433486
-0.08167221 0.0375966 0.10566591 -0.0027143834 0.13102555 0.04427289 0.061756227 -0.13218299
-0.15322478 -0.15080197 0.075484976 -0.035935406 0.014200262 -0.04144518 0.09537482 0.050271288
-0.0037333851 0.16814575 -0.16438158 0.04026095 -0.07669347 0.052818272 -0.09790675 0.025336914
0.031572886 -0.013630788 -0.016929712 0.21289025 0.03269279 -0.010031184 -0.12340253 -0.06890848
0.022359006 0.16539073 -0.053304303 -0.010879391 -0.10886169 0.061030462 -0.114154875 0.033763185
-0.07245911 0.020318994 -0.023946218 -0.15041131 -0.13386947 0.03581639 0.13907439 0.112234175
-0.06500591 0.07641571 0.08483875 -0.012843761 0.1637652 0.03462965 -0.042870697 -0.034006335
0.048105594 0.12944949 -0.09014693 -0.13725294
00000000: 3ae5 e5bc b5d1 05be f393 c33d 760b 9eba
00000010: b742 f43d 6fa7 913d eef5 253d f467 8c3d
00000020: 1ae0 823d b7c0 873c 8c8a 653d 4990 b7bd
00000030: c3b8 bf3d 5660 a3bd 2e59 b2bd 76ca 013e
00000040: 4ce0 85bd 9017 1b3d 58e1 6fbd b604 373c
00000050: 26f2 12be 69b7 99bd 8c62 b2bd 4652 0f3e
00000060: d16f 313e 091a 2e3b 2126 cbbd ffda 7dbd
00000070: 3dd7 333d 88b6 f3bd c05c 01be db33 1cbe
00000080: 72c4 7bbe 84be 333d 54db eabc d8c8 99bd
00000090: c186 b33d 00e1 1a3d dd8c 86bd b8ff 46be
000000a0: c243 a7bd e4fe 193d 5e67 d83d cce3 31bb
000000b0: 902b 063e 7d57 353d 19f4 7c3d fa5a 07be
000000c0: f5e6 1cbe d56b 1abe de97 9a3d 0131 13bd
000000d0: 37a8 683c 6cc2 29bd e053 c33d 44e9 4d3d
000000e0: cfab 74bb 662e 2c3e a553 28be aae8 243d
000000f0: 7711 9dbd f957 583d 5683 c8bd 5c8f cf3c
00000100: 9252 013d ab53 5fbc 2eb0 8abc e7ff 593e
00000110: e0e8 053d d659 24bc 77ba fcbd e41f 8dbd
00000120: 3c2a b73c 305c 293e 9d55 5abd 793f 32bc
00000130: e1f2 debd 14fb 793d 08ca e9bd 444b 0a3d
00000140: 7165 94bd 0574 a63c dc2a c4bc 6c05 1abe
00000150: 1415 09be 35b4 123d 8469 0e3e 08db e53d
00000160: d221 85bd d77f 9c3d f0bf ad3d a36e 52bc
00000170: 11b2 273e d2d7 0d3d 2f99 2fbd 3a4a 0bbd
00000180: 5f0a 453d 688e 043e f49e b8bd 098c 0cbe

en3.weight f4 [50, 100]
0.0026406248 0.07896 0.03215787 0.15564385 -0.02610747 0.05164526 -0.060797345 -0.02786512
-0.038046617 -0.052265484 -0.033635754 0.09273513 -0.10780491 0.10065648 -0.023168664 -0.057118967
0.18162116 -0.067298196 -0.11964163 0.056992512 0.10518729 0.056554575 0.027808841 -0.11674461
0.015414188 -0.001552314 0.03999728 0.014272897 -0.0010321274 0.11465291 -0.028240945 0.088971116
0.16474482 0.008465093 -0.005359852 -0.0228512 0.048140407 0.005192125 0.109861545 0.09666635
0.15374698 0.05313272 0.13218695 0.023687802 -0.05010613 0.07521129 -0.077293456 0.0928864
0.0012189329 0.0025648302 -0.17665836 0.061022334 0.118788734 -0.04757691 -0.019867219 0.07544538
0.024382742 -0.09343382 0.050073046 0.037842877 -0.0086145 0.044174086 0.0022586852 -0.056980327
-0.07153387 0.04059063 -0.13300762 -0.04781223 0.090875685 0.07551801 0.11162889 0.12186705
-0.020260114 -0.20549184 0.04038439 0.13936998 0.03283925 0.009631709 0.09703872 -0.004100792
0.016161805 0.022531288 0.18717925 0.21021533 0.15745941 -0.073759645 -0.054969802 -0.054838765
0.055715945 0.053186443 -0.07047117 0.010346796 -0.12290249 -0.03401361 -0.03558616 0.14577262
-0.1544231 -0.012913765 0.18994468 0.1354948 0.09305932 0.06998409 0.064933 0.1963084
-0.12583143 -0.123631805 0.28510526 -0.084610686 -0.104921825 0.032108523 -0.18206403 -0.016171489
-0.06289828 0.08485692 -0.042263046 0.10973963 0.001104592 -0.12165996 0.09880032 0.04524642
-0.0069391117 0.011321127 -0.040534426 -0.06734191 -0.031564202 -0.103360616 0.16711602 0.118723296
-0.033072587 0.0255593 0.050882857 0.052849147 0.07316018 -0.063071206 0.04747489 -0.07237969
-0.040821914 -0.077406265 0.19016024 -0.004326834 0.08282458 -0.050474763 -0.032834675 -0.023662953
-0.07628367 0.12469291 -0.020270105 -0.040865995 -0.11444051 0.049745057 -0.09934335 0.06679326
-0.032138955 0.078852445 0.07179466 -0.003317196 -0.05517594 -0.22140603 0.09216208 0.13307592
0.019271577 -0.09958907 -0.077480674 0.068115406 0.050551668 -0.18107773 0.10507027 0.0151525885
0.092914574 0.054176997 0.11079819 0.104316466 0.032346576 0.10794438 -0.09108683 -0.15030068
0.12222662 -0.032864086 -0.0018465802 -0.020962024 0.14143972 0.004272212 0.056734465 -0.16628046
0.053993557 -0.12575248 -0.18846977 0.16561492 -0.07941964 -0.17265527 0.0119257495 -0.115105525
-0.093269475 -0.18355139 0.030405771 0.035567705 0.111118406 -0.13645443 -0.11896182 -0.014342641
-0.07054248 0.09132284 0.013206433 0.02544414 0.15392944 0.0023412637 0.07180234 -0.10050938
0.09824238 -0.040863886 0.16697374 0.021328244 0.03267507 0.0069656703 0.104011334 -0.0780221
0.08698712 0.12584838 -0.17881146 -0.039304245 0.024860958 -0.0729749 -0.08463548 0.002956014
-0.046631083 0.030446265 0.021860717 -0.0004585566 -0.06010262 0.011261247 -0.09104735 -0.100299954
-0.109403566 0.1041415 0.05697144 -0.044609617 0.030561779 -0.053605337 -0.010776893 -0.11244602
0.071164176 0.0059573227 0.032861825 -0.10805582 0.000780881 -0.06911109 -0.075471364 -0.020619003
-0.0653207 -0.005953034 -0.09564212 0.10789051 -0.08602169 0.08617405 0.031114534 -0.08163309
00000000: 550e 2d3b c8b5 a13d f8b7 033d 1a61 1f3e
00000010: 55df d5bc fb89 533d a306 79bd 6445 e4bc
00000020: c5d6 1bbd 5514 56bd a5c5 09bd eaeb bd3d
00000030: d2c8 dcbd fc24 ce3d 36cc bdbc 94f5 69bd
00000040: e6fa 393e a3d3 89bd ac06 f5bd fb70 693d
00000050: 6f6c d73d c5a5 673d 5ecf e33c cc17 efbd
00000060: ca8b 7c3c 0477 cbba 30d4 233d ded8 693c
00000070: 7348 87ba 25cf ea3d 8e59 e7bc 7d36 b63d
00000080: deb2 283e 2cb1 0a3c b3a1 afbb 7132 bbbc
00000090: e02e 453d b422 aa3b 17ff e03d 02f9 c53d
000000a0: d96f 1d3e b2a1 593d 045c 073e ec0c c23c
000000b0: 163c 4dbd 6008 9a3d 084c 9ebd 3a3b be3d
000000c0: 9ac4 9f3a b616 283b eee5 34be 8ef2 793d
000000d0: 8247 f33d 02e0 42bd 94c0 a2bc 1b83 9a3d
000000e0: 51be c73c 3b5a bfbd 6519 4d3d 2201 1b3d
000000f0: d523 0dbc e3ef 343d 7306 143b 3464 69bd
00000100: 5a80 92bd 5c42 263d 2633 08be c2d6 43bd
00000110: 081d ba3d 30a9 9a3d b09d e43d 6f95 f93d
00000120: 8af8 a5bc 746c 52be 1a6a 253d 01b7 0e3e
00000130: 7382 063d 51ce 1d3c 3dbc c63d f05f 86bb
00000140: c365 843c 8993 b83c ebab 3f3e b042 573e
00000150: 0a3d 213e 4c0f 97bd 0428 61bd 9d9e 60bd
00000160: 6736 643d 07da 593d 3053 90bd 9c85 293c
00000170: 4db4 fbbd db51 0bbd cbc2 11bd 6b45 153e
00000180: 1721 1ebe 4294 53bc dc80 423e 26bf 0a3e
00000190: e295 be3d d253 8f3d 98fb 843d 1205 493e
000001a0: f4d9 00be ac32 fdbd 51f9 913e 5e48 adbd
000001b0: 41e1 d6bd 3a84 033d fe6e 3abe 127a 84bc
000001c0: d0d0 80bd 77c9 ad3d 041c 2dbd 2cbf e03d
000001d0: f5c7 903a db28 f9bd d257 ca3d 4f54 393d
000001e0: 7d61 e3bb 407c 393c 6d07 26bd 8eea 89bd
000001f0: 7749 01bd bbae d3bd 7620 2b3e 3325 f33d
00000200: 1f77 07bd bd61 d13c 8b6a 503d 5978 583d
00000210: 01d5 953d 7a2b 81bd 0875 423d ce3b 94bd
00000220: e134 27bd 2d87 9ebd 5eb9 423e 1dc8 8dbb
00000230: ef9f a93d a0be 4ebd a77d 06bd cfd8 c1bc
00000240: 9d3a 9cbd ff5e ff3d 7e0d a6bc 1a63 27bd
00000250: c95f eabd 79c1 4b3d 8774 cbbd e8ca 883d
00000260: 23a4 03bd 647d a13d 1409 933d 5065 59bb
00000270: 2b00 62bd 43b8 62be 79bf bc3d 0e45 083e
00000280: 6ddf 9d3c 5bf5 cbbd 30ae 9ebd 1780 8b3d
00000290: 440f 4f3d 716c 39be 152f d73d 9042 783c
000002a0: ff49 be3d b3e8 5d3d 29ea e23d dfa3 d53d
000002b0: d87d 043d f111 dd3d bb8b babd 6ce8 19be
000002c0: f351 fa3d 7e9c 06bd f308 f2ba 8db8 abbc
000002d0: 93d5 103e e9fd 8b3b 6662 683d 6d45 2abe
000002e0: 5928 5d3d 42c5 00be 38fe 40be f596 293e
000002f0: c4a6 a2bd 8bcc 30be 3864 433c 72bc ebbd
00000300: 1104 bfbd e5f4 3bbe 8615 f93c 71af 113d
00000310: 0c92 e33d b6ba 0bbe 41a2 f3bd 66fd 6abc
00000320: 9378 90bd 7807 bb3d cb5f 583c 3b70 d03c
00000330: ae9f 1d3e e36f 193b 1b0d 933d ddd7 cdbd
00000340: 4d33 c93d e460 27bd 2afb 2a3e 92b8 ae3c
00000350: 4bd6 053d 4740 e43b e503 d53d 0dca 9fbd
00000360: 4e26 b23d 66de 003e 5a1a 37be 7dfd 20bd
00000370: 35a9 cb3c dd73 95bd 5e55 adbd afb9 413b
00000380: 3c00 3fbd 726a f93c 3f15 b33c 6d6a f0b9
00000390: 2a2e 76bd 1881 383c 0877 babd 106a cdbd
000003a0: fa0e e0bd 2448 d53d e25a 693d 93b8 36bd
000003b0: b25c fa3c 4591 5bbd 9191 30bc 194a e6bd
000003c0: 86be 913d a535 c33b 1f9a 063d 5f4c ddbd
000003d0: 09b4 4c3a 1d8a 8dbd bb90 9abd 2fe9 a8bc
000003e0: dcc6 85bd ab11 c3bb 04e0 c3bd b3f5 dc3d
000003f0: 242c b0bd 057c b03d e8e3 fe3c 402f a7bd

en3.bias f4 [50]
-0.010958106 -0.17527302 0.028211083 0.25493875 -0.08231725 -0.07559683 -0.19397742 -0.09212791
-0.00914938 0.07985704 0.023897134 0.007913206 -0.0060811657 0.063917905 -0.17068778 0.041897234
-0.13063361 0.15405719 0.03881901 0.15251966 0.06269103 0.10178757 -0.018510511 0.012328753
0.022542365 0.059880856 0.062202808 -0.13281569 -0.085729375 -0.0036012738 -0.105431356 0.042741053
0.15757377 0.23099402 -0.07142177 -0.17267056 0.12731272 0.014368 0.0015258517 0.038069606
0.03499041 -0.03526712 0.08044903 0.085414335 0.10215835 -0.25908569 -0.0017731222 0.065475464
-0.1352366 -0.019619582
00000000: a189 33bc c57a 33be ee1a e73c 5587 823e
00000010: f295 a8bd 83d2 9abd 04a2 46be 8fad bcbd
00000020: 48e7 15bc 168c a33d ecc3 c33c 64a6 013c
00000030: 8444 c7bb 64e7 823d c7c8 2ebe 6f9c 2b3d
00000040: d1c4 05be 2bc1 1d3e af00 1f3d 1d2e 1c3e
00000050: 2864 803d 0076 d03d 5ba3 97bc 8afe 493c
00000060: c4aa b83c a145 753d 5fc8 7e3d d600 08be
00000070: e292 afbd 5903 6cbb 65ec d7bd 3e11 2f3d
00000080: 055b 213e b289 6c3e 9445 92bd 8dd0 30be
00000090: 445e 023e c367 6b3c 16ff c73a e0ee 1b3d
000000a0: 1b52 0f3d 4174 10bd 76c2 a43d b6ed ae3d
000000b0: 6638 d13d e1a6 84be 1c68 e8ba 0018 863d
000000c0: 777b 0abe 3fb9 a0bc

en4.weight f4 [3, 50]
-0.02208253 0.11089807 -0.12578666 0.010801426 0.06259625 -0.0056873616 -0.02981665 0.11705474
-0.009845897 0.027957045 -0.10839027 0.01219333 0.022125484 -0.019663604 -0.0738767 -0.15982205
-0.03530226 -0.06353336 -0.13201126 0.031381834 0.0011779334 0.13601707 -0.113695234 -0.021574879
0.012417181 -0.047863636 0.027507823 -0.024161078 0.10088278 -0.1368084 0.12993117 -0.047413014
-0.017501451 -0.022183603 -0.06473689 0.18468831 -0.1356478 -0.0014683036 -0.046625853 -0.11431268
-0.17079657 0.03798925 0.09389528 -0.1304594 0.11810789 0.11521898 -0.09084651 -0.06262814
0.052814648 -0.0043955646 0.031674337 -0.17775641 -0.08160623 -0.011774623 0.03042912 -0.17884137
0.014851567 -0.0012065358 -0.009780812 -0.14733183 0.11567518 0.019303914 0.037559345 0.124695
-0.05255407 -0.070105165 -0.13090877 0.031796303 0.15898596 -0.14116332 0.013997718 0.12915665
-0.0020449683 -0.11715466 0.049474347 0.009967882 0.012107445 0.023139235 -0.09107075 -0.020333821
-0.14866579 -0.023932032 0.1628179 0.014849011 -0.007970879 -0.104660764 0.15475361 -0.013669256
-0.026477154 0.002988636 -0.12442208 0.11808887 0.1774063 -0.0014314703 -0.074265234 0.09201389
0.01192603 0.052535444 0.08610151 -0.039215256 -0.028410658 -0.003813654 -0.14683025 0.051944245
-0.013894837 0.07453976 -0.10980068 -0.048352603 -0.035913896 0.089045264 0.09926016 0.09169984
-0.033214204 -0.16896592 -0.017432112 -0.1525268 -0.012983972 0.04848095 -0.037887674 0.116050586
0.0069895373 0.05736315 -0.05182729 0.1142107 -0.066969395 0.09453376 0.0054854467 -0.017425826
0.0735592 -0.1544287 0.120028764 0.084713094 0.040227182 0.04571259 0.20755258 -0.018627135
-0.020613346 -0.030681081 -0.1020127 0.017369028 -0.03218639 -0.06737134 0.028800031 -0.036995746
0.0066838167 -0.11330107 0.03548805 0.09170908 -0.10400992 -0.07713513
00000000: 6ce6 b4bc 871e e33d 38ce 00be 77f8 303c
00000010: 7632 803d 0c5d babb 0c42 f4bc 65ba ef3d
00000020: af50 21bc 2c06 e53c b8fb ddbd 88c6 473c
00000030: 8140 b53c 9115 a1bc ab4c 97bd 64a8 23be
00000040: 1a99 10bd c71d 82bd f62d 07be 3d8a 003d
00000050: e364 9a3a 0f48 0b3e 0cd9 e8bd cdbd b0bc
00000060: 6f71 4b3c a90c 44bd 1658 e13c 74ed c5bc
00000070: a29b ce3d 8017 0cbe ad0c 053e 2634 42bd
00000080: 345f 8fbc 63ba b5bc c694 84bd ef1e 3d3e
00000090: 42e7 0abe 1874 c0ba c0fa 3ebd c41c eabd
000000a0: 4ce5 2ebe 9e9a 1b3d 2b4c c03d 2697 05be
000000b0: 8de2 f13d eef7 eb3d bc0d babd 2f43 80bd
000000c0: 2c54 583d ab08 90bb f3bc 013d c705 36be
000000d0: 2b21 a7bd 59ea 40bc 7d46 f93c 3122 37be
000000e0: fd53 733c a024 9eba b33f 20bc 28de 16be
000000f0: 1ce7 ec3d 3e23 9e3c d4d7 193d 1860 ff3d
00000100: f042 57bd 4c93 8fbd f30c 06be d73c 023d
00000110: 37cd 223e 1e8d 10be af56 653c a441 043e
00000120: e004 06bb c8ee efbd 9da5 4a3d 5450 233c
00000130: 4e5e 463c 7e8e bd3c 4d83 babd 1d93 a6bc
00000140: d83b 18be 1c0d c4bc bcb9 263e 4449 733c
00000150: 4a98 02bc 6258 d6bd bb77 1e3e 04f5 5fbc
00000160: 9ee6 d8bc fedc 433b 01d1 febd 94d8 f13d
00000170: ffa9 353e 2ca0 bbba 5f18 98bd c771 bc3d
00000180: 6565 433c 682f 573d fd55 b03d 2da0 20bd
00000190: 78bd e8bc 7fee 79bb ab5a 16be 7dc3 543d
000001a0: 2ca7 63bc 4da8 983d 2edf e0bd 610d 46bd
000001b0: 731a 13bd 5d5d b63d e948 cb3d 20cd bb3d
000001c0: 9e0b 08bd 6705 2dbe cacd 8ebc fc2f 1cbe
000001d0: baba 54bc f693 463d 1b30 1bbd eeab ed3d
000001e0: 7d08 e53b 9ff5 6a3d da48 54bd 4de7 e93d
000001f0: 4027 89bd ea9a c13d 43bf b33b 9bc0 8ebc
00000200: 35a6 963d 8f22 1ebe a4d1 f53d 0f7e ad3d
00000210: 42c5 243d 203d 3b3d aa88 543e ef97 98bc
00000220: 52dd a8bc e456 fbbc 09ec d0bd 7e49 8e3c
00000230: e0d5 03bd fcf9 89bd 0bee eb3c da88 17bd
00000240: eb03 db3b 640a e8bd eb5b 113d f8d1 bb3d
00000250: 2703 d5bd 06f9 9dbd

en4.bias f4 [3]
-0.11281349 0.13720417 -0.09128992
00000000: c20a e7bd 407f 0c3e 36f6 babd

de1.weight f4 [50, 3]
-0.3565249 0.29793307 -0.23166965 -0.50790644 -0.33308998 -0.24693774 -0.50461227 -0.28104654
-0.20410465 -0.23379438 -0.09061707 -0.47173503 -0.017661234 0.3923448 -0.4878329 -0.694395
-0.20206682 0.08290995 -0.408327 -0.36753592 0.4094562 -0.51523703 0.5363108 0.03599511
0.4942416 0.037051644 0.7988644 -0.5089812 -0.16775332 0.21047817 -0.02323422 -0.16695356
0.21157923 0.050767343 0.5382133 0.18886109 -0.26609102 -0.5803571 -0.37786943 0.14053291
0.56990355 -0.06069743 0.8319534 -0.42335433 0.058782507 -0.50784487 0.48882812 0.20991455
-0.3565852 0.16854568 0.670573 0.6527688 -0.20073149 0.58806705 -0.7933406 -0.4187336
0.17310426 -0.6872832 -0.08836684 0.50665617 0.71266776 -0.47069323 0.4595138 -0.38676274
0.30523378 0.6617312 -0.79708874 -0.06919478 -0.57669115 0.35365558 -0.45304552 0.63940376
-0.033327784 -0.3416858 -0.43224236 0.40965462 0.07637029 0.43696922 0.1873788 -0.40596804
-0.54339904 -0.17284758 0.58926183 0.56418574 0.20518984 -0.5668816 -0.20501868 0.45069772
-0.54063684 -0.046173632 -0.3388881 0.21760474 0.2978798 0.21913446 -0.29073912 -0.5680651
0.14820641 0.16761301 0.12200503 -0.21002065 0.15190259 0.22948343 -0.022378325 0.08214857
-0.56676614 0.628773 0.14621036 0.029944634 -0.7326025 -0.1909798 -0.12317183 -0.2571845
-0.43763182 0.3059449 0.6622236 0.51306915 -0.4578981 -0.26897082 0.5161824 0.014382725
0.1073853 -0.37213764 0.51472616 0.28889582 0.45263934 -0.2813083 0.7179703 -0.5902466
-0.18761921 0.38035765 -0.6332094 -0.111155994 -0.15920353 -0.29772866 -0.25039437 0.20668313
0.45514303 -0.7791626 -0.25115323 -0.44744447 -0.25840297 -0.5802836 0.30411178 -0.1938389
0.65324855 -0.22997025 -0.60341144 -0.09731518 -0.15272664 0.4225898
00000000: 6f8a b6be af8a 983e cf3a 6dbe 2806 02bf
00000010: c58a aabe 3fdd 7cbe 452e 01bf 55e5 8fbe
00000020: cf00 51be cb67 6fbe 7195 b9bd 4187 f1be
00000030: 4bae 90bc 6be1 c83e 3cc5 f9be dfc3 31bf
00000040: 9bea 4ebe b1cc a93d 3d10 d1be ab2d bcbe
00000050: 3ea4 d13e 93e6 03bf aa4b 093f 9c6f 133d
00000060: 3c0d fd3e 77c3 173d 6182 4c3f 984c 02bf
00000070: 87c7 2bbe 9787 573e b155 bebc e0f5 2abe
00000080: 3aa8 583e 6bf1 4f3d 59c8 093f cd64 413e
00000090: 153d 88be 4892 14bf 1a78 c1be dce7 0f3e
000000a0: 33e5 113f de9d 78bd e6fa 543f e6c1 d8be
000000b0: edc5 703d 1f02 02bf ae47 fa3e d7f3 563e
000000c0: 5692 b6be 3d97 2c3e acaa 2b3f db1b 273f
000000d0: 8e8c 4dbe 908b 163f 5f18 4bbf 4064 d6be
000000e0: 3e42 313e cbf1 2fbf acf9 b4bd 38b4 013f
000000f0: 6571 363f b4fe f0be 6545 eb3e c405 c6be
00000100: 9a47 9c3e 3767 293f 020e 4cbf feb5 8dbd
00000110: 08a2 13bf 5812 b53e 95f5 e7be f7af 233f
00000120: b782 08bd 71f1 aebe df4e ddbe 40be d13e
00000130: 0768 9c3d 6eba df3e 3ae0 3f3e 0bdb cfbe
00000140: 331c 0bbf f5fe 30be ddd9 163f 7a6e 103f
00000150: 491d 523e 271f 11bf 6bf0 51be dac1 e63e
00000160: 2d67 0abf 9020 3dbd be82 adbe c7d3 5e3e
00000170: b383 983e c964 603e c2db 94be b76c 11bf
00000180: 6cc3 173e bfa2 2b3e c6dd f93d a70f 57be
00000190: 5a8c 1b3e b4fd 6a3e c052 b7bc 823d a83d
000001a0: 9617 11bf 44f7 203f 2bb8 153e 734e f53c
000001b0: d68b 3bbf 3590 43be 8341 fcbd b0ad 83be
000001c0: 4711 e0be cfa4 9c3e 7c87 293f 8058 033f
000001d0: 9f71 eabe 8bb6 89be 8824 043f 85a5 6b3c
000001e0: d3ec db3d d388 bebe 18c5 033f 27ea 933e
000001f0: 58c0 e73e a407 90be e7cc 373f 671a 17bf
00000200: 401f 40be 3dbe c23e 031a 22bf c1a5 e3bd
00000210: 4006 23be e46f 98be b133 80be bea4 533e
00000220: 8208 e93e 3377 47bf 2897 80be 7117 e5be
00000230: 654d 84be 778d 14bf 8ab4 9b3e b47d 46be
00000240: 4c3b 273f 527d 6bbe 2c79 1abf 2e4d c7bd
00000250: 5f64 1cbe b15d d83e

de1.bias f4 [50]
0.47775912 -0.042530566 0.025602324 0.34091866 0.33530542 -0.054078896 -0.55591774 -0.3925336
0.3995991 -0.106956445 -0.28647777 0.060016625 0.1870968 -0.08303428 -0.41440177 -0.14485186
0.12293326 0.1929421 0.30379087 -0.2734844 -0.25626025 0.025267323 -0.32492754 0.0992096
0.36500925 0.29691532 -0.07745914 0.16330238 -0.029169546 -0.34583 -0.5587769 0.4453056
0.3994787 0.30798584 0.06525398 0.3427026 0.49134752 0.019898089 0.2260936 -0.42486638
-0.14080502 0.44896698 -0.5271622 0.21900937 0.42185625 -0.24004062 -0.33220303 -0.14252317
0.21281056 -0.58368456
00000000: d89c f43e 8834 2ebd f7bb d13c e48c ae3e
00000010: 27ad ab3e d581 5dbd a050 0ebf 2afa c8be
00000020: 4198 cc3e fb0b dbbd 37ad 92be fed3 753d
00000030: 4e96 3f3e e00d aabd 782c d4be 0c54 14be
00000040: 6fc4 fb3d 9d92 453e 7a8a 9b3e 2606 8cbe
00000050: 8b34 83be 6bfd ce3c e75c a6be 672e cb3d
00000060: 7ee2 ba3e 4905 983e e6a2 9ebd bd38 273e
00000070: f9f4 eebc a110 b1be 010c 0fbf 18ff e33e
00000080: 7988 cc3e 52b0 9d3e e1a3 853d b776 af3e
00000090: e791 fb3e 5101 a33c 1585 673e 1688 d9be
000000a0: 312f 10be 00df e53e 1af4 06bf fe43 603e
000000b0: 8bfd d73e 35cd 75be 8416 aabe 98f1 11be
000000c0: 03eb 593e 5a6c 15bf

de2.weight f4 [100, 50]
-0.30527255 -0.06602582 0.124740504 -0.20908426 -0.07790302 0.07403104 0.20415652 0.16441593
0.0014065314 -0.096167885 0.18032318 -0.27729487 -0.07927258 -0.12843843 -0.04349403 -0.11088589
-0.19764568 -0.0130361775 0.041339338 0.11061228 0.13463223 -0.11365031 0.048200056 -0.005436212
-0.079405144 -0.15610842 -0.011407405 -0.014958468 0.006305429 0.23443873 0.20285557 -0.19494922
-0.20972526 -0.12322511 -0.047889184 -0.04613286 -0.18457516 -0.05164279 -0.051844217 0.17474444
0.1828786 -0.19957411 0.043014724 0.10199599 -0.10028775 0.109875 0.18863659 0.012485086
-0.015896402 0.10213424 -0.19351532 0.07044443 -0.07809189 -0.36671183 -0.32003978 0.14903906
0.14535291 0.054124903 0.08599897 -0.0072781215 0.26303303 -0.2106742 0.114044584 -0.15748395
0.25759706 0.09866302 -0.10369076 0.1450121 -0.0439699 0.16110198 0.09673211 0.040688075
-0.030866731 0.014645965 -0.15368673 -0.10965128 0.1556579 -0.20201421 0.111698836 0.1881729
0.114294484 -0.21235889 -0.053029735 0.02640504 0.042204842 -0.16076075 0.071649894 0.14153133
-0.15924174 0.049517244 0.023989739 -0.31846258 0.020812964 0.040507942 -0.011034055 0.057132557
0.18332823 0.07008012 0.06387026 0.22754739 -0.049754452 0.25115335 0.40936548 -0.01987443
-0.06593801 0.49288073 0.43394616 0.37593654 -0.15887685 0.34089732 0.07226078 0.14487483
-0.11168199 0.058837768 -0.2049859 0.57497597 0.16148447 -0.2078159 0.23791084 0.54305506
-0.14755757 0.12951903 0.37083837 -0.05866936 -0.0999132 -0.22422285 -0.0996261 0.18683304
-0.26752073 -0.03433965 0.28066003 -0.4538176 -0.1715674 0.16316071 -0.17232803 -0.3150725
0.052385874 0.09039682 -0.40868753 0.22080776 -0.023390906 -0.38943493 0.018940547 -0.23917226
-0.019689541 -0.13081856 0.07219991 0.44003344 -0.43594304 0.22212678 0.05836271 0.15868875
0.1688456 0.12426192 0.005091325 -0.0011317256 0.107514 -0.12779613 0.010052833 0.17085809
0.06770101 -0.1865209 0.32860905 -0.16531457 0.15247591 -0.0053086164 0.04872602 -0.012004536
-0.09724027 0.21931596 0.17101729 0.09792307 -0.000108928536 -0.08087118 0.10217415 -0.011701275
-0.041084804 -0.13189603 0.056984533 -0.009139969 -0.090836704 -0.06068984 0.10780795 0.025202265
0.018336229 -0.14988226 0.12226569 0.02699259 -0.13343005 0.011924137 -0.01633057 0.022422144
-0.04704307 0.13889487 0.1965537 0.08828564 0.031787418 -0.013611611 -0.099747695 -0.11886952
-0.106895246 0.035546195 0.054646634 -0.22170678 -0.13248263 -0.120460674 0.26156834 0.13243961
-0.054316413 -0.062089242 0.09458532 0.023447732 -0.08664035 -0.00035957896 0.1503458 -0.013495475
-0.07553761 0.117288865 0.0029893497 0.066174306 -0.013794897 -0.011994981 0.054098673 0.10678495
-0.12763768 -0.042125627 0.081356354 0.011012093 0.23226364 0.083879605 0.18085745 -0.1908426
-0.13392687 0.028294828 -0.09088786 -0.08762141 -0.13525823 -0.020223858 -0.13210286 0.18301663
0.15091494 -0.19976634 0.022970011 0.104485385 0.048107274 -0.113587916 0.17475894 -0.05833314
-0.096444555 0.10486997 0.23867026 -0.20006748 -0.22248985 0.043489046 0.22333252 -0.012686322
00000000: af4c 9cbe 8c38 87bd f377 ff3d 2f1a 56be
00000010: 9e8b 9fbd 969d 973d 680e 513e a65c 283e
00000020: 5d5b b83a abf3 c4bd a4a6 383e 98f9 8dbe
00000030: aa59 a2bd 5d85 03be cc26 32bd 2418 e3bd
00000040: a163 4abe b195 55bc 7053 293d b188 e23d
00000050: 08dd 093e 7ec1 e8bd 6c6d 453d 4022 b2bb
00000060: 2a9f a2bd e3da 1fbe 20e6 3abc 5d14 75bc
00000070: c69d ce3b b510 703e 5fb9 4f3e c5a0 47be
00000080: 38c2 56be 725d fcbd 7327 44bd cff5 3cbd
00000090: 4501 3dbe 6487 53bd 9a5a 54bd 35f0 323e
000000a0: 8744 3b3e 285d 4cbe 3530 303d 46e3 d03d
000000b0: aa63 cdbd 2506 e13d f329 413e 3f8e 4c3c
000000c0: 2c39 82bc c22b d13d e128 46be 2b45 903d
000000d0: a4ee 9fbd a7c1 bbbe 41dc a3be b29d 183e
000000e0: 65d7 143e 13b2 5d3d 3a20 b03d 4f7d eebb
000000f0: 44ac 863e faba 57be 3590 e93d 7943 21be
00000100: c3e3 833e d60f ca3d d25b d4bd 0d7e 143e
00000110: c819 34bd ebf7 243e 7c1b c63d 8aa8 263d
00000120: 3adc fcbc a1f5 6f3c 0e60 1dbe da90 e0bd
00000130: c964 1f3e d0dc 4ebe 5cc2 e43d 66b0 403e
00000140: 3a13 ea3d 9c74 59be b535 59bd 624f d83c
00000150: fcde 2c3d 779e 24be 2ebd 923d 97ed 103e
00000160: 4410 23be 98d2 4a3d 2186 c43c 870d a3be
00000170: f37f aa3c a8eb 253d 2ec8 34bc d403 6a3d
00000180: 65ba 3b3e 2a86 8f3d 69ce 823d 2f02 693e
00000190: 53cb 4bbd 2c97 803e 5a98 d13e b3cf a2bc
000001a0: 820a 87bd dd5a fc3e 312e de3e c17a c03e
000001b0: 9db0 22be 188a ae3e 76fd 933d 115a 143e
000001c0: 87b9 e4bd dfff 703d d3e7 51be a031 133f
000001d0: 2f5c 253e b1cd 54be e69e 733e a805 0b3f
000001e0: 5519 17be a3a0 043e 87de bd3e 484f 70bd
000001f0: 4b9f ccbd ad9a 65be c508 ccbd 2951 3f3e
00000200: 7af8 88be bca7 0cbd acb2 8f3e c85a e8be
00000210: 5daf 2fbe 9a13 273e c276 30be 2f51 a1be
00000220: 9292 563d f821 b93d 7e3f d1be 6e1b 623e
00000230: 499e bfbc 0464 c7be 3529 9b3c 93e9 74be
00000240: f64b a1bc 4df5 05be 8cdd 933d 104c e13e
00000250: ed33 dfbe 3475 633e bd0d 6f3d 4e7f 223e
00000260: dce5 2c3e 097d fe3d 21d5 a63b 6956 94ba
00000270: 4d30 dc3d fddc 02be a3b4 243c 6cf5 2e3e
00000280: d4a6 8a3d 56ff 3ebe 723f a83e 3948 29be
00000290: a522 1c3e e7f3 adbb ef94 473d acae 44bc
000002a0: e825 c7bd 5d94 603e 281f 2f3e e48b c83d
000002b0: 9070 e4b8 ca9f a5bd ae40 d13d b4b6 3fbc
000002c0: 8a48 28bd c10f 07be 9d68 693d cfbf 15bc
000002d0: 9808 babd e995 78bd 6aca dc3d fb74 ce3c
000002e0: dc35 963c bc7a 19be 6f66 fa3d 901f dd3c
000002f0: e3a1 08be 755d 433c b0c7 85bc a5ae b73c
00000300: 3cb0 40bd 753a 0e3e 6045 493e 1acf b43d
00000310: 8633 023d 3c03 5fbc 8548 ccbd dd71 f3bd
00000320: e5eb dabd e398 113d 26d5 5f3d 1a07 63be
00000330: 87a9 07be 16b4 f6bd 49ec 853e 409e 073e
00000340: e37a 5ebd 4a51 7ebd f3b5 c13d 7515 c03c
00000350: 7f70 b1bd df85 bcb9 40f4 193e 201c 5dbc
00000360: 76b3 9abd 2535 f03d f7e8 433b 6586 873d
00000370: fe03 62bc 9986 44bc 9296 5d3d 11b2 da3d
00000380: 74b3 02be ec8b 2cbd 299e a63d 116c 343c
00000390: 85d6 6d3e 12c9 ab3d b232 393e 3e6c 43be
000003a0: 2024 09be 8eca e73c 6a23 babd db72 b3bd
000003b0: 2281 0abe 81ac a5bc f945 07be b668 3b3e
000003c0: 7289 1a3e 8c8f 4cbe 9b2b bc3c 6ffc d53d
000003d0: 220c 453d c8a0 e8bd 02f4 323e bbee 6ebd
000003e0: b984 c5bd 11c6 d63d fa65 743e 7dde 4cbe
000003f0: 61d4 63be 9221 323d 48b1 643e 4bda 4fbc

de2.bias f4 [100]
-0.08083002 0.0662489 -0.11349056 0.09972669 -0.19994217 0.09724123 -0.2792678 -0.02816057
0.09509442 0.05303623 -0.002696683 -0.065084875 -0.11776641 -0.031612813 -0.13744278 -0.07786706
-0.14780083 -0.06614876 -0.10651049 0.044323005 -0.13962036 0.10201785 -0.26431382 -0.07831855
-0.17010544 0.17689066 -0.11736014 -0.086689875 -0.09477033 -0.007058718 -0.10026667 0.18682197
-0.036183137 -0.043163117 0.008638785 -0.11990198 0.041338965 -0.19787103 0.086874254 0.09204859
-0.0826171 0.17732595 0.07974628 -0.1389843 -0.017104443 0.2023484 0.028640425 0.23700376
0.038527362 -0.059237324 -0.107732 -0.058394577 -0.026649995 0.10792155 0.044918872 -0.17649011
-0.21729997 -0.03146915 0.07418133 -0.104626805 -0.25649372 -0.11561557 -0.013694917 0.040588927
0.0637193 -0.14287153 -0.27523383 -0.11735836 0.010016757 0.13152066 -0.01301847 -0.12967907
0.041546736 0.031942613 -0.18576644 0.11723591 -0.116206154 -0.1664772 -0.098462574 0.15613729
-0.16501698 -0.09702157 0.08205404 0.08859665 0.10501208 0.057208624 0.088217884 -0.0877418
0.060146526 -0.014651491 0.09819929 0.17625181 -0.1778799 -0.09093294 -0.0084354235 -0.19018239
-0.028242746 0.2006942 -0.025578864 -0.084470145
00000000: 368a a5bd 81ad 873d bd6d e8bd 823d cc3d
00000010: a4bd 4cbe 6926 c73d 30fc 8ebe ffb0 e6bc
00000020: ddc0 c23d 853c 593d d5ba 30bb 384b 85bd
00000030: 842f f1bd 707c 01bd cdbd 0cbe c478 9fbd
00000040: 1a59 17be 0079 87bd 2c22 dabd 0a8c 353d
00000050: a4f8 0ebe bcee d03d 2454 87be 7a65 a0bd
00000060: 1f30 2ebe d322 353e 835a f0bd 768a b1bd
00000070: f216 c2bd d14c e7bb 9d58 cdbd 424e 3f3e
00000080: c534 14bd cfcb 30bd b189 0d3c 2b8f f5bd
00000090: 0c53 293d b49e 4abe 21eb b13d f983 bc3d
000000a0: 2733 a9bd ef94 353e 0552 a33d e651 0ebe
000000b0: 9e1e 8cbc 6b34 4f3e 539f ea3c 1db1 723e
000000c0: dece 1d3d d6a2 72bd 98a2 dcbd 272f 6fbd
000000d0: 1751 dabc f905 dd3d dafc 373d d3b9 34be
000000e0: e283 5ebe cce5 00bd 62ec 973d 9446 d6bd
000000f0: 2553 83be dbc7 ecbd a560 60bc 9340 263d
00000100: 447f 823d ea4c 12be 73eb 8cbe 9459 f0bd
00000110: 531d 243c 5aad 063e 6c4b 55bc 97ca 04be
00000120: e92c 2a3d 42d6 023d 8f39 3ebe 6119 f03d
00000130: 7efd edbd 0079 2abe bfa6 c9bd 74e2 1f3e
00000140: 36fa 28be 3fb3 c6bd f30b a83d 2972 b53d
00000150: 9310 d73d 9753 6a3d 94ab b43d f9b1 b3bd
00000160: 345c 763d cf0c 70bc b61c c93d 5b7b 343e
00000170: 2626 36be 0d3b babd bb34 0abc 2cbf 42be
00000180: 555d e7bc c882 4d3e c48a d1bc affe acbd

de3.weight f4 [100, 100]
0.053064864 -0.045624558 -0.15589227 -0.19238955 0.13874626 0.04568463 0.15499346 -0.11834731
-0.15177593 -0.059473097 -0.018201347 -0.008416761 0.11277862 0.05320612 -0.06412717 0.13854092
-0.0962428 0.03334659 -0.016046494 0.037788965 0.058015577 0.015285977 0.059981745 -0.03208256
0.11472888 0.12554894 0.12049983 -0.053884055 0.07575477 0.02325231 0.05463352 -0.1711925
0.0070015597 0.025034161 -0.016843012 -0.053374533 -0.033097934 0.1104197 -0.11236259 -0.021364879
-0.121772304 -0.16248554 -0.11849711 0.19568615 0.10438758 -0.023480725 0.031152986 -0.011974278
-0.021784138 0.017475072 -0.0933707 0.04600254 -0.01852217 0.030050466 -0.04784894 0.019649342
0.24694972 0.119041875 0.059919458 -0.01572834 0.14742157 0.15570624 0.052344028 -0.13231975
0.014031236 0.16034459 3.6083995e-05 0.17922069 0.00031671394 0.11825237 0.10568834 0.119093396
-0.06335003 0.052695137 -0.014227309 -0.25068718 0.12800963 0.038662862 0.27444324 0.017350383
-0.037432425 -0.16293977 -0.013650815 -0.085922554 -0.1555048 -0.006048048 0.04429624 0.19570538
-0.24237525 0.076238684 -0.105665825 -0.079489835 0.021364558 0.022942368 -0.13233127 -0.0067430707
-0.17146856 0.09790223 -0.14257482 -0.12946782 0.14845328 0.04109248 0.011060639 -0.031712946
0.08429723 -0.12640154 0.12940353 -0.06814789 -0.057733778 -0.070965774 0.0757363 0.27048644
0.18538395 -0.15544592 0.011192773 0.11276851 -0.053258866 0.17541283 0.27363843 0.08852734
-0.1849984 -0.0005320711 -0.022079464 0.113639526 -0.008474958 0.051982205 -0.103002645 0.03576627
-4.6409452e-05 -0.028230537 0.23191687 -0.0099213505 0.12856595 0.14976029 0.10827095 -0.15360215
-0.15459095 0.023975307 -0.20467292 -0.0058934544 -0.057801787 -0.19843173 0.1597804 0.10785766
-0.14238463 -0.033227738 -0.10105336 0.024661507 0.02026246 -0.056575645 -0.15658836 -0.15854035
0.11152393 -0.12009615 -0.029825056 -0.016841244 0.16517872 -0.15249448 -0.106773145 -0.01113636
0.18993784 -0.10522898 0.14782676 0.21518226 -0.14917815 -0.0267476 0.03233532 0.1731536
-0.23957717 0.17802612 0.007355611 -0.13475204 -0.12195982 -0.06738234 0.07227554 -0.17998964
0.16746052 0.073694065 -0.034751594 -0.0067981253 -0.0018005278 -0.13304336 0.19355188 0.060807396
0.073651984 0.048468977 0.19227976 -0.28300345 0.11600033 -0.1851559 0.1772642 -0.07974819
-0.07903527 0.090715796 -0.12953076 -0.028057043 -0.13439621 0.03886852 0.10221816 -0.01698665
-0.3290832 -0.25763983 -0.042404305 0.20399009 -0.25956225 0.26045635 -0.418893 0.13410679
0.062256206 0.21318887 0.05922181 -0.048022542 -0.18763915 0.053862084 -0.2010321 -0.02835097
-0.1317799 -0.07068202 -0.2780843 0.12973191 -0.20167056 -0.13970067 -0.0767029 0.088385835
0.0071400683 0.06264314 -0.10273197 -0.023614502 -0.039082844 -0.1126718 -0.40160665 0.20535986
-0.20541738 -0.33708003 -0.046960283 -0.12934987 0.070535414 -0.089355126 0.4702063 0.16604558
0.1711442 0.39147556 -0.023441523 -0.3384193 0.03509389 0.33489886 -0.24079266 0.33432028
0.059946228 -0.09939057 0.04601736 0.37640575 -0.019172063 0.07742563 -0.109853424 -0.3255997
00000000: 8b5a 593d d1e0 3abd 39a2 1fbe c401 45be
00000010: 8013 0e3e ce1f 3b3d 9bb6 1e3e 1360 f2bd
00000020: 266b 1bbe 109a 73bd fe1a 95bc 74e6 09bc
00000030: 7af8 e63d a9ee 593d 1b55 83bd acdd 0d3e
00000040: f21a c5bd 6f96 083d f073 83bc 9ac8 1a3d
00000050: bea1 6d3d 0972 7a3c 6baf 753d 0169 03bd
00000060: faf6 ea3d e78f 003e 9dc8 f63d 87b5 5cbd
00000070: 5125 9b3d a17b be3c 66c7 5f3d 164d 2fbe
00000080: 576d e53b 7114 cd3c 5bfa 89bc 419f 5abd
00000090: b391 07bd b923 e23d 5c1e e6bd 6605 afbc
000000a0: c263 f9bd 9c62 26be 9dae f2bd f361 483e
000000b0: 28c9 d53d a65a c0bc 8c34 ff3c c32f 44bc
000000c0: a674 b2bc e227 8f3c 2339 bfbd 296d 3c3d
000000d0: cebb 97bc 652c f63c 40fd 43bd a8f7 a03c
000000e0: 63e0 7c3e 3acc f33d 1b6e 753d b8d8 80bc
000000f0: aef5 163e 7571 1f3e b166 563d d47e 07be
00000100: 45e3 653c 5f31 243e e558 1738 a185 373e
00000110: a00c a639 4c2e f23d 2173 d83d 3de7 f33d
00000120: a9bd 81bd dbd6 573d a919 69bc 125a 80be
00000130: f514 033e f35c 1e3d d383 8c3e 6422 8e3c
00000140: be52 19bd afd9 26be aba7 5fbc 2af8 afbd
00000150: a63c 1fbe b42e c6bb f96f 353d fe66 483e
00000160: 3831 78be 0723 9c3d 5367 d8bd 91cb a2bd
00000170: ba04 af3c a2f1 bb3c d981 07be faf4 dcbb
00000180: 7495 2fbe f780 c83d 22ff 11be 3693 04be
00000190: 2304 183e 9750 283d af37 353c 6fe5 01bd
000001a0: 07a4 ac3d 686f 01be 5c82 043e 1f91 8bbd
000001b0: 417a 6cbd 8156 91bd a21b 9b3d 337d 8a3e
000001c0: 4ad5 3d3e 372d 1fbe e461 373c 2df3 e63d
000001d0: f825 5abd 6c9f 333e 561a 8c3e d24d b53d
000001e0: 3870 3dbe b07a 0bba fedf b4bc d7bb e83d
000001f0: 8dda 0abc 4beb 543d 0df3 d2bd a77f 123d
00000200: c5a7 42b8 ba43 e7bc 9e7b 6d3e 298d 22bc
00000210: cba6 033e c35a 193e 29bd dd3d e249 1dbe
00000220: 174d 1ebe dd67 c43c c795 51be e11d c1bb
00000230: 91c1 6cbd b031 4bbe 799d 233e 7ae4 dc3d
00000240: 47cd 11be cf19 08bd 10f5 cebd ee06 ca3c
00000250: 75fd a53c ddbb 67bd b358 20be 6758 22be
00000260: a966 e43d f8f4 f5bd ad53 f4bc a6f6 89bc
00000270: 9c24 293e 8327 1cbe e1ab dabd 4775 36bc
00000280: 117f 423e 4b82 d7bd e65f 173e bd58 5c3e
00000290: 28c2 18be c81d dbbc 0a72 043d 2d4f 313e
000002a0: b853 75be 7b4c 363e 5607 f13b 70fc 09be
000002b0: 12c6 f9bd c1ff 89bd 3305 943d 344f 38be
000002c0: c57a 2b3e eaec 963d b057 0ebd cfc2 debb
000002d0: b0ff ebba 853c 08be 7732 463e 2d11 793d
000002e0: dad6 963d 6887 463d fce4 443e d4e5 90be
000002f0: 9591 ed3d 8299 3dbe bf84 353e 0553 a3bd
00000300: 3edd a1bd 34c9 b93d b6a3 04be e2d7 e5bc
00000310: 299f 09be 9934 1f3d c157 d13d 9627 8bbc
00000320: 987d a8be 5ee9 83be 23b0 2dbd c7e2 503e
00000330: 58e5 84be 895a 853e 2579 d6be 4a53 093e
00000340: 5d00 7f3d 2f4e 5a3e 9292 723d 49b3 44bd
00000350: 7a24 40be 7d9e 5c3d 5cdb 4dbe 4b40 e8bc
00000360: 4ff1 06be bcc1 90bd 1161 8ebe 71d8 043e
00000370: ba82 4ebe b10d 0fbe 6916 9dbd a203 b53d
00000380: 3cf7 e93b 0c4b 803d 2465 d2bd 3373 c1bc
00000390: 5515 20bd 79c0 e6bd 639f cdbe db49 523e
000003a0: ef58 52be c195 acbe 6d59 40bd 4b74 04be
000003b0: df74 903d d2ff b6bd e1be f03e da07 2a3e
000003c0: 6d40 2f3e 7c6f c83e 7008 c0bc 4b45 adbe
000003d0: 9cbe 0f3d dd77 ab3e 5a92 76be 072c ab3e
000003e0: 2d8a 753d 488d cbbd b37c 3c3d 41b8 c03e
000003f0: bb0e 9dbc 5491 9e3d d5fa e0bd 01b5 a6be
